…
I1009 17:09:11.553201  2156 net.cpp:287] The NetState phase (0) differed from the phase (1) specified by a rule in layer loss2/top-1
I1009 17:09:11.553305  2156 net.cpp:287] The NetState phase (0) differed from the phase (1) specified by a rule in layer loss3/top-1
I1009 17:09:11.555232  2156 net.cpp:42] Initializing net from parameters: 
name: "FullTrain_GoogleNet"
state {
  phase: TRAIN
}
layer {
  name: "data"
  type: "ImageData"
  top: "data"
  top: "label"
  include {
    phase: TRAIN
  }
  image_data_param {
    source: "/home/kruchinin_d/Projects/data/KITTI/prepared_data/train.txt"
    batch_size: 32
  }
}
layer {
  name: "conv1/7x7_s2"
  type: "Convolution"
  bottom: "data"
  top: "conv1/7x7_s2"
  param {
    lr_mult: 0.1
  }
  param {
    lr_mult: 0.1
  }
  convolution_param {
    num_output: 64
    pad: 3
    kernel_size: 7
    stride: 2
    weight_filler {
      type: "xavier"
    }
    bias_filler {
      type: "constant"
      value: 0.2
    }
  }
}
layer {
  name: "conv1/relu_7x7"
  type: "ReLU"
  bottom: "conv1/7x7_s2"
  top: "conv1/7x7_s2"
}
layer {
  name: "pool1/3x3_s2"
  type: "Pooling"
  bottom: "conv1/7x7_s2"
  top: "pool1/3x3_s2"
  pooling_param {
    pool: MAX
    kernel_size: 3
    stride: 2
  }
}
layer {
  name: "pool1/norm1"
  type: "LRN"
  bottom: "pool1/3x3_s2"
  top: "pool1/norm1"
  lrn_param {
    local_size: 5
    alpha: 0.0001
    beta: 0.75
  }
}
layer {
  name: "conv2/3x3_reduce"
  type: "Convolution"
  bottom: "pool1/norm1"
  top: "conv2/3x3_reduce"
  param {
    lr_mult: 0.1
  }
  param {
    lr_mult: 0.1
  }
  convolution_param {
    num_output: 64
    kernel_size: 1
    weight_filler {
      type: "xavier"
    }
    bias_filler {
      type: "constant"
      value: 0.2
    }
  }
}
layer {
  name: "conv2/relu_3x3_reduce"
  type: "ReLU"
  bottom: "conv2/3x3_reduce"
  top: "conv2/3x3_reduce"
}
layer {
  name: "conv2/3x3"
  type: "Convolution"
  bottom: "conv2/3x3_reduce"
  top: "conv2/3x3"
  param {
    lr_mult: 0.1
  }
  param {
    lr_mult: 0.1
  }
  convolution_param {
    num_output: 192
    pad: 1
    kernel_size: 3
    weight_filler {
      type: "xavier"
    }
    bias_filler {
      type: "constant"
      value: 0.2
    }
  }
}
layer {
  name: "conv2/relu_3x3"
  type: "ReLU"
  bottom: "conv2/3x3"
  top: "conv2/3x3"
}
layer {
  name: "conv2/norm2"
  type: "LRN"
  bottom: "conv2/3x3"
  top: "conv2/norm2"
  lrn_param {
    local_size: 5
    alpha: 0.0001
    beta: 0.75
  }
}
layer {
  name: "pool2/3x3_s2"
  type: "Pooling"
  bottom: "conv2/norm2"
  top: "pool2/3x3_s2"
  pooling_param {
    pool: MAX
    kernel_size: 3
    stride: 2
  }
}
layer {
  name: "inception_3a/1x1"
  type: "Convolution"
  bottom: "pool2/3x3_s2"
  top: "inception_3a/1x1"
  param {
    lr_mult: 0.1
  }
  param {
    lr_mult: 0.1
  }
  convolution_param {
    num_output: 64
    kernel_size: 1
    weight_filler {
      type: "xavier"
    }
    bias_filler {
      type: "constant"
      value: 0.2
    }
  }
}
layer {
  name: "inception_3a/relu_1x1"
  type: "ReLU"
  bottom: "inception_3a/1x1"
  top: "inception_3a/1x1"
}
layer {
  name: "inception_3a/3x3_reduce"
  type: "Convolution"
  bottom: "pool2/3x3_s2"
  top: "inception_3a/3x3_reduce"
  param {
    lr_mult: 0.1
  }
  param {
    lr_mult: 0.1
  }
  convolution_param {
    num_output: 96
    kernel_size: 1
    weight_filler {
      type: "xavier"
    }
    bias_filler {
      type: "constant"
      value: 0.2
    }
  }
}
layer {
  name: "inception_3a/relu_3x3_reduce"
  type: "ReLU"
  bottom: "inception_3a/3x3_reduce"
  top: "inception_3a/3x3_reduce"
}
layer {
  name: "inception_3a/3x3"
  type: "Convolution"
  bottom: "inception_3a/3x3_reduce"
  top: "inception_3a/3x3"
  param {
    lr_mult: 0.1
  }
  param {
    lr_mult: 0.1
  }
  convolution_param {
    num_output: 128
    pad: 1
    kernel_size: 3
    weight_filler {
      type: "xavier"
    }
    bias_filler {
      type: "constant"
      value: 0.2
    }
  }
}
layer {
  name: "inception_3a/relu_3x3"
  type: "ReLU"
  bottom: "inception_3a/3x3"
  top: "inception_3a/3x3"
}
layer {
  name: "inception_3a/5x5_reduce"
  type: "Convolution"
  bottom: "pool2/3x3_s2"
  top: "inception_3a/5x5_reduce"
  param {
    lr_mult: 0.1
  }
  param {
    lr_mult: 0.1
  }
  convolution_param {
    num_output: 16
    kernel_size: 1
    weight_filler {
      type: "xavier"
    }
    bias_filler {
      type: "constant"
      value: 0.2
    }
  }
}
layer {
  name: "inception_3a/relu_5x5_reduce"
  type: "ReLU"
  bottom: "inception_3a/5x5_reduce"
  top: "inception_3a/5x5_reduce"
}
layer {
  name: "inception_3a/5x5"
  type: "Convolution"
  bottom: "inception_3a/5x5_reduce"
  top: "inception_3a/5x5"
  param {
    lr_mult: 0.1
  }
  param {
    lr_mult: 0.1
  }
  convolution_param {
    num_output: 32
    pad: 2
    kernel_size: 5
    weight_filler {
      type: "xavier"
    }
    bias_filler {
      type: "constant"
      value: 0.2
    }
  }
}
layer {
  name: "inception_3a/relu_5x5"
  type: "ReLU"
  bottom: "inception_3a/5x5"
  top: "inception_3a/5x5"
}
layer {
  name: "inception_3a/pool"
  type: "Pooling"
  bottom: "pool2/3x3_s2"
  top: "inception_3a/pool"
  pooling_param {
    pool: MAX
    kernel_size: 3
    stride: 1
    pad: 1
  }
}
layer {
  name: "inception_3a/pool_proj"
  type: "Convolution"
  bottom: "inception_3a/pool"
  top: "inception_3a/pool_proj"
  param {
    lr_mult: 0.1
  }
  param {
    lr_mult: 0.1
  }
  convolution_param {
    num_output: 32
    kernel_size: 1
    weight_filler {
      type: "xavier"
    }
    bias_filler {
      type: "constant"
      value: 0.2
    }
  }
}
layer {
  name: "inception_3a/relu_pool_proj"
  type: "ReLU"
  bottom: "inception_3a/pool_proj"
  top: "inception_3a/pool_proj"
}
layer {
  name: "inception_3a/output"
  type: "Concat"
  bottom: "inception_3a/1x1"
  bottom: "inception_3a/3x3"
  bottom: "inception_3a/5x5"
  bottom: "inception_3a/pool_proj"
  top: "inception_3a/output"
}
layer {
  name: "inception_3b/1x1"
  type: "Convolution"
  bottom: "inception_3a/output"
  top: "inception_3b/1x1"
  param {
    lr_mult: 0.1
  }
  param {
    lr_mult: 0.1
  }
  convolution_param {
    num_output: 128
    kernel_size: 1
    weight_filler {
      type: "xavier"
    }
    bias_filler {
      type: "constant"
      value: 0.2
    }
  }
}
layer {
  name: "inception_3b/relu_1x1"
  type: "ReLU"
  bottom: "inception_3b/1x1"
  top: "inception_3b/1x1"
}
layer {
  name: "inception_3b/3x3_reduce"
  type: "Convolution"
  bottom: "inception_3a/output"
  top: "inception_3b/3x3_reduce"
  param {
    lr_mult: 0.1
  }
  param {
    lr_mult: 0.1
  }
  convolution_param {
    num_output: 128
    kernel_size: 1
    weight_filler {
      type: "xavier"
    }
    bias_filler {
      type: "constant"
      value: 0.2
    }
  }
}
layer {
  name: "inception_3b/relu_3x3_reduce"
  type: "ReLU"
  bottom: "inception_3b/3x3_reduce"
  top: "inception_3b/3x3_reduce"
}
layer {
  name: "inception_3b/3x3"
  type: "Convolution"
  bottom: "inception_3b/3x3_reduce"
  top: "inception_3b/3x3"
  param {
    lr_mult: 0.1
  }
  param {
    lr_mult: 0.1
  }
  convolution_param {
    num_output: 192
    pad: 1
    kernel_size: 3
    weight_filler {
      type: "xavier"
    }
    bias_filler {
      type: "constant"
      value: 0.2
    }
  }
}
layer {
  name: "inception_3b/relu_3x3"
  type: "ReLU"
  bottom: "inception_3b/3x3"
  top: "inception_3b/3x3"
}
layer {
  name: "inception_3b/5x5_reduce"
  type: "Convolution"
  bottom: "inception_3a/output"
  top: "inception_3b/5x5_reduce"
  param {
    lr_mult: 0.1
  }
  param {
    lr_mult: 0.1
  }
  convolution_param {
    num_output: 32
    kernel_size: 1
    weight_filler {
      type: "xavier"
    }
    bias_filler {
      type: "constant"
      value: 0.2
    }
  }
}
layer {
  name: "inception_3b/relu_5x5_reduce"
  type: "ReLU"
  bottom: "inception_3b/5x5_reduce"
  top: "inception_3b/5x5_reduce"
}
layer {
  name: "inception_3b/5x5"
  type: "Convolution"
  bottom: "inception_3b/5x5_reduce"
  top: "inception_3b/5x5"
  param {
    lr_mult: 0.1
  }
  param {
    lr_mult: 0.1
  }
  convolution_param {
    num_output: 96
    pad: 2
    kernel_size: 5
    weight_filler {
      type: "xavier"
    }
    bias_filler {
      type: "constant"
      value: 0.2
    }
  }
}
layer {
  name: "inception_3b/relu_5x5"
  type: "ReLU"
  bottom: "inception_3b/5x5"
  top: "inception_3b/5x5"
}
layer {
  name: "inception_3b/pool"
  type: "Pooling"
  bottom: "inception_3a/output"
  top: "inception_3b/pool"
  pooling_param {
    pool: MAX
    kernel_size: 3
    stride: 1
    pad: 1
  }
}
layer {
  name: "inception_3b/pool_proj"
  type: "Convolution"
  bottom: "inception_3b/pool"
  top: "inception_3b/pool_proj"
  param {
    lr_mult: 0.1
  }
  param {
    lr_mult: 0.1
  }
  convolution_param {
    num_output: 64
    kernel_size: 1
    weight_filler {
      type: "xavier"
    }
    bias_filler {
      type: "constant"
      value: 0.2
    }
  }
}
layer {
  name: "inception_3b/relu_pool_proj"
  type: "ReLU"
  bottom: "inception_3b/pool_proj"
  top: "inception_3b/pool_proj"
}
layer {
  name: "inception_3b/output"
  type: "Concat"
  bottom: "inception_3b/1x1"
  bottom: "inception_3b/3x3"
  bottom: "inception_3b/5x5"
  bottom: "inception_3b/pool_proj"
  top: "inception_3b/output"
}
layer {
  name: "pool3/3x3_s2"
  type: "Pooling"
  bottom: "inception_3b/output"
  top: "pool3/3x3_s2"
  pooling_param {
    pool: MAX
    kernel_size: 3
    stride: 2
  }
}
layer {
  name: "inception_4a/1x1"
  type: "Convolution"
  bottom: "pool3/3x3_s2"
  top: "inception_4a/1x1"
  param {
    lr_mult: 0.1
  }
  param {
    lr_mult: 0.1
  }
  convolution_param {
    num_output: 192
    kernel_size: 1
    weight_filler {
      type: "xavier"
    }
    bias_filler {
      type: "constant"
      value: 0.2
    }
  }
}
layer {
  name: "inception_4a/relu_1x1"
  type: "ReLU"
  bottom: "inception_4a/1x1"
  top: "inception_4a/1x1"
}
layer {
  name: "inception_4a/3x3_reduce"
  type: "Convolution"
  bottom: "pool3/3x3_s2"
  top: "inception_4a/3x3_reduce"
  param {
    lr_mult: 0.1
  }
  param {
    lr_mult: 0.1
  }
  convolution_param {
    num_output: 96
    kernel_size: 1
    weight_filler {
      type: "xavier"
    }
    bias_filler {
      type: "constant"
      value: 0.2
    }
  }
}
layer {
  name: "inception_4a/relu_3x3_reduce"
  type: "ReLU"
  bottom: "inception_4a/3x3_reduce"
  top: "inception_4a/3x3_reduce"
}
layer {
  name: "inception_4a/3x3"
  type: "Convolution"
  bottom: "inception_4a/3x3_reduce"
  top: "inception_4a/3x3"
  param {
    lr_mult: 0.1
  }
  param {
    lr_mult: 0.1
  }
  convolution_param {
    num_output: 208
    pad: 1
    kernel_size: 3
    weight_filler {
      type: "xavier"
    }
    bias_filler {
      type: "constant"
      value: 0.2
    }
  }
}
layer {
  name: "inception_4a/relu_3x3"
  type: "ReLU"
  bottom: "inception_4a/3x3"
  top: "inception_4a/3x3"
}
layer {
  name: "inception_4a/5x5_reduce"
  type: "Convolution"
  bottom: "pool3/3x3_s2"
  top: "inception_4a/5x5_reduce"
  param {
    lr_mult: 0.1
  }
  param {
    lr_mult: 0.1
  }
  convolution_param {
    num_output: 16
    kernel_size: 1
    weight_filler {
      type: "xavier"
    }
    bias_filler {
      type: "constant"
      value: 0.2
    }
  }
}
layer {
  name: "inception_4a/relu_5x5_reduce"
  type: "ReLU"
  bottom: "inception_4a/5x5_reduce"
  top: "inception_4a/5x5_reduce"
}
layer {
  name: "inception_4a/5x5"
  type: "Convolution"
  bottom: "inception_4a/5x5_reduce"
  top: "inception_4a/5x5"
  param {
    lr_mult: 0.1
  }
  param {
    lr_mult: 0.1
  }
  convolution_param {
    num_output: 48
    pad: 2
    kernel_size: 5
    weight_filler {
      type: "xavier"
    }
    bias_filler {
      type: "constant"
      value: 0.2
    }
  }
}
layer {
  name: "inception_4a/relu_5x5"
  type: "ReLU"
  bottom: "inception_4a/5x5"
  top: "inception_4a/5x5"
}
layer {
  name: "inception_4a/pool"
  type: "Pooling"
  bottom: "pool3/3x3_s2"
  top: "inception_4a/pool"
  pooling_param {
    pool: MAX
    kernel_size: 3
    stride: 1
    pad: 1
  }
}
layer {
  name: "inception_4a/pool_proj"
  type: "Convolution"
  bottom: "inception_4a/pool"
  top: "inception_4a/pool_proj"
  param {
    lr_mult: 0.1
  }
  param {
    lr_mult: 0.1
  }
  convolution_param {
    num_output: 64
    kernel_size: 1
    weight_filler {
      type: "xavier"
    }
    bias_filler {
      type: "constant"
      value: 0.2
    }
  }
}
layer {
  name: "inception_4a/relu_pool_proj"
  type: "ReLU"
  bottom: "inception_4a/pool_proj"
  top: "inception_4a/pool_proj"
}
layer {
  name: "inception_4a/output"
  type: "Concat"
  bottom: "inception_4a/1x1"
  bottom: "inception_4a/3x3"
  bottom: "inception_4a/5x5"
  bottom: "inception_4a/pool_proj"
  top: "inception_4a/output"
}
layer {
  name: "loss1/ave_pool"
  type: "Pooling"
  bottom: "inception_4a/output"
  top: "loss1/ave_pool"
  pooling_param {
    pool: AVE
    kernel_size: 5
    stride: 3
  }
}
layer {
  name: "loss1/conv"
  type: "Convolution"
  bottom: "loss1/ave_pool"
  top: "loss1/conv"
  param {
    lr_mult: 0.1
  }
  param {
    lr_mult: 0.1
  }
  convolution_param {
    num_output: 128
    kernel_size: 1
    weight_filler {
      type: "xavier"
    }
    bias_filler {
      type: "constant"
      value: 0.2
    }
  }
}
layer {
  name: "loss1/relu_conv"
  type: "ReLU"
  bottom: "loss1/conv"
  top: "loss1/conv"
}
layer {
  name: "loss1/fc"
  type: "InnerProduct"
  bottom: "loss1/conv"
  top: "loss1/fc"
  param {
    lr_mult: 0.1
  }
  param {
    lr_mult: 0.1
  }
  inner_product_param {
    num_output: 1024
    weight_filler {
      type: "xavier"
    }
    bias_filler {
      type: "constant"
      value: 0.2
    }
  }
}
layer {
  name: "loss1/relu_fc"
  type: "ReLU"
  bottom: "loss1/fc"
  top: "loss1/fc"
}
layer {
  name: "loss1/drop_fc"
  type: "Dropout"
  bottom: "loss1/fc"
  top: "loss1/fc"
  dropout_param {
    dropout_ratio: 0.7
  }
}
layer {
  name: "ft_loss1/classifier"
  type: "InnerProduct"
  bottom: "loss1/fc"
  top: "ft_loss1/classifier"
  param {
    lr_mult: 1
  }
  param {
    lr_mult: 1
  }
  inner_product_param {
    num_output: 2
    weight_filler {
      type: "xavier"
    }
    bias_filler {
      type: "constant"
      value: 0
    }
  }
}
layer {
  name: "loss1/loss"
  type: "SoftmaxWithLoss"
  bottom: "ft_loss1/classifier"
  bottom: "label"
  top: "loss1/loss1"
  loss_weight: 0.3
}
layer {
  name: "inception_4b/1x1"
  type: "Convolution"
  bottom: "inception_4a/output"
  top: "inception_4b/1x1"
  param {
    lr_mult: 0.1
  }
  param {
    lr_mult: 0.1
  }
  convolution_param {
    num_output: 160
    kernel_size: 1
    weight_filler {
      type: "xavier"
    }
    bias_filler {
      type: "constant"
      value: 0.2
    }
  }
}
layer {
  name: "inception_4b/relu_1x1"
  type: "ReLU"
  bottom: "inception_4b/1x1"
  top: "inception_4b/1x1"
}
layer {
  name: "inception_4b/3x3_reduce"
  type: "Convolution"
  bottom: "inception_4a/output"
  top: "inception_4b/3x3_reduce"
  param {
    lr_mult: 0.1
  }
  param {
    lr_mult: 0.1
  }
  convolution_param {
    num_output: 112
    kernel_size: 1
    weight_filler {
      type: "xavier"
    }
    bias_filler {
      type: "constant"
      value: 0.2
    }
  }
}
layer {
  name: "inception_4b/relu_3x3_reduce"
  type: "ReLU"
  bottom: "inception_4b/3x3_reduce"
  top: "inception_4b/3x3_reduce"
}
layer {
  name: "inception_4b/3x3"
  type: "Convolution"
  bottom: "inception_4b/3x3_reduce"
  top: "inception_4b/3x3"
  param {
    lr_mult: 0.1
  }
  param {
    lr_mult: 0.1
  }
  convolution_param {
    num_output: 224
    pad: 1
    kernel_size: 3
    weight_filler {
      type: "xavier"
    }
    bias_filler {
      type: "constant"
      value: 0.2
    }
  }
}
layer {
  name: "inception_4b/relu_3x3"
  type: "ReLU"
  bottom: "inception_4b/3x3"
  top: "inception_4b/3x3"
}
layer {
  name: "inception_4b/5x5_reduce"
  type: "Convolution"
  bottom: "inception_4a/output"
  top: "inception_4b/5x5_reduce"
  param {
    lr_mult: 0.1
  }
  param {
    lr_mult: 0.1
  }
  convolution_param {
    num_output: 24
    kernel_size: 1
    weight_filler {
      type: "xavier"
    }
    bias_filler {
      type: "constant"
      value: 0.2
    }
  }
}
layer {
  name: "inception_4b/relu_5x5_reduce"
  type: "ReLU"
  bottom: "inception_4b/5x5_reduce"
  top: "inception_4b/5x5_reduce"
}
layer {
  name: "inception_4b/5x5"
  type: "Convolution"
  bottom: "inception_4b/5x5_reduce"
  top: "inception_4b/5x5"
  param {
    lr_mult: 0.1
  }
  param {
    lr_mult: 0.1
  }
  convolution_param {
    num_output: 64
    pad: 2
    kernel_size: 5
    weight_filler {
      type: "xavier"
    }
    bias_filler {
      type: "constant"
      value: 0.2
    }
  }
}
layer {
  name: "inception_4b/relu_5x5"
  type: "ReLU"
  bottom: "inception_4b/5x5"
  top: "inception_4b/5x5"
}
layer {
  name: "inception_4b/pool"
  type: "Pooling"
  bottom: "inception_4a/output"
  top: "inception_4b/pool"
  pooling_param {
    pool: MAX
    kernel_size: 3
    stride: 1
    pad: 1
  }
}
layer {
  name: "inception_4b/pool_proj"
  type: "Convolution"
  bottom: "inception_4b/pool"
  top: "inception_4b/pool_proj"
  param {
    lr_mult: 0.1
  }
  param {
    lr_mult: 0.1
  }
  convolution_param {
    num_output: 64
    kernel_size: 1
    weight_filler {
      type: "xavier"
    }
    bias_filler {
      type: "constant"
      value: 0.2
    }
  }
}
layer {
  name: "inception_4b/relu_pool_proj"
  type: "ReLU"
  bottom: "inception_4b/pool_proj"
  top: "inception_4b/pool_proj"
}
layer {
  name: "inception_4b/output"
  type: "Concat"
  bottom: "inception_4b/1x1"
  bottom: "inception_4b/3x3"
  bottom: "inception_4b/5x5"
  bottom: "inception_4b/pool_proj"
  top: "inception_4b/output"
}
layer {
  name: "inception_4c/1x1"
  type: "Convolution"
  bottom: "inception_4b/output"
  top: "inception_4c/1x1"
  param {
    lr_mult: 0.1
  }
  param {
    lr_mult: 0.1
  }
  convolution_param {
    num_output: 128
    kernel_size: 1
    weight_filler {
      type: "xavier"
    }
    bias_filler {
      type: "constant"
      value: 0.2
    }
  }
}
layer {
  name: "inception_4c/relu_1x1"
  type: "ReLU"
  bottom: "inception_4c/1x1"
  top: "inception_4c/1x1"
}
layer {
  name: "inception_4c/3x3_reduce"
  type: "Convolution"
  bottom: "inception_4b/output"
  top: "inception_4c/3x3_reduce"
  param {
    lr_mult: 0.1
  }
  param {
    lr_mult: 0.1
  }
  convolution_param {
    num_output: 128
    kernel_size: 1
    weight_filler {
      type: "xavier"
    }
    bias_filler {
      type: "constant"
      value: 0.2
    }
  }
}
layer {
  name: "inception_4c/relu_3x3_reduce"
  type: "ReLU"
  bottom: "inception_4c/3x3_reduce"
  top: "inception_4c/3x3_reduce"
}
layer {
  name: "inception_4c/3x3"
  type: "Convolution"
  bottom: "inception_4c/3x3_reduce"
  top: "inception_4c/3x3"
  param {
    lr_mult: 0.1
  }
  param {
    lr_mult: 0.1
  }
  convolution_param {
    num_output: 256
    pad: 1
    kernel_size: 3
    weight_filler {
      type: "xavier"
    }
    bias_filler {
      type: "constant"
      value: 0.2
    }
  }
}
layer {
  name: "inception_4c/relu_3x3"
  type: "ReLU"
  bottom: "inception_4c/3x3"
  top: "inception_4c/3x3"
}
layer {
  name: "inception_4c/5x5_reduce"
  type: "Convolution"
  bottom: "inception_4b/output"
  top: "inception_4c/5x5_reduce"
  param {
    lr_mult: 0.1
  }
  param {
    lr_mult: 0.1
  }
  convolution_param {
    num_output: 24
    kernel_size: 1
    weight_filler {
      type: "xavier"
    }
    bias_filler {
      type: "constant"
      value: 0.2
    }
  }
}
layer {
  name: "inception_4c/relu_5x5_reduce"
  type: "ReLU"
  bottom: "inception_4c/5x5_reduce"
  top: "inception_4c/5x5_reduce"
}
layer {
  name: "inception_4c/5x5"
  type: "Convolution"
  bottom: "inception_4c/5x5_reduce"
  top: "inception_4c/5x5"
  param {
    lr_mult: 0.1
  }
  param {
    lr_mult: 0.1
  }
  convolution_param {
    num_output: 64
    pad: 2
    kernel_size: 5
    weight_filler {
      type: "xavier"
    }
    bias_filler {
      type: "constant"
      value: 0.2
    }
  }
}
layer {
  name: "inception_4c/relu_5x5"
  type: "ReLU"
  bottom: "inception_4c/5x5"
  top: "inception_4c/5x5"
}
layer {
  name: "inception_4c/pool"
  type: "Pooling"
  bottom: "inception_4b/output"
  top: "inception_4c/pool"
  pooling_param {
    pool: MAX
    kernel_size: 3
    stride: 1
    pad: 1
  }
}
layer {
  name: "inception_4c/pool_proj"
  type: "Convolution"
  bottom: "inception_4c/pool"
  top: "inception_4c/pool_proj"
  param {
    lr_mult: 0.1
  }
  param {
    lr_mult: 0.1
  }
  convolution_param {
    num_output: 64
    kernel_size: 1
    weight_filler {
      type: "xavier"
    }
    bias_filler {
      type: "constant"
      value: 0.2
    }
  }
}
layer {
  name: "inception_4c/relu_pool_proj"
  type: "ReLU"
  bottom: "inception_4c/pool_proj"
  top: "inception_4c/pool_proj"
}
layer {
  name: "inception_4c/output"
  type: "Concat"
  bottom: "inception_4c/1x1"
  bottom: "inception_4c/3x3"
  bottom: "inception_4c/5x5"
  bottom: "inception_4c/pool_proj"
  top: "inception_4c/output"
}
layer {
  name: "inception_4d/1x1"
  type: "Convolution"
  bottom: "inception_4c/output"
  top: "inception_4d/1x1"
  param {
    lr_mult: 0.1
  }
  param {
    lr_mult: 0.1
  }
  convolution_param {
    num_output: 112
    kernel_size: 1
    weight_filler {
      type: "xavier"
    }
    bias_filler {
      type: "constant"
      value: 0.2
    }
  }
}
layer {
  name: "inception_4d/relu_1x1"
  type: "ReLU"
  bottom: "inception_4d/1x1"
  top: "inception_4d/1x1"
}
layer {
  name: "inception_4d/3x3_reduce"
  type: "Convolution"
  bottom: "inception_4c/output"
  top: "inception_4d/3x3_reduce"
  param {
    lr_mult: 0.1
  }
  param {
    lr_mult: 0.1
  }
  convolution_param {
    num_output: 144
    kernel_size: 1
    weight_filler {
      type: "xavier"
    }
    bias_filler {
      type: "constant"
      value: 0.2
    }
  }
}
layer {
  name: "inception_4d/relu_3x3_reduce"
  type: "ReLU"
  bottom: "inception_4d/3x3_reduce"
  top: "inception_4d/3x3_reduce"
}
layer {
  name: "inception_4d/3x3"
  type: "Convolution"
  bottom: "inception_4d/3x3_reduce"
  top: "inception_4d/3x3"
  param {
    lr_mult: 0.1
  }
  param {
    lr_mult: 0.1
  }
  convolution_param {
    num_output: 288
    pad: 1
    kernel_size: 3
    weight_filler {
      type: "xavier"
    }
    bias_filler {
      type: "constant"
      value: 0.2
    }
  }
}
layer {
  name: "inception_4d/relu_3x3"
  type: "ReLU"
  bottom: "inception_4d/3x3"
  top: "inception_4d/3x3"
}
layer {
  name: "inception_4d/5x5_reduce"
  type: "Convolution"
  bottom: "inception_4c/output"
  top: "inception_4d/5x5_reduce"
  param {
    lr_mult: 0.1
  }
  param {
    lr_mult: 0.1
  }
  convolution_param {
    num_output: 32
    kernel_size: 1
    weight_filler {
      type: "xavier"
    }
    bias_filler {
      type: "constant"
      value: 0.2
    }
  }
}
layer {
  name: "inception_4d/relu_5x5_reduce"
  type: "ReLU"
  bottom: "inception_4d/5x5_reduce"
  top: "inception_4d/5x5_reduce"
}
layer {
  name: "inception_4d/5x5"
  type: "Convolution"
  bottom: "inception_4d/5x5_reduce"
  top: "inception_4d/5x5"
  param {
    lr_mult: 0.1
  }
  param {
    lr_mult: 0.1
  }
  convolution_param {
    num_output: 64
    pad: 2
    kernel_size: 5
    weight_filler {
      type: "xavier"
    }
    bias_filler {
      type: "constant"
      value: 0.2
    }
  }
}
layer {
  name: "inception_4d/relu_5x5"
  type: "ReLU"
  bottom: "inception_4d/5x5"
  top: "inception_4d/5x5"
}
layer {
  name: "inception_4d/pool"
  type: "Pooling"
  bottom: "inception_4c/output"
  top: "inception_4d/pool"
  pooling_param {
    pool: MAX
    kernel_size: 3
    stride: 1
    pad: 1
  }
}
layer {
  name: "inception_4d/pool_proj"
  type: "Convolution"
  bottom: "inception_4d/pool"
  top: "inception_4d/pool_proj"
  param {
    lr_mult: 0.1
  }
  param {
    lr_mult: 0.1
  }
  convolution_param {
    num_output: 64
    kernel_size: 1
    weight_filler {
      type: "xavier"
    }
    bias_filler {
      type: "constant"
      value: 0.2
    }
  }
}
layer {
  name: "inception_4d/relu_pool_proj"
  type: "ReLU"
  bottom: "inception_4d/pool_proj"
  top: "inception_4d/pool_proj"
}
layer {
  name: "inception_4d/output"
  type: "Concat"
  bottom: "inception_4d/1x1"
  bottom: "inception_4d/3x3"
  bottom: "inception_4d/5x5"
  bottom: "inception_4d/pool_proj"
  top: "inception_4d/output"
}
layer {
  name: "loss2/ave_pool"
  type: "Pooling"
  bottom: "inception_4d/output"
  top: "loss2/ave_pool"
  pooling_param {
    pool: AVE
    kernel_size: 5
    stride: 3
  }
}
layer {
  name: "loss2/conv"
  type: "Convolution"
  bottom: "loss2/ave_pool"
  top: "loss2/conv"
  param {
    lr_mult: 0.1
  }
  param {
    lr_mult: 0.1
  }
  convolution_param {
    num_output: 128
    kernel_size: 1
    weight_filler {
      type: "xavier"
    }
    bias_filler {
      type: "constant"
      value: 0.2
    }
  }
}
layer {
  name: "loss2/relu_conv"
  type: "ReLU"
  bottom: "loss2/conv"
  top: "loss2/conv"
}
layer {
  name: "loss2/fc"
  type: "InnerProduct"
  bottom: "loss2/conv"
  top: "loss2/fc"
  param {
    lr_mult: 0.1
  }
  param {
    lr_mult: 0.1
  }
  inner_product_param {
    num_output: 1024
    weight_filler {
      type: "xavier"
    }
    bias_filler {
      type: "constant"
      value: 0.2
    }
  }
}
layer {
  name: "loss2/relu_fc"
  type: "ReLU"
  bottom: "loss2/fc"
  top: "loss2/fc"
}
layer {
  name: "loss2/drop_fc"
  type: "Dropout"
  bottom: "loss2/fc"
  top: "loss2/fc"
  dropout_param {
    dropout_ratio: 0.7
  }
}
layer {
  name: "ft_loss2/classifier"
  type: "InnerProduct"
  bottom: "loss2/fc"
  top: "ft_loss2/classifier"
  param {
    lr_mult: 1
  }
  param {
    lr_mult: 1
  }
  inner_product_param {
    num_output: 2
    weight_filler {
      type: "xavier"
    }
    bias_filler {
      type: "constant"
      value: 0
    }
  }
}
layer {
  name: "loss2/loss"
  type: "SoftmaxWithLoss"
  bottom: "ft_loss2/classifier"
  bottom: "label"
  top: "loss2/loss1"
  loss_weight: 0.3
}
layer {
  name: "inception_4e/1x1"
  type: "Convolution"
  bottom: "inception_4d/output"
  top: "inception_4e/1x1"
  param {
    lr_mult: 0.1
  }
  param {
    lr_mult: 0.1
  }
  convolution_param {
    num_output: 256
    kernel_size: 1
    weight_filler {
      type: "xavier"
    }
    bias_filler {
      type: "constant"
      value: 0.2
    }
  }
}
layer {
  name: "inception_4e/relu_1x1"
  type: "ReLU"
  bottom: "inception_4e/1x1"
  top: "inception_4e/1x1"
}
layer {
  name: "inception_4e/3x3_reduce"
  type: "Convolution"
  bottom: "inception_4d/output"
  top: "inception_4e/3x3_reduce"
  param {
    lr_mult: 0.1
  }
  param {
    lr_mult: 0.1
  }
  convolution_param {
    num_output: 160
    kernel_size: 1
    weight_filler {
      type: "xavier"
    }
    bias_filler {
      type: "constant"
      value: 0.2
    }
  }
}
layer {
  name: "inception_4e/relu_3x3_reduce"
  type: "ReLU"
  bottom: "inception_4e/3x3_reduce"
  top: "inception_4e/3x3_reduce"
}
layer {
  name: "inception_4e/3x3"
  type: "Convolution"
  bottom: "inception_4e/3x3_reduce"
  top: "inception_4e/3x3"
  param {
    lr_mult: 0.1
  }
  param {
    lr_mult: 0.1
  }
  convolution_param {
    num_output: 320
    pad: 1
    kernel_size: 3
    weight_filler {
      type: "xavier"
    }
    bias_filler {
      type: "constant"
      value: 0.2
    }
  }
}
layer {
  name: "inception_4e/relu_3x3"
  type: "ReLU"
  bottom: "inception_4e/3x3"
  top: "inception_4e/3x3"
}
layer {
  name: "inception_4e/5x5_reduce"
  type: "Convolution"
  bottom: "inception_4d/output"
  top: "inception_4e/5x5_reduce"
  param {
    lr_mult: 0.1
  }
  param {
    lr_mult: 0.1
  }
  convolution_param {
    num_output: 32
    kernel_size: 1
    weight_filler {
      type: "xavier"
    }
    bias_filler {
      type: "constant"
      value: 0.2
    }
  }
}
layer {
  name: "inception_4e/relu_5x5_reduce"
  type: "ReLU"
  bottom: "inception_4e/5x5_reduce"
  top: "inception_4e/5x5_reduce"
}
layer {
  name: "inception_4e/5x5"
  type: "Convolution"
  bottom: "inception_4e/5x5_reduce"
  top: "inception_4e/5x5"
  param {
    lr_mult: 0.1
  }
  param {
    lr_mult: 0.1
  }
  convolution_param {
    num_output: 128
    pad: 2
    kernel_size: 5
    weight_filler {
      type: "xavier"
    }
    bias_filler {
      type: "constant"
      value: 0.2
    }
  }
}
layer {
  name: "inception_4e/relu_5x5"
  type: "ReLU"
  bottom: "inception_4e/5x5"
  top: "inception_4e/5x5"
}
layer {
  name: "inception_4e/pool"
  type: "Pooling"
  bottom: "inception_4d/output"
  top: "inception_4e/pool"
  pooling_param {
    pool: MAX
    kernel_size: 3
    stride: 1
    pad: 1
  }
}
layer {
  name: "inception_4e/pool_proj"
  type: "Convolution"
  bottom: "inception_4e/pool"
  top: "inception_4e/pool_proj"
  param {
    lr_mult: 0.1
  }
  param {
    lr_mult: 0.1
  }
  convolution_param {
    num_output: 128
    kernel_size: 1
    weight_filler {
      type: "xavier"
    }
    bias_filler {
      type: "constant"
      value: 0.2
    }
  }
}
layer {
  name: "inception_4e/relu_pool_proj"
  type: "ReLU"
  bottom: "inception_4e/pool_proj"
  top: "inception_4e/pool_proj"
}
layer {
  name: "inception_4e/output"
  type: "Concat"
  bottom: "inception_4e/1x1"
  bottom: "inception_4e/3x3"
  bottom: "inception_4e/5x5"
  bottom: "inception_4e/pool_proj"
  top: "inception_4e/output"
}
layer {
  name: "pool4/3x3_s2"
  type: "Pooling"
  bottom: "inception_4e/output"
  top: "pool4/3x3_s2"
  pooling_param {
    pool: MAX
    kernel_size: 3
    stride: 2
  }
}
layer {
  name: "inception_5a/1x1"
  type: "Convolution"
  bottom: "pool4/3x3_s2"
  top: "inception_5a/1x1"
  param {
    lr_mult: 0.1
  }
  param {
    lr_mult: 0.1
  }
  convolution_param {
    num_output: 256
    kernel_size: 1
    weight_filler {
      type: "xavier"
    }
    bias_filler {
      type: "constant"
      value: 0.2
    }
  }
}
layer {
  name: "inception_5a/relu_1x1"
  type: "ReLU"
  bottom: "inception_5a/1x1"
  top: "inception_5a/1x1"
}
layer {
  name: "inception_5a/3x3_reduce"
  type: "Convolution"
  bottom: "pool4/3x3_s2"
  top: "inception_5a/3x3_reduce"
  param {
    lr_mult: 0.1
  }
  param {
    lr_mult: 0.1
  }
  convolution_param {
    num_output: 160
    kernel_size: 1
    weight_filler {
      type: "xavier"
    }
    bias_filler {
      type: "constant"
  
I1009 17:09:11.557837  2156 layer_factory.hpp:74] Creating layer data
I1009 17:09:11.558012  2156 net.cpp:90] Creating Layer data
I1009 17:09:11.558122  2156 net.cpp:368] data -> data
I1009 17:09:11.558451  2156 net.cpp:368] data -> label
I1009 17:09:11.558490  2156 net.cpp:120] Setting up data
I1009 17:09:11.558671  2156 image_data_layer.cpp:36] Opening file /home/kruchinin_d/Projects/data/KITTI/prepared_data/train.txt
I1009 17:09:11.803551  2156 image_data_layer.cpp:51] A total of 82274 images.
I1009 17:09:11.950335  2156 image_data_layer.cpp:74] output data size: 32,3,227,227
I1009 17:09:11.961740  2156 net.cpp:127] Top shape: 32 3 227 227 (4946784)
I1009 17:09:11.961758  2156 net.cpp:127] Top shape: 32 (32)
I1009 17:09:11.961817  2156 layer_factory.hpp:74] Creating layer label_data_1_split
I1009 17:09:11.961841  2156 net.cpp:90] Creating Layer label_data_1_split
I1009 17:09:11.961858  2156 net.cpp:410] label_data_1_split <- label
I1009 17:09:11.961885  2156 net.cpp:368] label_data_1_split -> label_data_1_split_0
I1009 17:09:11.961906  2156 net.cpp:368] label_data_1_split -> label_data_1_split_1
I1009 17:09:11.961922  2156 net.cpp:368] label_data_1_split -> label_data_1_split_2
I1009 17:09:11.961938  2156 net.cpp:120] Setting up label_data_1_split
I1009 17:09:11.961999  2156 net.cpp:127] Top shape: 32 (32)
I1009 17:09:11.962013  2156 net.cpp:127] Top shape: 32 (32)
I1009 17:09:11.962024  2156 net.cpp:127] Top shape: 32 (32)
I1009 17:09:11.962033  2156 layer_factory.hpp:74] Creating layer conv1/7x7_s2
I1009 17:09:11.962070  2156 net.cpp:90] Creating Layer conv1/7x7_s2
I1009 17:09:11.962081  2156 net.cpp:410] conv1/7x7_s2 <- data
I1009 17:09:11.962096  2156 net.cpp:368] conv1/7x7_s2 -> conv1/7x7_s2
I1009 17:09:11.962116  2156 net.cpp:120] Setting up conv1/7x7_s2
I1009 17:09:11.970520  2156 net.cpp:127] Top shape: 32 64 114 114 (26615808)
I1009 17:09:11.970551  2156 layer_factory.hpp:74] Creating layer conv1/relu_7x7
I1009 17:09:11.970602  2156 net.cpp:90] Creating Layer conv1/relu_7x7
I1009 17:09:11.970616  2156 net.cpp:410] conv1/relu_7x7 <- conv1/7x7_s2
I1009 17:09:11.970629  2156 net.cpp:357] conv1/relu_7x7 -> conv1/7x7_s2 (in-place)
I1009 17:09:11.970643  2156 net.cpp:120] Setting up conv1/relu_7x7
I1009 17:09:11.990697  2156 net.cpp:127] Top shape: 32 64 114 114 (26615808)
I1009 17:09:11.990710  2156 layer_factory.hpp:74] Creating layer pool1/3x3_s2
I1009 17:09:11.990726  2156 net.cpp:90] Creating Layer pool1/3x3_s2
I1009 17:09:11.990736  2156 net.cpp:410] pool1/3x3_s2 <- conv1/7x7_s2
I1009 17:09:11.990749  2156 net.cpp:368] pool1/3x3_s2 -> pool1/3x3_s2
I1009 17:09:11.990767  2156 net.cpp:120] Setting up pool1/3x3_s2
I1009 17:09:11.990844  2156 net.cpp:127] Top shape: 32 64 57 57 (6653952)
I1009 17:09:11.990856  2156 layer_factory.hpp:74] Creating layer pool1/norm1
I1009 17:09:11.990905  2156 net.cpp:90] Creating Layer pool1/norm1
I1009 17:09:11.990916  2156 net.cpp:410] pool1/norm1 <- pool1/3x3_s2
I1009 17:09:11.990931  2156 net.cpp:368] pool1/norm1 -> pool1/norm1
I1009 17:09:11.990947  2156 net.cpp:120] Setting up pool1/norm1
I1009 17:09:11.991019  2156 net.cpp:127] Top shape: 32 64 57 57 (6653952)
I1009 17:09:11.991034  2156 layer_factory.hpp:74] Creating layer conv2/3x3_reduce
I1009 17:09:11.991050  2156 net.cpp:90] Creating Layer conv2/3x3_reduce
I1009 17:09:11.991060  2156 net.cpp:410] conv2/3x3_reduce <- pool1/norm1
I1009 17:09:11.991072  2156 net.cpp:368] conv2/3x3_reduce -> conv2/3x3_reduce
I1009 17:09:11.991089  2156 net.cpp:120] Setting up conv2/3x3_reduce
I1009 17:09:11.991158  2156 net.cpp:127] Top shape: 32 64 57 57 (6653952)
I1009 17:09:11.991178  2156 layer_factory.hpp:74] Creating layer conv2/relu_3x3_reduce
I1009 17:09:11.991192  2156 net.cpp:90] Creating Layer conv2/relu_3x3_reduce
I1009 17:09:11.991201  2156 net.cpp:410] conv2/relu_3x3_reduce <- conv2/3x3_reduce
I1009 17:09:11.991214  2156 net.cpp:357] conv2/relu_3x3_reduce -> conv2/3x3_reduce (in-place)
I1009 17:09:11.991226  2156 net.cpp:120] Setting up conv2/relu_3x3_reduce
I1009 17:09:11.991238  2156 net.cpp:127] Top shape: 32 64 57 57 (6653952)
I1009 17:09:11.991248  2156 layer_factory.hpp:74] Creating layer conv2/3x3
I1009 17:09:11.991262  2156 net.cpp:90] Creating Layer conv2/3x3
I1009 17:09:11.991274  2156 net.cpp:410] conv2/3x3 <- conv2/3x3_reduce
I1009 17:09:11.991288  2156 net.cpp:368] conv2/3x3 -> conv2/3x3
I1009 17:09:11.991302  2156 net.cpp:120] Setting up conv2/3x3
I1009 17:09:11.992393  2156 net.cpp:127] Top shape: 32 192 57 57 (19961856)
I1009 17:09:11.992413  2156 layer_factory.hpp:74] Creating layer conv2/relu_3x3
I1009 17:09:11.992426  2156 net.cpp:90] Creating Layer conv2/relu_3x3
I1009 17:09:11.992435  2156 net.cpp:410] conv2/relu_3x3 <- conv2/3x3
I1009 17:09:11.992450  2156 net.cpp:357] conv2/relu_3x3 -> conv2/3x3 (in-place)
I1009 17:09:11.992462  2156 net.cpp:120] Setting up conv2/relu_3x3
I1009 17:09:11.992492  2156 net.cpp:127] Top shape: 32 192 57 57 (19961856)
I1009 17:09:11.992502  2156 layer_factory.hpp:74] Creating layer conv2/norm2
I1009 17:09:11.992514  2156 net.cpp:90] Creating Layer conv2/norm2
I1009 17:09:11.992523  2156 net.cpp:410] conv2/norm2 <- conv2/3x3
I1009 17:09:11.992539  2156 net.cpp:368] conv2/norm2 -> conv2/norm2
I1009 17:09:11.992552  2156 net.cpp:120] Setting up conv2/norm2
I1009 17:09:11.992568  2156 net.cpp:127] Top shape: 32 192 57 57 (19961856)
I1009 17:09:11.992579  2156 layer_factory.hpp:74] Creating layer pool2/3x3_s2
I1009 17:09:11.992591  2156 net.cpp:90] Creating Layer pool2/3x3_s2
I1009 17:09:11.992601  2156 net.cpp:410] pool2/3x3_s2 <- conv2/norm2
I1009 17:09:11.992625  2156 net.cpp:368] pool2/3x3_s2 -> pool2/3x3_s2
I1009 17:09:11.992641  2156 net.cpp:120] Setting up pool2/3x3_s2
I1009 17:09:11.992660  2156 net.cpp:127] Top shape: 32 192 28 28 (4816896)
I1009 17:09:11.992671  2156 layer_factory.hpp:74] Creating layer pool2/3x3_s2_pool2/3x3_s2_0_split
I1009 17:09:11.992684  2156 net.cpp:90] Creating Layer pool2/3x3_s2_pool2/3x3_s2_0_split
I1009 17:09:11.992697  2156 net.cpp:410] pool2/3x3_s2_pool2/3x3_s2_0_split <- pool2/3x3_s2
I1009 17:09:11.992708  2156 net.cpp:368] pool2/3x3_s2_pool2/3x3_s2_0_split -> pool2/3x3_s2_pool2/3x3_s2_0_split_0
I1009 17:09:11.992722  2156 net.cpp:368] pool2/3x3_s2_pool2/3x3_s2_0_split -> pool2/3x3_s2_pool2/3x3_s2_0_split_1
I1009 17:09:11.992741  2156 net.cpp:368] pool2/3x3_s2_pool2/3x3_s2_0_split -> pool2/3x3_s2_pool2/3x3_s2_0_split_2
I1009 17:09:11.992756  2156 net.cpp:368] pool2/3x3_s2_pool2/3x3_s2_0_split -> pool2/3x3_s2_pool2/3x3_s2_0_split_3
I1009 17:09:11.992772  2156 net.cpp:120] Setting up pool2/3x3_s2_pool2/3x3_s2_0_split
I1009 17:09:11.992787  2156 net.cpp:127] Top shape: 32 192 28 28 (4816896)
I1009 17:09:11.992800  2156 net.cpp:127] Top shape: 32 192 28 28 (4816896)
I1009 17:09:11.992811  2156 net.cpp:127] Top shape: 32 192 28 28 (4816896)
I1009 17:09:11.992821  2156 net.cpp:127] Top shape: 32 192 28 28 (4816896)
I1009 17:09:11.992830  2156 layer_factory.hpp:74] Creating layer inception_3a/1x1
I1009 17:09:11.992843  2156 net.cpp:90] Creating Layer inception_3a/1x1
I1009 17:09:11.992852  2156 net.cpp:410] inception_3a/1x1 <- pool2/3x3_s2_pool2/3x3_s2_0_split_0
I1009 17:09:11.992867  2156 net.cpp:368] inception_3a/1x1 -> inception_3a/1x1
I1009 17:09:11.992884  2156 net.cpp:120] Setting up inception_3a/1x1
I1009 17:09:11.993033  2156 net.cpp:127] Top shape: 32 64 28 28 (1605632)
I1009 17:09:11.993049  2156 layer_factory.hpp:74] Creating layer inception_3a/relu_1x1
I1009 17:09:11.993062  2156 net.cpp:90] Creating Layer inception_3a/relu_1x1
I1009 17:09:11.993070  2156 net.cpp:410] inception_3a/relu_1x1 <- inception_3a/1x1
I1009 17:09:11.993082  2156 net.cpp:357] inception_3a/relu_1x1 -> inception_3a/1x1 (in-place)
I1009 17:09:11.993093  2156 net.cpp:120] Setting up inception_3a/relu_1x1
I1009 17:09:11.993105  2156 net.cpp:127] Top shape: 32 64 28 28 (1605632)
I1009 17:09:11.993114  2156 layer_factory.hpp:74] Creating layer inception_3a/3x3_reduce
I1009 17:09:11.993127  2156 net.cpp:90] Creating Layer inception_3a/3x3_reduce
I1009 17:09:11.993135  2156 net.cpp:410] inception_3a/3x3_reduce <- pool2/3x3_s2_pool2/3x3_s2_0_split_1
I1009 17:09:11.993150  2156 net.cpp:368] inception_3a/3x3_reduce -> inception_3a/3x3_reduce
I1009 17:09:11.993167  2156 net.cpp:120] Setting up inception_3a/3x3_reduce
I1009 17:09:11.993386  2156 net.cpp:127] Top shape: 32 96 28 28 (2408448)
I1009 17:09:11.993408  2156 layer_factory.hpp:74] Creating layer inception_3a/relu_3x3_reduce
I1009 17:09:11.993425  2156 net.cpp:90] Creating Layer inception_3a/relu_3x3_reduce
I1009 17:09:11.993435  2156 net.cpp:410] inception_3a/relu_3x3_reduce <- inception_3a/3x3_reduce
I1009 17:09:11.993448  2156 net.cpp:357] inception_3a/relu_3x3_reduce -> inception_3a/3x3_reduce (in-place)
I1009 17:09:11.993459  2156 net.cpp:120] Setting up inception_3a/relu_3x3_reduce
I1009 17:09:11.993471  2156 net.cpp:127] Top shape: 32 96 28 28 (2408448)
I1009 17:09:11.993481  2156 layer_factory.hpp:74] Creating layer inception_3a/3x3
I1009 17:09:11.993496  2156 net.cpp:90] Creating Layer inception_3a/3x3
I1009 17:09:11.993507  2156 net.cpp:410] inception_3a/3x3 <- inception_3a/3x3_reduce
I1009 17:09:11.993521  2156 net.cpp:368] inception_3a/3x3 -> inception_3a/3x3
I1009 17:09:11.993535  2156 net.cpp:120] Setting up inception_3a/3x3
I1009 17:09:11.994640  2156 net.cpp:127] Top shape: 32 128 28 28 (3211264)
I1009 17:09:11.994657  2156 layer_factory.hpp:74] Creating layer inception_3a/relu_3x3
I1009 17:09:11.994670  2156 net.cpp:90] Creating Layer inception_3a/relu_3x3
I1009 17:09:11.994679  2156 net.cpp:410] inception_3a/relu_3x3 <- inception_3a/3x3
I1009 17:09:11.994695  2156 net.cpp:357] inception_3a/relu_3x3 -> inception_3a/3x3 (in-place)
I1009 17:09:11.994719  2156 net.cpp:120] Setting up inception_3a/relu_3x3
I1009 17:09:11.994735  2156 net.cpp:127] Top shape: 32 128 28 28 (3211264)
I1009 17:09:11.994743  2156 layer_factory.hpp:74] Creating layer inception_3a/5x5_reduce
I1009 17:09:11.994760  2156 net.cpp:90] Creating Layer inception_3a/5x5_reduce
I1009 17:09:11.994771  2156 net.cpp:410] inception_3a/5x5_reduce <- pool2/3x3_s2_pool2/3x3_s2_0_split_2
I1009 17:09:11.994784  2156 net.cpp:368] inception_3a/5x5_reduce -> inception_3a/5x5_reduce
I1009 17:09:11.994798  2156 net.cpp:120] Setting up inception_3a/5x5_reduce
I1009 17:09:11.994863  2156 net.cpp:127] Top shape: 32 16 28 28 (401408)
I1009 17:09:11.994879  2156 layer_factory.hpp:74] Creating layer inception_3a/relu_5x5_reduce
I1009 17:09:11.994894  2156 net.cpp:90] Creating Layer inception_3a/relu_5x5_reduce
I1009 17:09:11.994904  2156 net.cpp:410] inception_3a/relu_5x5_reduce <- inception_3a/5x5_reduce
I1009 17:09:11.994915  2156 net.cpp:357] inception_3a/relu_5x5_reduce -> inception_3a/5x5_reduce (in-place)
I1009 17:09:11.994927  2156 net.cpp:120] Setting up inception_3a/relu_5x5_reduce
I1009 17:09:11.994940  2156 net.cpp:127] Top shape: 32 16 28 28 (401408)
I1009 17:09:11.994948  2156 layer_factory.hpp:74] Creating layer inception_3a/5x5
I1009 17:09:11.994961  2156 net.cpp:90] Creating Layer inception_3a/5x5
I1009 17:09:11.994968  2156 net.cpp:410] inception_3a/5x5 <- inception_3a/5x5_reduce
I1009 17:09:11.994984  2156 net.cpp:368] inception_3a/5x5 -> inception_3a/5x5
I1009 17:09:11.994999  2156 net.cpp:120] Setting up inception_3a/5x5
I1009 17:09:11.995152  2156 net.cpp:127] Top shape: 32 32 28 28 (802816)
I1009 17:09:11.995167  2156 layer_factory.hpp:74] Creating layer inception_3a/relu_5x5
I1009 17:09:11.995179  2156 net.cpp:90] Creating Layer inception_3a/relu_5x5
I1009 17:09:11.995188  2156 net.cpp:410] inception_3a/relu_5x5 <- inception_3a/5x5
I1009 17:09:11.995203  2156 net.cpp:357] inception_3a/relu_5x5 -> inception_3a/5x5 (in-place)
I1009 17:09:11.995215  2156 net.cpp:120] Setting up inception_3a/relu_5x5
I1009 17:09:11.995228  2156 net.cpp:127] Top shape: 32 32 28 28 (802816)
I1009 17:09:11.995236  2156 layer_factory.hpp:74] Creating layer inception_3a/pool
I1009 17:09:11.995247  2156 net.cpp:90] Creating Layer inception_3a/pool
I1009 17:09:11.995256  2156 net.cpp:410] inception_3a/pool <- pool2/3x3_s2_pool2/3x3_s2_0_split_3
I1009 17:09:11.995268  2156 net.cpp:368] inception_3a/pool -> inception_3a/pool
I1009 17:09:11.995280  2156 net.cpp:120] Setting up inception_3a/pool
I1009 17:09:11.995301  2156 net.cpp:127] Top shape: 32 192 28 28 (4816896)
I1009 17:09:11.995313  2156 layer_factory.hpp:74] Creating layer inception_3a/pool_proj
I1009 17:09:11.995327  2156 net.cpp:90] Creating Layer inception_3a/pool_proj
I1009 17:09:11.995337  2156 net.cpp:410] inception_3a/pool_proj <- inception_3a/pool
I1009 17:09:11.995352  2156 net.cpp:368] inception_3a/pool_proj -> inception_3a/pool_proj
I1009 17:09:11.995368  2156 net.cpp:120] Setting up inception_3a/pool_proj
I1009 17:09:11.995461  2156 net.cpp:127] Top shape: 32 32 28 28 (802816)
I1009 17:09:11.995479  2156 layer_factory.hpp:74] Creating layer inception_3a/relu_pool_proj
I1009 17:09:11.995492  2156 net.cpp:90] Creating Layer inception_3a/relu_pool_proj
I1009 17:09:11.995503  2156 net.cpp:410] inception_3a/relu_pool_proj <- inception_3a/pool_proj
I1009 17:09:11.995515  2156 net.cpp:357] inception_3a/relu_pool_proj -> inception_3a/pool_proj (in-place)
I1009 17:09:11.995528  2156 net.cpp:120] Setting up inception_3a/relu_pool_proj
I1009 17:09:11.995540  2156 net.cpp:127] Top shape: 32 32 28 28 (802816)
I1009 17:09:11.995549  2156 layer_factory.hpp:74] Creating layer inception_3a/output
I1009 17:09:11.995599  2156 net.cpp:90] Creating Layer inception_3a/output
I1009 17:09:11.995612  2156 net.cpp:410] inception_3a/output <- inception_3a/1x1
I1009 17:09:11.995622  2156 net.cpp:410] inception_3a/output <- inception_3a/3x3
I1009 17:09:11.995632  2156 net.cpp:410] inception_3a/output <- inception_3a/5x5
I1009 17:09:11.995654  2156 net.cpp:410] inception_3a/output <- inception_3a/pool_proj
I1009 17:09:11.995667  2156 net.cpp:368] inception_3a/output -> inception_3a/output
I1009 17:09:11.995681  2156 net.cpp:120] Setting up inception_3a/output
I1009 17:09:11.995704  2156 net.cpp:127] Top shape: 32 256 28 28 (6422528)
I1009 17:09:11.995717  2156 layer_factory.hpp:74] Creating layer inception_3a/output_inception_3a/output_0_split
I1009 17:09:11.995728  2156 net.cpp:90] Creating Layer inception_3a/output_inception_3a/output_0_split
I1009 17:09:11.995738  2156 net.cpp:410] inception_3a/output_inception_3a/output_0_split <- inception_3a/output
I1009 17:09:11.995754  2156 net.cpp:368] inception_3a/output_inception_3a/output_0_split -> inception_3a/output_inception_3a/output_0_split_0
I1009 17:09:11.995769  2156 net.cpp:368] inception_3a/output_inception_3a/output_0_split -> inception_3a/output_inception_3a/output_0_split_1
I1009 17:09:11.995786  2156 net.cpp:368] inception_3a/output_inception_3a/output_0_split -> inception_3a/output_inception_3a/output_0_split_2
I1009 17:09:11.995803  2156 net.cpp:368] inception_3a/output_inception_3a/output_0_split -> inception_3a/output_inception_3a/output_0_split_3
I1009 17:09:11.995815  2156 net.cpp:120] Setting up inception_3a/output_inception_3a/output_0_split
I1009 17:09:11.995834  2156 net.cpp:127] Top shape: 32 256 28 28 (6422528)
I1009 17:09:11.995846  2156 net.cpp:127] Top shape: 32 256 28 28 (6422528)
I1009 17:09:11.995857  2156 net.cpp:127] Top shape: 32 256 28 28 (6422528)
I1009 17:09:11.995868  2156 net.cpp:127] Top shape: 32 256 28 28 (6422528)
I1009 17:09:11.995877  2156 layer_factory.hpp:74] Creating layer inception_3b/1x1
I1009 17:09:11.995890  2156 net.cpp:90] Creating Layer inception_3b/1x1
I1009 17:09:11.995898  2156 net.cpp:410] inception_3b/1x1 <- inception_3a/output_inception_3a/output_0_split_0
I1009 17:09:11.995915  2156 net.cpp:368] inception_3b/1x1 -> inception_3b/1x1
I1009 17:09:11.995931  2156 net.cpp:120] Setting up inception_3b/1x1
I1009 17:09:11.996278  2156 net.cpp:127] Top shape: 32 128 28 28 (3211264)
I1009 17:09:11.996294  2156 layer_factory.hpp:74] Creating layer inception_3b/relu_1x1
I1009 17:09:11.996305  2156 net.cpp:90] Creating Layer inception_3b/relu_1x1
I1009 17:09:11.996315  2156 net.cpp:410] inception_3b/relu_1x1 <- inception_3b/1x1
I1009 17:09:11.996328  2156 net.cpp:357] inception_3b/relu_1x1 -> inception_3b/1x1 (in-place)
I1009 17:09:11.996341  2156 net.cpp:120] Setting up inception_3b/relu_1x1
I1009 17:09:11.996353  2156 net.cpp:127] Top shape: 32 128 28 28 (3211264)
I1009 17:09:11.996362  2156 layer_factory.hpp:74] Creating layer inception_3b/3x3_reduce
I1009 17:09:11.996376  2156 net.cpp:90] Creating Layer inception_3b/3x3_reduce
I1009 17:09:11.996384  2156 net.cpp:410] inception_3b/3x3_reduce <- inception_3a/output_inception_3a/output_0_split_1
I1009 17:09:11.996400  2156 net.cpp:368] inception_3b/3x3_reduce -> inception_3b/3x3_reduce
I1009 17:09:11.996417  2156 net.cpp:120] Setting up inception_3b/3x3_reduce
I1009 17:09:11.996775  2156 net.cpp:127] Top shape: 32 128 28 28 (3211264)
I1009 17:09:11.996795  2156 layer_factory.hpp:74] Creating layer inception_3b/relu_3x3_reduce
I1009 17:09:11.996809  2156 net.cpp:90] Creating Layer inception_3b/relu_3x3_reduce
I1009 17:09:11.996817  2156 net.cpp:410] inception_3b/relu_3x3_reduce <- inception_3b/3x3_reduce
I1009 17:09:11.996831  2156 net.cpp:357] inception_3b/relu_3x3_reduce -> inception_3b/3x3_reduce (in-place)
I1009 17:09:11.996844  2156 net.cpp:120] Setting up inception_3b/relu_3x3_reduce
I1009 17:09:11.996855  2156 net.cpp:127] Top shape: 32 128 28 28 (3211264)
I1009 17:09:11.996867  2156 layer_factory.hpp:74] Creating layer inception_3b/3x3
I1009 17:09:11.996883  2156 net.cpp:90] Creating Layer inception_3b/3x3
I1009 17:09:11.996894  2156 net.cpp:410] inception_3b/3x3 <- inception_3b/3x3_reduce
I1009 17:09:11.996912  2156 net.cpp:368] inception_3b/3x3 -> inception_3b/3x3
I1009 17:09:11.996927  2156 net.cpp:120] Setting up inception_3b/3x3
I1009 17:09:11.999105  2156 net.cpp:127] Top shape: 32 192 28 28 (4816896)
I1009 17:09:11.999128  2156 layer_factory.hpp:74] Creating layer inception_3b/relu_3x3
I1009 17:09:11.999141  2156 net.cpp:90] Creating Layer inception_3b/relu_3x3
I1009 17:09:11.999150  2156 net.cpp:410] inception_3b/relu_3x3 <- inception_3b/3x3
I1009 17:09:11.999161  2156 net.cpp:357] inception_3b/relu_3x3 -> inception_3b/3x3 (in-place)
I1009 17:09:11.999174  2156 net.cpp:120] Setting up inception_3b/relu_3x3
I1009 17:09:11.999186  2156 net.cpp:127] Top shape: 32 192 28 28 (4816896)
I1009 17:09:11.999197  2156 layer_factory.hpp:74] Creating layer inception_3b/5x5_reduce
I1009 17:09:11.999209  2156 net.cpp:90] Creating Layer inception_3b/5x5_reduce
I1009 17:09:11.999217  2156 net.cpp:410] inception_3b/5x5_reduce <- inception_3a/output_inception_3a/output_0_split_2
I1009 17:09:11.999234  2156 net.cpp:368] inception_3b/5x5_reduce -> inception_3b/5x5_reduce
I1009 17:09:11.999251  2156 net.cpp:120] Setting up inception_3b/5x5_reduce
I1009 17:09:11.999362  2156 net.cpp:127] Top shape: 32 32 28 28 (802816)
I1009 17:09:11.999378  2156 layer_factory.hpp:74] Creating layer inception_3b/relu_5x5_reduce
I1009 17:09:11.999392  2156 net.cpp:90] Creating Layer inception_3b/relu_5x5_reduce
I1009 17:09:11.999400  2156 net.cpp:410] inception_3b/relu_5x5_reduce <- inception_3b/5x5_reduce
I1009 17:09:11.999418  2156 net.cpp:357] inception_3b/relu_5x5_reduce -> inception_3b/5x5_reduce (in-place)
I1009 17:09:11.999431  2156 net.cpp:120] Setting up inception_3b/relu_5x5_reduce
I1009 17:09:11.999444  2156 net.cpp:127] Top shape: 32 32 28 28 (802816)
I1009 17:09:11.999454  2156 layer_factory.hpp:74] Creating layer inception_3b/5x5
I1009 17:09:11.999466  2156 net.cpp:90] Creating Layer inception_3b/5x5
I1009 17:09:11.999475  2156 net.cpp:410] inception_3b/5x5 <- inception_3b/5x5_reduce
I1009 17:09:11.999490  2156 net.cpp:368] inception_3b/5x5 -> inception_3b/5x5
I1009 17:09:11.999526  2156 net.cpp:120] Setting up inception_3b/5x5
I1009 17:09:12.000304  2156 net.cpp:127] Top shape: 32 96 28 28 (2408448)
I1009 17:09:12.000321  2156 layer_factory.hpp:74] Creating layer inception_3b/relu_5x5
I1009 17:09:12.000334  2156 net.cpp:90] Creating Layer inception_3b/relu_5x5
I1009 17:09:12.000344  2156 net.cpp:410] inception_3b/relu_5x5 <- inception_3b/5x5
I1009 17:09:12.000355  2156 net.cpp:357] inception_3b/relu_5x5 -> inception_3b/5x5 (in-place)
I1009 17:09:12.000367  2156 net.cpp:120] Setting up inception_3b/relu_5x5
I1009 17:09:12.000380  2156 net.cpp:127] Top shape: 32 96 28 28 (2408448)
I1009 17:09:12.000388  2156 layer_factory.hpp:74] Creating layer inception_3b/pool
I1009 17:09:12.000401  2156 net.cpp:90] Creating Layer inception_3b/pool
I1009 17:09:12.000411  2156 net.cpp:410] inception_3b/pool <- inception_3a/output_inception_3a/output_0_split_3
I1009 17:09:12.000425  2156 net.cpp:368] inception_3b/pool -> inception_3b/pool
I1009 17:09:12.000442  2156 net.cpp:120] Setting up inception_3b/pool
I1009 17:09:12.000458  2156 net.cpp:127] Top shape: 32 256 28 28 (6422528)
I1009 17:09:12.000470  2156 layer_factory.hpp:74] Creating layer inception_3b/pool_proj
I1009 17:09:12.000488  2156 net.cpp:90] Creating Layer inception_3b/pool_proj
I1009 17:09:12.000501  2156 net.cpp:410] inception_3b/pool_proj <- inception_3b/pool
I1009 17:09:12.000515  2156 net.cpp:368] inception_3b/pool_proj -> inception_3b/pool_proj
I1009 17:09:12.000531  2156 net.cpp:120] Setting up inception_3b/pool_proj
I1009 17:09:12.000723  2156 net.cpp:127] Top shape: 32 64 28 28 (1605632)
I1009 17:09:12.000740  2156 layer_factory.hpp:74] Creating layer inception_3b/relu_pool_proj
I1009 17:09:12.000752  2156 net.cpp:90] Creating Layer inception_3b/relu_pool_proj
I1009 17:09:12.000761  2156 net.cpp:410] inception_3b/relu_pool_proj <- inception_3b/pool_proj
I1009 17:09:12.000776  2156 net.cpp:357] inception_3b/relu_pool_proj -> inception_3b/pool_proj (in-place)
I1009 17:09:12.000790  2156 net.cpp:120] Setting up inception_3b/relu_pool_proj
I1009 17:09:12.000802  2156 net.cpp:127] Top shape: 32 64 28 28 (1605632)
I1009 17:09:12.000812  2156 layer_factory.hpp:74] Creating layer inception_3b/output
I1009 17:09:12.000834  2156 net.cpp:90] Creating Layer inception_3b/output
I1009 17:09:12.000844  2156 net.cpp:410] inception_3b/output <- inception_3b/1x1
I1009 17:09:12.000855  2156 net.cpp:410] inception_3b/output <- inception_3b/3x3
I1009 17:09:12.000865  2156 net.cpp:410] inception_3b/output <- inception_3b/5x5
I1009 17:09:12.000875  2156 net.cpp:410] inception_3b/output <- inception_3b/pool_proj
I1009 17:09:12.000887  2156 net.cpp:368] inception_3b/output -> inception_3b/output
I1009 17:09:12.000900  2156 net.cpp:120] Setting up inception_3b/output
I1009 17:09:12.000916  2156 net.cpp:127] Top shape: 32 480 28 28 (12042240)
I1009 17:09:12.000924  2156 layer_factory.hpp:74] Creating layer pool3/3x3_s2
I1009 17:09:12.000939  2156 net.cpp:90] Creating Layer pool3/3x3_s2
I1009 17:09:12.000949  2156 net.cpp:410] pool3/3x3_s2 <- inception_3b/output
I1009 17:09:12.000962  2156 net.cpp:368] pool3/3x3_s2 -> pool3/3x3_s2
I1009 17:09:12.000974  2156 net.cpp:120] Setting up pool3/3x3_s2
I1009 17:09:12.000990  2156 net.cpp:127] Top shape: 32 480 14 14 (3010560)
I1009 17:09:12.001001  2156 layer_factory.hpp:74] Creating layer pool3/3x3_s2_pool3/3x3_s2_0_split
I1009 17:09:12.001013  2156 net.cpp:90] Creating Layer pool3/3x3_s2_pool3/3x3_s2_0_split
I1009 17:09:12.001022  2156 net.cpp:410] pool3/3x3_s2_pool3/3x3_s2_0_split <- pool3/3x3_s2
I1009 17:09:12.001039  2156 net.cpp:368] pool3/3x3_s2_pool3/3x3_s2_0_split -> pool3/3x3_s2_pool3/3x3_s2_0_split_0
I1009 17:09:12.001054  2156 net.cpp:368] pool3/3x3_s2_pool3/3x3_s2_0_split -> pool3/3x3_s2_pool3/3x3_s2_0_split_1
I1009 17:09:12.001070  2156 net.cpp:368] pool3/3x3_s2_pool3/3x3_s2_0_split -> pool3/3x3_s2_pool3/3x3_s2_0_split_2
I1009 17:09:12.001087  2156 net.cpp:368] pool3/3x3_s2_pool3/3x3_s2_0_split -> pool3/3x3_s2_pool3/3x3_s2_0_split_3
I1009 17:09:12.001101  2156 net.cpp:120] Setting up pool3/3x3_s2_pool3/3x3_s2_0_split
I1009 17:09:12.001118  2156 net.cpp:127] Top shape: 32 480 14 14 (3010560)
I1009 17:09:12.001132  2156 net.cpp:127] Top shape: 32 480 14 14 (3010560)
I1009 17:09:12.001143  2156 net.cpp:127] Top shape: 32 480 14 14 (3010560)
I1009 17:09:12.001154  2156 net.cpp:127] Top shape: 32 480 14 14 (3010560)
I1009 17:09:12.001163  2156 layer_factory.hpp:74] Creating layer inception_4a/1x1
I1009 17:09:12.001175  2156 net.cpp:90] Creating Layer inception_4a/1x1
I1009 17:09:12.001184  2156 net.cpp:410] inception_4a/1x1 <- pool3/3x3_s2_pool3/3x3_s2_0_split_0
I1009 17:09:12.001201  2156 net.cpp:368] inception_4a/1x1 -> inception_4a/1x1
I1009 17:09:12.001219  2156 net.cpp:120] Setting up inception_4a/1x1
I1009 17:09:12.002149  2156 net.cpp:127] Top shape: 32 192 14 14 (1204224)
I1009 17:09:12.002167  2156 layer_factory.hpp:74] Creating layer inception_4a/relu_1x1
I1009 17:09:12.002179  2156 net.cpp:90] Creating Layer inception_4a/relu_1x1
I1009 17:09:12.002188  2156 net.cpp:410] inception_4a/relu_1x1 <- inception_4a/1x1
I1009 17:09:12.002202  2156 net.cpp:357] inception_4a/relu_1x1 -> inception_4a/1x1 (in-place)
I1009 17:09:12.002216  2156 net.cpp:120] Setting up inception_4a/relu_1x1
I1009 17:09:12.002229  2156 net.cpp:127] Top shape: 32 192 14 14 (1204224)
I1009 17:09:12.002238  2156 layer_factory.hpp:74] Creating layer inception_4a/3x3_reduce
I1009 17:09:12.002250  2156 net.cpp:90] Creating Layer inception_4a/3x3_reduce
I1009 17:09:12.002259  2156 net.cpp:410] inception_4a/3x3_reduce <- pool3/3x3_s2_pool3/3x3_s2_0_split_1
I1009 17:09:12.002275  2156 net.cpp:368] inception_4a/3x3_reduce -> inception_4a/3x3_reduce
I1009 17:09:12.002291  2156 net.cpp:120] Setting up inception_4a/3x3_reduce
I1009 17:09:12.002769  2156 net.cpp:127] Top shape: 32 96 14 14 (602112)
I1009 17:09:12.002794  2156 layer_factory.hpp:74] Creating layer inception_4a/relu_3x3_reduce
I1009 17:09:12.002809  2156 net.cpp:90] Creating Layer inception_4a/relu_3x3_reduce
I1009 17:09:12.002818  2156 net.cpp:410] inception_4a/relu_3x3_reduce <- inception_4a/3x3_reduce
I1009 17:09:12.002830  2156 net.cpp:357] inception_4a/relu_3x3_reduce -> inception_4a/3x3_reduce (in-place)
I1009 17:09:12.002854  2156 net.cpp:120] Setting up inception_4a/relu_3x3_reduce
I1009 17:09:12.002868  2156 net.cpp:127] Top shape: 32 96 14 14 (602112)
I1009 17:09:12.002877  2156 layer_factory.hpp:74] Creating layer inception_4a/3x3
I1009 17:09:12.002890  2156 net.cpp:90] Creating Layer inception_4a/3x3
I1009 17:09:12.002899  2156 net.cpp:410] inception_4a/3x3 <- inception_4a/3x3_reduce
I1009 17:09:12.002915  2156 net.cpp:368] inception_4a/3x3 -> inception_4a/3x3
I1009 17:09:12.002931  2156 net.cpp:120] Setting up inception_4a/3x3
I1009 17:09:12.004830  2156 net.cpp:127] Top shape: 32 208 14 14 (1304576)
I1009 17:09:12.004848  2156 layer_factory.hpp:74] Creating layer inception_4a/relu_3x3
I1009 17:09:12.004863  2156 net.cpp:90] Creating Layer inception_4a/relu_3x3
I1009 17:09:12.004873  2156 net.cpp:410] inception_4a/relu_3x3 <- inception_4a/3x3
I1009 17:09:12.004884  2156 net.cpp:357] inception_4a/relu_3x3 -> inception_4a/3x3 (in-place)
I1009 17:09:12.004899  2156 net.cpp:120] Setting up inception_4a/relu_3x3
I1009 17:09:12.004909  2156 net.cpp:127] Top shape: 32 208 14 14 (1304576)
I1009 17:09:12.004919  2156 layer_factory.hpp:74] Creating layer inception_4a/5x5_reduce
I1009 17:09:12.004931  2156 net.cpp:90] Creating Layer inception_4a/5x5_reduce
I1009 17:09:12.004940  2156 net.cpp:410] inception_4a/5x5_reduce <- pool3/3x3_s2_pool3/3x3_s2_0_split_2
I1009 17:09:12.004956  2156 net.cpp:368] inception_4a/5x5_reduce -> inception_4a/5x5_reduce
I1009 17:09:12.004971  2156 net.cpp:120] Setting up inception_4a/5x5_reduce
I1009 17:09:12.005074  2156 net.cpp:127] Top shape: 32 16 14 14 (100352)
I1009 17:09:12.005091  2156 layer_factory.hpp:74] Creating layer inception_4a/relu_5x5_reduce
I1009 17:09:12.005105  2156 net.cpp:90] Creating Layer inception_4a/relu_5x5_reduce
I1009 17:09:12.005115  2156 net.cpp:410] inception_4a/relu_5x5_reduce <- inception_4a/5x5_reduce
I1009 17:09:12.005128  2156 net.cpp:357] inception_4a/relu_5x5_reduce -> inception_4a/5x5_reduce (in-place)
I1009 17:09:12.005142  2156 net.cpp:120] Setting up inception_4a/relu_5x5_reduce
I1009 17:09:12.005156  2156 net.cpp:127] Top shape: 32 16 14 14 (100352)
I1009 17:09:12.005164  2156 layer_factory.hpp:74] Creating layer inception_4a/5x5
I1009 17:09:12.005177  2156 net.cpp:90] Creating Layer inception_4a/5x5
I1009 17:09:12.005187  2156 net.cpp:410] inception_4a/5x5 <- inception_4a/5x5_reduce
I1009 17:09:12.005199  2156 net.cpp:368] inception_4a/5x5 -> inception_4a/5x5
I1009 17:09:12.005213  2156 net.cpp:120] Setting up inception_4a/5x5
I1009 17:09:12.005440  2156 net.cpp:127] Top shape: 32 48 14 14 (301056)
I1009 17:09:12.005457  2156 layer_factory.hpp:74] Creating layer inception_4a/relu_5x5
I1009 17:09:12.005470  2156 net.cpp:90] Creating Layer inception_4a/relu_5x5
I1009 17:09:12.005480  2156 net.cpp:410] inception_4a/relu_5x5 <- inception_4a/5x5
I1009 17:09:12.005493  2156 net.cpp:357] inception_4a/relu_5x5 -> inception_4a/5x5 (in-place)
I1009 17:09:12.005507  2156 net.cpp:120] Setting up inception_4a/relu_5x5
I1009 17:09:12.005524  2156 net.cpp:127] Top shape: 32 48 14 14 (301056)
I1009 17:09:12.005537  2156 layer_factory.hpp:74] Creating layer inception_4a/pool
I1009 17:09:12.005548  2156 net.cpp:90] Creating Layer inception_4a/pool
I1009 17:09:12.005558  2156 net.cpp:410] inception_4a/pool <- pool3/3x3_s2_pool3/3x3_s2_0_split_3
I1009 17:09:12.005570  2156 net.cpp:368] inception_4a/pool -> inception_4a/pool
I1009 17:09:12.005584  2156 net.cpp:120] Setting up inception_4a/pool
I1009 17:09:12.005599  2156 net.cpp:127] Top shape: 32 480 14 14 (3010560)
I1009 17:09:12.005610  2156 layer_factory.hpp:74] Creating layer inception_4a/pool_proj
I1009 17:09:12.005627  2156 net.cpp:90] Creating Layer inception_4a/pool_proj
I1009 17:09:12.005638  2156 net.cpp:410] inception_4a/pool_proj <- inception_4a/pool
I1009 17:09:12.005656  2156 net.cpp:368] inception_4a/pool_proj -> inception_4a/pool_proj
I1009 17:09:12.005672  2156 net.cpp:120] Setting up inception_4a/pool_proj
I1009 17:09:12.006009  2156 net.cpp:127] Top shape: 32 64 14 14 (401408)
I1009 17:09:12.006026  2156 layer_factory.hpp:74] Creating layer inception_4a/relu_pool_proj
I1009 17:09:12.006050  2156 net.cpp:90] Creating Layer inception_4a/relu_pool_proj
I1009 17:09:12.006062  2156 net.cpp:410] inception_4a/relu_pool_proj <- inception_4a/pool_proj
I1009 17:09:12.006073  2156 net.cpp:357] inception_4a/relu_pool_proj -> inception_4a/pool_proj (in-place)
I1009 17:09:12.006086  2156 net.cpp:120] Setting up inception_4a/relu_pool_proj
I1009 17:09:12.006098  2156 net.cpp:127] Top shape: 32 64 14 14 (401408)
I1009 17:09:12.006110  2156 layer_factory.hpp:74] Creating layer inception_4a/output
I1009 17:09:12.006122  2156 net.cpp:90] Creating Layer inception_4a/output
I1009 17:09:12.006131  2156 net.cpp:410] inception_4a/output <- inception_4a/1x1
I1009 17:09:12.006141  2156 net.cpp:410] inception_4a/output <- inception_4a/3x3
I1009 17:09:12.006151  2156 net.cpp:410] inception_4a/output <- inception_4a/5x5
I1009 17:09:12.006161  2156 net.cpp:410] inception_4a/output <- inception_4a/pool_proj
I1009 17:09:12.006175  2156 net.cpp:368] inception_4a/output -> inception_4a/output
I1009 17:09:12.006191  2156 net.cpp:120] Setting up inception_4a/output
I1009 17:09:12.006208  2156 net.cpp:127] Top shape: 32 512 14 14 (3211264)
I1009 17:09:12.006220  2156 layer_factory.hpp:74] Creating layer inception_4a/output_inception_4a/output_0_split
I1009 17:09:12.006233  2156 net.cpp:90] Creating Layer inception_4a/output_inception_4a/output_0_split
I1009 17:09:12.006242  2156 net.cpp:410] inception_4a/output_inception_4a/output_0_split <- inception_4a/output
I1009 17:09:12.006254  2156 net.cpp:368] inception_4a/output_inception_4a/output_0_split -> inception_4a/output_inception_4a/output_0_split_0
I1009 17:09:12.006274  2156 net.cpp:368] inception_4a/output_inception_4a/output_0_split -> inception_4a/output_inception_4a/output_0_split_1
I1009 17:09:12.006292  2156 net.cpp:368] inception_4a/output_inception_4a/output_0_split -> inception_4a/output_inception_4a/output_0_split_2
I1009 17:09:12.006309  2156 net.cpp:368] inception_4a/output_inception_4a/output_0_split -> inception_4a/output_inception_4a/output_0_split_3
I1009 17:09:12.006325  2156 net.cpp:368] inception_4a/output_inception_4a/output_0_split -> inception_4a/output_inception_4a/output_0_split_4
I1009 17:09:12.006340  2156 net.cpp:120] Setting up inception_4a/output_inception_4a/output_0_split
I1009 17:09:12.006357  2156 net.cpp:127] Top shape: 32 512 14 14 (3211264)
I1009 17:09:12.006368  2156 net.cpp:127] Top shape: 32 512 14 14 (3211264)
I1009 17:09:12.006379  2156 net.cpp:127] Top shape: 32 512 14 14 (3211264)
I1009 17:09:12.006391  2156 net.cpp:127] Top shape: 32 512 14 14 (3211264)
I1009 17:09:12.006400  2156 net.cpp:127] Top shape: 32 512 14 14 (3211264)
I1009 17:09:12.006410  2156 layer_factory.hpp:74] Creating layer loss1/ave_pool
I1009 17:09:12.006427  2156 net.cpp:90] Creating Layer loss1/ave_pool
I1009 17:09:12.006439  2156 net.cpp:410] loss1/ave_pool <- inception_4a/output_inception_4a/output_0_split_0
I1009 17:09:12.006453  2156 net.cpp:368] loss1/ave_pool -> loss1/ave_pool
I1009 17:09:12.006466  2156 net.cpp:120] Setting up loss1/ave_pool
I1009 17:09:12.006481  2156 net.cpp:127] Top shape: 32 512 4 4 (262144)
I1009 17:09:12.006492  2156 layer_factory.hpp:74] Creating layer loss1/conv
I1009 17:09:12.006508  2156 net.cpp:90] Creating Layer loss1/conv
I1009 17:09:12.006520  2156 net.cpp:410] loss1/conv <- loss1/ave_pool
I1009 17:09:12.006535  2156 net.cpp:368] loss1/conv -> loss1/conv
I1009 17:09:12.006551  2156 net.cpp:120] Setting up loss1/conv
I1009 17:09:12.007236  2156 net.cpp:127] Top shape: 32 128 4 4 (65536)
I1009 17:09:12.007254  2156 layer_factory.hpp:74] Creating layer loss1/relu_conv
I1009 17:09:12.007267  2156 net.cpp:90] Creating Layer loss1/relu_conv
I1009 17:09:12.007277  2156 net.cpp:410] loss1/relu_conv <- loss1/conv
I1009 17:09:12.007292  2156 net.cpp:357] loss1/relu_conv -> loss1/conv (in-place)
I1009 17:09:12.007304  2156 net.cpp:120] Setting up loss1/relu_conv
I1009 17:09:12.007320  2156 net.cpp:127] Top shape: 32 128 4 4 (65536)
I1009 17:09:12.007330  2156 layer_factory.hpp:74] Creating layer loss1/fc
I1009 17:09:12.007355  2156 net.cpp:90] Creating Layer loss1/fc
I1009 17:09:12.007367  2156 net.cpp:410] loss1/fc <- loss1/conv
I1009 17:09:12.007387  2156 net.cpp:368] loss1/fc -> loss1/fc
I1009 17:09:12.007406  2156 net.cpp:120] Setting up loss1/fc
I1009 17:09:12.028604  2156 net.cpp:127] Top shape: 32 1024 (32768)
I1009 17:09:12.028627  2156 layer_factory.hpp:74] Creating layer loss1/relu_fc
I1009 17:09:12.028642  2156 net.cpp:90] Creating Layer loss1/relu_fc
I1009 17:09:12.028653  2156 net.cpp:410] loss1/relu_fc <- loss1/fc
I1009 17:09:12.028669  2156 net.cpp:357] loss1/relu_fc -> loss1/fc (in-place)
I1009 17:09:12.028684  2156 net.cpp:120] Setting up loss1/relu_fc
I1009 17:09:12.028712  2156 net.cpp:127] Top shape: 32 1024 (32768)
I1009 17:09:12.028722  2156 layer_factory.hpp:74] Creating layer loss1/drop_fc
I1009 17:09:12.028746  2156 net.cpp:90] Creating Layer loss1/drop_fc
I1009 17:09:12.028759  2156 net.cpp:410] loss1/drop_fc <- loss1/fc
I1009 17:09:12.028771  2156 net.cpp:357] loss1/drop_fc -> loss1/fc (in-place)
I1009 17:09:12.028787  2156 net.cpp:120] Setting up loss1/drop_fc
I1009 17:09:12.028846  2156 net.cpp:127] Top shape: 32 1024 (32768)
I1009 17:09:12.028858  2156 layer_factory.hpp:74] Creating layer ft_loss1/classifier
I1009 17:09:12.028873  2156 net.cpp:90] Creating Layer ft_loss1/classifier
I1009 17:09:12.028882  2156 net.cpp:410] ft_loss1/classifier <- loss1/fc
I1009 17:09:12.028902  2156 net.cpp:368] ft_loss1/classifier -> ft_loss1/classifier
I1009 17:09:12.028918  2156 net.cpp:120] Setting up ft_loss1/classifier
I1009 17:09:12.028970  2156 net.cpp:127] Top shape: 32 2 (64)
I1009 17:09:12.028990  2156 layer_factory.hpp:74] Creating layer loss1/loss
I1009 17:09:12.029044  2156 net.cpp:90] Creating Layer loss1/loss
I1009 17:09:12.029057  2156 net.cpp:410] loss1/loss <- ft_loss1/classifier
I1009 17:09:12.029068  2156 net.cpp:410] loss1/loss <- label_data_1_split_0
I1009 17:09:12.029081  2156 net.cpp:368] loss1/loss -> loss1/loss1
I1009 17:09:12.029095  2156 net.cpp:120] Setting up loss1/loss
I1009 17:09:12.029109  2156 layer_factory.hpp:74] Creating layer loss1/loss
I1009 17:09:12.029167  2156 net.cpp:127] Top shape: (1)
I1009 17:09:12.029178  2156 net.cpp:129]     with loss weight 0.3
I1009 17:09:12.029253  2156 layer_factory.hpp:74] Creating layer inception_4b/1x1
I1009 17:09:12.029270  2156 net.cpp:90] Creating Layer inception_4b/1x1
I1009 17:09:12.029280  2156 net.cpp:410] inception_4b/1x1 <- inception_4a/output_inception_4a/output_0_split_1
I1009 17:09:12.029299  2156 net.cpp:368] inception_4b/1x1 -> inception_4b/1x1
I1009 17:09:12.029316  2156 net.cpp:120] Setting up inception_4b/1x1
I1009 17:09:12.030172  2156 net.cpp:127] Top shape: 32 160 14 14 (1003520)
I1009 17:09:12.030190  2156 layer_factory.hpp:74] Creating layer inception_4b/relu_1x1
I1009 17:09:12.030205  2156 net.cpp:90] Creating Layer inception_4b/relu_1x1
I1009 17:09:12.030215  2156 net.cpp:410] inception_4b/relu_1x1 <- inception_4b/1x1
I1009 17:09:12.030226  2156 net.cpp:357] inception_4b/relu_1x1 -> inception_4b/1x1 (in-place)
I1009 17:09:12.030238  2156 net.cpp:120] Setting up inception_4b/relu_1x1
I1009 17:09:12.030251  2156 net.cpp:127] Top shape: 32 160 14 14 (1003520)
I1009 17:09:12.030261  2156 layer_factory.hpp:74] Creating layer inception_4b/3x3_reduce
I1009 17:09:12.030277  2156 net.cpp:90] Creating Layer inception_4b/3x3_reduce
I1009 17:09:12.030287  2156 net.cpp:410] inception_4b/3x3_reduce <- inception_4a/output_inception_4a/output_0_split_2
I1009 17:09:12.030305  2156 net.cpp:368] inception_4b/3x3_reduce -> inception_4b/3x3_reduce
I1009 17:09:12.030321  2156 net.cpp:120] Setting up inception_4b/3x3_reduce
I1009 17:09:12.030935  2156 net.cpp:127] Top shape: 32 112 14 14 (702464)
I1009 17:09:12.030952  2156 layer_factory.hpp:74] Creating layer inception_4b/relu_3x3_reduce
I1009 17:09:12.030967  2156 net.cpp:90] Creating Layer inception_4b/relu_3x3_reduce
I1009 17:09:12.030978  2156 net.cpp:410] inception_4b/relu_3x3_reduce <- inception_4b/3x3_reduce
I1009 17:09:12.030990  2156 net.cpp:357] inception_4b/relu_3x3_reduce -> inception_4b/3x3_reduce (in-place)
I1009 17:09:12.031016  2156 net.cpp:120] Setting up inception_4b/relu_3x3_reduce
I1009 17:09:12.031033  2156 net.cpp:127] Top shape: 32 112 14 14 (702464)
I1009 17:09:12.031043  2156 layer_factory.hpp:74] Creating layer inception_4b/3x3
I1009 17:09:12.031060  2156 net.cpp:90] Creating Layer inception_4b/3x3
I1009 17:09:12.031072  2156 net.cpp:410] inception_4b/3x3 <- inception_4b/3x3_reduce
I1009 17:09:12.031087  2156 net.cpp:368] inception_4b/3x3 -> inception_4b/3x3
I1009 17:09:12.031102  2156 net.cpp:120] Setting up inception_4b/3x3
I1009 17:09:12.033398  2156 net.cpp:127] Top shape: 32 224 14 14 (1404928)
I1009 17:09:12.033416  2156 layer_factory.hpp:74] Creating layer inception_4b/relu_3x3
I1009 17:09:12.033433  2156 net.cpp:90] Creating Layer inception_4b/relu_3x3
I1009 17:09:12.033452  2156 net.cpp:410] inception_4b/relu_3x3 <- inception_4b/3x3
I1009 17:09:12.033463  2156 net.cpp:357] inception_4b/relu_3x3 -> inception_4b/3x3 (in-place)
I1009 17:09:12.033478  2156 net.cpp:120] Setting up inception_4b/relu_3x3
I1009 17:09:12.033490  2156 net.cpp:127] Top shape: 32 224 14 14 (1404928)
I1009 17:09:12.033500  2156 layer_factory.hpp:74] Creating layer inception_4b/5x5_reduce
I1009 17:09:12.033520  2156 net.cpp:90] Creating Layer inception_4b/5x5_reduce
I1009 17:09:12.033531  2156 net.cpp:410] inception_4b/5x5_reduce <- inception_4a/output_inception_4a/output_0_split_3
I1009 17:09:12.033547  2156 net.cpp:368] inception_4b/5x5_reduce -> inception_4b/5x5_reduce
I1009 17:09:12.033561  2156 net.cpp:120] Setting up inception_4b/5x5_reduce
I1009 17:09:12.033720  2156 net.cpp:127] Top shape: 32 24 14 14 (150528)
I1009 17:09:12.033737  2156 layer_factory.hpp:74] Creating layer inception_4b/relu_5x5_reduce
I1009 17:09:12.033749  2156 net.cpp:90] Creating Layer inception_4b/relu_5x5_reduce
I1009 17:09:12.033759  2156 net.cpp:410] inception_4b/relu_5x5_reduce <- inception_4b/5x5_reduce
I1009 17:09:12.033773  2156 net.cpp:357] inception_4b/relu_5x5_reduce -> inception_4b/5x5_reduce (in-place)
I1009 17:09:12.033787  2156 net.cpp:120] Setting up inception_4b/relu_5x5_reduce
I1009 17:09:12.033799  2156 net.cpp:127] Top shape: 32 24 14 14 (150528)
I1009 17:09:12.033808  2156 layer_factory.hpp:74] Creating layer inception_4b/5x5
I1009 17:09:12.033821  2156 net.cpp:90] Creating Layer inception_4b/5x5
I1009 17:09:12.033830  2156 net.cpp:410] inception_4b/5x5 <- inception_4b/5x5_reduce
I1009 17:09:12.033849  2156 net.cpp:368] inception_4b/5x5 -> inception_4b/5x5
I1009 17:09:12.033865  2156 net.cpp:120] Setting up inception_4b/5x5
I1009 17:09:12.034286  2156 net.cpp:127] Top shape: 32 64 14 14 (401408)
I1009 17:09:12.034304  2156 layer_factory.hpp:74] Creating layer inception_4b/relu_5x5
I1009 17:09:12.034317  2156 net.cpp:90] Creating Layer inception_4b/relu_5x5
I1009 17:09:12.034327  2156 net.cpp:410] inception_4b/relu_5x5 <- inception_4b/5x5
I1009 17:09:12.034339  2156 net.cpp:357] inception_4b/relu_5x5 -> inception_4b/5x5 (in-place)
I1009 17:09:12.034353  2156 net.cpp:120] Setting up inception_4b/relu_5x5
I1009 17:09:12.034365  2156 net.cpp:127] Top shape: 32 64 14 14 (401408)
I1009 17:09:12.034375  2156 layer_factory.hpp:74] Creating layer inception_4b/pool
I1009 17:09:12.034389  2156 net.cpp:90] Creating Layer inception_4b/pool
I1009 17:09:12.034404  2156 net.cpp:410] inception_4b/pool <- inception_4a/output_inception_4a/output_0_split_4
I1009 17:09:12.034416  2156 net.cpp:368] inception_4b/pool -> inception_4b/pool
I1009 17:09:12.034440  2156 net.cpp:120] Setting up inception_4b/pool
I1009 17:09:12.034461  2156 net.cpp:127] Top shape: 32 512 14 14 (3211264)
I1009 17:09:12.034474  2156 layer_factory.hpp:74] Creating layer inception_4b/pool_proj
I1009 17:09:12.034492  2156 net.cpp:90] Creating Layer inception_4b/pool_proj
I1009 17:09:12.034504  2156 net.cpp:410] inception_4b/pool_proj <- inception_4b/pool
I1009 17:09:12.034519  2156 net.cpp:368] inception_4b/pool_proj -> inception_4b/pool_proj
I1009 17:09:12.034534  2156 net.cpp:120] Setting up inception_4b/pool_proj
I1009 17:09:12.034911  2156 net.cpp:127] Top shape: 32 64 14 14 (401408)
I1009 17:09:12.034929  2156 layer_factory.hpp:74] Creating layer inception_4b/relu_pool_proj
I1009 17:09:12.034941  2156 net.cpp:90] Creating Layer inception_4b/relu_pool_proj
I1009 17:09:12.034955  2156 net.cpp:410] inception_4b/relu_pool_proj <- inception_4b/pool_proj
I1009 17:09:12.034966  2156 net.cpp:357] inception_4b/relu_pool_proj -> inception_4b/pool_proj (in-place)
I1009 17:09:12.034979  2156 net.cpp:120] Setting up inception_4b/relu_pool_proj
I1009 17:09:12.034991  2156 net.cpp:127] Top shape: 32 64 14 14 (401408)
I1009 17:09:12.035001  2156 layer_factory.hpp:74] Creating layer inception_4b/output
I1009 17:09:12.035013  2156 net.cpp:90] Creating Layer inception_4b/output
I1009 17:09:12.035022  2156 net.cpp:410] inception_4b/output <- inception_4b/1x1
I1009 17:09:12.035032  2156 net.cpp:410] inception_4b/output <- inception_4b/3x3
I1009 17:09:12.035043  2156 net.cpp:410] inception_4b/output <- inception_4b/5x5
I1009 17:09:12.035053  2156 net.cpp:410] inception_4b/output <- inception_4b/pool_proj
I1009 17:09:12.035064  2156 net.cpp:368] inception_4b/output -> inception_4b/output
I1009 17:09:12.035078  2156 net.cpp:120] Setting up inception_4b/output
I1009 17:09:12.035092  2156 net.cpp:127] Top shape: 32 512 14 14 (3211264)
I1009 17:09:12.035104  2156 layer_factory.hpp:74] Creating layer inception_4b/output_inception_4b/output_0_split
I1009 17:09:12.035120  2156 net.cpp:90] Creating Layer inception_4b/output_inception_4b/output_0_split
I1009 17:09:12.035131  2156 net.cpp:410] inception_4b/output_inception_4b/output_0_split <- inception_4b/output
I1009 17:09:12.035143  2156 net.cpp:368] inception_4b/output_inception_4b/output_0_split -> inception_4b/output_inception_4b/output_0_split_0
I1009 17:09:12.035158  2156 net.cpp:368] inception_4b/output_inception_4b/output_0_split -> inception_4b/output_inception_4b/output_0_split_1
I1009 17:09:12.035173  2156 net.cpp:368] inception_4b/output_inception_4b/output_0_split -> inception_4b/output_inception_4b/output_0_split_2
I1009 17:09:12.035193  2156 net.cpp:368] inception_4b/output_inception_4b/output_0_split -> inception_4b/output_inception_4b/output_0_split_3
I1009 17:09:12.035209  2156 net.cpp:120] Setting up inception_4b/output_inception_4b/output_0_split
I1009 17:09:12.035225  2156 net.cpp:127] Top shape: 32 512 14 14 (3211264)
I1009 17:09:12.035238  2156 net.cpp:127] Top shape: 32 512 14 14 (3211264)
I1009 17:09:12.035248  2156 net.cpp:127] Top shape: 32 512 14 14 (3211264)
I1009 17:09:12.035259  2156 net.cpp:127] Top shape: 32 512 14 14 (3211264)
I1009 17:09:12.035267  2156 layer_factory.hpp:74] Creating layer inception_4c/1x1
I1009 17:09:12.035281  2156 net.cpp:90] Creating Layer inception_4c/1x1
I1009 17:09:12.035290  2156 net.cpp:410] inception_4c/1x1 <- inception_4b/output_inception_4b/output_0_split_0
I1009 17:09:12.035307  2156 net.cpp:368] inception_4c/1x1 -> inception_4c/1x1
I1009 17:09:12.035325  2156 net.cpp:120] Setting up inception_4c/1x1
I1009 17:09:12.036015  2156 net.cpp:127] Top shape: 32 128 14 14 (802816)
I1009 17:09:12.036031  2156 layer_factory.hpp:74] Creating layer inception_4c/relu_1x1
I1009 17:09:12.036044  2156 net.cpp:90] Creating Layer inception_4c/relu_1x1
I1009 17:09:12.036054  2156 net.cpp:410] inception_4c/relu_1x1 <- inception_4c/1x1
I1009 17:09:12.036068  2156 net.cpp:357] inception_4c/relu_1x1 -> inception_4c/1x1 (in-place)
I1009 17:09:12.036084  2156 net.cpp:120] Setting up inception_4c/relu_1x1
I1009 17:09:12.036098  2156 net.cpp:127] Top shape: 32 128 14 14 (802816)
I1009 17:09:12.036108  2156 layer_factory.hpp:74] Creating layer inception_4c/3x3_reduce
I1009 17:09:12.036121  2156 net.cpp:90] Creating Layer inception_4c/3x3_reduce
I1009 17:09:12.036131  2156 net.cpp:410] inception_4c/3x3_reduce <- inception_4b/output_inception_4b/output_0_split_1
I1009 17:09:12.036150  2156 net.cpp:368] inception_4c/3x3_reduce -> inception_4c/3x3_reduce
I1009 17:09:12.036169  2156 net.cpp:120] Setting up inception_4c/3x3_reduce
I1009 17:09:12.036860  2156 net.cpp:127] Top shape: 32 128 14 14 (802816)
I1009 17:09:12.036886  2156 layer_factory.hpp:74] Creating layer inception_4c/relu_3x3_reduce
I1009 17:09:12.036900  2156 net.cpp:90] Creating Layer inception_4c/relu_3x3_reduce
I1009 17:09:12.036909  2156 net.cpp:410] inception_4c/relu_3x3_reduce <- inception_4c/3x3_reduce
I1009 17:09:12.036921  2156 net.cpp:357] inception_4c/relu_3x3_reduce -> inception_4c/3x3_reduce (in-place)
I1009 17:09:12.036936  2156 net.cpp:120] Setting up inception_4c/relu_3x3_reduce
I1009 17:09:12.036950  2156 net.cpp:127] Top shape: 32 128 14 14 (802816)
I1009 17:09:12.036959  2156 layer_factory.hpp:74] Creating layer inception_4c/3x3
I1009 17:09:12.036972  2156 net.cpp:90] Creating Layer inception_4c/3x3
I1009 17:09:12.036980  2156 net.cpp:410] inception_4c/3x3 <- inception_4c/3x3_reduce
I1009 17:09:12.036993  2156 net.cpp:368] inception_4c/3x3 -> inception_4c/3x3
I1009 17:09:12.037008  2156 net.cpp:120] Setting up inception_4c/3x3
I1009 17:09:12.040101  2156 net.cpp:127] Top shape: 32 256 14 14 (1605632)
I1009 17:09:12.040139  2156 layer_factory.hpp:74] Creating layer inception_4c/relu_3x3
I1009 17:09:12.040160  2156 net.cpp:90] Creating Layer inception_4c/relu_3x3
I1009 17:09:12.040174  2156 net.cpp:410] inception_4c/relu_3x3 <- inception_4c/3x3
I1009 17:09:12.040191  2156 net.cpp:357] inception_4c/relu_3x3 -> inception_4c/3x3 (in-place)
I1009 17:09:12.040211  2156 net.cpp:120] Setting up inception_4c/relu_3x3
I1009 17:09:12.040230  2156 net.cpp:127] Top shape: 32 256 14 14 (1605632)
I1009 17:09:12.040242  2156 layer_factory.hpp:74] Creating layer inception_4c/5x5_reduce
I1009 17:09:12.040261  2156 net.cpp:90] Creating Layer inception_4c/5x5_reduce
I1009 17:09:12.040274  2156 net.cpp:410] inception_4c/5x5_reduce <- inception_4b/output_inception_4b/output_0_split_2
I1009 17:09:12.040302  2156 net.cpp:368] inception_4c/5x5_reduce -> inception_4c/5x5_reduce
I1009 17:09:12.040324  2156 net.cpp:120] Setting up inception_4c/5x5_reduce
I1009 17:09:12.040508  2156 net.cpp:127] Top shape: 32 24 14 14 (150528)
I1009 17:09:12.040530  2156 layer_factory.hpp:74] Creating layer inception_4c/relu_5x5_reduce
I1009 17:09:12.040547  2156 net.cpp:90] Creating Layer inception_4c/relu_5x5_reduce
I1009 17:09:12.040560  2156 net.cpp:410] inception_4c/relu_5x5_reduce <- inception_4c/5x5_reduce
I1009 17:09:12.040575  2156 net.cpp:357] inception_4c/relu_5x5_reduce -> inception_4c/5x5_reduce (in-place)
I1009 17:09:12.040588  2156 net.cpp:120] Setting up inception_4c/relu_5x5_reduce
I1009 17:09:12.040599  2156 net.cpp:127] Top shape: 32 24 14 14 (150528)
I1009 17:09:12.040612  2156 layer_factory.hpp:74] Creating layer inception_4c/5x5
I1009 17:09:12.040658  2156 net.cpp:90] Creating Layer inception_4c/5x5
I1009 17:09:12.040674  2156 net.cpp:410] inception_4c/5x5 <- inception_4c/5x5_reduce
I1009 17:09:12.040695  2156 net.cpp:368] inception_4c/5x5 -> inception_4c/5x5
I1009 17:09:12.040715  2156 net.cpp:120] Setting up inception_4c/5x5
I1009 17:09:12.041368  2156 net.cpp:127] Top shape: 32 64 14 14 (401408)
I1009 17:09:12.041390  2156 layer_factory.hpp:74] Creating layer inception_4c/relu_5x5
I1009 17:09:12.041405  2156 net.cpp:90] Creating Layer inception_4c/relu_5x5
I1009 17:09:12.041420  2156 net.cpp:410] inception_4c/relu_5x5 <- inception_4c/5x5
I1009 17:09:12.041435  2156 net.cpp:357] inception_4c/relu_5x5 -> inception_4c/5x5 (in-place)
I1009 17:09:12.041448  2156 net.cpp:120] Setting up inception_4c/relu_5x5
I1009 17:09:12.041461  2156 net.cpp:127] Top shape: 32 64 14 14 (401408)
I1009 17:09:12.041471  2156 layer_factory.hpp:74] Creating layer inception_4c/pool
I1009 17:09:12.041484  2156 net.cpp:90] Creating Layer inception_4c/pool
I1009 17:09:12.041494  2156 net.cpp:410] inception_4c/pool <- inception_4b/output_inception_4b/output_0_split_3
I1009 17:09:12.041507  2156 net.cpp:368] inception_4c/pool -> inception_4c/pool
I1009 17:09:12.041522  2156 net.cpp:120] Setting up inception_4c/pool
I1009 17:09:12.041539  2156 net.cpp:127] Top shape: 32 512 14 14 (3211264)
I1009 17:09:12.041550  2156 layer_factory.hpp:74] Creating layer inception_4c/pool_proj
I1009 17:09:12.041626  2156 net.cpp:90] Creating Layer inception_4c/pool_proj
I1009 17:09:12.041640  2156 net.cpp:410] inception_4c/pool_proj <- inception_4c/pool
I1009 17:09:12.041656  2156 net.cpp:368] inception_4c/pool_proj -> inception_4c/pool_proj
I1009 17:09:12.041671  2156 net.cpp:120] Setting up inception_4c/pool_proj
I1009 17:09:12.042196  2156 net.cpp:127] Top shape: 32 64 14 14 (401408)
I1009 17:09:12.042219  2156 layer_factory.hpp:74] Creating layer inception_4c/relu_pool_proj
I1009 17:09:12.042237  2156 net.cpp:90] Creating Layer inception_4c/relu_pool_proj
I1009 17:09:12.042246  2156 net.cpp:410] inception_4c/relu_pool_proj <- inception_4c/pool_proj
I1009 17:09:12.042263  2156 net.cpp:357] inception_4c/relu_pool_proj -> inception_4c/pool_proj (in-place)
I1009 17:09:12.042279  2156 net.cpp:120] Setting up inception_4c/relu_pool_proj
I1009 17:09:12.042294  2156 net.cpp:127] Top shape: 32 64 14 14 (401408)
I1009 17:09:12.042306  2156 layer_factory.hpp:74] Creating layer inception_4c/output
I1009 17:09:12.042320  2156 net.cpp:90] Creating Layer inception_4c/output
I1009 17:09:12.042328  2156 net.cpp:410] inception_4c/output <- inception_4c/1x1
I1009 17:09:12.042340  2156 net.cpp:410] inception_4c/output <- inception_4c/3x3
I1009 17:09:12.042351  2156 net.cpp:410] inception_4c/output <- inception_4c/5x5
I1009 17:09:12.042366  2156 net.cpp:410] inception_4c/output <- inception_4c/pool_proj
I1009 17:09:12.042378  2156 net.cpp:368] inception_4c/output -> inception_4c/output
I1009 17:09:12.042392  2156 net.cpp:120] Setting up inception_4c/output
I1009 17:09:12.042412  2156 net.cpp:127] Top shape: 32 512 14 14 (3211264)
I1009 17:09:12.042423  2156 layer_factory.hpp:74] Creating layer inception_4c/output_inception_4c/output_0_split
I1009 17:09:12.042433  2156 net.cpp:90] Creating Layer inception_4c/output_inception_4c/output_0_split
I1009 17:09:12.042443  2156 net.cpp:410] inception_4c/output_inception_4c/output_0_split <- inception_4c/output
I1009 17:09:12.042459  2156 net.cpp:368] inception_4c/output_inception_4c/output_0_split -> inception_4c/output_inception_4c/output_0_split_0
I1009 17:09:12.042475  2156 net.cpp:368] inception_4c/output_inception_4c/output_0_split -> inception_4c/output_inception_4c/output_0_split_1
I1009 17:09:12.042491  2156 net.cpp:368] inception_4c/output_inception_4c/output_0_split -> inception_4c/output_inception_4c/output_0_split_2
I1009 17:09:12.042506  2156 net.cpp:368] inception_4c/output_inception_4c/output_0_split -> inception_4c/output_inception_4c/output_0_split_3
I1009 17:09:12.042520  2156 net.cpp:120] Setting up inception_4c/output_inception_4c/output_0_split
I1009 17:09:12.042536  2156 net.cpp:127] Top shape: 32 512 14 14 (3211264)
I1009 17:09:12.042548  2156 net.cpp:127] Top shape: 32 512 14 14 (3211264)
I1009 17:09:12.042558  2156 net.cpp:127] Top shape: 32 512 14 14 (3211264)
I1009 17:09:12.042569  2156 net.cpp:127] Top shape: 32 512 14 14 (3211264)
I1009 17:09:12.042579  2156 layer_factory.hpp:74] Creating layer inception_4d/1x1
I1009 17:09:12.042598  2156 net.cpp:90] Creating Layer inception_4d/1x1
I1009 17:09:12.042609  2156 net.cpp:410] inception_4d/1x1 <- inception_4c/output_inception_4c/output_0_split_0
I1009 17:09:12.042624  2156 net.cpp:368] inception_4d/1x1 -> inception_4d/1x1
I1009 17:09:12.042640  2156 net.cpp:120] Setting up inception_4d/1x1
I1009 17:09:12.043649  2156 net.cpp:127] Top shape: 32 112 14 14 (702464)
I1009 17:09:12.043699  2156 layer_factory.hpp:74] Creating layer inception_4d/relu_1x1
I1009 17:09:12.043730  2156 net.cpp:90] Creating Layer inception_4d/relu_1x1
I1009 17:09:12.043737  2156 net.cpp:410] inception_4d/relu_1x1 <- inception_4d/1x1
I1009 17:09:12.043745  2156 net.cpp:357] inception_4d/relu_1x1 -> inception_4d/1x1 (in-place)
I1009 17:09:12.043752  2156 net.cpp:120] Setting up inception_4d/relu_1x1
I1009 17:09:12.043758  2156 net.cpp:127] Top shape: 32 112 14 14 (702464)
I1009 17:09:12.043763  2156 layer_factory.hpp:74] Creating layer inception_4d/3x3_reduce
I1009 17:09:12.043773  2156 net.cpp:90] Creating Layer inception_4d/3x3_reduce
I1009 17:09:12.043789  2156 net.cpp:410] inception_4d/3x3_reduce <- inception_4c/output_inception_4c/output_0_split_1
I1009 17:09:12.043798  2156 net.cpp:368] inception_4d/3x3_reduce -> inception_4d/3x3_reduce
I1009 17:09:12.043807  2156 net.cpp:120] Setting up inception_4d/3x3_reduce
I1009 17:09:12.045480  2156 net.cpp:127] Top shape: 32 144 14 14 (903168)
I1009 17:09:12.045496  2156 layer_factory.hpp:74] Creating layer inception_4d/relu_3x3_reduce
I1009 17:09:12.045506  2156 net.cpp:90] Creating Layer inception_4d/relu_3x3_reduce
I1009 17:09:12.045511  2156 net.cpp:410] inception_4d/relu_3x3_reduce <- inception_4d/3x3_reduce
I1009 17:09:12.045517  2156 net.cpp:357] inception_4d/relu_3x3_reduce -> inception_4d/3x3_reduce (in-place)
I1009 17:09:12.045524  2156 net.cpp:120] Setting up inception_4d/relu_3x3_reduce
I1009 17:09:12.045531  2156 net.cpp:127] Top shape: 32 144 14 14 (903168)
I1009 17:09:12.045536  2156 layer_factory.hpp:74] Creating layer inception_4d/3x3
I1009 17:09:12.045544  2156 net.cpp:90] Creating Layer inception_4d/3x3
I1009 17:09:12.045552  2156 net.cpp:410] inception_4d/3x3 <- inception_4d/3x3_reduce
I1009 17:09:12.045558  2156 net.cpp:368] inception_4d/3x3 -> inception_4d/3x3
I1009 17:09:12.045567  2156 net.cpp:120] Setting up inception_4d/3x3
I1009 17:09:12.050956  2156 net.cpp:127] Top shape: 32 288 14 14 (1806336)
I1009 17:09:12.050971  2156 layer_factory.hpp:74] Creating layer inception_4d/relu_3x3
I1009 17:09:12.050978  2156 net.cpp:90] Creating Layer inception_4d/relu_3x3
I1009 17:09:12.050984  2156 net.cpp:410] inception_4d/relu_3x3 <- inception_4d/3x3
I1009 17:09:12.050990  2156 net.cpp:357] inception_4d/relu_3x3 -> inception_4d/3x3 (in-place)
I1009 17:09:12.050997  2156 net.cpp:120] Setting up inception_4d/relu_3x3
I1009 17:09:12.051004  2156 net.cpp:127] Top shape: 32 288 14 14 (1806336)
I1009 17:09:12.051009  2156 layer_factory.hpp:74] Creating layer inception_4d/5x5_reduce
I1009 17:09:12.051017  2156 net.cpp:90] Creating Layer inception_4d/5x5_reduce
I1009 17:09:12.051022  2156 net.cpp:410] inception_4d/5x5_reduce <- inception_4c/output_inception_4c/output_0_split_2
I1009 17:09:12.051030  2156 net.cpp:368] inception_4d/5x5_reduce -> inception_4d/5x5_reduce
I1009 17:09:12.051039  2156 net.cpp:120] Setting up inception_4d/5x5_reduce
I1009 17:09:12.051215  2156 net.cpp:127] Top shape: 32 32 14 14 (200704)
I1009 17:09:12.051226  2156 layer_factory.hpp:74] Creating layer inception_4d/relu_5x5_reduce
I1009 17:09:12.051234  2156 net.cpp:90] Creating Layer inception_4d/relu_5x5_reduce
I1009 17:09:12.051239  2156 net.cpp:410] inception_4d/relu_5x5_reduce <- inception_4d/5x5_reduce
I1009 17:09:12.051246  2156 net.cpp:357] inception_4d/relu_5x5_reduce -> inception_4d/5x5_reduce (in-place)
I1009 17:09:12.051254  2156 net.cpp:120] Setting up inception_4d/relu_5x5_reduce
I1009 17:09:12.051259  2156 net.cpp:127] Top shape: 32 32 14 14 (200704)
I1009 17:09:12.051264  2156 layer_factory.hpp:74] Creating layer inception_4d/5x5
I1009 17:09:12.051271  2156 net.cpp:90] Creating Layer inception_4d/5x5
I1009 17:09:12.051275  2156 net.cpp:410] inception_4d/5x5 <- inception_4d/5x5_reduce
I1009 17:09:12.051285  2156 net.cpp:368] inception_4d/5x5 -> inception_4d/5x5
I1009 17:09:12.051292  2156 net.cpp:120] Setting up inception_4d/5x5
I1009 17:09:12.051826  2156 net.cpp:127] Top shape: 32 64 14 14 (401408)
I1009 17:09:12.051839  2156 layer_factory.hpp:74] Creating layer inception_4d/relu_5x5
I1009 17:09:12.051846  2156 net.cpp:90] Creating Layer inception_4d/relu_5x5
I1009 17:09:12.051852  2156 net.cpp:410] inception_4d/relu_5x5 <- inception_4d/5x5
I1009 17:09:12.051858  2156 net.cpp:357] inception_4d/relu_5x5 -> inception_4d/5x5 (in-place)
I1009 17:09:12.051864  2156 net.cpp:120] Setting up inception_4d/relu_5x5
I1009 17:09:12.051870  2156 net.cpp:127] Top shape: 32 64 14 14 (401408)
I1009 17:09:12.051875  2156 layer_factory.hpp:74] Creating layer inception_4d/pool
I1009 17:09:12.051884  2156 net.cpp:90] Creating Layer inception_4d/pool
I1009 17:09:12.051889  2156 net.cpp:410] inception_4d/pool <- inception_4c/output_inception_4c/output_0_split_3
I1009 17:09:12.051906  2156 net.cpp:368] inception_4d/pool -> inception_4d/pool
I1009 17:09:12.051914  2156 net.cpp:120] Setting up inception_4d/pool
I1009 17:09:12.051924  2156 net.cpp:127] Top shape: 32 512 14 14 (3211264)
I1009 17:09:12.051931  2156 layer_factory.hpp:74] Creating layer inception_4d/pool_proj
I1009 17:09:12.051941  2156 net.cpp:90] Creating Layer inception_4d/pool_proj
I1009 17:09:12.051949  2156 net.cpp:410] inception_4d/pool_proj <- inception_4d/pool
I1009 17:09:12.051955  2156 net.cpp:368] inception_4d/pool_proj -> inception_4d/pool_proj
I1009 17:09:12.051965  2156 net.cpp:120] Setting up inception_4d/pool_proj
I1009 17:09:12.052305  2156 net.cpp:127] Top shape: 32 64 14 14 (401408)
I1009 17:09:12.052317  2156 layer_factory.hpp:74] Creating layer inception_4d/relu_pool_proj
I1009 17:09:12.052325  2156 net.cpp:90] Creating Layer inception_4d/relu_pool_proj
I1009 17:09:12.052330  2156 net.cpp:410] inception_4d/relu_pool_proj <- inception_4d/pool_proj
I1009 17:09:12.052337  2156 net.cpp:357] inception_4d/relu_pool_proj -> inception_4d/pool_proj (in-place)
I1009 17:09:12.052345  2156 net.cpp:120] Setting up inception_4d/relu_pool_proj
I1009 17:09:12.052351  2156 net.cpp:127] Top shape: 32 64 14 14 (401408)
I1009 17:09:12.052356  2156 layer_factory.hpp:74] Creating layer inception_4d/output
I1009 17:09:12.052362  2156 net.cpp:90] Creating Layer inception_4d/output
I1009 17:09:12.052366  2156 net.cpp:410] inception_4d/output <- inception_4d/1x1
I1009 17:09:12.052372  2156 net.cpp:410] inception_4d/output <- inception_4d/3x3
I1009 17:09:12.052377  2156 net.cpp:410] inception_4d/output <- inception_4d/5x5
I1009 17:09:12.052383  2156 net.cpp:410] inception_4d/output <- inception_4d/pool_proj
I1009 17:09:12.052391  2156 net.cpp:368] inception_4d/output -> inception_4d/output
I1009 17:09:12.052397  2156 net.cpp:120] Setting up inception_4d/output
I1009 17:09:12.052405  2156 net.cpp:127] Top shape: 32 528 14 14 (3311616)
I1009 17:09:12.052410  2156 layer_factory.hpp:74] Creating layer inception_4d/output_inception_4d/output_0_split
I1009 17:09:12.052417  2156 net.cpp:90] Creating Layer inception_4d/output_inception_4d/output_0_split
I1009 17:09:12.052422  2156 net.cpp:410] inception_4d/output_inception_4d/output_0_split <- inception_4d/output
I1009 17:09:12.052428  2156 net.cpp:368] inception_4d/output_inception_4d/output_0_split -> inception_4d/output_inception_4d/output_0_split_0
I1009 17:09:12.052435  2156 net.cpp:368] inception_4d/output_inception_4d/output_0_split -> inception_4d/output_inception_4d/output_0_split_1
I1009 17:09:12.052443  2156 net.cpp:368] inception_4d/output_inception_4d/output_0_split -> inception_4d/output_inception_4d/output_0_split_2
I1009 17:09:12.052453  2156 net.cpp:368] inception_4d/output_inception_4d/output_0_split -> inception_4d/output_inception_4d/output_0_split_3
I1009 17:09:12.052461  2156 net.cpp:368] inception_4d/output_inception_4d/output_0_split -> inception_4d/output_inception_4d/output_0_split_4
I1009 17:09:12.052469  2156 net.cpp:120] Setting up inception_4d/output_inception_4d/output_0_split
I1009 17:09:12.052476  2156 net.cpp:127] Top shape: 32 528 14 14 (3311616)
I1009 17:09:12.052486  2156 net.cpp:127] Top shape: 32 528 14 14 (3311616)
I1009 17:09:12.052494  2156 net.cpp:127] Top shape: 32 528 14 14 (3311616)
I1009 17:09:12.052500  2156 net.cpp:127] Top shape: 32 528 14 14 (3311616)
I1009 17:09:12.052505  2156 net.cpp:127] Top shape: 32 528 14 14 (3311616)
I1009 17:09:12.052508  2156 layer_factory.hpp:74] Creating layer loss2/ave_pool
I1009 17:09:12.052517  2156 net.cpp:90] Creating Layer loss2/ave_pool
I1009 17:09:12.052523  2156 net.cpp:410] loss2/ave_pool <- inception_4d/output_inception_4d/output_0_split_0
I1009 17:09:12.052531  2156 net.cpp:368] loss2/ave_pool -> loss2/ave_pool
I1009 17:09:12.052537  2156 net.cpp:120] Setting up loss2/ave_pool
I1009 17:09:12.052544  2156 net.cpp:127] Top shape: 32 528 4 4 (270336)
I1009 17:09:12.052549  2156 layer_factory.hpp:74] Creating layer loss2/conv
I1009 17:09:12.052557  2156 net.cpp:90] Creating Layer loss2/conv
I1009 17:09:12.052570  2156 net.cpp:410] loss2/conv <- loss2/ave_pool
I1009 17:09:12.052580  2156 net.cpp:368] loss2/conv -> loss2/conv
I1009 17:09:12.052589  2156 net.cpp:120] Setting up loss2/conv
I1009 17:09:12.053279  2156 net.cpp:127] Top shape: 32 128 4 4 (65536)
I1009 17:09:12.053292  2156 layer_factory.hpp:74] Creating layer loss2/relu_conv
I1009 17:09:12.053299  2156 net.cpp:90] Creating Layer loss2/relu_conv
I1009 17:09:12.053305  2156 net.cpp:410] loss2/relu_conv <- loss2/conv
I1009 17:09:12.053311  2156 net.cpp:357] loss2/relu_conv -> loss2/conv (in-place)
I1009 17:09:12.053318  2156 net.cpp:120] Setting up loss2/relu_conv
I1009 17:09:12.053323  2156 net.cpp:127] Top shape: 32 128 4 4 (65536)
I1009 17:09:12.053328  2156 layer_factory.hpp:74] Creating layer loss2/fc
I1009 17:09:12.053339  2156 net.cpp:90] Creating Layer loss2/fc
I1009 17:09:12.053344  2156 net.cpp:410] loss2/fc <- loss2/conv
I1009 17:09:12.053352  2156 net.cpp:368] loss2/fc -> loss2/fc
I1009 17:09:12.053359  2156 net.cpp:120] Setting up loss2/fc
I1009 17:09:12.074617  2156 net.cpp:127] Top shape: 32 1024 (32768)
I1009 17:09:12.074635  2156 layer_factory.hpp:74] Creating layer loss2/relu_fc
I1009 17:09:12.074643  2156 net.cpp:90] Creating Layer loss2/relu_fc
I1009 17:09:12.074650  2156 net.cpp:410] loss2/relu_fc <- loss2/fc
I1009 17:09:12.074656  2156 net.cpp:357] loss2/relu_fc -> loss2/fc (in-place)
I1009 17:09:12.074664  2156 net.cpp:120] Setting up loss2/relu_fc
I1009 17:09:12.074671  2156 net.cpp:127] Top shape: 32 1024 (32768)
I1009 17:09:12.074674  2156 layer_factory.hpp:74] Creating layer loss2/drop_fc
I1009 17:09:12.074684  2156 net.cpp:90] Creating Layer loss2/drop_fc
I1009 17:09:12.074689  2156 net.cpp:410] loss2/drop_fc <- loss2/fc
I1009 17:09:12.074695  2156 net.cpp:357] loss2/drop_fc -> loss2/fc (in-place)
I1009 17:09:12.074702  2156 net.cpp:120] Setting up loss2/drop_fc
I1009 17:09:12.074709  2156 net.cpp:127] Top shape: 32 1024 (32768)
I1009 17:09:12.074714  2156 layer_factory.hpp:74] Creating layer ft_loss2/classifier
I1009 17:09:12.074724  2156 net.cpp:90] Creating Layer ft_loss2/classifier
I1009 17:09:12.074729  2156 net.cpp:410] ft_loss2/classifier <- loss2/fc
I1009 17:09:12.074736  2156 net.cpp:368] ft_loss2/classifier -> ft_loss2/classifier
I1009 17:09:12.074744  2156 net.cpp:120] Setting up ft_loss2/classifier
I1009 17:09:12.074781  2156 net.cpp:127] Top shape: 32 2 (64)
I1009 17:09:12.074802  2156 layer_factory.hpp:74] Creating layer loss2/loss
I1009 17:09:12.074812  2156 net.cpp:90] Creating Layer loss2/loss
I1009 17:09:12.074817  2156 net.cpp:410] loss2/loss <- ft_loss2/classifier
I1009 17:09:12.074823  2156 net.cpp:410] loss2/loss <- label_data_1_split_1
I1009 17:09:12.074831  2156 net.cpp:368] loss2/loss -> loss2/loss1
I1009 17:09:12.074837  2156 net.cpp:120] Setting up loss2/loss
I1009 17:09:12.074843  2156 layer_factory.hpp:74] Creating layer loss2/loss
I1009 17:09:12.074872  2156 net.cpp:127] Top shape: (1)
I1009 17:09:12.074877  2156 net.cpp:129]     with loss weight 0.3
I1009 17:09:12.074888  2156 layer_factory.hpp:74] Creating layer inception_4e/1x1
I1009 17:09:12.074898  2156 net.cpp:90] Creating Layer inception_4e/1x1
I1009 17:09:12.074905  2156 net.cpp:410] inception_4e/1x1 <- inception_4d/output_inception_4d/output_0_split_1
I1009 17:09:12.074913  2156 net.cpp:368] inception_4e/1x1 -> inception_4e/1x1
I1009 17:09:12.074921  2156 net.cpp:120] Setting up inception_4e/1x1
I1009 17:09:12.076285  2156 net.cpp:127] Top shape: 32 256 14 14 (1605632)
I1009 17:09:12.076302  2156 layer_factory.hpp:74] Creating layer inception_4e/relu_1x1
I1009 17:09:12.076310  2156 net.cpp:90] Creating Layer inception_4e/relu_1x1
I1009 17:09:12.076316  2156 net.cpp:410] inception_4e/relu_1x1 <- inception_4e/1x1
I1009 17:09:12.076324  2156 net.cpp:357] inception_4e/relu_1x1 -> inception_4e/1x1 (in-place)
I1009 17:09:12.076331  2156 net.cpp:120] Setting up inception_4e/relu_1x1
I1009 17:09:12.076339  2156 net.cpp:127] Top shape: 32 256 14 14 (1605632)
I1009 17:09:12.076344  2156 layer_factory.hpp:74] Creating layer inception_4e/3x3_reduce
I1009 17:09:12.076360  2156 net.cpp:90] Creating Layer inception_4e/3x3_reduce
I1009 17:09:12.076366  2156 net.cpp:410] inception_4e/3x3_reduce <- inception_4d/output_inception_4d/output_0_split_2
I1009 17:09:12.076376  2156 net.cpp:368] inception_4e/3x3_reduce -> inception_4e/3x3_reduce
I1009 17:09:12.076385  2156 net.cpp:120] Setting up inception_4e/3x3_reduce
I1009 17:09:12.077250  2156 net.cpp:127] Top shape: 32 160 14 14 (1003520)
I1009 17:09:12.077265  2156 layer_factory.hpp:74] Creating layer inception_4e/relu_3x3_reduce
I1009 17:09:12.077275  2156 net.cpp:90] Creating Layer inception_4e/relu_3x3_reduce
I1009 17:09:12.077280  2156 net.cpp:410] inception_4e/relu_3x3_reduce <- inception_4e/3x3_reduce
I1009 17:09:12.077286  2156 net.cpp:357] inception_4e/relu_3x3_reduce -> inception_4e/3x3_reduce (in-place)
I1009 17:09:12.077296  2156 net.cpp:120] Setting up inception_4e/relu_3x3_reduce
I1009 17:09:12.077301  2156 net.cpp:127] Top shape: 32 160 14 14 (1003520)
I1009 17:09:12.077306  2156 layer_factory.hpp:74] Creating layer inception_4e/3x3
I1009 17:09:12.077312  2156 net.cpp:90] Creating Layer inception_4e/3x3
I1009 17:09:12.077317  2156 net.cpp:410] inception_4e/3x3 <- inception_4e/3x3_reduce
I1009 17:09:12.077324  2156 net.cpp:368] inception_4e/3x3 -> inception_4e/3x3
I1009 17:09:12.077332  2156 net.cpp:120] Setting up inception_4e/3x3
I1009 17:09:12.082319  2156 net.cpp:127] Top shape: 32 320 14 14 (2007040)
I1009 17:09:12.082334  2156 layer_factory.hpp:74] Creating layer inception_4e/relu_3x3
I1009 17:09:12.082340  2156 net.cpp:90] Creating Layer inception_4e/relu_3x3
I1009 17:09:12.082345  2156 net.cpp:410] inception_4e/relu_3x3 <- inception_4e/3x3
I1009 17:09:12.082351  2156 net.cpp:357] inception_4e/relu_3x3 -> inception_4e/3x3 (in-place)
I1009 17:09:12.082358  2156 net.cpp:120] Setting up inception_4e/relu_3x3
I1009 17:09:12.082365  2156 net.cpp:127] Top shape: 32 320 14 14 (2007040)
I1009 17:09:12.082370  2156 layer_factory.hpp:74] Creating layer inception_4e/5x5_reduce
I1009 17:09:12.082378  2156 net.cpp:90] Creating Layer inception_4e/5x5_reduce
I1009 17:09:12.082384  2156 net.cpp:410] inception_4e/5x5_reduce <- inception_4d/output_inception_4d/output_0_split_3
I1009 17:09:12.082392  2156 net.cpp:368] inception_4e/5x5_reduce -> inception_4e/5x5_reduce
I1009 17:09:12.082401  2156 net.cpp:120] Setting up inception_4e/5x5_reduce
I1009 17:09:12.082583  2156 net.cpp:127] Top shape: 32 32 14 14 (200704)
I1009 17:09:12.082594  2156 layer_factory.hpp:74] Creating layer inception_4e/relu_5x5_reduce
I1009 17:09:12.082602  2156 net.cpp:90] Creating Layer inception_4e/relu_5x5_reduce
I1009 17:09:12.082607  2156 net.cpp:410] inception_4e/relu_5x5_reduce <- inception_4e/5x5_reduce
I1009 17:09:12.082612  2156 net.cpp:357] inception_4e/relu_5x5_reduce -> inception_4e/5x5_reduce (in-place)
I1009 17:09:12.082619  2156 net.cpp:120] Setting up inception_4e/relu_5x5_reduce
I1009 17:09:12.082625  2156 net.cpp:127] Top shape: 32 32 14 14 (200704)
I1009 17:09:12.082629  2156 layer_factory.hpp:74] Creating layer inception_4e/5x5
I1009 17:09:12.082653  2156 net.cpp:90] Creating Layer inception_4e/5x5
I1009 17:09:12.082659  2156 net.cpp:410] inception_4e/5x5 <- inception_4e/5x5_reduce
I1009 17:09:12.082669  2156 net.cpp:368] inception_4e/5x5 -> inception_4e/5x5
I1009 17:09:12.082677  2156 net.cpp:120] Setting up inception_4e/5x5
I1009 17:09:12.083717  2156 net.cpp:127] Top shape: 32 128 14 14 (802816)
I1009 17:09:12.083730  2156 layer_factory.hpp:74] Creating layer inception_4e/relu_5x5
I1009 17:09:12.083737  2156 net.cpp:90] Creating Layer inception_4e/relu_5x5
I1009 17:09:12.083742  2156 net.cpp:410] inception_4e/relu_5x5 <- inception_4e/5x5
I1009 17:09:12.083748  2156 net.cpp:357] inception_4e/relu_5x5 -> inception_4e/5x5 (in-place)
I1009 17:09:12.083755  2156 net.cpp:120] Setting up inception_4e/relu_5x5
I1009 17:09:12.083761  2156 net.cpp:127] Top shape: 32 128 14 14 (802816)
I1009 17:09:12.083765  2156 layer_factory.hpp:74] Creating layer inception_4e/pool
I1009 17:09:12.083775  2156 net.cpp:90] Creating Layer inception_4e/pool
I1009 17:09:12.083788  2156 net.cpp:410] inception_4e/pool <- inception_4d/output_inception_4d/output_0_split_4
I1009 17:09:12.083796  2156 net.cpp:368] inception_4e/pool -> inception_4e/pool
I1009 17:09:12.083803  2156 net.cpp:120] Setting up inception_4e/pool
I1009 17:09:12.083819  2156 net.cpp:127] Top shape: 32 528 14 14 (3311616)
I1009 17:09:12.083825  2156 layer_factory.hpp:74] Creating layer inception_4e/pool_proj
I1009 17:09:12.083833  2156 net.cpp:90] Creating Layer inception_4e/pool_proj
I1009 17:09:12.083838  2156 net.cpp:410] inception_4e/pool_proj <- inception_4e/pool
I1009 17:09:12.083845  2156 net.cpp:368] inception_4e/pool_proj -> inception_4e/pool_proj
I1009 17:09:12.083853  2156 net.cpp:120] Setting up inception_4e/pool_proj
I1009 17:09:12.084549  2156 net.cpp:127] Top shape: 32 128 14 14 (802816)
I1009 17:09:12.084561  2156 layer_factory.hpp:74] Creating layer inception_4e/relu_pool_proj
I1009 17:09:12.084568  2156 net.cpp:90] Creating Layer inception_4e/relu_pool_proj
I1009 17:09:12.084573  2156 net.cpp:410] inception_4e/relu_pool_proj <- inception_4e/pool_proj
I1009 17:09:12.084579  2156 net.cpp:357] inception_4e/relu_pool_proj -> inception_4e/pool_proj (in-place)
I1009 17:09:12.084586  2156 net.cpp:120] Setting up inception_4e/relu_pool_proj
I1009 17:09:12.084592  2156 net.cpp:127] Top shape: 32 128 14 14 (802816)
I1009 17:09:12.084596  2156 layer_factory.hpp:74] Creating layer inception_4e/output
I1009 17:09:12.084604  2156 net.cpp:90] Creating Layer inception_4e/output
I1009 17:09:12.084607  2156 net.cpp:410] inception_4e/output <- inception_4e/1x1
I1009 17:09:12.084614  2156 net.cpp:410] inception_4e/output <- inception_4e/3x3
I1009 17:09:12.084619  2156 net.cpp:410] inception_4e/output <- inception_4e/5x5
I1009 17:09:12.084625  2156 net.cpp:410] inception_4e/output <- inception_4e/pool_proj
I1009 17:09:12.084632  2156 net.cpp:368] inception_4e/output -> inception_4e/output
I1009 17:09:12.084640  2156 net.cpp:120] Setting up inception_4e/output
I1009 17:09:12.084647  2156 net.cpp:127] Top shape: 32 832 14 14 (5218304)
I1009 17:09:12.084652  2156 layer_factory.hpp:74] Creating layer pool4/3x3_s2
I1009 17:09:12.084658  2156 net.cpp:90] Creating Layer pool4/3x3_s2
I1009 17:09:12.084663  2156 net.cpp:410] pool4/3x3_s2 <- inception_4e/output
I1009 17:09:12.084672  2156 net.cpp:368] pool4/3x3_s2 -> pool4/3x3_s2
I1009 17:09:12.084679  2156 net.cpp:120] Setting up pool4/3x3_s2
I1009 17:09:12.084688  2156 net.cpp:127] Top shape: 32 832 7 7 (1304576)
I1009 17:09:12.084693  2156 layer_factory.hpp:74] Creating layer pool4/3x3_s2_pool4/3x3_s2_0_split
I1009 17:09:12.084700  2156 net.cpp:90] Creating Layer pool4/3x3_s2_pool4/3x3_s2_0_split
I1009 17:09:12.084704  2156 net.cpp:410] pool4/3x3_s2_pool4/3x3_s2_0_split <- pool4/3x3_s2
I1009 17:09:12.084712  2156 net.cpp:368] pool4/3x3_s2_pool4/3x3_s2_0_split -> pool4/3x3_s2_pool4/3x3_s2_0_split_0
I1009 17:09:12.084718  2156 net.cpp:368] pool4/3x3_s2_pool4/3x3_s2_0_split -> pool4/3x3_s2_pool4/3x3_s2_0_split_1
I1009 17:09:12.084728  2156 net.cpp:368] pool4/3x3_s2_pool4/3x3_s2_0_split -> pool4/3x3_s2_pool4/3x3_s2_0_split_2
I1009 17:09:12.084736  2156 net.cpp:368] pool4/3x3_s2_pool4/3x3_s2_0_split -> pool4/3x3_s2_pool4/3x3_s2_0_split_3
I1009 17:09:12.084743  2156 net.cpp:120] Setting up pool4/3x3_s2_pool4/3x3_s2_0_split
I1009 17:09:12.084750  2156 net.cpp:127] Top shape: 32 832 7 7 (1304576)
I1009 17:09:12.084756  2156 net.cpp:127] Top shape: 32 832 7 7 (1304576)
I1009 17:09:12.084761  2156 net.cpp:127] Top shape: 32 832 7 7 (1304576)
I1009 17:09:12.084766  2156 net.cpp:127] Top shape: 32 832 7 7 (1304576)
I1009 17:09:12.084771  2156 layer_factory.hpp:74] Creating layer inception_5a/1x1
I1009 17:09:12.084781  2156 net.cpp:90] Creating Layer inception_5a/1x1
I1009 17:09:12.084786  2156 net.cpp:410] inception_5a/1x1 <- pool4/3x3_s2_pool4/3x3_s2_0_split_0
I1009 17:09:12.084794  2156 net.cpp:368] inception_5a/1x1 -> inception_5a/1x1
I1009 17:09:12.084801  2156 net.cpp:120] Setting up inception_5a/1x1
I1009 17:09:12.086946  2156 net.cpp:127] Top shape: 32 256 7 7 (401408)
I1009 17:09:12.086966  2156 layer_factory.hpp:74] Creating layer inception_5a/relu_1x1
I1009 17:09:12.086977  2156 net.cpp:90] Creating Layer inception_5a/relu_1x1
I1009 17:09:12.086982  2156 net.cpp:410] inception_5a/relu_1x1 <- inception_5a/1x1
I1009 17:09:12.086987  2156 net.cpp:357] inception_5a/relu_1x1 -> inception_5a/1x1 (in-place)
I1009 17:09:12.086994  2156 net.cpp:120] Setting up inception_5a/relu_1x1
I1009 17:09:12.087000  2156 net.cpp:127] Top shape: 32 256 7 7 (401408)
I1009 17:09:12.087005  2156 layer_factory.hpp:74] Creating layer inception_5a/3x3_reduce
I1009 17:09:12.087013  2156 net.cpp:90] Creating Layer inception_5a/3x3_reduce
I1009 17:09:12.087018  2156 net.cpp:410] inception_5a/3x3_reduce <- pool4/3x3_s2_pool4/3x3_s2_0_split_1
I1009 17:09:12.087028  2156 net.cpp:368] inception_5a/3x3_reduce -> inception_5a/3x3_reduce
I1009 17:09:12.087038  2156 net.cpp:120] Setting up inception_5a/3x3_reduce
I1009 17:09:12.088389  2156 net.cpp:127] Top shape: 32 160 7 7 (250880)
I1009 17:09:12.088402  2156 layer_factory.hpp:74] Creating layer inception_5a/relu_3x3_reduce
I1009 17:09:12.088409  2156 net.cpp:90] Creating Layer inception_5a/relu_3x3_reduce
I1009 17:09:12.088414  2156 net.cpp:410] inception_5a/relu_3x3_reduce <- inception_5a/3x3_reduce
I1009 17:09:12.088420  2156 net.cpp:357] inception_5a/relu_3x3_reduce -> inception_5a/3x3_reduce (in-place)
I1009 17:09:12.088428  2156 net.cpp:120] Setting up inception_5a/relu_3x3_reduce
I1009 17:09:12.088433  2156 net.cpp:127] Top shape: 32 160 7 7 (250880)
I1009 17:09:12.088438  2156 layer_factory.hpp:74] Creating layer inception_5a/3x3
I1009 17:09:12.088448  2156 net.cpp:90] Creating Layer inception_5a/3x3
I1009 17:09:12.088452  2156 net.cpp:410] inception_5a/3x3 <- inception_5a/3x3_reduce
I1009 17:09:12.088461  2156 net.cpp:368] inception_5a/3x3 -> inception_5a/3x3
I1009 17:09:12.088470  2156 net.cpp:120] Setting up inception_5a/3x3
I1009 17:09:12.093451  2156 net.cpp:127] Top shape: 32 320 7 7 (501760)
I1009 17:09:12.093463  2156 layer_factory.hpp:74] Creating layer inception_5a/relu_3x3
I1009 17:09:12.093472  2156 net.cpp:90] Creating Layer inception_5a/relu_3x3
I1009 17:09:12.093477  2156 net.cpp:410] inception_5a/relu_3x3 <- inception_5a/3x3
I1009 17:09:12.093485  2156 net.cpp:357] inception_5a/relu_3x3 -> inception_5a/3x3 (in-place)
I1009 17:09:12.093493  2156 net.cpp:120] Setting up inception_5a/relu_3x3
I1009 17:09:12.093499  2156 net.cpp:127] Top shape: 32 320 7 7 (501760)
I1009 17:09:12.093504  2156 layer_factory.hpp:74] Creating layer inception_5a/5x5_reduce
I1009 17:09:12.093513  2156 net.cpp:90] Creating Layer inception_5a/5x5_reduce
I1009 17:09:12.093518  2156 net.cpp:410] inception_5a/5x5_reduce <- pool4/3x3_s2_pool4/3x3_s2_0_split_2
I1009 17:09:12.093525  2156 net.cpp:368] inception_5a/5x5_reduce -> inception_5a/5x5_reduce
I1009 17:09:12.093533  2156 net.cpp:120] Setting up inception_5a/5x5_reduce
I1009 17:09:12.093813  2156 net.cpp:127] Top shape: 32 32 7 7 (50176)
I1009 17:09:12.093824  2156 layer_factory.hpp:74] Creating layer inception_5a/relu_5x5_reduce
I1009 17:09:12.093832  2156 net.cpp:90] Creating Layer inception_5a/relu_5x5_reduce
I1009 17:09:12.093837  2156 net.cpp:410] inception_5a/relu_5x5_reduce <- inception_5a/5x5_reduce
I1009 17:09:12.093845  2156 net.cpp:357] inception_5a/relu_5x5_reduce -> inception_5a/5x5_reduce (in-place)
I1009 17:09:12.093852  2156 net.cpp:120] Setting up inception_5a/relu_5x5_reduce
I1009 17:09:12.093858  2156 net.cpp:127] Top shape: 32 32 7 7 (50176)
I1009 17:09:12.093863  2156 layer_factory.hpp:74] Creating layer inception_5a/5x5
I1009 17:09:12.093869  2156 net.cpp:90] Creating Layer inception_5a/5x5
I1009 17:09:12.093874  2156 net.cpp:410] inception_5a/5x5 <- inception_5a/5x5_reduce
I1009 17:09:12.093883  2156 net.cpp:368] inception_5a/5x5 -> inception_5a/5x5
I1009 17:09:12.093890  2156 net.cpp:120] Setting up inception_5a/5x5
I1009 17:09:12.094933  2156 net.cpp:127] Top shape: 32 128 7 7 (200704)
I1009 17:09:12.094946  2156 layer_factory.hpp:74] Creating layer inception_5a/relu_5x5
I1009 17:09:12.094960  2156 net.cpp:90] Creating Layer inception_5a/relu_5x5
I1009 17:09:12.094966  2156 net.cpp:410] inception_5a/relu_5x5 <- inception_5a/5x5
I1009 17:09:12.094972  2156 net.cpp:357] inception_5a/relu_5x5 -> inception_5a/5x5 (in-place)
I1009 17:09:12.094980  2156 net.cpp:120] Setting up inception_5a/relu_5x5
I1009 17:09:12.094985  2156 net.cpp:127] Top shape: 32 128 7 7 (200704)
I1009 17:09:12.094990  2156 layer_factory.hpp:74] Creating layer inception_5a/pool
I1009 17:09:12.094997  2156 net.cpp:90] Creating Layer inception_5a/pool
I1009 17:09:12.095002  2156 net.cpp:410] inception_5a/pool <- pool4/3x3_s2_pool4/3x3_s2_0_split_3
I1009 17:09:12.095013  2156 net.cpp:368] inception_5a/pool -> inception_5a/pool
I1009 17:09:12.095022  2156 net.cpp:120] Setting up inception_5a/pool
I1009 17:09:12.095031  2156 net.cpp:127] Top shape: 32 832 7 7 (1304576)
I1009 17:09:12.095037  2156 layer_factory.hpp:74] Creating layer inception_5a/pool_proj
I1009 17:09:12.095046  2156 net.cpp:90] Creating Layer inception_5a/pool_proj
I1009 17:09:12.095052  2156 net.cpp:410] inception_5a/pool_proj <- inception_5a/pool
I1009 17:09:12.095059  2156 net.cpp:368] inception_5a/pool_proj -> inception_5a/pool_proj
I1009 17:09:12.095067  2156 net.cpp:120] Setting up inception_5a/pool_proj
I1009 17:09:12.096153  2156 net.cpp:127] Top shape: 32 128 7 7 (200704)
I1009 17:09:12.096168  2156 layer_factory.hpp:74] Creating layer inception_5a/relu_pool_proj
I1009 17:09:12.096175  2156 net.cpp:90] Creating Layer inception_5a/relu_pool_proj
I1009 17:09:12.096180  2156 net.cpp:410] inception_5a/relu_pool_proj <- inception_5a/pool_proj
I1009 17:09:12.096189  2156 net.cpp:357] inception_5a/relu_pool_proj -> inception_5a/pool_proj (in-place)
I1009 17:09:12.096195  2156 net.cpp:120] Setting up inception_5a/relu_pool_proj
I1009 17:09:12.096201  2156 net.cpp:127] Top shape: 32 128 7 7 (200704)
I1009 17:09:12.096206  2156 layer_factory.hpp:74] Creating layer inception_5a/output
I1009 17:09:12.096212  2156 net.cpp:90] Creating Layer inception_5a/output
I1009 17:09:12.096217  2156 net.cpp:410] inception_5a/output <- inception_5a/1x1
I1009 17:09:12.096222  2156 net.cpp:410] inception_5a/output <- inception_5a/3x3
I1009 17:09:12.096228  2156 net.cpp:410] inception_5a/output <- inception_5a/5x5
I1009 17:09:12.096233  2156 net.cpp:410] inception_5a/output <- inception_5a/pool_proj
I1009 17:09:12.096240  2156 net.cpp:368] inception_5a/output -> inception_5a/output
I1009 17:09:12.096246  2156 net.cpp:120] Setting up inception_5a/output
I1009 17:09:12.096253  2156 net.cpp:127] Top shape: 32 832 7 7 (1304576)
I1009 17:09:12.096258  2156 layer_factory.hpp:74] Creating layer inception_5a/output_inception_5a/output_0_split
I1009 17:09:12.096264  2156 net.cpp:90] Creating Layer inception_5a/output_inception_5a/output_0_split
I1009 17:09:12.096269  2156 net.cpp:410] inception_5a/output_inception_5a/output_0_split <- inception_5a/output
I1009 17:09:12.096278  2156 net.cpp:368] inception_5a/output_inception_5a/output_0_split -> inception_5a/output_inception_5a/output_0_split_0
I1009 17:09:12.096287  2156 net.cpp:368] inception_5a/output_inception_5a/output_0_split -> inception_5a/output_inception_5a/output_0_split_1
I1009 17:09:12.096294  2156 net.cpp:368] inception_5a/output_inception_5a/output_0_split -> inception_5a/output_inception_5a/output_0_split_2
I1009 17:09:12.096302  2156 net.cpp:368] inception_5a/output_inception_5a/output_0_split -> inception_5a/output_inception_5a/output_0_split_3
I1009 17:09:12.096308  2156 net.cpp:120] Setting up inception_5a/output_inception_5a/output_0_split
I1009 17:09:12.096318  2156 net.cpp:127] Top shape: 32 832 7 7 (1304576)
I1009 17:09:12.096324  2156 net.cpp:127] Top shape: 32 832 7 7 (1304576)
I1009 17:09:12.096329  2156 net.cpp:127] Top shape: 32 832 7 7 (1304576)
I1009 17:09:12.096334  2156 net.cpp:127] Top shape: 32 832 7 7 (1304576)
I1009 17:09:12.096339  2156 layer_factory.hpp:74] Creating layer inception_5b/1x1
I1009 17:09:12.096346  2156 net.cpp:90] Creating Layer inception_5b/1x1
I1009 17:09:12.096351  2156 net.cpp:410] inception_5b/1x1 <- inception_5a/output_inception_5a/output_0_split_0
I1009 17:09:12.096366  2156 net.cpp:368] inception_5b/1x1 -> inception_5b/1x1
I1009 17:09:12.096375  2156 net.cpp:120] Setting up inception_5b/1x1
I1009 17:09:12.099597  2156 net.cpp:127] Top shape: 32 384 7 7 (602112)
I1009 17:09:12.099611  2156 layer_factory.hpp:74] Creating layer inception_5b/relu_1x1
I1009 17:09:12.099618  2156 net.cpp:90] Creating Layer inception_5b/relu_1x1
I1009 17:09:12.099623  2156 net.cpp:410] inception_5b/relu_1x1 <- inception_5b/1x1
I1009 17:09:12.099630  2156 net.cpp:357] inception_5b/relu_1x1 -> inception_5b/1x1 (in-place)
I1009 17:09:12.099637  2156 net.cpp:120] Setting up inception_5b/relu_1x1
I1009 17:09:12.099643  2156 net.cpp:127] Top shape: 32 384 7 7 (602112)
I1009 17:09:12.099648  2156 layer_factory.hpp:74] Creating layer inception_5b/3x3_reduce
I1009 17:09:12.099658  2156 net.cpp:90] Creating Layer inception_5b/3x3_reduce
I1009 17:09:12.099664  2156 net.cpp:410] inception_5b/3x3_reduce <- inception_5a/output_inception_5a/output_0_split_1
I1009 17:09:12.099673  2156 net.cpp:368] inception_5b/3x3_reduce -> inception_5b/3x3_reduce
I1009 17:09:12.099681  2156 net.cpp:120] Setting up inception_5b/3x3_reduce
I1009 17:09:12.101294  2156 net.cpp:127] Top shape: 32 192 7 7 (301056)
I1009 17:09:12.101306  2156 layer_factory.hpp:74] Creating layer inception_5b/relu_3x3_reduce
I1009 17:09:12.101317  2156 net.cpp:90] Creating Layer inception_5b/relu_3x3_reduce
I1009 17:09:12.101322  2156 net.cpp:410] inception_5b/relu_3x3_reduce <- inception_5b/3x3_reduce
I1009 17:09:12.101328  2156 net.cpp:357] inception_5b/relu_3x3_reduce -> inception_5b/3x3_reduce (in-place)
I1009 17:09:12.101336  2156 net.cpp:120] Setting up inception_5b/relu_3x3_reduce
I1009 17:09:12.101341  2156 net.cpp:127] Top shape: 32 192 7 7 (301056)
I1009 17:09:12.101346  2156 layer_factory.hpp:74] Creating layer inception_5b/3x3
I1009 17:09:12.101354  2156 net.cpp:90] Creating Layer inception_5b/3x3
I1009 17:09:12.101359  2156 net.cpp:410] inception_5b/3x3 <- inception_5b/3x3_reduce
I1009 17:09:12.101366  2156 net.cpp:368] inception_5b/3x3 -> inception_5b/3x3
I1009 17:09:12.101389  2156 net.cpp:120] Setting up inception_5b/3x3
I1009 17:09:12.108557  2156 net.cpp:127] Top shape: 32 384 7 7 (602112)
I1009 17:09:12.108572  2156 layer_factory.hpp:74] Creating layer inception_5b/relu_3x3
I1009 17:09:12.108578  2156 net.cpp:90] Creating Layer inception_5b/relu_3x3
I1009 17:09:12.108584  2156 net.cpp:410] inception_5b/relu_3x3 <- inception_5b/3x3
I1009 17:09:12.108590  2156 net.cpp:357] inception_5b/relu_3x3 -> inception_5b/3x3 (in-place)
I1009 17:09:12.108598  2156 net.cpp:120] Setting up inception_5b/relu_3x3
I1009 17:09:12.108604  2156 net.cpp:127] Top shape: 32 384 7 7 (602112)
I1009 17:09:12.108609  2156 layer_factory.hpp:74] Creating layer inception_5b/5x5_reduce
I1009 17:09:12.108616  2156 net.cpp:90] Creating Layer inception_5b/5x5_reduce
I1009 17:09:12.108621  2156 net.cpp:410] inception_5b/5x5_reduce <- inception_5a/output_inception_5a/output_0_split_2
I1009 17:09:12.108630  2156 net.cpp:368] inception_5b/5x5_reduce -> inception_5b/5x5_reduce
I1009 17:09:12.108639  2156 net.cpp:120] Setting up inception_5b/5x5_reduce
I1009 17:09:12.109050  2156 net.cpp:127] Top shape: 32 48 7 7 (75264)
I1009 17:09:12.109062  2156 layer_factory.hpp:74] Creating layer inception_5b/relu_5x5_reduce
I1009 17:09:12.109069  2156 net.cpp:90] Creating Layer inception_5b/relu_5x5_reduce
I1009 17:09:12.109074  2156 net.cpp:410] inception_5b/relu_5x5_reduce <- inception_5b/5x5_reduce
I1009 17:09:12.109081  2156 net.cpp:357] inception_5b/relu_5x5_reduce -> inception_5b/5x5_reduce (in-place)
I1009 17:09:12.109087  2156 net.cpp:120] Setting up inception_5b/relu_5x5_reduce
I1009 17:09:12.109093  2156 net.cpp:127] Top shape: 32 48 7 7 (75264)
I1009 17:09:12.109097  2156 layer_factory.hpp:74] Creating layer inception_5b/5x5
I1009 17:09:12.109109  2156 net.cpp:90] Creating Layer inception_5b/5x5
I1009 17:09:12.109114  2156 net.cpp:410] inception_5b/5x5 <- inception_5b/5x5_reduce
I1009 17:09:12.109130  2156 net.cpp:368] inception_5b/5x5 -> inception_5b/5x5
I1009 17:09:12.109143  2156 net.cpp:120] Setting up inception_5b/5x5
I1009 17:09:12.110692  2156 net.cpp:127] Top shape: 32 128 7 7 (200704)
I1009 17:09:12.110705  2156 layer_factory.hpp:74] Creating layer inception_5b/relu_5x5
I1009 17:09:12.110713  2156 net.cpp:90] Creating Layer inception_5b/relu_5x5
I1009 17:09:12.110718  2156 net.cpp:410] inception_5b/relu_5x5 <- inception_5b/5x5
I1009 17:09:12.110726  2156 net.cpp:357] inception_5b/relu_5x5 -> inception_5b/5x5 (in-place)
I1009 17:09:12.110733  2156 net.cpp:120] Setting up inception_5b/relu_5x5
I1009 17:09:12.110740  2156 net.cpp:127] Top shape: 32 128 7 7 (200704)
I1009 17:09:12.110744  2156 layer_factory.hpp:74] Creating layer inception_5b/pool
I1009 17:09:12.110751  2156 net.cpp:90] Creating Layer inception_5b/pool
I1009 17:09:12.110756  2156 net.cpp:410] inception_5b/pool <- inception_5a/output_inception_5a/output_0_split_3
I1009 17:09:12.110765  2156 net.cpp:368] inception_5b/pool -> inception_5b/pool
I1009 17:09:12.110774  2156 net.cpp:120] Setting up inception_5b/pool
I1009 17:09:12.110781  2156 net.cpp:127] Top shape: 32 832 7 7 (1304576)
I1009 17:09:12.110786  2156 layer_factory.hpp:74] Creating layer inception_5b/pool_proj
I1009 17:09:12.110795  2156 net.cpp:90] Creating Layer inception_5b/pool_proj
I1009 17:09:12.110800  2156 net.cpp:410] inception_5b/pool_proj <- inception_5b/pool
I1009 17:09:12.110807  2156 net.cpp:368] inception_5b/pool_proj -> inception_5b/pool_proj
I1009 17:09:12.110816  2156 net.cpp:120] Setting up inception_5b/pool_proj
I1009 17:09:12.111898  2156 net.cpp:127] Top shape: 32 128 7 7 (200704)
I1009 17:09:12.111912  2156 layer_factory.hpp:74] Creating layer inception_5b/relu_pool_proj
I1009 17:09:12.111918  2156 net.cpp:90] Creating Layer inception_5b/relu_pool_proj
I1009 17:09:12.111923  2156 net.cpp:410] inception_5b/relu_pool_proj <- inception_5b/pool_proj
I1009 17:09:12.111929  2156 net.cpp:357] inception_5b/relu_pool_proj -> inception_5b/pool_proj (in-place)
I1009 17:09:12.111937  2156 net.cpp:120] Setting up inception_5b/relu_pool_proj
I1009 17:09:12.111943  2156 net.cpp:127] Top shape: 32 128 7 7 (200704)
I1009 17:09:12.111948  2156 layer_factory.hpp:74] Creating layer inception_5b/output
I1009 17:09:12.111954  2156 net.cpp:90] Creating Layer inception_5b/output
I1009 17:09:12.111958  2156 net.cpp:410] inception_5b/output <- inception_5b/1x1
I1009 17:09:12.111964  2156 net.cpp:410] inception_5b/output <- inception_5b/3x3
I1009 17:09:12.111969  2156 net.cpp:410] inception_5b/output <- inception_5b/5x5
I1009 17:09:12.111975  2156 net.cpp:410] inception_5b/output <- inception_5b/pool_proj
I1009 17:09:12.111984  2156 net.cpp:368] inception_5b/output -> inception_5b/output
I1009 17:09:12.111990  2156 net.cpp:120] Setting up inception_5b/output
I1009 17:09:12.111999  2156 net.cpp:127] Top shape: 32 1024 7 7 (1605632)
I1009 17:09:12.112002  2156 layer_factory.hpp:74] Creating layer pool5/7x7_s1
I1009 17:09:12.112010  2156 net.cpp:90] Creating Layer pool5/7x7_s1
I1009 17:09:12.112015  2156 net.cpp:410] pool5/7x7_s1 <- inception_5b/output
I1009 17:09:12.112022  2156 net.cpp:368] pool5/7x7_s1 -> pool5/7x7_s1
I1009 17:09:12.112030  2156 net.cpp:120] Setting up pool5/7x7_s1
I1009 17:09:12.112038  2156 net.cpp:127] Top shape: 32 1024 1 1 (32768)
I1009 17:09:12.112043  2156 layer_factory.hpp:74] Creating layer pool5/drop_7x7_s1
I1009 17:09:12.112049  2156 net.cpp:90] Creating Layer pool5/drop_7x7_s1
I1009 17:09:12.112054  2156 net.cpp:410] pool5/drop_7x7_s1 <- pool5/7x7_s1
I1009 17:09:12.112061  2156 net.cpp:357] pool5/drop_7x7_s1 -> pool5/7x7_s1 (in-place)
I1009 17:09:12.112067  2156 net.cpp:120] Setting up pool5/drop_7x7_s1
I1009 17:09:12.112076  2156 net.cpp:127] Top shape: 32 1024 1 1 (32768)
I1009 17:09:12.112081  2156 layer_factory.hpp:74] Creating layer ft_loss3/classifier
I1009 17:09:12.112090  2156 net.cpp:90] Creating Layer ft_loss3/classifier
I1009 17:09:12.112095  2156 net.cpp:410] ft_loss3/classifier <- pool5/7x7_s1
I1009 17:09:12.112102  2156 net.cpp:368] ft_loss3/classifier -> ft_loss3/classifier
I1009 17:09:12.112121  2156 net.cpp:120] Setting up ft_loss3/classifier
I1009 17:09:12.112159  2156 net.cpp:127] Top shape: 32 2 (64)
I1009 17:09:12.112169  2156 layer_factory.hpp:74] Creating layer loss3/loss3
I1009 17:09:12.112177  2156 net.cpp:90] Creating Layer loss3/loss3
I1009 17:09:12.112181  2156 net.cpp:410] loss3/loss3 <- ft_loss3/classifier
I1009 17:09:12.112187  2156 net.cpp:410] loss3/loss3 <- label_data_1_split_2
I1009 17:09:12.112195  2156 net.cpp:368] loss3/loss3 -> loss3/loss3
I1009 17:09:12.112203  2156 net.cpp:120] Setting up loss3/loss3
…
I1009 17:09:12.117840  2156 solver.cpp:154] Creating test net (#0) specified by net file: /home/kruchinin_d/Projects/scaling-archer/nn/bvlc_googlenet_finetuned/train_val.prototxt
I1009 17:09:12.118011  2156 net.cpp:287] The NetState phase (1) differed from the phase (0) specified by a rule in layer data
I1009 17:09:12.118937  2156 net.cpp:42] Initializing net from parameters: 
name: "FullTrain_GoogleNet"
state {
  phase: TEST
}
layer {
  name: "data"
  type: "ImageData"
  top: "data"
  top: "label"
  include {
    phase: TEST
  }
  image_data_param {
    source: "/home/kruchinin_d/Projects/data/KITTI/prepared_data/test.txt"
    batch_size: 50
  }
}
layer {
  name: "conv1/7x7_s2"
  type: "Convolution"
  bottom: "data"
  top: "conv1/7x7_s2"
  param {
    lr_mult: 0.1
  }
  param {
    lr_mult: 0.1
  }
  convolution_param {
    num_output: 64
    pad: 3
    kernel_size: 7
    stride: 2
    weight_filler {
      type: "xavier"
    }
    bias_filler {
      type: "constant"
      value: 0.2
    }
  }
}
layer {
  name: "conv1/relu_7x7"
  type: "ReLU"
  bottom: "conv1/7x7_s2"
  top: "conv1/7x7_s2"
}
layer {
  name: "pool1/3x3_s2"
  type: "Pooling"
  bottom: "conv1/7x7_s2"
  top: "pool1/3x3_s2"
  pooling_param {
    pool: MAX
    kernel_size: 3
    stride: 2
  }
}
layer {
  name: "pool1/norm1"
  type: "LRN"
  bottom: "pool1/3x3_s2"
  top: "pool1/norm1"
  lrn_param {
    local_size: 5
    alpha: 0.0001
    beta: 0.75
  }
}
layer {
  name: "conv2/3x3_reduce"
  type: "Convolution"
  bottom: "pool1/norm1"
  top: "conv2/3x3_reduce"
  param {
    lr_mult: 0.1
  }
  param {
    lr_mult: 0.1
  }
  convolution_param {
    num_output: 64
    kernel_size: 1
    weight_filler {
      type: "xavier"
    }
    bias_filler {
      type: "constant"
      value: 0.2
    }
  }
}
layer {
  name: "conv2/relu_3x3_reduce"
  type: "ReLU"
  bottom: "conv2/3x3_reduce"
  top: "conv2/3x3_reduce"
}
layer {
  name: "conv2/3x3"
  type: "Convolution"
  bottom: "conv2/3x3_reduce"
  top: "conv2/3x3"
  param {
    lr_mult: 0.1
  }
  param {
    lr_mult: 0.1
  }
  convolution_param {
    num_output: 192
    pad: 1
    kernel_size: 3
    weight_filler {
      type: "xavier"
    }
    bias_filler {
      type: "constant"
      value: 0.2
    }
  }
}
layer {
  name: "conv2/relu_3x3"
  type: "ReLU"
  bottom: "conv2/3x3"
  top: "conv2/3x3"
}
layer {
  name: "conv2/norm2"
  type: "LRN"
  bottom: "conv2/3x3"
  top: "conv2/norm2"
  lrn_param {
    local_size: 5
    alpha: 0.0001
    beta: 0.75
  }
}
layer {
  name: "pool2/3x3_s2"
  type: "Pooling"
  bottom: "conv2/norm2"
  top: "pool2/3x3_s2"
  pooling_param {
    pool: MAX
    kernel_size: 3
    stride: 2
  }
}
layer {
  name: "inception_3a/1x1"
  type: "Convolution"
  bottom: "pool2/3x3_s2"
  top: "inception_3a/1x1"
  param {
    lr_mult: 0.1
  }
  param {
    lr_mult: 0.1
  }
  convolution_param {
    num_output: 64
    kernel_size: 1
    weight_filler {
      type: "xavier"
    }
    bias_filler {
      type: "constant"
      value: 0.2
    }
  }
}
layer {
  name: "inception_3a/relu_1x1"
  type: "ReLU"
  bottom: "inception_3a/1x1"
  top: "inception_3a/1x1"
}
layer {
  name: "inception_3a/3x3_reduce"
  type: "Convolution"
  bottom: "pool2/3x3_s2"
  top: "inception_3a/3x3_reduce"
  param {
    lr_mult: 0.1
  }
  param {
    lr_mult: 0.1
  }
  convolution_param {
    num_output: 96
    kernel_size: 1
    weight_filler {
      type: "xavier"
    }
    bias_filler {
      type: "constant"
      value: 0.2
    }
  }
}
layer {
  name: "inception_3a/relu_3x3_reduce"
  type: "ReLU"
  bottom: "inception_3a/3x3_reduce"
  top: "inception_3a/3x3_reduce"
}
layer {
  name: "inception_3a/3x3"
  type: "Convolution"
  bottom: "inception_3a/3x3_reduce"
  top: "inception_3a/3x3"
  param {
    lr_mult: 0.1
  }
  param {
    lr_mult: 0.1
  }
  convolution_param {
    num_output: 128
    pad: 1
    kernel_size: 3
    weight_filler {
      type: "xavier"
    }
    bias_filler {
      type: "constant"
      value: 0.2
    }
  }
}
layer {
  name: "inception_3a/relu_3x3"
  type: "ReLU"
  bottom: "inception_3a/3x3"
  top: "inception_3a/3x3"
}
layer {
  name: "inception_3a/5x5_reduce"
  type: "Convolution"
  bottom: "pool2/3x3_s2"
  top: "inception_3a/5x5_reduce"
  param {
    lr_mult: 0.1
  }
  param {
    lr_mult: 0.1
  }
  convolution_param {
    num_output: 16
    kernel_size: 1
    weight_filler {
      type: "xavier"
    }
    bias_filler {
      type: "constant"
      value: 0.2
    }
  }
}
layer {
  name: "inception_3a/relu_5x5_reduce"
  type: "ReLU"
  bottom: "inception_3a/5x5_reduce"
  top: "inception_3a/5x5_reduce"
}
layer {
  name: "inception_3a/5x5"
  type: "Convolution"
  bottom: "inception_3a/5x5_reduce"
  top: "inception_3a/5x5"
  param {
    lr_mult: 0.1
  }
  param {
    lr_mult: 0.1
  }
  convolution_param {
    num_output: 32
    pad: 2
    kernel_size: 5
    weight_filler {
      type: "xavier"
    }
    bias_filler {
      type: "constant"
      value: 0.2
    }
  }
}
layer {
  name: "inception_3a/relu_5x5"
  type: "ReLU"
  bottom: "inception_3a/5x5"
  top: "inception_3a/5x5"
}
layer {
  name: "inception_3a/pool"
  type: "Pooling"
  bottom: "pool2/3x3_s2"
  top: "inception_3a/pool"
  pooling_param {
    pool: MAX
    kernel_size: 3
    stride: 1
    pad: 1
  }
}
layer {
  name: "inception_3a/pool_proj"
  type: "Convolution"
  bottom: "inception_3a/pool"
  top: "inception_3a/pool_proj"
  param {
    lr_mult: 0.1
  }
  param {
    lr_mult: 0.1
  }
  convolution_param {
    num_output: 32
    kernel_size: 1
    weight_filler {
      type: "xavier"
    }
    bias_filler {
      type: "constant"
      value: 0.2
    }
  }
}
layer {
  name: "inception_3a/relu_pool_proj"
  type: "ReLU"
  bottom: "inception_3a/pool_proj"
  top: "inception_3a/pool_proj"
}
layer {
  name: "inception_3a/output"
  type: "Concat"
  bottom: "inception_3a/1x1"
  bottom: "inception_3a/3x3"
  bottom: "inception_3a/5x5"
  bottom: "inception_3a/pool_proj"
  top: "inception_3a/output"
}
layer {
  name: "inception_3b/1x1"
  type: "Convolution"
  bottom: "inception_3a/output"
  top: "inception_3b/1x1"
  param {
    lr_mult: 0.1
  }
  param {
    lr_mult: 0.1
  }
  convolution_param {
    num_output: 128
    kernel_size: 1
    weight_filler {
      type: "xavier"
    }
    bias_filler {
      type: "constant"
      value: 0.2
    }
  }
}
layer {
  name: "inception_3b/relu_1x1"
  type: "ReLU"
  bottom: "inception_3b/1x1"
  top: "inception_3b/1x1"
}
layer {
  name: "inception_3b/3x3_reduce"
  type: "Convolution"
  bottom: "inception_3a/output"
  top: "inception_3b/3x3_reduce"
  param {
    lr_mult: 0.1
  }
  param {
    lr_mult: 0.1
  }
  convolution_param {
    num_output: 128
    kernel_size: 1
    weight_filler {
      type: "xavier"
    }
    bias_filler {
      type: "constant"
      value: 0.2
    }
  }
}
layer {
  name: "inception_3b/relu_3x3_reduce"
  type: "ReLU"
  bottom: "inception_3b/3x3_reduce"
  top: "inception_3b/3x3_reduce"
}
layer {
  name: "inception_3b/3x3"
  type: "Convolution"
  bottom: "inception_3b/3x3_reduce"
  top: "inception_3b/3x3"
  param {
    lr_mult: 0.1
  }
  param {
    lr_mult: 0.1
  }
  convolution_param {
    num_output: 192
    pad: 1
    kernel_size: 3
    weight_filler {
      type: "xavier"
    }
    bias_filler {
      type: "constant"
      value: 0.2
    }
  }
}
layer {
  name: "inception_3b/relu_3x3"
  type: "ReLU"
  bottom: "inception_3b/3x3"
  top: "inception_3b/3x3"
}
layer {
  name: "inception_3b/5x5_reduce"
  type: "Convolution"
  bottom: "inception_3a/output"
  top: "inception_3b/5x5_reduce"
  param {
    lr_mult: 0.1
  }
  param {
    lr_mult: 0.1
  }
  convolution_param {
    num_output: 32
    kernel_size: 1
    weight_filler {
      type: "xavier"
    }
    bias_filler {
      type: "constant"
      value: 0.2
    }
  }
}
layer {
  name: "inception_3b/relu_5x5_reduce"
  type: "ReLU"
  bottom: "inception_3b/5x5_reduce"
  top: "inception_3b/5x5_reduce"
}
layer {
  name: "inception_3b/5x5"
  type: "Convolution"
  bottom: "inception_3b/5x5_reduce"
  top: "inception_3b/5x5"
  param {
    lr_mult: 0.1
  }
  param {
    lr_mult: 0.1
  }
  convolution_param {
    num_output: 96
    pad: 2
    kernel_size: 5
    weight_filler {
      type: "xavier"
    }
    bias_filler {
      type: "constant"
      value: 0.2
    }
  }
}
layer {
  name: "inception_3b/relu_5x5"
  type: "ReLU"
  bottom: "inception_3b/5x5"
  top: "inception_3b/5x5"
}
layer {
  name: "inception_3b/pool"
  type: "Pooling"
  bottom: "inception_3a/output"
  top: "inception_3b/pool"
  pooling_param {
    pool: MAX
    kernel_size: 3
    stride: 1
    pad: 1
  }
}
layer {
  name: "inception_3b/pool_proj"
  type: "Convolution"
  bottom: "inception_3b/pool"
  top: "inception_3b/pool_proj"
  param {
    lr_mult: 0.1
  }
  param {
    lr_mult: 0.1
  }
  convolution_param {
    num_output: 64
    kernel_size: 1
    weight_filler {
      type: "xavier"
    }
    bias_filler {
      type: "constant"
      value: 0.2
    }
  }
}
layer {
  name: "inception_3b/relu_pool_proj"
  type: "ReLU"
  bottom: "inception_3b/pool_proj"
  top: "inception_3b/pool_proj"
}
layer {
  name: "inception_3b/output"
  type: "Concat"
  bottom: "inception_3b/1x1"
  bottom: "inception_3b/3x3"
  bottom: "inception_3b/5x5"
  bottom: "inception_3b/pool_proj"
  top: "inception_3b/output"
}
layer {
  name: "pool3/3x3_s2"
  type: "Pooling"
  bottom: "inception_3b/output"
  top: "pool3/3x3_s2"
  pooling_param {
    pool: MAX
    kernel_size: 3
    stride: 2
  }
}
layer {
  name: "inception_4a/1x1"
  type: "Convolution"
  bottom: "pool3/3x3_s2"
  top: "inception_4a/1x1"
  param {
    lr_mult: 0.1
  }
  param {
    lr_mult: 0.1
  }
  convolution_param {
    num_output: 192
    kernel_size: 1
    weight_filler {
      type: "xavier"
    }
    bias_filler {
      type: "constant"
      value: 0.2
    }
  }
}
layer {
  name: "inception_4a/relu_1x1"
  type: "ReLU"
  bottom: "inception_4a/1x1"
  top: "inception_4a/1x1"
}
layer {
  name: "inception_4a/3x3_reduce"
  type: "Convolution"
  bottom: "pool3/3x3_s2"
  top: "inception_4a/3x3_reduce"
  param {
    lr_mult: 0.1
  }
  param {
    lr_mult: 0.1
  }
  convolution_param {
    num_output: 96
    kernel_size: 1
    weight_filler {
      type: "xavier"
    }
    bias_filler {
      type: "constant"
      value: 0.2
    }
  }
}
layer {
  name: "inception_4a/relu_3x3_reduce"
  type: "ReLU"
  bottom: "inception_4a/3x3_reduce"
  top: "inception_4a/3x3_reduce"
}
layer {
  name: "inception_4a/3x3"
  type: "Convolution"
  bottom: "inception_4a/3x3_reduce"
  top: "inception_4a/3x3"
  param {
    lr_mult: 0.1
  }
  param {
    lr_mult: 0.1
  }
  convolution_param {
    num_output: 208
    pad: 1
    kernel_size: 3
    weight_filler {
      type: "xavier"
    }
    bias_filler {
      type: "constant"
      value: 0.2
    }
  }
}
layer {
  name: "inception_4a/relu_3x3"
  type: "ReLU"
  bottom: "inception_4a/3x3"
  top: "inception_4a/3x3"
}
layer {
  name: "inception_4a/5x5_reduce"
  type: "Convolution"
  bottom: "pool3/3x3_s2"
  top: "inception_4a/5x5_reduce"
  param {
    lr_mult: 0.1
  }
  param {
    lr_mult: 0.1
  }
  convolution_param {
    num_output: 16
    kernel_size: 1
    weight_filler {
      type: "xavier"
    }
    bias_filler {
      type: "constant"
      value: 0.2
    }
  }
}
layer {
  name: "inception_4a/relu_5x5_reduce"
  type: "ReLU"
  bottom: "inception_4a/5x5_reduce"
  top: "inception_4a/5x5_reduce"
}
layer {
  name: "inception_4a/5x5"
  type: "Convolution"
  bottom: "inception_4a/5x5_reduce"
  top: "inception_4a/5x5"
  param {
    lr_mult: 0.1
  }
  param {
    lr_mult: 0.1
  }
  convolution_param {
    num_output: 48
    pad: 2
    kernel_size: 5
    weight_filler {
      type: "xavier"
    }
    bias_filler {
      type: "constant"
      value: 0.2
    }
  }
}
layer {
  name: "inception_4a/relu_5x5"
  type: "ReLU"
  bottom: "inception_4a/5x5"
  top: "inception_4a/5x5"
}
layer {
  name: "inception_4a/pool"
  type: "Pooling"
  bottom: "pool3/3x3_s2"
  top: "inception_4a/pool"
  pooling_param {
    pool: MAX
    kernel_size: 3
    stride: 1
    pad: 1
  }
}
layer {
  name: "inception_4a/pool_proj"
  type: "Convolution"
  bottom: "inception_4a/pool"
  top: "inception_4a/pool_proj"
  param {
    lr_mult: 0.1
  }
  param {
    lr_mult: 0.1
  }
  convolution_param {
    num_output: 64
    kernel_size: 1
    weight_filler {
      type: "xavier"
    }
    bias_filler {
      type: "constant"
      value: 0.2
    }
  }
}
layer {
  name: "inception_4a/relu_pool_proj"
  type: "ReLU"
  bottom: "inception_4a/pool_proj"
  top: "inception_4a/pool_proj"
}
layer {
  name: "inception_4a/output"
  type: "Concat"
  bottom: "inception_4a/1x1"
  bottom: "inception_4a/3x3"
  bottom: "inception_4a/5x5"
  bottom: "inception_4a/pool_proj"
  top: "inception_4a/output"
}
layer {
  name: "loss1/ave_pool"
  type: "Pooling"
  bottom: "inception_4a/output"
  top: "loss1/ave_pool"
  pooling_param {
    pool: AVE
    kernel_size: 5
    stride: 3
  }
}
layer {
  name: "loss1/conv"
  type: "Convolution"
  bottom: "loss1/ave_pool"
  top: "loss1/conv"
  param {
    lr_mult: 0.1
  }
  param {
    lr_mult: 0.1
  }
  convolution_param {
    num_output: 128
    kernel_size: 1
    weight_filler {
      type: "xavier"
    }
    bias_filler {
      type: "constant"
      value: 0.2
    }
  }
}
layer {
  name: "loss1/relu_conv"
  type: "ReLU"
  bottom: "loss1/conv"
  top: "loss1/conv"
}
layer {
  name: "loss1/fc"
  type: "InnerProduct"
  bottom: "loss1/conv"
  top: "loss1/fc"
  param {
    lr_mult: 0.1
  }
  param {
    lr_mult: 0.1
  }
  inner_product_param {
    num_output: 1024
    weight_filler {
      type: "xavier"
    }
    bias_filler {
      type: "constant"
      value: 0.2
    }
  }
}
layer {
  name: "loss1/relu_fc"
  type: "ReLU"
  bottom: "loss1/fc"
  top: "loss1/fc"
}
layer {
  name: "loss1/drop_fc"
  type: "Dropout"
  bottom: "loss1/fc"
  top: "loss1/fc"
  dropout_param {
    dropout_ratio: 0.7
  }
}
layer {
  name: "ft_loss1/classifier"
  type: "InnerProduct"
  bottom: "loss1/fc"
  top: "ft_loss1/classifier"
  param {
    lr_mult: 1
  }
  param {
    lr_mult: 1
  }
  inner_product_param {
    num_output: 2
    weight_filler {
      type: "xavier"
    }
    bias_filler {
      type: "constant"
      value: 0
    }
  }
}
layer {
  name: "loss1/loss"
  type: "SoftmaxWithLoss"
  bottom: "ft_loss1/classifier"
  bottom: "label"
  top: "loss1/loss1"
  loss_weight: 0.3
}
layer {
  name: "loss1/top-1"
  type: "Accuracy"
  bottom: "ft_loss1/classifier"
  bottom: "label"
  top: "loss1/top-1"
  include {
    phase: TEST
  }
}
layer {
  name: "inception_4b/1x1"
  type: "Convolution"
  bottom: "inception_4a/output"
  top: "inception_4b/1x1"
  param {
    lr_mult: 0.1
  }
  param {
    lr_mult: 0.1
  }
  convolution_param {
    num_output: 160
    kernel_size: 1
    weight_filler {
      type: "xavier"
    }
    bias_filler {
      type: "constant"
      value: 0.2
    }
  }
}
layer {
  name: "inception_4b/relu_1x1"
  type: "ReLU"
  bottom: "inception_4b/1x1"
  top: "inception_4b/1x1"
}
layer {
  name: "inception_4b/3x3_reduce"
  type: "Convolution"
  bottom: "inception_4a/output"
  top: "inception_4b/3x3_reduce"
  param {
    lr_mult: 0.1
  }
  param {
    lr_mult: 0.1
  }
  convolution_param {
    num_output: 112
    kernel_size: 1
    weight_filler {
      type: "xavier"
    }
    bias_filler {
      type: "constant"
      value: 0.2
    }
  }
}
layer {
  name: "inception_4b/relu_3x3_reduce"
  type: "ReLU"
  bottom: "inception_4b/3x3_reduce"
  top: "inception_4b/3x3_reduce"
}
layer {
  name: "inception_4b/3x3"
  type: "Convolution"
  bottom: "inception_4b/3x3_reduce"
  top: "inception_4b/3x3"
  param {
    lr_mult: 0.1
  }
  param {
    lr_mult: 0.1
  }
  convolution_param {
    num_output: 224
    pad: 1
    kernel_size: 3
    weight_filler {
      type: "xavier"
    }
    bias_filler {
      type: "constant"
      value: 0.2
    }
  }
}
layer {
  name: "inception_4b/relu_3x3"
  type: "ReLU"
  bottom: "inception_4b/3x3"
  top: "inception_4b/3x3"
}
layer {
  name: "inception_4b/5x5_reduce"
  type: "Convolution"
  bottom: "inception_4a/output"
  top: "inception_4b/5x5_reduce"
  param {
    lr_mult: 0.1
  }
  param {
    lr_mult: 0.1
  }
  convolution_param {
    num_output: 24
    kernel_size: 1
    weight_filler {
      type: "xavier"
    }
    bias_filler {
      type: "constant"
      value: 0.2
    }
  }
}
layer {
  name: "inception_4b/relu_5x5_reduce"
  type: "ReLU"
  bottom: "inception_4b/5x5_reduce"
  top: "inception_4b/5x5_reduce"
}
layer {
  name: "inception_4b/5x5"
  type: "Convolution"
  bottom: "inception_4b/5x5_reduce"
  top: "inception_4b/5x5"
  param {
    lr_mult: 0.1
  }
  param {
    lr_mult: 0.1
  }
  convolution_param {
    num_output: 64
    pad: 2
    kernel_size: 5
    weight_filler {
      type: "xavier"
    }
    bias_filler {
      type: "constant"
      value: 0.2
    }
  }
}
layer {
  name: "inception_4b/relu_5x5"
  type: "ReLU"
  bottom: "inception_4b/5x5"
  top: "inception_4b/5x5"
}
layer {
  name: "inception_4b/pool"
  type: "Pooling"
  bottom: "inception_4a/output"
  top: "inception_4b/pool"
  pooling_param {
    pool: MAX
    kernel_size: 3
    stride: 1
    pad: 1
  }
}
layer {
  name: "inception_4b/pool_proj"
  type: "Convolution"
  bottom: "inception_4b/pool"
  top: "inception_4b/pool_proj"
  param {
    lr_mult: 0.1
  }
  param {
    lr_mult: 0.1
  }
  convolution_param {
    num_output: 64
    kernel_size: 1
    weight_filler {
      type: "xavier"
    }
    bias_filler {
      type: "constant"
      value: 0.2
    }
  }
}
layer {
  name: "inception_4b/relu_pool_proj"
  type: "ReLU"
  bottom: "inception_4b/pool_proj"
  top: "inception_4b/pool_proj"
}
layer {
  name: "inception_4b/output"
  type: "Concat"
  bottom: "inception_4b/1x1"
  bottom: "inception_4b/3x3"
  bottom: "inception_4b/5x5"
  bottom: "inception_4b/pool_proj"
  top: "inception_4b/output"
}
layer {
  name: "inception_4c/1x1"
  type: "Convolution"
  bottom: "inception_4b/output"
  top: "inception_4c/1x1"
  param {
    lr_mult: 0.1
  }
  param {
    lr_mult: 0.1
  }
  convolution_param {
    num_output: 128
    kernel_size: 1
    weight_filler {
      type: "xavier"
    }
    bias_filler {
      type: "constant"
      value: 0.2
    }
  }
}
layer {
  name: "inception_4c/relu_1x1"
  type: "ReLU"
  bottom: "inception_4c/1x1"
  top: "inception_4c/1x1"
}
layer {
  name: "inception_4c/3x3_reduce"
  type: "Convolution"
  bottom: "inception_4b/output"
  top: "inception_4c/3x3_reduce"
  param {
    lr_mult: 0.1
  }
  param {
    lr_mult: 0.1
  }
  convolution_param {
    num_output: 128
    kernel_size: 1
    weight_filler {
      type: "xavier"
    }
    bias_filler {
      type: "constant"
      value: 0.2
    }
  }
}
layer {
  name: "inception_4c/relu_3x3_reduce"
  type: "ReLU"
  bottom: "inception_4c/3x3_reduce"
  top: "inception_4c/3x3_reduce"
}
layer {
  name: "inception_4c/3x3"
  type: "Convolution"
  bottom: "inception_4c/3x3_reduce"
  top: "inception_4c/3x3"
  param {
    lr_mult: 0.1
  }
  param {
    lr_mult: 0.1
  }
  convolution_param {
    num_output: 256
    pad: 1
    kernel_size: 3
    weight_filler {
      type: "xavier"
    }
    bias_filler {
      type: "constant"
      value: 0.2
    }
  }
}
layer {
  name: "inception_4c/relu_3x3"
  type: "ReLU"
  bottom: "inception_4c/3x3"
  top: "inception_4c/3x3"
}
layer {
  name: "inception_4c/5x5_reduce"
  type: "Convolution"
  bottom: "inception_4b/output"
  top: "inception_4c/5x5_reduce"
  param {
    lr_mult: 0.1
  }
  param {
    lr_mult: 0.1
  }
  convolution_param {
    num_output: 24
    kernel_size: 1
    weight_filler {
      type: "xavier"
    }
    bias_filler {
      type: "constant"
      value: 0.2
    }
  }
}
layer {
  name: "inception_4c/relu_5x5_reduce"
  type: "ReLU"
  bottom: "inception_4c/5x5_reduce"
  top: "inception_4c/5x5_reduce"
}
layer {
  name: "inception_4c/5x5"
  type: "Convolution"
  bottom: "inception_4c/5x5_reduce"
  top: "inception_4c/5x5"
  param {
    lr_mult: 0.1
  }
  param {
    lr_mult: 0.1
  }
  convolution_param {
    num_output: 64
    pad: 2
    kernel_size: 5
    weight_filler {
      type: "xavier"
    }
    bias_filler {
      type: "constant"
      value: 0.2
    }
  }
}
layer {
  name: "inception_4c/relu_5x5"
  type: "ReLU"
  bottom: "inception_4c/5x5"
  top: "inception_4c/5x5"
}
layer {
  name: "inception_4c/pool"
  type: "Pooling"
  bottom: "inception_4b/output"
  top: "inception_4c/pool"
  pooling_param {
    pool: MAX
    kernel_size: 3
    stride: 1
    pad: 1
  }
}
layer {
  name: "inception_4c/pool_proj"
  type: "Convolution"
  bottom: "inception_4c/pool"
  top: "inception_4c/pool_proj"
  param {
    lr_mult: 0.1
  }
  param {
    lr_mult: 0.1
  }
  convolution_param {
    num_output: 64
    kernel_size: 1
    weight_filler {
      type: "xavier"
    }
    bias_filler {
      type: "constant"
      value: 0.2
    }
  }
}
layer {
  name: "inception_4c/relu_pool_proj"
  type: "ReLU"
  bottom: "inception_4c/pool_proj"
  top: "inception_4c/pool_proj"
}
layer {
  name: "inception_4c/output"
  type: "Concat"
  bottom: "inception_4c/1x1"
  bottom: "inception_4c/3x3"
  bottom: "inception_4c/5x5"
  bottom: "inception_4c/pool_proj"
  top: "inception_4c/output"
}
layer {
  name: "inception_4d/1x1"
  type: "Convolution"
  bottom: "inception_4c/output"
  top: "inception_4d/1x1"
  param {
    lr_mult: 0.1
  }
  param {
    lr_mult: 0.1
  }
  convolution_param {
    num_output: 112
    kernel_size: 1
    weight_filler {
      type: "xavier"
    }
    bias_filler {
      type: "constant"
      value: 0.2
    }
  }
}
layer {
  name: "inception_4d/relu_1x1"
  type: "ReLU"
  bottom: "inception_4d/1x1"
  top: "inception_4d/1x1"
}
layer {
  name: "inception_4d/3x3_reduce"
  type: "Convolution"
  bottom: "inception_4c/output"
  top: "inception_4d/3x3_reduce"
  param {
    lr_mult: 0.1
  }
  param {
    lr_mult: 0.1
  }
  convolution_param {
    num_output: 144
    kernel_size: 1
    weight_filler {
      type: "xavier"
    }
    bias_filler {
      type: "constant"
      value: 0.2
    }
  }
}
layer {
  name: "inception_4d/relu_3x3_reduce"
  type: "ReLU"
  bottom: "inception_4d/3x3_reduce"
  top: "inception_4d/3x3_reduce"
}
layer {
  name: "inception_4d/3x3"
  type: "Convolution"
  bottom: "inception_4d/3x3_reduce"
  top: "inception_4d/3x3"
  param {
    lr_mult: 0.1
  }
  param {
    lr_mult: 0.1
  }
  convolution_param {
    num_output: 288
    pad: 1
    kernel_size: 3
    weight_filler {
      type: "xavier"
    }
    bias_filler {
      type: "constant"
      value: 0.2
    }
  }
}
layer {
  name: "inception_4d/relu_3x3"
  type: "ReLU"
  bottom: "inception_4d/3x3"
  top: "inception_4d/3x3"
}
layer {
  name: "inception_4d/5x5_reduce"
  type: "Convolution"
  bottom: "inception_4c/output"
  top: "inception_4d/5x5_reduce"
  param {
    lr_mult: 0.1
  }
  param {
    lr_mult: 0.1
  }
  convolution_param {
    num_output: 32
    kernel_size: 1
    weight_filler {
      type: "xavier"
    }
    bias_filler {
      type: "constant"
      value: 0.2
    }
  }
}
layer {
  name: "inception_4d/relu_5x5_reduce"
  type: "ReLU"
  bottom: "inception_4d/5x5_reduce"
  top: "inception_4d/5x5_reduce"
}
layer {
  name: "inception_4d/5x5"
  type: "Convolution"
  bottom: "inception_4d/5x5_reduce"
  top: "inception_4d/5x5"
  param {
    lr_mult: 0.1
  }
  param {
    lr_mult: 0.1
  }
  convolution_param {
    num_output: 64
    pad: 2
    kernel_size: 5
    weight_filler {
      type: "xavier"
    }
    bias_filler {
      type: "constant"
      value: 0.2
    }
  }
}
layer {
  name: "inception_4d/relu_5x5"
  type: "ReLU"
  bottom: "inception_4d/5x5"
  top: "inception_4d/5x5"
}
layer {
  name: "inception_4d/pool"
  type: "Pooling"
  bottom: "inception_4c/output"
  top: "inception_4d/pool"
  pooling_param {
    pool: MAX
    kernel_size: 3
    stride: 1
    pad: 1
  }
}
layer {
  name: "inception_4d/pool_proj"
  type: "Convolution"
  bottom: "inception_4d/pool"
  top: "inception_4d/pool_proj"
  param {
    lr_mult: 0.1
  }
  param {
    lr_mult: 0.1
  }
  convolution_param {
    num_output: 64
    kernel_size: 1
    weight_filler {
      type: "xavier"
    }
    bias_filler {
      type: "constant"
      value: 0.2
    }
  }
}
layer {
  name: "inception_4d/relu_pool_proj"
  type: "ReLU"
  bottom: "inception_4d/pool_proj"
  top: "inception_4d/pool_proj"
}
layer {
  name: "inception_4d/output"
  type: "Concat"
  bottom: "inception_4d/1x1"
  bottom: "inception_4d/3x3"
  bottom: "inception_4d/5x5"
  bottom: "inception_4d/pool_proj"
  top: "inception_4d/output"
}
layer {
  name: "loss2/ave_pool"
  type: "Pooling"
  bottom: "inception_4d/output"
  top: "loss2/ave_pool"
  pooling_param {
    pool: AVE
    kernel_size: 5
    stride: 3
  }
}
layer {
  name: "loss2/conv"
  type: "Convolution"
  bottom: "loss2/ave_pool"
  top: "loss2/conv"
  param {
    lr_mult: 0.1
  }
  param {
    lr_mult: 0.1
  }
  convolution_param {
    num_output: 128
    kernel_size: 1
    weight_filler {
      type: "xavier"
    }
    bias_filler {
      type: "constant"
      value: 0.2
    }
  }
}
layer {
  name: "loss2/relu_conv"
  type: "ReLU"
  bottom: "loss2/conv"
  top: "loss2/conv"
}
layer {
  name: "loss2/fc"
  type: "InnerProduct"
  bottom: "loss2/conv"
  top: "loss2/fc"
  param {
    lr_mult: 0.1
  }
  param {
    lr_mult: 0.1
  }
  inner_product_param {
    num_output: 1024
    weight_filler {
      type: "xavier"
    }
    bias_filler {
      type: "constant"
      value: 0.2
    }
  }
}
layer {
  name: "loss2/relu_fc"
  type: "ReLU"
  bottom: "loss2/fc"
  top: "loss2/fc"
}
layer {
  name: "loss2/drop_fc"
  type: "Dropout"
  bottom: "loss2/fc"
  top: "loss2/fc"
  dropout_param {
    dropout_ratio: 0.7
  }
}
layer {
  name: "ft_loss2/classifier"
  type: "InnerProduct"
  bottom: "loss2/fc"
  top: "ft_loss2/classifier"
  param {
    lr_mult: 1
  }
  param {
    lr_mult: 1
  }
  inner_product_param {
    num_output: 2
    weight_filler {
      type: "xavier"
    }
    bias_filler {
      type: "constant"
      value: 0
    }
  }
}
layer {
  name: "loss2/loss"
  type: "SoftmaxWithLoss"
  bottom: "ft_loss2/classifier"
  bottom: "label"
  top: "loss2/loss1"
  loss_weight: 0.3
}
layer {
  name: "loss2/top-1"
  type: "Accuracy"
  bottom: "ft_loss2/classifier"
  bottom: "label"
  top: "loss2/top-1"
  include {
    phase: TEST
  }
}
layer {
  name: "inception_4e/1x1"
  type: "Convolution"
  bottom: "inception_4d/output"
  top: "inception_4e/1x1"
  param {
    lr_mult: 0.1
  }
  param {
    lr_mult: 0.1
  }
  convolution_param {
    num_output: 256
    kernel_size: 1
    weight_filler {
      type: "xavier"
    }
    bias_filler {
      type: "constant"
      value: 0.2
    }
  }
}
layer {
  name: "inception_4e/relu_1x1"
  type: "ReLU"
  bottom: "inception_4e/1x1"
  top: "inception_4e/1x1"
}
layer {
  name: "inception_4e/3x3_reduce"
  type: "Convolution"
  bottom: "inception_4d/output"
  top: "inception_4e/3x3_reduce"
  param {
    lr_mult: 0.1
  }
  param {
    lr_mult: 0.1
  }
  convolution_param {
    num_output: 160
    kernel_size: 1
    weight_filler {
      type: "xavier"
    }
    bias_filler {
      type: "constant"
      value: 0.2
    }
  }
}
layer {
  name: "inception_4e/relu_3x3_reduce"
  type: "ReLU"
  bottom: "inception_4e/3x3_reduce"
  top: "inception_4e/3x3_reduce"
}
layer {
  name: "inception_4e/3x3"
  type: "Convolution"
  bottom: "inception_4e/3x3_reduce"
  top: "inception_4e/3x3"
  param {
    lr_mult: 0.1
  }
  param {
    lr_mult: 0.1
  }
  convolution_param {
    num_output: 320
    pad: 1
…
I1009 17:09:12.401283  2156 net.cpp:90] Creating Layer inception_4b/output_inception_4b/output_0_split
I1009 17:09:12.401288  2156 net.cpp:410] inception_4b/output_inception_4b/output_0_split <- inception_4b/output
I1009 17:09:12.401295  2156 net.cpp:368] inception_4b/output_inception_4b/output_0_split -> inception_4b/output_inception_4b/output_0_split_0
I1009 17:09:12.401304  2156 net.cpp:368] inception_4b/output_inception_4b/output_0_split -> inception_4b/output_inception_4b/output_0_split_1
I1009 17:09:12.401311  2156 net.cpp:368] inception_4b/output_inception_4b/output_0_split -> inception_4b/output_inception_4b/output_0_split_2
I1009 17:09:12.401319  2156 net.cpp:368] inception_4b/output_inception_4b/output_0_split -> inception_4b/output_inception_4b/output_0_split_3
I1009 17:09:12.401325  2156 net.cpp:120] Setting up inception_4b/output_inception_4b/output_0_split
I1009 17:09:12.401335  2156 net.cpp:127] Top shape: 50 512 14 14 (5017600)
I1009 17:09:12.401340  2156 net.cpp:127] Top shape: 50 512 14 14 (5017600)
I1009 17:09:12.401345  2156 net.cpp:127] Top shape: 50 512 14 14 (5017600)
I1009 17:09:12.401350  2156 net.cpp:127] Top shape: 50 512 14 14 (5017600)
I1009 17:09:12.401355  2156 layer_factory.hpp:74] Creating layer inception_4c/1x1
I1009 17:09:12.401362  2156 net.cpp:90] Creating Layer inception_4c/1x1
I1009 17:09:12.401370  2156 net.cpp:410] inception_4c/1x1 <- inception_4b/output_inception_4b/output_0_split_0
I1009 17:09:12.401379  2156 net.cpp:368] inception_4c/1x1 -> inception_4c/1x1
I1009 17:09:12.401387  2156 net.cpp:120] Setting up inception_4c/1x1
I1009 17:09:12.402055  2156 net.cpp:127] Top shape: 50 128 14 14 (1254400)
I1009 17:09:12.402067  2156 layer_factory.hpp:74] Creating layer inception_4c/relu_1x1
I1009 17:09:12.402075  2156 net.cpp:90] Creating Layer inception_4c/relu_1x1
I1009 17:09:12.402079  2156 net.cpp:410] inception_4c/relu_1x1 <- inception_4c/1x1
I1009 17:09:12.402086  2156 net.cpp:357] inception_4c/relu_1x1 -> inception_4c/1x1 (in-place)
I1009 17:09:12.402091  2156 net.cpp:120] Setting up inception_4c/relu_1x1
I1009 17:09:12.402097  2156 net.cpp:127] Top shape: 50 128 14 14 (1254400)
I1009 17:09:12.402102  2156 layer_factory.hpp:74] Creating layer inception_4c/3x3_reduce
I1009 17:09:12.402112  2156 net.cpp:90] Creating Layer inception_4c/3x3_reduce
I1009 17:09:12.402117  2156 net.cpp:410] inception_4c/3x3_reduce <- inception_4b/output_inception_4b/output_0_split_1
I1009 17:09:12.402125  2156 net.cpp:368] inception_4c/3x3_reduce -> inception_4c/3x3_reduce
I1009 17:09:12.402132  2156 net.cpp:120] Setting up inception_4c/3x3_reduce
I1009 17:09:12.402787  2156 net.cpp:127] Top shape: 50 128 14 14 (1254400)
I1009 17:09:12.402799  2156 layer_factory.hpp:74] Creating layer inception_4c/relu_3x3_reduce
I1009 17:09:12.402811  2156 net.cpp:90] Creating Layer inception_4c/relu_3x3_reduce
I1009 17:09:12.402815  2156 net.cpp:410] inception_4c/relu_3x3_reduce <- inception_4c/3x3_reduce
I1009 17:09:12.402822  2156 net.cpp:357] inception_4c/relu_3x3_reduce -> inception_4c/3x3_reduce (in-place)
I1009 17:09:12.402827  2156 net.cpp:120] Setting up inception_4c/relu_3x3_reduce
I1009 17:09:12.402833  2156 net.cpp:127] Top shape: 50 128 14 14 (1254400)
I1009 17:09:12.402837  2156 layer_factory.hpp:74] Creating layer inception_4c/3x3
I1009 17:09:12.402847  2156 net.cpp:90] Creating Layer inception_4c/3x3
I1009 17:09:12.402853  2156 net.cpp:410] inception_4c/3x3 <- inception_4c/3x3_reduce
I1009 17:09:12.402860  2156 net.cpp:368] inception_4c/3x3 -> inception_4c/3x3
I1009 17:09:12.402868  2156 net.cpp:120] Setting up inception_4c/3x3
I1009 17:09:12.405755  2156 net.cpp:127] Top shape: 50 256 14 14 (2508800)
I1009 17:09:12.405776  2156 layer_factory.hpp:74] Creating layer inception_4c/relu_3x3
I1009 17:09:12.405787  2156 net.cpp:90] Creating Layer inception_4c/relu_3x3
I1009 17:09:12.405792  2156 net.cpp:410] inception_4c/relu_3x3 <- inception_4c/3x3
I1009 17:09:12.405799  2156 net.cpp:357] inception_4c/relu_3x3 -> inception_4c/3x3 (in-place)
I1009 17:09:12.405807  2156 net.cpp:120] Setting up inception_4c/relu_3x3
I1009 17:09:12.405812  2156 net.cpp:127] Top shape: 50 256 14 14 (2508800)
I1009 17:09:12.405817  2156 layer_factory.hpp:74] Creating layer inception_4c/5x5_reduce
I1009 17:09:12.405824  2156 net.cpp:90] Creating Layer inception_4c/5x5_reduce
I1009 17:09:12.405829  2156 net.cpp:410] inception_4c/5x5_reduce <- inception_4b/output_inception_4b/output_0_split_2
I1009 17:09:12.405836  2156 net.cpp:368] inception_4c/5x5_reduce -> inception_4c/5x5_reduce
I1009 17:09:12.405843  2156 net.cpp:120] Setting up inception_4c/5x5_reduce
I1009 17:09:12.405972  2156 net.cpp:127] Top shape: 50 24 14 14 (235200)
I1009 17:09:12.405982  2156 layer_factory.hpp:74] Creating layer inception_4c/relu_5x5_reduce
I1009 17:09:12.405989  2156 net.cpp:90] Creating Layer inception_4c/relu_5x5_reduce
I1009 17:09:12.405993  2156 net.cpp:410] inception_4c/relu_5x5_reduce <- inception_4c/5x5_reduce
I1009 17:09:12.405999  2156 net.cpp:357] inception_4c/relu_5x5_reduce -> inception_4c/5x5_reduce (in-place)
I1009 17:09:12.406005  2156 net.cpp:120] Setting up inception_4c/relu_5x5_reduce
I1009 17:09:12.406011  2156 net.cpp:127] Top shape: 50 24 14 14 (235200)
I1009 17:09:12.406015  2156 layer_factory.hpp:74] Creating layer inception_4c/5x5
I1009 17:09:12.406023  2156 net.cpp:90] Creating Layer inception_4c/5x5
I1009 17:09:12.406028  2156 net.cpp:410] inception_4c/5x5 <- inception_4c/5x5_reduce
I1009 17:09:12.406035  2156 net.cpp:368] inception_4c/5x5 -> inception_4c/5x5
I1009 17:09:12.406043  2156 net.cpp:120] Setting up inception_4c/5x5
I1009 17:09:12.406431  2156 net.cpp:127] Top shape: 50 64 14 14 (627200)
I1009 17:09:12.406450  2156 layer_factory.hpp:74] Creating layer inception_4c/relu_5x5
I1009 17:09:12.406457  2156 net.cpp:90] Creating Layer inception_4c/relu_5x5
I1009 17:09:12.406462  2156 net.cpp:410] inception_4c/relu_5x5 <- inception_4c/5x5
I1009 17:09:12.406469  2156 net.cpp:357] inception_4c/relu_5x5 -> inception_4c/5x5 (in-place)
I1009 17:09:12.406476  2156 net.cpp:120] Setting up inception_4c/relu_5x5
I1009 17:09:12.406486  2156 net.cpp:127] Top shape: 50 64 14 14 (627200)
I1009 17:09:12.406491  2156 layer_factory.hpp:74] Creating layer inception_4c/pool
I1009 17:09:12.406498  2156 net.cpp:90] Creating Layer inception_4c/pool
I1009 17:09:12.406503  2156 net.cpp:410] inception_4c/pool <- inception_4b/output_inception_4b/output_0_split_3
I1009 17:09:12.406509  2156 net.cpp:368] inception_4c/pool -> inception_4c/pool
I1009 17:09:12.406517  2156 net.cpp:120] Setting up inception_4c/pool
I1009 17:09:12.406525  2156 net.cpp:127] Top shape: 50 512 14 14 (5017600)
I1009 17:09:12.406529  2156 layer_factory.hpp:74] Creating layer inception_4c/pool_proj
I1009 17:09:12.406539  2156 net.cpp:90] Creating Layer inception_4c/pool_proj
I1009 17:09:12.406545  2156 net.cpp:410] inception_4c/pool_proj <- inception_4c/pool
I1009 17:09:12.406554  2156 net.cpp:368] inception_4c/pool_proj -> inception_4c/pool_proj
I1009 17:09:12.406561  2156 net.cpp:120] Setting up inception_4c/pool_proj
I1009 17:09:12.406893  2156 net.cpp:127] Top shape: 50 64 14 14 (627200)
I1009 17:09:12.406904  2156 layer_factory.hpp:74] Creating layer inception_4c/relu_pool_proj
I1009 17:09:12.406914  2156 net.cpp:90] Creating Layer inception_4c/relu_pool_proj
I1009 17:09:12.406919  2156 net.cpp:410] inception_4c/relu_pool_proj <- inception_4c/pool_proj
I1009 17:09:12.406925  2156 net.cpp:357] inception_4c/relu_pool_proj -> inception_4c/pool_proj (in-place)
I1009 17:09:12.406931  2156 net.cpp:120] Setting up inception_4c/relu_pool_proj
I1009 17:09:12.406937  2156 net.cpp:127] Top shape: 50 64 14 14 (627200)
I1009 17:09:12.406942  2156 layer_factory.hpp:74] Creating layer inception_4c/output
I1009 17:09:12.406950  2156 net.cpp:90] Creating Layer inception_4c/output
I1009 17:09:12.406955  2156 net.cpp:410] inception_4c/output <- inception_4c/1x1
I1009 17:09:12.406960  2156 net.cpp:410] inception_4c/output <- inception_4c/3x3
I1009 17:09:12.406965  2156 net.cpp:410] inception_4c/output <- inception_4c/5x5
I1009 17:09:12.406970  2156 net.cpp:410] inception_4c/output <- inception_4c/pool_proj
I1009 17:09:12.406975  2156 net.cpp:368] inception_4c/output -> inception_4c/output
I1009 17:09:12.406982  2156 net.cpp:120] Setting up inception_4c/output
I1009 17:09:12.406990  2156 net.cpp:127] Top shape: 50 512 14 14 (5017600)
I1009 17:09:12.406994  2156 layer_factory.hpp:74] Creating layer inception_4c/output_inception_4c/output_0_split
I1009 17:09:12.407001  2156 net.cpp:90] Creating Layer inception_4c/output_inception_4c/output_0_split
I1009 17:09:12.407006  2156 net.cpp:410] inception_4c/output_inception_4c/output_0_split <- inception_4c/output
I1009 17:09:12.407011  2156 net.cpp:368] inception_4c/output_inception_4c/output_0_split -> inception_4c/output_inception_4c/output_0_split_0
I1009 17:09:12.407021  2156 net.cpp:368] inception_4c/output_inception_4c/output_0_split -> inception_4c/output_inception_4c/output_0_split_1
I1009 17:09:12.407027  2156 net.cpp:368] inception_4c/output_inception_4c/output_0_split -> inception_4c/output_inception_4c/output_0_split_2
I1009 17:09:12.407035  2156 net.cpp:368] inception_4c/output_inception_4c/output_0_split -> inception_4c/output_inception_4c/output_0_split_3
I1009 17:09:12.407042  2156 net.cpp:120] Setting up inception_4c/output_inception_4c/output_0_split
I1009 17:09:12.407049  2156 net.cpp:127] Top shape: 50 512 14 14 (5017600)
I1009 17:09:12.407054  2156 net.cpp:127] Top shape: 50 512 14 14 (5017600)
I1009 17:09:12.407059  2156 net.cpp:127] Top shape: 50 512 14 14 (5017600)
I1009 17:09:12.407064  2156 net.cpp:127] Top shape: 50 512 14 14 (5017600)
I1009 17:09:12.407069  2156 layer_factory.hpp:74] Creating layer inception_4d/1x1
I1009 17:09:12.407086  2156 net.cpp:90] Creating Layer inception_4d/1x1
I1009 17:09:12.407093  2156 net.cpp:410] inception_4d/1x1 <- inception_4c/output_inception_4c/output_0_split_0
I1009 17:09:12.407099  2156 net.cpp:368] inception_4d/1x1 -> inception_4d/1x1
I1009 17:09:12.407106  2156 net.cpp:120] Setting up inception_4d/1x1
I1009 17:09:12.407682  2156 net.cpp:127] Top shape: 50 112 14 14 (1097600)
I1009 17:09:12.407694  2156 layer_factory.hpp:74] Creating layer inception_4d/relu_1x1
I1009 17:09:12.407701  2156 net.cpp:90] Creating Layer inception_4d/relu_1x1
I1009 17:09:12.407706  2156 net.cpp:410] inception_4d/relu_1x1 <- inception_4d/1x1
I1009 17:09:12.407711  2156 net.cpp:357] inception_4d/relu_1x1 -> inception_4d/1x1 (in-place)
I1009 17:09:12.407717  2156 net.cpp:120] Setting up inception_4d/relu_1x1
I1009 17:09:12.407723  2156 net.cpp:127] Top shape: 50 112 14 14 (1097600)
I1009 17:09:12.407728  2156 layer_factory.hpp:74] Creating layer inception_4d/3x3_reduce
I1009 17:09:12.407735  2156 net.cpp:90] Creating Layer inception_4d/3x3_reduce
I1009 17:09:12.407740  2156 net.cpp:410] inception_4d/3x3_reduce <- inception_4c/output_inception_4c/output_0_split_1
I1009 17:09:12.407748  2156 net.cpp:368] inception_4d/3x3_reduce -> inception_4d/3x3_reduce
I1009 17:09:12.407757  2156 net.cpp:120] Setting up inception_4d/3x3_reduce
I1009 17:09:12.408496  2156 net.cpp:127] Top shape: 50 144 14 14 (1411200)
I1009 17:09:12.408509  2156 layer_factory.hpp:74] Creating layer inception_4d/relu_3x3_reduce
I1009 17:09:12.408515  2156 net.cpp:90] Creating Layer inception_4d/relu_3x3_reduce
I1009 17:09:12.408520  2156 net.cpp:410] inception_4d/relu_3x3_reduce <- inception_4d/3x3_reduce
I1009 17:09:12.408527  2156 net.cpp:357] inception_4d/relu_3x3_reduce -> inception_4d/3x3_reduce (in-place)
I1009 17:09:12.408535  2156 net.cpp:120] Setting up inception_4d/relu_3x3_reduce
I1009 17:09:12.408540  2156 net.cpp:127] Top shape: 50 144 14 14 (1411200)
I1009 17:09:12.408545  2156 layer_factory.hpp:74] Creating layer inception_4d/3x3
I1009 17:09:12.408551  2156 net.cpp:90] Creating Layer inception_4d/3x3
I1009 17:09:12.408556  2156 net.cpp:410] inception_4d/3x3 <- inception_4d/3x3_reduce
I1009 17:09:12.408565  2156 net.cpp:368] inception_4d/3x3 -> inception_4d/3x3
I1009 17:09:12.408571  2156 net.cpp:120] Setting up inception_4d/3x3
I1009 17:09:12.412575  2156 net.cpp:127] Top shape: 50 288 14 14 (2822400)
I1009 17:09:12.412588  2156 layer_factory.hpp:74] Creating layer inception_4d/relu_3x3
I1009 17:09:12.412595  2156 net.cpp:90] Creating Layer inception_4d/relu_3x3
I1009 17:09:12.412600  2156 net.cpp:410] inception_4d/relu_3x3 <- inception_4d/3x3
I1009 17:09:12.412607  2156 net.cpp:357] inception_4d/relu_3x3 -> inception_4d/3x3 (in-place)
I1009 17:09:12.412613  2156 net.cpp:120] Setting up inception_4d/relu_3x3
I1009 17:09:12.412619  2156 net.cpp:127] Top shape: 50 288 14 14 (2822400)
I1009 17:09:12.412624  2156 layer_factory.hpp:74] Creating layer inception_4d/5x5_reduce
I1009 17:09:12.412631  2156 net.cpp:90] Creating Layer inception_4d/5x5_reduce
I1009 17:09:12.412636  2156 net.cpp:410] inception_4d/5x5_reduce <- inception_4c/output_inception_4c/output_0_split_2
I1009 17:09:12.412644  2156 net.cpp:368] inception_4d/5x5_reduce -> inception_4d/5x5_reduce
I1009 17:09:12.412652  2156 net.cpp:120] Setting up inception_4d/5x5_reduce
I1009 17:09:12.412827  2156 net.cpp:127] Top shape: 50 32 14 14 (313600)
I1009 17:09:12.412837  2156 layer_factory.hpp:74] Creating layer inception_4d/relu_5x5_reduce
I1009 17:09:12.412843  2156 net.cpp:90] Creating Layer inception_4d/relu_5x5_reduce
I1009 17:09:12.412848  2156 net.cpp:410] inception_4d/relu_5x5_reduce <- inception_4d/5x5_reduce
I1009 17:09:12.412854  2156 net.cpp:357] inception_4d/relu_5x5_reduce -> inception_4d/5x5_reduce (in-place)
I1009 17:09:12.412860  2156 net.cpp:120] Setting up inception_4d/relu_5x5_reduce
I1009 17:09:12.412868  2156 net.cpp:127] Top shape: 50 32 14 14 (313600)
I1009 17:09:12.412871  2156 layer_factory.hpp:74] Creating layer inception_4d/5x5
I1009 17:09:12.412888  2156 net.cpp:90] Creating Layer inception_4d/5x5
I1009 17:09:12.412894  2156 net.cpp:410] inception_4d/5x5 <- inception_4d/5x5_reduce
I1009 17:09:12.412904  2156 net.cpp:368] inception_4d/5x5 -> inception_4d/5x5
I1009 17:09:12.412911  2156 net.cpp:120] Setting up inception_4d/5x5
I1009 17:09:12.413441  2156 net.cpp:127] Top shape: 50 64 14 14 (627200)
I1009 17:09:12.413453  2156 layer_factory.hpp:74] Creating layer inception_4d/relu_5x5
I1009 17:09:12.413463  2156 net.cpp:90] Creating Layer inception_4d/relu_5x5
I1009 17:09:12.413468  2156 net.cpp:410] inception_4d/relu_5x5 <- inception_4d/5x5
I1009 17:09:12.413475  2156 net.cpp:357] inception_4d/relu_5x5 -> inception_4d/5x5 (in-place)
I1009 17:09:12.413481  2156 net.cpp:120] Setting up inception_4d/relu_5x5
I1009 17:09:12.413501  2156 net.cpp:127] Top shape: 50 64 14 14 (627200)
I1009 17:09:12.413506  2156 layer_factory.hpp:74] Creating layer inception_4d/pool
I1009 17:09:12.413514  2156 net.cpp:90] Creating Layer inception_4d/pool
I1009 17:09:12.413519  2156 net.cpp:410] inception_4d/pool <- inception_4c/output_inception_4c/output_0_split_3
I1009 17:09:12.413527  2156 net.cpp:368] inception_4d/pool -> inception_4d/pool
I1009 17:09:12.413532  2156 net.cpp:120] Setting up inception_4d/pool
I1009 17:09:12.413542  2156 net.cpp:127] Top shape: 50 512 14 14 (5017600)
I1009 17:09:12.413547  2156 layer_factory.hpp:74] Creating layer inception_4d/pool_proj
I1009 17:09:12.413555  2156 net.cpp:90] Creating Layer inception_4d/pool_proj
I1009 17:09:12.413563  2156 net.cpp:410] inception_4d/pool_proj <- inception_4d/pool
I1009 17:09:12.413569  2156 net.cpp:368] inception_4d/pool_proj -> inception_4d/pool_proj
I1009 17:09:12.413576  2156 net.cpp:120] Setting up inception_4d/pool_proj
I1009 17:09:12.413918  2156 net.cpp:127] Top shape: 50 64 14 14 (627200)
I1009 17:09:12.413930  2156 layer_factory.hpp:74] Creating layer inception_4d/relu_pool_proj
I1009 17:09:12.413938  2156 net.cpp:90] Creating Layer inception_4d/relu_pool_proj
I1009 17:09:12.413943  2156 net.cpp:410] inception_4d/relu_pool_proj <- inception_4d/pool_proj
I1009 17:09:12.413950  2156 net.cpp:357] inception_4d/relu_pool_proj -> inception_4d/pool_proj (in-place)
I1009 17:09:12.413957  2156 net.cpp:120] Setting up inception_4d/relu_pool_proj
I1009 17:09:12.413964  2156 net.cpp:127] Top shape: 50 64 14 14 (627200)
I1009 17:09:12.413967  2156 layer_factory.hpp:74] Creating layer inception_4d/output
I1009 17:09:12.413975  2156 net.cpp:90] Creating Layer inception_4d/output
I1009 17:09:12.413979  2156 net.cpp:410] inception_4d/output <- inception_4d/1x1
I1009 17:09:12.413985  2156 net.cpp:410] inception_4d/output <- inception_4d/3x3
I1009 17:09:12.413990  2156 net.cpp:410] inception_4d/output <- inception_4d/5x5
I1009 17:09:12.413995  2156 net.cpp:410] inception_4d/output <- inception_4d/pool_proj
I1009 17:09:12.414000  2156 net.cpp:368] inception_4d/output -> inception_4d/output
I1009 17:09:12.414011  2156 net.cpp:120] Setting up inception_4d/output
I1009 17:09:12.414019  2156 net.cpp:127] Top shape: 50 528 14 14 (5174400)
I1009 17:09:12.414024  2156 layer_factory.hpp:74] Creating layer inception_4d/output_inception_4d/output_0_split
I1009 17:09:12.414031  2156 net.cpp:90] Creating Layer inception_4d/output_inception_4d/output_0_split
I1009 17:09:12.414036  2156 net.cpp:410] inception_4d/output_inception_4d/output_0_split <- inception_4d/output
I1009 17:09:12.414041  2156 net.cpp:368] inception_4d/output_inception_4d/output_0_split -> inception_4d/output_inception_4d/output_0_split_0
I1009 17:09:12.414049  2156 net.cpp:368] inception_4d/output_inception_4d/output_0_split -> inception_4d/output_inception_4d/output_0_split_1
I1009 17:09:12.414057  2156 net.cpp:368] inception_4d/output_inception_4d/output_0_split -> inception_4d/output_inception_4d/output_0_split_2
I1009 17:09:12.414065  2156 net.cpp:368] inception_4d/output_inception_4d/output_0_split -> inception_4d/output_inception_4d/output_0_split_3
I1009 17:09:12.414075  2156 net.cpp:368] inception_4d/output_inception_4d/output_0_split -> inception_4d/output_inception_4d/output_0_split_4
I1009 17:09:12.414090  2156 net.cpp:120] Setting up inception_4d/output_inception_4d/output_0_split
I1009 17:09:12.414098  2156 net.cpp:127] Top shape: 50 528 14 14 (5174400)
I1009 17:09:12.414104  2156 net.cpp:127] Top shape: 50 528 14 14 (5174400)
I1009 17:09:12.414110  2156 net.cpp:127] Top shape: 50 528 14 14 (5174400)
I1009 17:09:12.414115  2156 net.cpp:127] Top shape: 50 528 14 14 (5174400)
I1009 17:09:12.414120  2156 net.cpp:127] Top shape: 50 528 14 14 (5174400)
I1009 17:09:12.414125  2156 layer_factory.hpp:74] Creating layer loss2/ave_pool
I1009 17:09:12.414132  2156 net.cpp:90] Creating Layer loss2/ave_pool
I1009 17:09:12.414137  2156 net.cpp:410] loss2/ave_pool <- inception_4d/output_inception_4d/output_0_split_0
I1009 17:09:12.414145  2156 net.cpp:368] loss2/ave_pool -> loss2/ave_pool
I1009 17:09:12.414152  2156 net.cpp:120] Setting up loss2/ave_pool
I1009 17:09:12.414160  2156 net.cpp:127] Top shape: 50 528 4 4 (422400)
I1009 17:09:12.414165  2156 layer_factory.hpp:74] Creating layer loss2/conv
I1009 17:09:12.414172  2156 net.cpp:90] Creating Layer loss2/conv
I1009 17:09:12.414177  2156 net.cpp:410] loss2/conv <- loss2/ave_pool
I1009 17:09:12.414186  2156 net.cpp:368] loss2/conv -> loss2/conv
I1009 17:09:12.414193  2156 net.cpp:120] Setting up loss2/conv
I1009 17:09:12.414886  2156 net.cpp:127] Top shape: 50 128 4 4 (102400)
I1009 17:09:12.414899  2156 layer_factory.hpp:74] Creating layer loss2/relu_conv
I1009 17:09:12.414906  2156 net.cpp:90] Creating Layer loss2/relu_conv
I1009 17:09:12.414911  2156 net.cpp:410] loss2/relu_conv <- loss2/conv
I1009 17:09:12.414917  2156 net.cpp:357] loss2/relu_conv -> loss2/conv (in-place)
I1009 17:09:12.414923  2156 net.cpp:120] Setting up loss2/relu_conv
I1009 17:09:12.414930  2156 net.cpp:127] Top shape: 50 128 4 4 (102400)
I1009 17:09:12.414934  2156 layer_factory.hpp:74] Creating layer loss2/fc
I1009 17:09:12.414944  2156 net.cpp:90] Creating Layer loss2/fc
I1009 17:09:12.414949  2156 net.cpp:410] loss2/fc <- loss2/conv
I1009 17:09:12.414957  2156 net.cpp:368] loss2/fc -> loss2/fc
I1009 17:09:12.414964  2156 net.cpp:120] Setting up loss2/fc
I1009 17:09:12.436393  2156 net.cpp:127] Top shape: 50 1024 (51200)
I1009 17:09:12.436411  2156 layer_factory.hpp:74] Creating layer loss2/relu_fc
I1009 17:09:12.436419  2156 net.cpp:90] Creating Layer loss2/relu_fc
I1009 17:09:12.436425  2156 net.cpp:410] loss2/relu_fc <- loss2/fc
I1009 17:09:12.436432  2156 net.cpp:357] loss2/relu_fc -> loss2/fc (in-place)
I1009 17:09:12.436439  2156 net.cpp:120] Setting up loss2/relu_fc
I1009 17:09:12.436457  2156 net.cpp:127] Top shape: 50 1024 (51200)
I1009 17:09:12.436462  2156 layer_factory.hpp:74] Creating layer loss2/drop_fc
I1009 17:09:12.436470  2156 net.cpp:90] Creating Layer loss2/drop_fc
I1009 17:09:12.436473  2156 net.cpp:410] loss2/drop_fc <- loss2/fc
I1009 17:09:12.436486  2156 net.cpp:357] loss2/drop_fc -> loss2/fc (in-place)
I1009 17:09:12.436496  2156 net.cpp:120] Setting up loss2/drop_fc
I1009 17:09:12.436503  2156 net.cpp:127] Top shape: 50 1024 (51200)
I1009 17:09:12.436508  2156 layer_factory.hpp:74] Creating layer ft_loss2/classifier
I1009 17:09:12.436517  2156 net.cpp:90] Creating Layer ft_loss2/classifier
I1009 17:09:12.436524  2156 net.cpp:410] ft_loss2/classifier <- loss2/fc
I1009 17:09:12.436532  2156 net.cpp:368] ft_loss2/classifier -> ft_loss2/classifier
I1009 17:09:12.436539  2156 net.cpp:120] Setting up ft_loss2/classifier
I1009 17:09:12.436575  2156 net.cpp:127] Top shape: 50 2 (100)
I1009 17:09:12.436584  2156 layer_factory.hpp:74] Creating layer ft_loss2/classifier_ft_loss2/classifier_0_split
I1009 17:09:12.436605  2156 net.cpp:90] Creating Layer ft_loss2/classifier_ft_loss2/classifier_0_split
I1009 17:09:12.436611  2156 net.cpp:410] ft_loss2/classifier_ft_loss2/classifier_0_split <- ft_loss2/classifier
I1009 17:09:12.436619  2156 net.cpp:368] ft_loss2/classifier_ft_loss2/classifier_0_split -> ft_loss2/classifier_ft_loss2/classifier_0_split_0
I1009 17:09:12.436625  2156 net.cpp:368] ft_loss2/classifier_ft_loss2/classifier_0_split -> ft_loss2/classifier_ft_loss2/classifier_0_split_1
I1009 17:09:12.436640  2156 net.cpp:120] Setting up ft_loss2/classifier_ft_loss2/classifier_0_split
I1009 17:09:12.436651  2156 net.cpp:127] Top shape: 50 2 (100)
I1009 17:09:12.436669  2156 net.cpp:127] Top shape: 50 2 (100)
I1009 17:09:12.436674  2156 layer_factory.hpp:74] Creating layer loss2/loss
I1009 17:09:12.436681  2156 net.cpp:90] Creating Layer loss2/loss
I1009 17:09:12.436686  2156 net.cpp:410] loss2/loss <- ft_loss2/classifier_ft_loss2/classifier_0_split_0
I1009 17:09:12.436691  2156 net.cpp:410] loss2/loss <- label_data_1_split_2
I1009 17:09:12.436697  2156 net.cpp:368] loss2/loss -> loss2/loss1
I1009 17:09:12.436704  2156 net.cpp:120] Setting up loss2/loss
…
I1009 17:09:12.436780  2156 net.cpp:368] loss2/top-1 -> loss2/top-1
I1009 17:09:12.436787  2156 net.cpp:120] Setting up loss2/top-1
I1009 17:09:12.436794  2156 net.cpp:127] Top shape: (1)
I1009 17:09:12.436800  2156 layer_factory.hpp:74] Creating layer inception_4e/1x1
I1009 17:09:12.436810  2156 net.cpp:90] Creating Layer inception_4e/1x1
I1009 17:09:12.436815  2156 net.cpp:410] inception_4e/1x1 <- inception_4d/output_inception_4d/output_0_split_1
I1009 17:09:12.436822  2156 net.cpp:368] inception_4e/1x1 -> inception_4e/1x1
I1009 17:09:12.436830  2156 net.cpp:120] Setting up inception_4e/1x1
I1009 17:09:12.438208  2156 net.cpp:127] Top shape: 50 256 14 14 (2508800)
I1009 17:09:12.438233  2156 layer_factory.hpp:74] Creating layer inception_4e/relu_1x1
I1009 17:09:12.438243  2156 net.cpp:90] Creating Layer inception_4e/relu_1x1
I1009 17:09:12.438249  2156 net.cpp:410] inception_4e/relu_1x1 <- inception_4e/1x1
I1009 17:09:12.438256  2156 net.cpp:357] inception_4e/relu_1x1 -> inception_4e/1x1 (in-place)
I1009 17:09:12.438262  2156 net.cpp:120] Setting up inception_4e/relu_1x1
I1009 17:09:12.438268  2156 net.cpp:127] Top shape: 50 256 14 14 (2508800)
I1009 17:09:12.438273  2156 layer_factory.hpp:74] Creating layer inception_4e/3x3_reduce
I1009 17:09:12.438282  2156 net.cpp:90] Creating Layer inception_4e/3x3_reduce
I1009 17:09:12.438287  2156 net.cpp:410] inception_4e/3x3_reduce <- inception_4d/output_inception_4d/output_0_split_2
I1009 17:09:12.438294  2156 net.cpp:368] inception_4e/3x3_reduce -> inception_4e/3x3_reduce
I1009 17:09:12.438302  2156 net.cpp:120] Setting up inception_4e/3x3_reduce
I1009 17:09:12.439163  2156 net.cpp:127] Top shape: 50 160 14 14 (1568000)
I1009 17:09:12.439177  2156 layer_factory.hpp:74] Creating layer inception_4e/relu_3x3_reduce
I1009 17:09:12.439185  2156 net.cpp:90] Creating Layer inception_4e/relu_3x3_reduce
I1009 17:09:12.439190  2156 net.cpp:410] inception_4e/relu_3x3_reduce <- inception_4e/3x3_reduce
I1009 17:09:12.439196  2156 net.cpp:357] inception_4e/relu_3x3_reduce -> inception_4e/3x3_reduce (in-place)
I1009 17:09:12.439203  2156 net.cpp:120] Setting up inception_4e/relu_3x3_reduce
I1009 17:09:12.439209  2156 net.cpp:127] Top shape: 50 160 14 14 (1568000)
I1009 17:09:12.439214  2156 layer_factory.hpp:74] Creating layer inception_4e/3x3
I1009 17:09:12.439239  2156 net.cpp:90] Creating Layer inception_4e/3x3
I1009 17:09:12.439245  2156 net.cpp:410] inception_4e/3x3 <- inception_4e/3x3_reduce
I1009 17:09:12.439254  2156 net.cpp:368] inception_4e/3x3 -> inception_4e/3x3
I1009 17:09:12.439260  2156 net.cpp:120] Setting up inception_4e/3x3
I1009 17:09:12.444345  2156 net.cpp:127] Top shape: 50 320 14 14 (3136000)
I1009 17:09:12.444360  2156 layer_factory.hpp:74] Creating layer inception_4e/relu_3x3
I1009 17:09:12.444367  2156 net.cpp:90] Creating Layer inception_4e/relu_3x3
I1009 17:09:12.444380  2156 net.cpp:410] inception_4e/relu_3x3 <- inception_4e/3x3
I1009 17:09:12.444389  2156 net.cpp:357] inception_4e/relu_3x3 -> inception_4e/3x3 (in-place)
I1009 17:09:12.444396  2156 net.cpp:120] Setting up inception_4e/relu_3x3
I1009 17:09:12.444402  2156 net.cpp:127] Top shape: 50 320 14 14 (3136000)
I1009 17:09:12.444407  2156 layer_factory.hpp:74] Creating layer inception_4e/5x5_reduce
I1009 17:09:12.444414  2156 net.cpp:90] Creating Layer inception_4e/5x5_reduce
I1009 17:09:12.444419  2156 net.cpp:410] inception_4e/5x5_reduce <- inception_4d/output_inception_4d/output_0_split_3
I1009 17:09:12.444439  2156 net.cpp:368] inception_4e/5x5_reduce -> inception_4e/5x5_reduce
I1009 17:09:12.444448  2156 net.cpp:120] Setting up inception_4e/5x5_reduce
I1009 17:09:12.444638  2156 net.cpp:127] Top shape: 50 32 14 14 (313600)
I1009 17:09:12.444651  2156 layer_factory.hpp:74] Creating layer inception_4e/relu_5x5_reduce
I1009 17:09:12.444658  2156 net.cpp:90] Creating Layer inception_4e/relu_5x5_reduce
I1009 17:09:12.444664  2156 net.cpp:410] inception_4e/relu_5x5_reduce <- inception_4e/5x5_reduce
I1009 17:09:12.444669  2156 net.cpp:357] inception_4e/relu_5x5_reduce -> inception_4e/5x5_reduce (in-place)
I1009 17:09:12.444689  2156 net.cpp:120] Setting up inception_4e/relu_5x5_reduce
I1009 17:09:12.444696  2156 net.cpp:127] Top shape: 50 32 14 14 (313600)
I1009 17:09:12.444700  2156 layer_factory.hpp:74] Creating layer inception_4e/5x5
I1009 17:09:12.444708  2156 net.cpp:90] Creating Layer inception_4e/5x5
I1009 17:09:12.444712  2156 net.cpp:410] inception_4e/5x5 <- inception_4e/5x5_reduce
I1009 17:09:12.444720  2156 net.cpp:368] inception_4e/5x5 -> inception_4e/5x5
I1009 17:09:12.444726  2156 net.cpp:120] Setting up inception_4e/5x5
I1009 17:09:12.445739  2156 net.cpp:127] Top shape: 50 128 14 14 (1254400)
I1009 17:09:12.445752  2156 layer_factory.hpp:74] Creating layer inception_4e/relu_5x5
I1009 17:09:12.445760  2156 net.cpp:90] Creating Layer inception_4e/relu_5x5
I1009 17:09:12.445765  2156 net.cpp:410] inception_4e/relu_5x5 <- inception_4e/5x5
I1009 17:09:12.445770  2156 net.cpp:357] inception_4e/relu_5x5 -> inception_4e/5x5 (in-place)
I1009 17:09:12.445776  2156 net.cpp:120] Setting up inception_4e/relu_5x5
I1009 17:09:12.445782  2156 net.cpp:127] Top shape: 50 128 14 14 (1254400)
I1009 17:09:12.445786  2156 layer_factory.hpp:74] Creating layer inception_4e/pool
I1009 17:09:12.445794  2156 net.cpp:90] Creating Layer inception_4e/pool
I1009 17:09:12.445799  2156 net.cpp:410] inception_4e/pool <- inception_4d/output_inception_4d/output_0_split_4
I1009 17:09:12.445807  2156 net.cpp:368] inception_4e/pool -> inception_4e/pool
I1009 17:09:12.445816  2156 net.cpp:120] Setting up inception_4e/pool
I1009 17:09:12.445824  2156 net.cpp:127] Top shape: 50 528 14 14 (5174400)
I1009 17:09:12.445830  2156 layer_factory.hpp:74] Creating layer inception_4e/pool_proj
I1009 17:09:12.445840  2156 net.cpp:90] Creating Layer inception_4e/pool_proj
I1009 17:09:12.445845  2156 net.cpp:410] inception_4e/pool_proj <- inception_4e/pool
I1009 17:09:12.445852  2156 net.cpp:368] inception_4e/pool_proj -> inception_4e/pool_proj
I1009 17:09:12.445859  2156 net.cpp:120] Setting up inception_4e/pool_proj
I1009 17:09:12.446533  2156 net.cpp:127] Top shape: 50 128 14 14 (1254400)
I1009 17:09:12.446545  2156 layer_factory.hpp:74] Creating layer inception_4e/relu_pool_proj
I1009 17:09:12.446555  2156 net.cpp:90] Creating Layer inception_4e/relu_pool_proj
I1009 17:09:12.446560  2156 net.cpp:410] inception_4e/relu_pool_proj <- inception_4e/pool_proj
I1009 17:09:12.446566  2156 net.cpp:357] inception_4e/relu_pool_proj -> inception_4e/pool_proj (in-place)
I1009 17:09:12.446573  2156 net.cpp:120] Setting up inception_4e/relu_pool_proj
I1009 17:09:12.446579  2156 net.cpp:127] Top shape: 50 128 14 14 (1254400)
I1009 17:09:12.446583  2156 layer_factory.hpp:74] Creating layer inception_4e/output
I1009 17:09:12.446589  2156 net.cpp:90] Creating Layer inception_4e/output
I1009 17:09:12.446594  2156 net.cpp:410] inception_4e/output <- inception_4e/1x1
I1009 17:09:12.446607  2156 net.cpp:410] inception_4e/output <- inception_4e/3x3
I1009 17:09:12.446614  2156 net.cpp:410] inception_4e/output <- inception_4e/5x5
I1009 17:09:12.446619  2156 net.cpp:410] inception_4e/output <- inception_4e/pool_proj
I1009 17:09:12.446625  2156 net.cpp:368] inception_4e/output -> inception_4e/output
I1009 17:09:12.446631  2156 net.cpp:120] Setting up inception_4e/output
I1009 17:09:12.446640  2156 net.cpp:127] Top shape: 50 832 14 14 (8153600)
I1009 17:09:12.446645  2156 layer_factory.hpp:74] Creating layer pool4/3x3_s2
I1009 17:09:12.446652  2156 net.cpp:90] Creating Layer pool4/3x3_s2
I1009 17:09:12.446657  2156 net.cpp:410] pool4/3x3_s2 <- inception_4e/output
I1009 17:09:12.446665  2156 net.cpp:368] pool4/3x3_s2 -> pool4/3x3_s2
I1009 17:09:12.446671  2156 net.cpp:120] Setting up pool4/3x3_s2
I1009 17:09:12.446694  2156 net.cpp:127] Top shape: 50 832 7 7 (2038400)
I1009 17:09:12.446702  2156 layer_factory.hpp:74] Creating layer pool4/3x3_s2_pool4/3x3_s2_0_split
I1009 17:09:12.446708  2156 net.cpp:90] Creating Layer pool4/3x3_s2_pool4/3x3_s2_0_split
I1009 17:09:12.446713  2156 net.cpp:410] pool4/3x3_s2_pool4/3x3_s2_0_split <- pool4/3x3_s2
I1009 17:09:12.446719  2156 net.cpp:368] pool4/3x3_s2_pool4/3x3_s2_0_split -> pool4/3x3_s2_pool4/3x3_s2_0_split_0
I1009 17:09:12.446727  2156 net.cpp:368] pool4/3x3_s2_pool4/3x3_s2_0_split -> pool4/3x3_s2_pool4/3x3_s2_0_split_1
I1009 17:09:12.446734  2156 net.cpp:368] pool4/3x3_s2_pool4/3x3_s2_0_split -> pool4/3x3_s2_pool4/3x3_s2_0_split_2
I1009 17:09:12.446743  2156 net.cpp:368] pool4/3x3_s2_pool4/3x3_s2_0_split -> pool4/3x3_s2_pool4/3x3_s2_0_split_3
I1009 17:09:12.446748  2156 net.cpp:120] Setting up pool4/3x3_s2_pool4/3x3_s2_0_split
I1009 17:09:12.446755  2156 net.cpp:127] Top shape: 50 832 7 7 (2038400)
I1009 17:09:12.446761  2156 net.cpp:127] Top shape: 50 832 7 7 (2038400)
I1009 17:09:12.446768  2156 net.cpp:127] Top shape: 50 832 7 7 (2038400)
I1009 17:09:12.446773  2156 net.cpp:127] Top shape: 50 832 7 7 (2038400)
I1009 17:09:12.446777  2156 layer_factory.hpp:74] Creating layer inception_5a/1x1
I1009 17:09:12.446786  2156 net.cpp:90] Creating Layer inception_5a/1x1
I1009 17:09:12.446791  2156 net.cpp:410] inception_5a/1x1 <- pool4/3x3_s2_pool4/3x3_s2_0_split_0
I1009 17:09:12.446800  2156 net.cpp:368] inception_5a/1x1 -> inception_5a/1x1
I1009 17:09:12.446807  2156 net.cpp:120] Setting up inception_5a/1x1
I1009 17:09:12.449025  2156 net.cpp:127] Top shape: 50 256 7 7 (627200)
I1009 17:09:12.449040  2156 layer_factory.hpp:74] Creating layer inception_5a/relu_1x1
I1009 17:09:12.449048  2156 net.cpp:90] Creating Layer inception_5a/relu_1x1
I1009 17:09:12.449054  2156 net.cpp:410] inception_5a/relu_1x1 <- inception_5a/1x1
I1009 17:09:12.449074  2156 net.cpp:357] inception_5a/relu_1x1 -> inception_5a/1x1 (in-place)
I1009 17:09:12.449081  2156 net.cpp:120] Setting up inception_5a/relu_1x1
I1009 17:09:12.449089  2156 net.cpp:127] Top shape: 50 256 7 7 (627200)
I1009 17:09:12.449092  2156 layer_factory.hpp:74] Creating layer inception_5a/3x3_reduce
I1009 17:09:12.449100  2156 net.cpp:90] Creating Layer inception_5a/3x3_reduce
I1009 17:09:12.449105  2156 net.cpp:410] inception_5a/3x3_reduce <- pool4/3x3_s2_pool4/3x3_s2_0_split_1
I1009 17:09:12.449113  2156 net.cpp:368] inception_5a/3x3_reduce -> inception_5a/3x3_reduce
I1009 17:09:12.449121  2156 net.cpp:120] Setting up inception_5a/3x3_reduce
I1009 17:09:12.450616  2156 net.cpp:127] Top shape: 50 160 7 7 (392000)
I1009 17:09:12.450628  2156 layer_factory.hpp:74] Creating layer inception_5a/relu_3x3_reduce
I1009 17:09:12.450649  2156 net.cpp:90] Creating Layer inception_5a/relu_3x3_reduce
I1009 17:09:12.450654  2156 net.cpp:410] inception_5a/relu_3x3_reduce <- inception_5a/3x3_reduce
I1009 17:09:12.450664  2156 net.cpp:357] inception_5a/relu_3x3_reduce -> inception_5a/3x3_reduce (in-place)
I1009 17:09:12.450671  2156 net.cpp:120] Setting up inception_5a/relu_3x3_reduce
I1009 17:09:12.450677  2156 net.cpp:127] Top shape: 50 160 7 7 (392000)
I1009 17:09:12.450681  2156 layer_factory.hpp:74] Creating layer inception_5a/3x3
I1009 17:09:12.450698  2156 net.cpp:90] Creating Layer inception_5a/3x3
I1009 17:09:12.450703  2156 net.cpp:410] inception_5a/3x3 <- inception_5a/3x3_reduce
I1009 17:09:12.450711  2156 net.cpp:368] inception_5a/3x3 -> inception_5a/3x3
I1009 17:09:12.450718  2156 net.cpp:120] Setting up inception_5a/3x3
I1009 17:09:12.455766  2156 net.cpp:127] Top shape: 50 320 7 7 (784000)
I1009 17:09:12.455780  2156 layer_factory.hpp:74] Creating layer inception_5a/relu_3x3
I1009 17:09:12.455790  2156 net.cpp:90] Creating Layer inception_5a/relu_3x3
I1009 17:09:12.455796  2156 net.cpp:410] inception_5a/relu_3x3 <- inception_5a/3x3
I1009 17:09:12.455801  2156 net.cpp:357] inception_5a/relu_3x3 -> inception_5a/3x3 (in-place)
I1009 17:09:12.455808  2156 net.cpp:120] Setting up inception_5a/relu_3x3
I1009 17:09:12.455814  2156 net.cpp:127] Top shape: 50 320 7 7 (784000)
I1009 17:09:12.455819  2156 layer_factory.hpp:74] Creating layer inception_5a/5x5_reduce
I1009 17:09:12.455832  2156 net.cpp:90] Creating Layer inception_5a/5x5_reduce
I1009 17:09:12.455838  2156 net.cpp:410] inception_5a/5x5_reduce <- pool4/3x3_s2_pool4/3x3_s2_0_split_2
I1009 17:09:12.455845  2156 net.cpp:368] inception_5a/5x5_reduce -> inception_5a/5x5_reduce
I1009 17:09:12.455853  2156 net.cpp:120] Setting up inception_5a/5x5_reduce
I1009 17:09:12.456141  2156 net.cpp:127] Top shape: 50 32 7 7 (78400)
I1009 17:09:12.456156  2156 layer_factory.hpp:74] Creating layer inception_5a/relu_5x5_reduce
I1009 17:09:12.456163  2156 net.cpp:90] Creating Layer inception_5a/relu_5x5_reduce
I1009 17:09:12.456169  2156 net.cpp:410] inception_5a/relu_5x5_reduce <- inception_5a/5x5_reduce
I1009 17:09:12.456176  2156 net.cpp:357] inception_5a/relu_5x5_reduce -> inception_5a/5x5_reduce (in-place)
I1009 17:09:12.456182  2156 net.cpp:120] Setting up inception_5a/relu_5x5_reduce
I1009 17:09:12.456188  2156 net.cpp:127] Top shape: 50 32 7 7 (78400)
I1009 17:09:12.456192  2156 layer_factory.hpp:74] Creating layer inception_5a/5x5
I1009 17:09:12.456202  2156 net.cpp:90] Creating Layer inception_5a/5x5
I1009 17:09:12.456207  2156 net.cpp:410] inception_5a/5x5 <- inception_5a/5x5_reduce
I1009 17:09:12.456213  2156 net.cpp:368] inception_5a/5x5 -> inception_5a/5x5
I1009 17:09:12.456220  2156 net.cpp:120] Setting up inception_5a/5x5
I1009 17:09:12.457252  2156 net.cpp:127] Top shape: 50 128 7 7 (313600)
I1009 17:09:12.457264  2156 layer_factory.hpp:74] Creating layer inception_5a/relu_5x5
I1009 17:09:12.457272  2156 net.cpp:90] Creating Layer inception_5a/relu_5x5
I1009 17:09:12.457278  2156 net.cpp:410] inception_5a/relu_5x5 <- inception_5a/5x5
I1009 17:09:12.457284  2156 net.cpp:357] inception_5a/relu_5x5 -> inception_5a/5x5 (in-place)
I1009 17:09:12.457291  2156 net.cpp:120] Setting up inception_5a/relu_5x5
I1009 17:09:12.457298  2156 net.cpp:127] Top shape: 50 128 7 7 (313600)
I1009 17:09:12.457301  2156 layer_factory.hpp:74] Creating layer inception_5a/pool
I1009 17:09:12.457309  2156 net.cpp:90] Creating Layer inception_5a/pool
I1009 17:09:12.457314  2156 net.cpp:410] inception_5a/pool <- pool4/3x3_s2_pool4/3x3_s2_0_split_3
I1009 17:09:12.457319  2156 net.cpp:368] inception_5a/pool -> inception_5a/pool
I1009 17:09:12.457342  2156 net.cpp:120] Setting up inception_5a/pool
I1009 17:09:12.457356  2156 net.cpp:127] Top shape: 50 832 7 7 (2038400)
I1009 17:09:12.457363  2156 layer_factory.hpp:74] Creating layer inception_5a/pool_proj
I1009 17:09:12.457371  2156 net.cpp:90] Creating Layer inception_5a/pool_proj
I1009 17:09:12.457376  2156 net.cpp:410] inception_5a/pool_proj <- inception_5a/pool
I1009 17:09:12.457386  2156 net.cpp:368] inception_5a/pool_proj -> inception_5a/pool_proj
I1009 17:09:12.457394  2156 net.cpp:120] Setting up inception_5a/pool_proj
I1009 17:09:12.458472  2156 net.cpp:127] Top shape: 50 128 7 7 (313600)
I1009 17:09:12.458494  2156 layer_factory.hpp:74] Creating layer inception_5a/relu_pool_proj
I1009 17:09:12.458506  2156 net.cpp:90] Creating Layer inception_5a/relu_pool_proj
I1009 17:09:12.458513  2156 net.cpp:410] inception_5a/relu_pool_proj <- inception_5a/pool_proj
I1009 17:09:12.458526  2156 net.cpp:357] inception_5a/relu_pool_proj -> inception_5a/pool_proj (in-place)
I1009 17:09:12.458535  2156 net.cpp:120] Setting up inception_5a/relu_pool_proj
I1009 17:09:12.458541  2156 net.cpp:127] Top shape: 50 128 7 7 (313600)
I1009 17:09:12.458546  2156 layer_factory.hpp:74] Creating layer inception_5a/output
I1009 17:09:12.458552  2156 net.cpp:90] Creating Layer inception_5a/output
I1009 17:09:12.458557  2156 net.cpp:410] inception_5a/output <- inception_5a/1x1
I1009 17:09:12.458562  2156 net.cpp:410] inception_5a/output <- inception_5a/3x3
I1009 17:09:12.458569  2156 net.cpp:410] inception_5a/output <- inception_5a/5x5
I1009 17:09:12.458573  2156 net.cpp:410] inception_5a/output <- inception_5a/pool_proj
I1009 17:09:12.458581  2156 net.cpp:368] inception_5a/output -> inception_5a/output
I1009 17:09:12.458588  2156 net.cpp:120] Setting up inception_5a/output
I1009 17:09:12.458596  2156 net.cpp:127] Top shape: 50 832 7 7 (2038400)
I1009 17:09:12.458601  2156 layer_factory.hpp:74] Creating layer inception_5a/output_inception_5a/output_0_split
I1009 17:09:12.458608  2156 net.cpp:90] Creating Layer inception_5a/output_inception_5a/output_0_split
I1009 17:09:12.458612  2156 net.cpp:410] inception_5a/output_inception_5a/output_0_split <- inception_5a/output
I1009 17:09:12.458618  2156 net.cpp:368] inception_5a/output_inception_5a/output_0_split -> inception_5a/output_inception_5a/output_0_split_0
I1009 17:09:12.458626  2156 net.cpp:368] inception_5a/output_inception_5a/output_0_split -> inception_5a/output_inception_5a/output_0_split_1
I1009 17:09:12.458634  2156 net.cpp:368] inception_5a/output_inception_5a/output_0_split -> inception_5a/output_inception_5a/output_0_split_2
I1009 17:09:12.458645  2156 net.cpp:368] inception_5a/output_inception_5a/output_0_split -> inception_5a/output_inception_5a/output_0_split_3
I1009 17:09:12.458652  2156 net.cpp:120] Setting up inception_5a/output_inception_5a/output_0_split
I1009 17:09:12.458659  2156 net.cpp:127] Top shape: 50 832 7 7 (2038400)
I1009 17:09:12.458665  2156 net.cpp:127] Top shape: 50 832 7 7 (2038400)
I1009 17:09:12.458670  2156 net.cpp:127] Top shape: 50 832 7 7 (2038400)
I1009 17:09:12.458675  2156 net.cpp:127] Top shape: 50 832 7 7 (2038400)
I1009 17:09:12.458680  2156 layer_factory.hpp:74] Creating layer inception_5b/1x1
I1009 17:09:12.458689  2156 net.cpp:90] Creating Layer inception_5b/1x1
I1009 17:09:12.458696  2156 net.cpp:410] inception_5b/1x1 <- inception_5a/output_inception_5a/output_0_split_0
I1009 17:09:12.458703  2156 net.cpp:368] inception_5b/1x1 -> inception_5b/1x1
I1009 17:09:12.458710  2156 net.cpp:120] Setting up inception_5b/1x1
I1009 17:09:12.461987  2156 net.cpp:127] Top shape: 50 384 7 7 (940800)
I1009 17:09:12.462002  2156 layer_factory.hpp:74] Creating layer inception_5b/relu_1x1
I1009 17:09:12.462009  2156 net.cpp:90] Creating Layer inception_5b/relu_1x1
I1009 17:09:12.462014  2156 net.cpp:410] inception_5b/relu_1x1 <- inception_5b/1x1
I1009 17:09:12.462021  2156 net.cpp:357] inception_5b/relu_1x1 -> inception_5b/1x1 (in-place)
I1009 17:09:12.462028  2156 net.cpp:120] Setting up inception_5b/relu_1x1
I1009 17:09:12.462034  2156 net.cpp:127] Top shape: 50 384 7 7 (940800)
I1009 17:09:12.462039  2156 layer_factory.hpp:74] Creating layer inception_5b/3x3_reduce
I1009 17:09:12.462046  2156 net.cpp:90] Creating Layer inception_5b/3x3_reduce
I1009 17:09:12.462051  2156 net.cpp:410] inception_5b/3x3_reduce <- inception_5a/output_inception_5a/output_0_split_1
I1009 17:09:12.462060  2156 net.cpp:368] inception_5b/3x3_reduce -> inception_5b/3x3_reduce
I1009 17:09:12.462069  2156 net.cpp:120] Setting up inception_5b/3x3_reduce
I1009 17:09:12.463678  2156 net.cpp:127] Top shape: 50 192 7 7 (470400)
I1009 17:09:12.463691  2156 layer_factory.hpp:74] Creating layer inception_5b/relu_3x3_reduce
I1009 17:09:12.463699  2156 net.cpp:90] Creating Layer inception_5b/relu_3x3_reduce
I1009 17:09:12.463704  2156 net.cpp:410] inception_5b/relu_3x3_reduce <- inception_5b/3x3_reduce
I1009 17:09:12.463719  2156 net.cpp:357] inception_5b/relu_3x3_reduce -> inception_5b/3x3_reduce (in-place)
I1009 17:09:12.463726  2156 net.cpp:120] Setting up inception_5b/relu_3x3_reduce
I1009 17:09:12.463733  2156 net.cpp:127] Top shape: 50 192 7 7 (470400)
I1009 17:09:12.463737  2156 layer_factory.hpp:74] Creating layer inception_5b/3x3
I1009 17:09:12.463745  2156 net.cpp:90] Creating Layer inception_5b/3x3
I1009 17:09:12.463750  2156 net.cpp:410] inception_5b/3x3 <- inception_5b/3x3_reduce
I1009 17:09:12.463758  2156 net.cpp:368] inception_5b/3x3 -> inception_5b/3x3
I1009 17:09:12.463768  2156 net.cpp:120] Setting up inception_5b/3x3
I1009 17:09:12.470908  2156 net.cpp:127] Top shape: 50 384 7 7 (940800)
I1009 17:09:12.470921  2156 layer_factory.hpp:74] Creating layer inception_5b/relu_3x3
I1009 17:09:12.470929  2156 net.cpp:90] Creating Layer inception_5b/relu_3x3
I1009 17:09:12.470934  2156 net.cpp:410] inception_5b/relu_3x3 <- inception_5b/3x3
I1009 17:09:12.470942  2156 net.cpp:357] inception_5b/relu_3x3 -> inception_5b/3x3 (in-place)
I1009 17:09:12.470948  2156 net.cpp:120] Setting up inception_5b/relu_3x3
I1009 17:09:12.470954  2156 net.cpp:127] Top shape: 50 384 7 7 (940800)
I1009 17:09:12.470959  2156 layer_factory.hpp:74] Creating layer inception_5b/5x5_reduce
I1009 17:09:12.470966  2156 net.cpp:90] Creating Layer inception_5b/5x5_reduce
I1009 17:09:12.470971  2156 net.cpp:410] inception_5b/5x5_reduce <- inception_5a/output_inception_5a/output_0_split_2
I1009 17:09:12.470980  2156 net.cpp:368] inception_5b/5x5_reduce -> inception_5b/5x5_reduce
I1009 17:09:12.470988  2156 net.cpp:120] Setting up inception_5b/5x5_reduce
I1009 17:09:12.471387  2156 net.cpp:127] Top shape: 50 48 7 7 (117600)
I1009 17:09:12.471400  2156 layer_factory.hpp:74] Creating layer inception_5b/relu_5x5_reduce
I1009 17:09:12.471406  2156 net.cpp:90] Creating Layer inception_5b/relu_5x5_reduce
I1009 17:09:12.471411  2156 net.cpp:410] inception_5b/relu_5x5_reduce <- inception_5b/5x5_reduce
I1009 17:09:12.471417  2156 net.cpp:357] inception_5b/relu_5x5_reduce -> inception_5b/5x5_reduce (in-place)
I1009 17:09:12.471423  2156 net.cpp:120] Setting up inception_5b/relu_5x5_reduce
I1009 17:09:12.471429  2156 net.cpp:127] Top shape: 50 48 7 7 (117600)
I1009 17:09:12.471433  2156 layer_factory.hpp:74] Creating layer inception_5b/5x5
I1009 17:09:12.471441  2156 net.cpp:90] Creating Layer inception_5b/5x5
I1009 17:09:12.471446  2156 net.cpp:410] inception_5b/5x5 <- inception_5b/5x5_reduce
I1009 17:09:12.471454  2156 net.cpp:368] inception_5b/5x5 -> inception_5b/5x5
I1009 17:09:12.471462  2156 net.cpp:120] Setting up inception_5b/5x5
I1009 17:09:12.472965  2156 net.cpp:127] Top shape: 50 128 7 7 (313600)
I1009 17:09:12.472976  2156 layer_factory.hpp:74] Creating layer inception_5b/relu_5x5
I1009 17:09:12.472983  2156 net.cpp:90] Creating Layer inception_5b/relu_5x5
I1009 17:09:12.472988  2156 net.cpp:410] inception_5b/relu_5x5 <- inception_5b/5x5
I1009 17:09:12.472995  2156 net.cpp:357] inception_5b/relu_5x5 -> inception_5b/5x5 (in-place)
I1009 17:09:12.473001  2156 net.cpp:120] Setting up inception_5b/relu_5x5
I1009 17:09:12.473006  2156 net.cpp:127] Top shape: 50 128 7 7 (313600)
I1009 17:09:12.473011  2156 layer_factory.hpp:74] Creating layer inception_5b/pool
I1009 17:09:12.473022  2156 net.cpp:90] Creating Layer inception_5b/pool
I1009 17:09:12.473027  2156 net.cpp:410] inception_5b/pool <- inception_5a/output_inception_5a/output_0_split_3
I1009 17:09:12.473034  2156 net.cpp:368] inception_5b/pool -> inception_5b/pool
I1009 17:09:12.473040  2156 net.cpp:120] Setting up inception_5b/pool
I1009 17:09:12.473052  2156 net.cpp:127] Top shape: 50 832 7 7 (2038400)
I1009 17:09:12.473058  2156 layer_factory.hpp:74] Creating layer inception_5b/pool_proj
I1009 17:09:12.473065  2156 net.cpp:90] Creating Layer inception_5b/pool_proj
I1009 17:09:12.473070  2156 net.cpp:410] inception_5b/pool_proj <- inception_5b/pool
I1009 17:09:12.473078  2156 net.cpp:368] inception_5b/pool_proj -> inception_5b/pool_proj
I1009 17:09:12.473084  2156 net.cpp:120] Setting up inception_5b/pool_proj
I1009 17:09:12.474140  2156 net.cpp:127] Top shape: 50 128 7 7 (313600)
I1009 17:09:12.474155  2156 layer_factory.hpp:74] Creating layer inception_5b/relu_pool_proj
I1009 17:09:12.474162  2156 net.cpp:90] Creating Layer inception_5b/relu_pool_proj
I1009 17:09:12.474167  2156 net.cpp:410] inception_5b/relu_pool_proj <- inception_5b/pool_proj
I1009 17:09:12.474174  2156 net.cpp:357] inception_5b/relu_pool_proj -> inception_5b/pool_proj (in-place)
I1009 17:09:12.474179  2156 net.cpp:120] Setting up inception_5b/relu_pool_proj
I1009 17:09:12.474185  2156 net.cpp:127] Top shape: 50 128 7 7 (313600)
I1009 17:09:12.474189  2156 layer_factory.hpp:74] Creating layer inception_5b/output
I1009 17:09:12.474196  2156 net.cpp:90] Creating Layer inception_5b/output
I1009 17:09:12.474200  2156 net.cpp:410] inception_5b/output <- inception_5b/1x1
I1009 17:09:12.474205  2156 net.cpp:410] inception_5b/output <- inception_5b/3x3
I1009 17:09:12.474211  2156 net.cpp:410] inception_5b/output <- inception_5b/5x5
I1009 17:09:12.474216  2156 net.cpp:410] inception_5b/output <- inception_5b/pool_proj
I1009 17:09:12.474221  2156 net.cpp:368] inception_5b/output -> inception_5b/output
I1009 17:09:12.474228  2156 net.cpp:120] Setting up inception_5b/output
I1009 17:09:12.474236  2156 net.cpp:127] Top shape: 50 1024 7 7 (2508800)
I1009 17:09:12.474241  2156 layer_factory.hpp:74] Creating layer pool5/7x7_s1
I1009 17:09:12.474248  2156 net.cpp:90] Creating Layer pool5/7x7_s1
I1009 17:09:12.474253  2156 net.cpp:410] pool5/7x7_s1 <- inception_5b/output
I1009 17:09:12.474261  2156 net.cpp:368] pool5/7x7_s1 -> pool5/7x7_s1
I1009 17:09:12.474267  2156 net.cpp:120] Setting up pool5/7x7_s1
I1009 17:09:12.474277  2156 net.cpp:127] Top shape: 50 1024 1 1 (51200)
I1009 17:09:12.474283  2156 layer_factory.hpp:74] Creating layer pool5/drop_7x7_s1
I1009 17:09:12.474290  2156 net.cpp:90] Creating Layer pool5/drop_7x7_s1
I1009 17:09:12.474295  2156 net.cpp:410] pool5/drop_7x7_s1 <- pool5/7x7_s1
I1009 17:09:12.474300  2156 net.cpp:357] pool5/drop_7x7_s1 -> pool5/7x7_s1 (in-place)
I1009 17:09:12.474308  2156 net.cpp:120] Setting up pool5/drop_7x7_s1
I1009 17:09:12.474314  2156 net.cpp:127] Top shape: 50 1024 1 1 (51200)
I1009 17:09:12.474319  2156 layer_factory.hpp:74] Creating layer ft_loss3/classifier
I1009 17:09:12.474326  2156 net.cpp:90] Creating Layer ft_loss3/classifier
I1009 17:09:12.474331  2156 net.cpp:410] ft_loss3/classifier <- pool5/7x7_s1
I1009 17:09:12.474340  2156 net.cpp:368] ft_loss3/classifier -> ft_loss3/classifier
I1009 17:09:12.474349  2156 net.cpp:120] Setting up ft_loss3/classifier
I1009 17:09:12.474385  2156 net.cpp:127] Top shape: 50 2 (100)
I1009 17:09:12.474393  2156 layer_factory.hpp:74] Creating layer ft_loss3/classifier_ft_loss3/classifier_0_split
I1009 17:09:12.474400  2156 net.cpp:90] Creating Layer ft_loss3/classifier_ft_loss3/classifier_0_split
I1009 17:09:12.474406  2156 net.cpp:410] ft_loss3/classifier_ft_loss3/classifier_0_split <- ft_loss3/classifier
I1009 17:09:12.474411  2156 net.cpp:368] ft_loss3/classifier_ft_loss3/classifier_0_split -> ft_loss3/classifier_ft_loss3/classifier_0_split_0
I1009 17:09:12.474418  2156 net.cpp:368] ft_loss3/classifier_ft_loss3/classifier_0_split -> ft_loss3/classifier_ft_loss3/classifier_0_split_1
I1009 17:09:12.474426  2156 net.cpp:120] Setting up ft_loss3/classifier_ft_loss3/classifier_0_split
I1009 17:09:12.474431  2156 net.cpp:127] Top shape: 50 2 (100)
I1009 17:09:12.474441  2156 net.cpp:127] Top shape: 50 2 (100)
I1009 17:09:12.474445  2156 layer_factory.hpp:74] Creating layer loss3/loss3
I1009 17:09:12.474453  2156 net.cpp:90] Creating Layer loss3/loss3
I1009 17:09:12.474458  2156 net.cpp:410] loss3/loss3 <- ft_loss3/classifier_ft_loss3/classifier_0_split_0
I1009 17:09:12.474464  2156 net.cpp:410] loss3/loss3 <- label_data_1_split_4
I1009 17:09:12.474470  2156 net.cpp:368] loss3/loss3 -> loss3/loss3
…
