…
I0805 12:56:13.314354 12393 net.cpp:287] The NetState phase (0) differed from the phase (1) specified by a rule in layer loss2/top-1
I0805 12:56:13.314396 12393 net.cpp:287] The NetState phase (0) differed from the phase (1) specified by a rule in layer loss3/top-1
I0805 12:56:13.315397 12393 net.cpp:42] Initializing net from parameters: 
name: "FullTrain_GoogleNet"
state {
  phase: TRAIN
}
layer {
  name: "data"
  type: "ImageData"
  top: "data"
  top: "label"
  include {
    phase: TRAIN
  }
  image_data_param {
    source: "/home/kruchinin_d/Projects/KITTI/prepared_data/train.txt"
    batch_size: 32
  }
}
layer {
  name: "conv1/7x7_s2"
  type: "Convolution"
  bottom: "data"
  top: "conv1/7x7_s2"
  param {
    lr_mult: 1
    decay_mult: 1
  }
  param {
    lr_mult: 2
    decay_mult: 0
  }
  convolution_param {
    num_output: 64
    pad: 3
    kernel_size: 7
    stride: 2
    weight_filler {
      type: "xavier"
    }
    bias_filler {
      type: "constant"
      value: 0.2
    }
  }
}
layer {
  name: "conv1/relu_7x7"
  type: "ReLU"
  bottom: "conv1/7x7_s2"
  top: "conv1/7x7_s2"
}
layer {
  name: "pool1/3x3_s2"
  type: "Pooling"
  bottom: "conv1/7x7_s2"
  top: "pool1/3x3_s2"
  pooling_param {
    pool: MAX
    kernel_size: 3
    stride: 2
  }
}
layer {
  name: "pool1/norm1"
  type: "LRN"
  bottom: "pool1/3x3_s2"
  top: "pool1/norm1"
  lrn_param {
    local_size: 5
    alpha: 0.0001
    beta: 0.75
  }
}
layer {
  name: "conv2/3x3_reduce"
  type: "Convolution"
  bottom: "pool1/norm1"
  top: "conv2/3x3_reduce"
  param {
    lr_mult: 1
    decay_mult: 1
  }
  param {
    lr_mult: 2
    decay_mult: 0
  }
  convolution_param {
    num_output: 64
    kernel_size: 1
    weight_filler {
      type: "xavier"
    }
    bias_filler {
      type: "constant"
      value: 0.2
    }
  }
}
layer {
  name: "conv2/relu_3x3_reduce"
  type: "ReLU"
  bottom: "conv2/3x3_reduce"
  top: "conv2/3x3_reduce"
}
layer {
  name: "conv2/3x3"
  type: "Convolution"
  bottom: "conv2/3x3_reduce"
  top: "conv2/3x3"
  param {
    lr_mult: 1
    decay_mult: 1
  }
  param {
    lr_mult: 2
    decay_mult: 0
  }
  convolution_param {
    num_output: 192
    pad: 1
    kernel_size: 3
    weight_filler {
      type: "xavier"
    }
    bias_filler {
      type: "constant"
      value: 0.2
    }
  }
}
layer {
  name: "conv2/relu_3x3"
  type: "ReLU"
  bottom: "conv2/3x3"
  top: "conv2/3x3"
}
layer {
  name: "conv2/norm2"
  type: "LRN"
  bottom: "conv2/3x3"
  top: "conv2/norm2"
  lrn_param {
    local_size: 5
    alpha: 0.0001
    beta: 0.75
  }
}
layer {
  name: "pool2/3x3_s2"
  type: "Pooling"
  bottom: "conv2/norm2"
  top: "pool2/3x3_s2"
  pooling_param {
    pool: MAX
    kernel_size: 3
    stride: 2
  }
}
layer {
  name: "inception_3a/1x1"
  type: "Convolution"
  bottom: "pool2/3x3_s2"
  top: "inception_3a/1x1"
  param {
    lr_mult: 1
    decay_mult: 1
  }
  param {
    lr_mult: 2
    decay_mult: 0
  }
  convolution_param {
    num_output: 64
    kernel_size: 1
    weight_filler {
      type: "xavier"
    }
    bias_filler {
      type: "constant"
      value: 0.2
    }
  }
}
layer {
  name: "inception_3a/relu_1x1"
  type: "ReLU"
  bottom: "inception_3a/1x1"
  top: "inception_3a/1x1"
}
layer {
  name: "inception_3a/3x3_reduce"
  type: "Convolution"
  bottom: "pool2/3x3_s2"
  top: "inception_3a/3x3_reduce"
  param {
    lr_mult: 1
    decay_mult: 1
  }
  param {
    lr_mult: 2
    decay_mult: 0
  }
  convolution_param {
    num_output: 96
    kernel_size: 1
    weight_filler {
      type: "xavier"
    }
    bias_filler {
      type: "constant"
      value: 0.2
    }
  }
}
layer {
  name: "inception_3a/relu_3x3_reduce"
  type: "ReLU"
  bottom: "inception_3a/3x3_reduce"
  top: "inception_3a/3x3_reduce"
}
layer {
  name: "inception_3a/3x3"
  type: "Convolution"
  bottom: "inception_3a/3x3_reduce"
  top: "inception_3a/3x3"
  param {
    lr_mult: 1
    decay_mult: 1
  }
  param {
    lr_mult: 2
    decay_mult: 0
  }
  convolution_param {
    num_output: 128
    pad: 1
    kernel_size: 3
    weight_filler {
      type: "xavier"
    }
    bias_filler {
      type: "constant"
      value: 0.2
    }
  }
}
layer {
  name: "inception_3a/relu_3x3"
  type: "ReLU"
  bottom: "inception_3a/3x3"
  top: "inception_3a/3x3"
}
layer {
  name: "inception_3a/5x5_reduce"
  type: "Convolution"
  bottom: "pool2/3x3_s2"
  top: "inception_3a/5x5_reduce"
  param {
    lr_mult: 1
    decay_mult: 1
  }
  param {
    lr_mult: 2
    decay_mult: 0
  }
  convolution_param {
    num_output: 16
    kernel_size: 1
    weight_filler {
      type: "xavier"
    }
    bias_filler {
      type: "constant"
      value: 0.2
    }
  }
}
layer {
  name: "inception_3a/relu_5x5_reduce"
  type: "ReLU"
  bottom: "inception_3a/5x5_reduce"
  top: "inception_3a/5x5_reduce"
}
layer {
  name: "inception_3a/5x5"
  type: "Convolution"
  bottom: "inception_3a/5x5_reduce"
  top: "inception_3a/5x5"
  param {
    lr_mult: 1
    decay_mult: 1
  }
  param {
    lr_mult: 2
    decay_mult: 0
  }
  convolution_param {
    num_output: 32
    pad: 2
    kernel_size: 5
    weight_filler {
      type: "xavier"
    }
    bias_filler {
      type: "constant"
      value: 0.2
    }
  }
}
layer {
  name: "inception_3a/relu_5x5"
  type: "ReLU"
  bottom: "inception_3a/5x5"
  top: "inception_3a/5x5"
}
layer {
  name: "inception_3a/pool"
  type: "Pooling"
  bottom: "pool2/3x3_s2"
  top: "inception_3a/pool"
  pooling_param {
    pool: MAX
    kernel_size: 3
    stride: 1
    pad: 1
  }
}
layer {
  name: "inception_3a/pool_proj"
  type: "Convolution"
  bottom: "inception_3a/pool"
  top: "inception_3a/pool_proj"
  param {
    lr_mult: 1
    decay_mult: 1
  }
  param {
    lr_mult: 2
    decay_mult: 0
  }
  convolution_param {
    num_output: 32
    kernel_size: 1
    weight_filler {
      type: "xavier"
    }
    bias_filler {
      type: "constant"
      value: 0.2
    }
  }
}
layer {
  name: "inception_3a/relu_pool_proj"
  type: "ReLU"
  bottom: "inception_3a/pool_proj"
  top: "inception_3a/pool_proj"
}
layer {
  name: "inception_3a/output"
  type: "Concat"
  bottom: "inception_3a/1x1"
  bottom: "inception_3a/3x3"
  bottom: "inception_3a/5x5"
  bottom: "inception_3a/pool_proj"
  top: "inception_3a/output"
}
layer {
  name: "inception_3b/1x1"
  type: "Convolution"
  bottom: "inception_3a/output"
  top: "inception_3b/1x1"
  param {
    lr_mult: 1
    decay_mult: 1
  }
  param {
    lr_mult: 2
    decay_mult: 0
  }
  convolution_param {
    num_output: 128
    kernel_size: 1
    weight_filler {
      type: "xavier"
    }
    bias_filler {
      type: "constant"
      value: 0.2
    }
  }
}
layer {
  name: "inception_3b/relu_1x1"
  type: "ReLU"
  bottom: "inception_3b/1x1"
  top: "inception_3b/1x1"
}
layer {
  name: "inception_3b/3x3_reduce"
  type: "Convolution"
  bottom: "inception_3a/output"
  top: "inception_3b/3x3_reduce"
  param {
    lr_mult: 1
    decay_mult: 1
  }
  param {
    lr_mult: 2
    decay_mult: 0
  }
  convolution_param {
    num_output: 128
    kernel_size: 1
    weight_filler {
      type: "xavier"
    }
    bias_filler {
      type: "constant"
      value: 0.2
    }
  }
}
layer {
  name: "inception_3b/relu_3x3_reduce"
  type: "ReLU"
  bottom: "inception_3b/3x3_reduce"
  top: "inception_3b/3x3_reduce"
}
layer {
  name: "inception_3b/3x3"
  type: "Convolution"
  bottom: "inception_3b/3x3_reduce"
  top: "inception_3b/3x3"
  param {
    lr_mult: 1
    decay_mult: 1
  }
  param {
    lr_mult: 2
    decay_mult: 0
  }
  convolution_param {
    num_output: 192
    pad: 1
    kernel_size: 3
    weight_filler {
      type: "xavier"
    }
    bias_filler {
      type: "constant"
      value: 0.2
    }
  }
}
layer {
  name: "inception_3b/relu_3x3"
  type: "ReLU"
  bottom: "inception_3b/3x3"
  top: "inception_3b/3x3"
}
layer {
  name: "inception_3b/5x5_reduce"
  type: "Convolution"
  bottom: "inception_3a/output"
  top: "inception_3b/5x5_reduce"
  param {
    lr_mult: 1
    decay_mult: 1
  }
  param {
    lr_mult: 2
    decay_mult: 0
  }
  convolution_param {
    num_output: 32
    kernel_size: 1
    weight_filler {
      type: "xavier"
    }
    bias_filler {
      type: "constant"
      value: 0.2
    }
  }
}
layer {
  name: "inception_3b/relu_5x5_reduce"
  type: "ReLU"
  bottom: "inception_3b/5x5_reduce"
  top: "inception_3b/5x5_reduce"
}
layer {
  name: "inception_3b/5x5"
  type: "Convolution"
  bottom: "inception_3b/5x5_reduce"
  top: "inception_3b/5x5"
  param {
    lr_mult: 1
    decay_mult: 1
  }
  param {
    lr_mult: 2
    decay_mult: 0
  }
  convolution_param {
    num_output: 96
    pad: 2
    kernel_size: 5
    weight_filler {
      type: "xavier"
    }
    bias_filler {
      type: "constant"
      value: 0.2
    }
  }
}
layer {
  name: "inception_3b/relu_5x5"
  type: "ReLU"
  bottom: "inception_3b/5x5"
  top: "inception_3b/5x5"
}
layer {
  name: "inception_3b/pool"
  type: "Pooling"
  bottom: "inception_3a/output"
  top: "inception_3b/pool"
  pooling_param {
    pool: MAX
    kernel_size: 3
    stride: 1
    pad: 1
  }
}
layer {
  name: "inception_3b/pool_proj"
  type: "Convolution"
  bottom: "inception_3b/pool"
  top: "inception_3b/pool_proj"
  param {
    lr_mult: 1
    decay_mult: 1
  }
  param {
    lr_mult: 2
    decay_mult: 0
  }
  convolution_param {
    num_output: 64
    kernel_size: 1
    weight_filler {
      type: "xavier"
    }
    bias_filler {
      type: "constant"
      value: 0.2
    }
  }
}
layer {
  name: "inception_3b/relu_pool_proj"
  type: "ReLU"
  bottom: "inception_3b/pool_proj"
  top: "inception_3b/pool_proj"
}
layer {
  name: "inception_3b/output"
  type: "Concat"
  bottom: "inception_3b/1x1"
  bottom: "inception_3b/3x3"
  bottom: "inception_3b/5x5"
  bottom: "inception_3b/pool_proj"
  top: "inception_3b/output"
}
layer {
  name: "pool3/3x3_s2"
  type: "Pooling"
  bottom: "inception_3b/output"
  top: "pool3/3x3_s2"
  pooling_param {
    pool: MAX
    kernel_size: 3
    stride: 2
  }
}
layer {
  name: "inception_4a/1x1"
  type: "Convolution"
  bottom: "pool3/3x3_s2"
  top: "inception_4a/1x1"
  param {
    lr_mult: 1
    decay_mult: 1
  }
  param {
    lr_mult: 2
    decay_mult: 0
  }
  convolution_param {
    num_output: 192
    kernel_size: 1
    weight_filler {
      type: "xavier"
    }
    bias_filler {
      type: "constant"
      value: 0.2
    }
  }
}
layer {
  name: "inception_4a/relu_1x1"
  type: "ReLU"
  bottom: "inception_4a/1x1"
  top: "inception_4a/1x1"
}
layer {
  name: "inception_4a/3x3_reduce"
  type: "Convolution"
  bottom: "pool3/3x3_s2"
  top: "inception_4a/3x3_reduce"
  param {
    lr_mult: 1
    decay_mult: 1
  }
  param {
    lr_mult: 2
    decay_mult: 0
  }
  convolution_param {
    num_output: 96
    kernel_size: 1
    weight_filler {
      type: "xavier"
    }
    bias_filler {
      type: "constant"
      value: 0.2
    }
  }
}
layer {
  name: "inception_4a/relu_3x3_reduce"
  type: "ReLU"
  bottom: "inception_4a/3x3_reduce"
  top: "inception_4a/3x3_reduce"
}
layer {
  name: "inception_4a/3x3"
  type: "Convolution"
  bottom: "inception_4a/3x3_reduce"
  top: "inception_4a/3x3"
  param {
    lr_mult: 1
    decay_mult: 1
  }
  param {
    lr_mult: 2
    decay_mult: 0
  }
  convolution_param {
    num_output: 208
    pad: 1
    kernel_size: 3
    weight_filler {
      type: "xavier"
    }
    bias_filler {
      type: "constant"
      value: 0.2
    }
  }
}
layer {
  name: "inception_4a/relu_3x3"
  type: "ReLU"
  bottom: "inception_4a/3x3"
  top: "inception_4a/3x3"
}
layer {
  name: "inception_4a/5x5_reduce"
  type: "Convolution"
  bottom: "pool3/3x3_s2"
  top: "inception_4a/5x5_reduce"
  param {
    lr_mult: 1
    decay_mult: 1
  }
  param {
    lr_mult: 2
    decay_mult: 0
  }
  convolution_param {
    num_output: 16
    kernel_size: 1
    weight_filler {
      type: "xavier"
    }
    bias_filler {
      type: "constant"
      value: 0.2
    }
  }
}
layer {
  name: "inception_4a/relu_5x5_reduce"
  type: "ReLU"
  bottom: "inception_4a/5x5_reduce"
  top: "inception_4a/5x5_reduce"
}
layer {
  name: "inception_4a/5x5"
  type: "Convolution"
  bottom: "inception_4a/5x5_reduce"
  top: "inception_4a/5x5"
  param {
    lr_mult: 1
    decay_mult: 1
  }
  param {
    lr_mult: 2
    decay_mult: 0
  }
  convolution_param {
    num_output: 48
    pad: 2
    kernel_size: 5
    weight_filler {
      type: "xavier"
    }
    bias_filler {
      type: "constant"
      value: 0.2
    }
  }
}
layer {
  name: "inception_4a/relu_5x5"
  type: "ReLU"
  bottom: "inception_4a/5x5"
  top: "inception_4a/5x5"
}
layer {
  name: "inception_4a/pool"
  type: "Pooling"
  bottom: "pool3/3x3_s2"
  top: "inception_4a/pool"
  pooling_param {
    pool: MAX
    kernel_size: 3
    stride: 1
    pad: 1
  }
}
layer {
  name: "inception_4a/pool_proj"
  type: "Convolution"
  bottom: "inception_4a/pool"
  top: "inception_4a/pool_proj"
  param {
    lr_mult: 1
    decay_mult: 1
  }
  param {
    lr_mult: 2
    decay_mult: 0
  }
  convolution_param {
    num_output: 64
    kernel_size: 1
    weight_filler {
      type: "xavier"
    }
    bias_filler {
      type: "constant"
      value: 0.2
    }
  }
}
layer {
  name: "inception_4a/relu_pool_proj"
  type: "ReLU"
  bottom: "inception_4a/pool_proj"
  top: "inception_4a/pool_proj"
}
layer {
  name: "inception_4a/output"
  type: "Concat"
  bottom: "inception_4a/1x1"
  bottom: "inception_4a/3x3"
  bottom: "inception_4a/5x5"
  bottom: "inception_4a/pool_proj"
  top: "inception_4a/output"
}
layer {
  name: "loss1/ave_pool"
  type: "Pooling"
  bottom: "inception_4a/output"
  top: "loss1/ave_pool"
  pooling_param {
    pool: AVE
    kernel_size: 5
    stride: 3
  }
}
layer {
  name: "loss1/conv"
  type: "Convolution"
  bottom: "loss1/ave_pool"
  top: "loss1/conv"
  param {
    lr_mult: 1
    decay_mult: 1
  }
  param {
    lr_mult: 2
    decay_mult: 0
  }
  convolution_param {
    num_output: 128
    kernel_size: 1
    weight_filler {
      type: "xavier"
    }
    bias_filler {
      type: "constant"
      value: 0.2
    }
  }
}
layer {
  name: "loss1/relu_conv"
  type: "ReLU"
  bottom: "loss1/conv"
  top: "loss1/conv"
}
layer {
  name: "loss1/fc"
  type: "InnerProduct"
  bottom: "loss1/conv"
  top: "loss1/fc"
  param {
    lr_mult: 1
    decay_mult: 1
  }
  param {
    lr_mult: 2
    decay_mult: 0
  }
  inner_product_param {
    num_output: 1024
    weight_filler {
      type: "xavier"
    }
    bias_filler {
      type: "constant"
      value: 0.2
    }
  }
}
layer {
  name: "loss1/relu_fc"
  type: "ReLU"
  bottom: "loss1/fc"
  top: "loss1/fc"
}
layer {
  name: "loss1/drop_fc"
  type: "Dropout"
  bottom: "loss1/fc"
  top: "loss1/fc"
  dropout_param {
    dropout_ratio: 0.7
  }
}
layer {
  name: "ft_loss1/classifier"
  type: "InnerProduct"
  bottom: "loss1/fc"
  top: "ft_loss1/classifier"
  param {
    lr_mult: 1
    decay_mult: 1
  }
  param {
    lr_mult: 2
    decay_mult: 0
  }
  inner_product_param {
    num_output: 2
    weight_filler {
      type: "xavier"
    }
    bias_filler {
      type: "constant"
      value: 0
    }
  }
}
layer {
  name: "loss1/loss"
  type: "SoftmaxWithLoss"
  bottom: "ft_loss1/classifier"
  bottom: "label"
  top: "loss1/loss1"
  loss_weight: 0.3
}
layer {
  name: "inception_4b/1x1"
  type: "Convolution"
  bottom: "inception_4a/output"
  top: "inception_4b/1x1"
  param {
    lr_mult: 1
    decay_mult: 1
  }
  param {
    lr_mult: 2
    decay_mult: 0
  }
  convolution_param {
    num_output: 160
    kernel_size: 1
    weight_filler {
      type: "xavier"
    }
    bias_filler {
      type: "constant"
      value: 0.2
    }
  }
}
layer {
  name: "inception_4b/relu_1x1"
  type: "ReLU"
  bottom: "inception_4b/1x1"
  top: "inception_4b/1x1"
}
layer {
  name: "inception_4b/3x3_reduce"
  type: "Convolution"
  bottom: "inception_4a/output"
  top: "inception_4b/3x3_reduce"
  param {
    lr_mult: 1
    decay_mult: 1
  }
  param {
    lr_mult: 2
    decay_mult: 0
  }
  convolution_param {
    num_output: 112
    kernel_size: 1
    weight_filler {
      type: "xavier"
    }
    bias_filler {
      type: "constant"
      value: 0.2
    }
  }
}
layer {
  name: "inception_4b/relu_3x3_reduce"
  type: "ReLU"
  bottom: "inception_4b/3x3_reduce"
  top: "inception_4b/3x3_reduce"
}
layer {
  name: "inception_4b/3x3"
  type: "Convolution"
  bottom: "inception_4b/3x3_reduce"
  top: "inception_4b/3x3"
  param {
    lr_mult: 1
    decay_mult: 1
  }
  param {
    lr_mult: 2
    decay_mult: 0
  }
  convolution_param {
    num_output: 224
    pad: 1
    kernel_size: 3
    weight_filler {
      type: "xavier"
    }
    bias_filler {
      type: "constant"
      value: 0.2
    }
  }
}
layer {
  name: "inception_4b/relu_3x3"
  type: "ReLU"
  bottom: "inception_4b/3x3"
  top: "inception_4b/3x3"
}
layer {
  name: "inception_4b/5x5_reduce"
  type: "Convolution"
  bottom: "inception_4a/output"
  top: "inception_4b/5x5_reduce"
  param {
    lr_mult: 1
    decay_mult: 1
  }
  param {
    lr_mult: 2
    decay_mult: 0
  }
  convolution_param {
    num_output: 24
    kernel_size: 1
    weight_filler {
      type: "xavier"
    }
    bias_filler {
      type: "constant"
      value: 0.2
    }
  }
}
layer {
  name: "inception_4b/relu_5x5_reduce"
  type: "ReLU"
  bottom: "inception_4b/5x5_reduce"
  top: "inception_4b/5x5_reduce"
}
layer {
  name: "inception_4b/5x5"
  type: "Convolution"
  bottom: "inception_4b/5x5_reduce"
  top: "inception_4b/5x5"
  param {
    lr_mult: 1
    decay_mult: 1
  }
  param {
    lr_mult: 2
    decay_mult: 0
  }
  convolution_param {
    num_output: 64
    pad: 2
    kernel_size: 5
    weight_filler {
      type: "xavier"
    }
    bias_filler {
      type: "constant"
      value: 0.2
    }
  }
}
layer {
  name: "inception_4b/relu_5x5"
  type: "ReLU"
  bottom: "inception_4b/5x5"
  top: "inception_4b/5x5"
}
layer {
  name: "inception_4b/pool"
  type: "Pooling"
  bottom: "inception_4a/output"
  top: "inception_4b/pool"
  pooling_param {
    pool: MAX
    kernel_size: 3
    stride: 1
    pad: 1
  }
}
layer {
  name: "inception_4b/pool_proj"
  type: "Convolution"
  bottom: "inception_4b/pool"
  top: "inception_4b/pool_proj"
  param {
    lr_mult: 1
    decay_mult: 1
  }
  param {
    lr_mult: 2
    decay_mult: 0
  }
  convolution_param {
    num_output: 64
    kernel_size: 1
    weight_filler {
      type: "xavier"
    }
    bias_filler {
      type: "constant"
      value: 0.2
    }
  }
}
layer {
  name: "inception_4b/relu_pool_proj"
  type: "ReLU"
  bottom: "inception_4b/pool_proj"
  top: "inception_4b/pool_proj"
}
layer {
  name: "inception_4b/output"
  type: "Concat"
  bottom: "inception_4b/1x1"
  bottom: "inception_4b/3x3"
  bottom: "inception_4b/5x5"
  bottom: "inception_4b/pool_proj"
  top: "inception_4b/output"
}
layer {
  name: "inception_4c/1x1"
  type: "Convolution"
  bottom: "inception_4b/output"
  top: "inception_4c/1x1"
  param {
    lr_mult: 1
    decay_mult: 1
  }
  param {
    lr_mult: 2
    decay_mult: 0
  }
  convolution_param {
    num_output: 128
    kernel_size: 1
    weight_filler {
      type: "xavier"
    }
    bias_filler {
      type: "constant"
      value: 0.2
    }
  }
}
layer {
  name: "inception_4c/relu_1x1"
  type: "ReLU"
  bottom: "inception_4c/1x1"
  top: "inception_4c/1x1"
}
layer {
  name: "inception_4c/3x3_reduce"
  type: "Convolution"
  bottom: "inception_4b/output"
  top: "inception_4c/3x3_reduce"
  param {
    lr_mult: 1
    decay_mult: 1
  }
  param {
    lr_mult: 2
    decay_mult: 0
  }
  convolution_param {
    num_output: 128
    kernel_size: 1
    weight_filler {
      type: "xavier"
    }
    bias_filler {
      type: "constant"
      value: 0.2
    }
  }
}
layer {
  name: "inception_4c/relu_3x3_reduce"
  type: "ReLU"
  bottom: "inception_4c/3x3_reduce"
  top: "inception_4c/3x3_reduce"
}
layer {
  name: "inception_4c/3x3"
  type: "Convolution"
  bottom: "inception_4c/3x3_reduce"
  top: "inception_4c/3x3"
  param {
    lr_mult: 1
    decay_mult: 1
  }
  param {
    lr_mult: 2
    decay_mult: 0
  }
  convolution_param {
    num_output: 256
    pad: 1
    kernel_size: 3
    weight_filler {
      type: "xavier"
    }
    bias_filler {
      type: "constant"
      value: 0.2
    }
  }
}
layer {
  name: "inception_4c/relu_3x3"
  type: "ReLU"
  bottom: "inception_4c/3x3"
  top: "inception_4c/3x3"
}
layer {
  name: "inception_4c/5x5_reduce"
  type: "Convolution"
  bottom: "inception_4b/output"
  top: "inception_4c/5x5_reduce"
  param {
    lr_mult: 1
    decay_mult: 1
  }
  param {
    lr_mult: 2
    decay_mult: 0
  }
  convolution_param {
    num_output: 24
    kernel_size: 1
    weight_filler {
      type: "xavier"
    }
    bias_filler {
      type: "constant"
      value: 0.2
    }
  }
}
layer {
  name: "inception_4c/relu_5x5_reduce"
  type: "ReLU"
  bottom: "inception_4c/5x5_reduce"
  top: "inception_4c/5x5_reduce"
}
layer {
  name: "inception_4c/5x5"
  type: "Convolution"
  bottom: "inception_4c/5x5_reduce"
  top: "inception_4c/5x5"
  param {
    lr_mult: 1
    decay_mult: 1
  }
  param {
    lr_mult: 2
    decay_mult: 0
  }
  convolution_param {
    num_output: 64
    pad: 2
    kernel_size: 5
    weight_filler {
      type: "xavier"
    }
    bias_filler {
      type: "constant"
      value: 0.2
    }
  }
}
layer {
  name: "inception_4c/relu_5x5"
  type: "ReLU"
  bottom: "inception_4c/5x5"
  top: "inception_4c/5x5"
}
layer {
  name: "inception_4c/pool"
  type: "Pooling"
  bottom: "inception_4b/output"
  top: "inception_4c/pool"
  pooling_param {
    pool: MAX
    kernel_size: 3
    stride: 1
    pad: 1
  }
}
layer {
  name: "inception_4c/pool_proj"
  type: "Convolution"
  bottom: "inception_4c/pool"
  top: "inception_4c/pool_proj"
  param {
    lr_mult: 1
    decay_mult: 1
  }
  param {
    lr_mult: 2
    decay_mult: 0
  }
  convolution_param {
    num_output: 64
    kernel_size: 1
    weight_filler {
      type: "xavier"
    }
    bias_filler {
      type: "constant"
      value: 0.2
    }
  }
}
layer {
  name: "inception_4c/relu_pool_proj"
  type: "ReLU"
  bottom: "inception_4c/pool_proj"
  top: "inception_4c/pool_proj"
}
layer {
  name: "inception_4c/output"
  type: "Concat"
  bottom: "inception_4c/1x1"
  bottom: "inception_4c/3x3"
  bottom: "inception_4c/5x5"
  bottom: "inception_4c/pool_proj"
  top: "inception_4c/output"
}
layer {
  name: "inception_4d/1x1"
  type: "Convolution"
  bottom: "inception_4c/output"
  top: "inception_4d/1x1"
  param {
    lr_mult: 1
    decay_mult: 1
  }
  param {
    lr_mult: 2
    decay_mult: 0
  }
  convolution_param {
    num_output: 112
    kernel_size: 1
    weight_filler {
      type: "xavier"
    }
    bias_filler {
      type: "constant"
      value: 0.2
    }
  }
}
layer {
  name: "inception_4d/relu_1x1"
  type: "ReLU"
  bottom: "inception_4d/1x1"
  top: "inception_4d/1x1"
}
layer {
  name: "inception_4d/3x3_reduce"
  type: "Convolution"
  bottom: "inception_4c/output"
  top: "inception_4d/3x3_reduce"
  param {
    lr_mult: 1
    decay_mult: 1
  }
  param {
    lr_mult: 2
    decay_mult: 0
  }
  convolution_param {
    num_output: 144
    kernel_size: 1
    weight_filler {
      type: "xavier"
    }
    bias_filler {
      type: "constant"
      value: 0.2
    }
  }
}
layer {
  name: "inception_4d/relu_3x3_reduce"
  type: "ReLU"
  bottom: "inception_4d/3x3_reduce"
  top: "inception_4d/3x3_reduce"
}
layer {
  name: "inception_4d/3x3"
  type: "Convolution"
  bottom: "inception_4d/3x3_reduce"
  top: "inception_4d/3x3"
  param {
    lr_mult: 1
    decay_mult: 1
  }
  param {
    lr_mult: 2
    decay_mult: 0
  }
  convolution_param {
    num_output: 288
    pad: 1
    kernel_size: 3
    weight_filler {
      type: "xavier"
    }
    bias_filler {
      type: "constant"
      value: 0.2
    }
  }
}
layer {
  name: "inception_4d/relu_3x3"
  type: "ReLU"
  bottom: "inception_4d/3x3"
  top: "inception_4d/3x3"
}
layer {
  name: "inception_4d/5x5_reduce"
  type: "Convolution"
  bottom: "inception_4c/output"
  top: "inception_4d/5x5_reduce"
  param {
    lr_mult: 1
    decay_mult: 1
  }
  param {
    lr_mult: 2
    decay_mult: 0
  }
  convolution_param {
    num_output: 32
    kernel_size: 1
    weight_filler {
      type: "xavier"
    }
    bias_filler {
      type: "constant"
      value: 0.2
    }
  }
}
layer {
  name: "inception_4d/relu_5x5_reduce"
  type: "ReLU"
  bottom: "inception_4d/5x5_reduce"
  top: "inception_4d/5x5_reduce"
}
layer {
  name: "inception_4d/5x5"
  type: "Convolution"
  bottom: "inception_4d/5x5_reduce"
  top: "inception_4d/5x5"
  param {
    lr_mult: 1
    decay_mult: 1
  }
  param {
    lr_mult: 2
    decay_mult: 0
  }
  convolution_param {
    num_output: 64
    pad: 2
    kernel_size: 5
    weight_filler {
      type: "xavier"
    }
    bias_filler {
      type: "constant"
      value: 0.2
    }
  }
}
layer {
  name: "inception_4d/relu_5x5"
  type: "ReLU"
  bottom: "inception_4d/5x5"
  top: "inception_4d/5x5"
}
layer {
  name: "inception_4d/pool"
  type: "Pooling"
  bottom: "inception_4c/output"
  top: "inception_4d/pool"
  pooling_param {
    pool: MAX
    kernel_size: 3
    stride: 1
    pad: 1
  }
}
layer {
  name: "inception_4d/pool_proj"
  type: "Convolution"
  bottom: "inception_4d/pool"
  top: "inception_4d/pool_proj"
  param {
    lr_mult: 1
    decay_mult: 1
  }
  param {
    lr_mult: 2
    decay_mult: 0
  }
  convolution_param {
    num_output: 64
    kernel_size: 1
    weight_filler {
      type: "xavier"
    }
    bias_filler {
      type: "constant"
      value: 0.2
    }
  }
}
layer {
  name: "inception_4d/relu_pool_proj"
  type: "ReLU"
  bottom: "inception_4d/pool_proj"
  top: "inception_4d/pool_proj"
}
layer {
  name: "inception_4d/output"
  type: "Concat"
  bottom: "inception_4d/1x1"
  bottom: "inception_4d/3x3"
  bottom: "inception_4d/5x5"
  bottom: "inception_4d/pool_proj"
  top: "inception_4d/output"
}
layer {
  name: "loss2/ave_pool"
  type: "Pooling"
  bottom: "inception_4d/output"
  top: "loss2/ave_pool"
  pooling_param {
    pool: AVE
    kernel_size: 5
    stride: 3
  }
}
layer {
  name: "loss2/conv"
  type: "Convolution"
  bottom: "loss2/ave_pool"
  top: "loss2/conv"
  param {
    lr_mult: 1
    decay_mult: 1
  }
  param {
    lr_mult: 2
    decay_mult: 0
  }
  convolution_param {
    num_output: 128
    kernel_size: 1
    weight_filler {
      type: "xavier"
    }
    bias_filler {
      type: "constant"
      value: 0.2
    }
  }
}
layer {
  name: "loss2/relu_conv"
  type: "ReLU"
  bottom: "loss2/conv"
  top: "loss2/conv"
}
layer {
  name: "loss2/fc"
  type: "InnerProduct"
  bottom: "loss2/conv"
  top: "loss2/fc"
  param {
    lr_mult: 1
    decay_mult: 1
  }
  param {
    lr_mult: 2
    decay_mult: 0
  }
  inner_product_param {
    num_output: 1024
    weight_filler {
      type: "xavier"
    }
    bias_filler {
      type: "constant"
      value: 0.2
    }
  }
}
layer {
  name: "loss2/relu_fc"
  type: "ReLU"
  bottom: "loss2/fc"
  top: "loss2/fc"
}
layer {
  name: "loss2/drop_fc"
  type: "Dropout"
  bottom: "loss2/fc"
  top: "loss2/fc"
  dropout_param {
    dropout_ratio: 0.7
  }
}
layer {
  name: "ft_loss2/classifier"
  type: "InnerProduct"
  bottom: "loss2/fc"
  top: "ft_loss2/classifier"
  param {
    lr_mult: 1
    decay_mult: 1
  }
  param {
    lr_mult: 2
    decay_mult: 0
  }
  inner_product_param {
    num_output: 2
    weight_filler {
      type: "xavier"
    }
    bias_filler {
      type: "constant"
      value: 0
    }
  }
}
layer {
  name: "loss2/loss"
  type: "SoftmaxWithLoss"
  bottom: "ft_loss2/classifier"
  bottom: "label"
  top: "loss2/loss1"
  loss_weight: 0.3
}
layer {
  name: "inception_4e/1x1"
  type: "Convolution"
  bottom: "inception_4d/output"
  top: "inception_4e/1x1"
  param {
    lr_mult: 1
    decay_mult: 1
  }
  param {
    lr_mult: 2
    decay_mult: 0
  }
  convolution_param {
    num_output: 256
    kernel_size: 1
    weight_filler {
      type: "xavier"
    }
    bias_filler {
      type: "constant"
      value: 0.2
    }
  }
}
layer {
  name: "inception_4e/relu_1x1"
  type: "ReLU"
  bottom: "inception_4e/1x1"
  top: "inception_4e/1x1"
}
layer {
  name: "inception_4e/3x3_reduce"
  type: "Convolution"
  bottom: "inception_4d/output"
  top: "inception_4e/3x3_reduce"
  param {
    lr_mult: 1
    decay_mult: 1
  }
  param {
    lr_mult: 2
    decay_mult: 0
  }
  convolution_param {
    num_output: 160
    kernel_size: 1
    weight_filler {
      type: "xavier"
    }
    bias_filler {
      type: "constant"
      value: 0.2
    }
  }
}
layer {
  name: "inception_4e/relu_3x3_reduce"
  type: "ReLU"
  bottom: "inception_4e/3x3_reduce"
  top: "inception_4e/3x3_reduce"
}
layer {
  name: "inception_4e/3x3"
  type: "Convolution"
  bottom: "inception_4e/3x3_reduce"
  top: "inception_4e/3x3"
  param {
    lr_mult: 1
    decay_mult: 1
  }
  param {
    lr_mult: 2
    decay_mult: 0
  }
  convolution_param {
    num_output: 320
    pad: 1
    kernel_size: 3
    weight_filler {
      type: "xavier"
    }
    bias_filler {
      type: "constant"
      value: 0.2
    }
  }
}
layer {
  name: "inception_4e/relu_3x3"
  type: "ReLU"
  bottom: "inception_4e/3x3"
  top: "inception_4e/3x3"
}
layer {
  name: "inception_4e/5x5_reduce"
  type: "Convolution"
  bottom: "inception_4d/output"
  top: "inception_4e/5x5_reduce"
  param {
    lr_mult: 1
    decay_mult: 1
  }
  param {
    lr_mult: 2
    decay_mult: 0
  }
  convolution_param {
    num_output: 32
    kernel_size: 1
    weight_filler {
      type: "xavier"
    }
    bias_filler {
      type: "constant"
      value: 0.2
    }
  }
}
layer {
  name: "inception_4e/relu_5x5_reduce"
  type: "ReLU"
  bottom: "inception_4e/5x5_reduce"
  top: "inception_4e/5x5_reduce"
}
layer {
  name: "inception_4e/5x5"
  type: "Convolution"
  bottom: "inception_4e/5x5_reduce"
  top: "inception_4e/5x5"
  param {
    lr_mult: 1
    decay_mult: 1
  }
  param {
    lr_mult: 2
    decay_mult: 0
  }
  convolution_param {
    num_output: 128
    pad: 2
    kernel_size: 5
    weight_filler {
      type: "xavier"
    }
    bias_filler {
      type: "constant"
      value: 0.2
    }
  }
}
layer {
  name: "inception_4e/relu_5x5"
  type: "ReLU"
  bottom: "inception_4e/5x5"
  top: "inception_4e/5x5"
}
layer {
  name: "inception_4e/pool"
  type: "Pooling"
  bottom: "inception_4d/output"
  top: "inception_4e/pool"
  pooling_param {
    pool: MAX
    kernel_size: 3
    stride: 1
    pad: 1
  }
}
layer {
  name: "inception_4e/pool_proj"
  type: "Convolution"
  bott
I0805 12:56:13.316674 12393 layer_factory.hpp:74] Creating layer data
I0805 12:56:13.316759 12393 net.cpp:90] Creating Layer data
I0805 12:56:13.316817 12393 net.cpp:368] data -> data
I0805 12:56:13.316967 12393 net.cpp:368] data -> label
I0805 12:56:13.316987 12393 net.cpp:120] Setting up data
I0805 12:56:13.317065 12393 image_data_layer.cpp:36] Opening file /home/kruchinin_d/Projects/KITTI/prepared_data/train.txt
I0805 12:56:13.372364 12393 image_data_layer.cpp:51] A total of 89663 images.
I0805 12:56:13.377061 12393 image_data_layer.cpp:74] output data size: 32,3,227,227
I0805 12:56:13.384945 12393 net.cpp:127] Top shape: 32 3 227 227 (4946784)
I0805 12:56:13.384964 12393 net.cpp:127] Top shape: 32 (32)
I0805 12:56:13.385022 12393 layer_factory.hpp:74] Creating layer label_data_1_split
I0805 12:56:13.385049 12393 net.cpp:90] Creating Layer label_data_1_split
I0805 12:56:13.385063 12393 net.cpp:410] label_data_1_split <- label
I0805 12:56:13.385088 12393 net.cpp:368] label_data_1_split -> label_data_1_split_0
I0805 12:56:13.385113 12393 net.cpp:368] label_data_1_split -> label_data_1_split_1
I0805 12:56:13.385133 12393 net.cpp:368] label_data_1_split -> label_data_1_split_2
I0805 12:56:13.385151 12393 net.cpp:120] Setting up label_data_1_split
I0805 12:56:13.385221 12393 net.cpp:127] Top shape: 32 (32)
I0805 12:56:13.385252 12393 net.cpp:127] Top shape: 32 (32)
I0805 12:56:13.385267 12393 net.cpp:127] Top shape: 32 (32)
I0805 12:56:13.385279 12393 layer_factory.hpp:74] Creating layer conv1/7x7_s2
I0805 12:56:13.385319 12393 net.cpp:90] Creating Layer conv1/7x7_s2
I0805 12:56:13.385331 12393 net.cpp:410] conv1/7x7_s2 <- data
I0805 12:56:13.385346 12393 net.cpp:368] conv1/7x7_s2 -> conv1/7x7_s2
I0805 12:56:13.385367 12393 net.cpp:120] Setting up conv1/7x7_s2
I0805 12:56:13.386425 12393 net.cpp:127] Top shape: 32 64 114 114 (26615808)
I0805 12:56:13.386454 12393 layer_factory.hpp:74] Creating layer conv1/relu_7x7
I0805 12:56:13.386517 12393 net.cpp:90] Creating Layer conv1/relu_7x7
I0805 12:56:13.386531 12393 net.cpp:410] conv1/relu_7x7 <- conv1/7x7_s2
I0805 12:56:13.386544 12393 net.cpp:357] conv1/relu_7x7 -> conv1/7x7_s2 (in-place)
I0805 12:56:13.386557 12393 net.cpp:120] Setting up conv1/relu_7x7
I0805 12:56:13.386638 12393 net.cpp:127] Top shape: 32 64 114 114 (26615808)
I0805 12:56:13.386651 12393 layer_factory.hpp:74] Creating layer pool1/3x3_s2
I0805 12:56:13.386667 12393 net.cpp:90] Creating Layer pool1/3x3_s2
I0805 12:56:13.386679 12393 net.cpp:410] pool1/3x3_s2 <- conv1/7x7_s2
I0805 12:56:13.386705 12393 net.cpp:368] pool1/3x3_s2 -> pool1/3x3_s2
I0805 12:56:13.386723 12393 net.cpp:120] Setting up pool1/3x3_s2
I0805 12:56:13.386838 12393 net.cpp:127] Top shape: 32 64 57 57 (6653952)
I0805 12:56:13.386852 12393 layer_factory.hpp:74] Creating layer pool1/norm1
I0805 12:56:13.386914 12393 net.cpp:90] Creating Layer pool1/norm1
I0805 12:56:13.386926 12393 net.cpp:410] pool1/norm1 <- pool1/3x3_s2
I0805 12:56:13.386939 12393 net.cpp:368] pool1/norm1 -> pool1/norm1
I0805 12:56:13.386955 12393 net.cpp:120] Setting up pool1/norm1
I0805 12:56:13.387053 12393 net.cpp:127] Top shape: 32 64 57 57 (6653952)
I0805 12:56:13.387066 12393 layer_factory.hpp:74] Creating layer conv2/3x3_reduce
I0805 12:56:13.387094 12393 net.cpp:90] Creating Layer conv2/3x3_reduce
I0805 12:56:13.387106 12393 net.cpp:410] conv2/3x3_reduce <- pool1/norm1
I0805 12:56:13.387121 12393 net.cpp:368] conv2/3x3_reduce -> conv2/3x3_reduce
I0805 12:56:13.387137 12393 net.cpp:120] Setting up conv2/3x3_reduce
I0805 12:56:13.387199 12393 net.cpp:127] Top shape: 32 64 57 57 (6653952)
I0805 12:56:13.387217 12393 layer_factory.hpp:74] Creating layer conv2/relu_3x3_reduce
I0805 12:56:13.387229 12393 net.cpp:90] Creating Layer conv2/relu_3x3_reduce
I0805 12:56:13.387238 12393 net.cpp:410] conv2/relu_3x3_reduce <- conv2/3x3_reduce
I0805 12:56:13.387250 12393 net.cpp:357] conv2/relu_3x3_reduce -> conv2/3x3_reduce (in-place)
I0805 12:56:13.387262 12393 net.cpp:120] Setting up conv2/relu_3x3_reduce
I0805 12:56:13.387275 12393 net.cpp:127] Top shape: 32 64 57 57 (6653952)
I0805 12:56:13.387284 12393 layer_factory.hpp:74] Creating layer conv2/3x3
I0805 12:56:13.387297 12393 net.cpp:90] Creating Layer conv2/3x3
I0805 12:56:13.387308 12393 net.cpp:410] conv2/3x3 <- conv2/3x3_reduce
I0805 12:56:13.387322 12393 net.cpp:368] conv2/3x3 -> conv2/3x3
I0805 12:56:13.387336 12393 net.cpp:120] Setting up conv2/3x3
I0805 12:56:13.388512 12393 net.cpp:127] Top shape: 32 192 57 57 (19961856)
I0805 12:56:13.388536 12393 layer_factory.hpp:74] Creating layer conv2/relu_3x3
I0805 12:56:13.388567 12393 net.cpp:90] Creating Layer conv2/relu_3x3
I0805 12:56:13.388581 12393 net.cpp:410] conv2/relu_3x3 <- conv2/3x3
I0805 12:56:13.388594 12393 net.cpp:357] conv2/relu_3x3 -> conv2/3x3 (in-place)
I0805 12:56:13.388614 12393 net.cpp:120] Setting up conv2/relu_3x3
I0805 12:56:13.388634 12393 net.cpp:127] Top shape: 32 192 57 57 (19961856)
I0805 12:56:13.388648 12393 layer_factory.hpp:74] Creating layer conv2/norm2
I0805 12:56:13.388664 12393 net.cpp:90] Creating Layer conv2/norm2
I0805 12:56:13.388674 12393 net.cpp:410] conv2/norm2 <- conv2/3x3
I0805 12:56:13.388701 12393 net.cpp:368] conv2/norm2 -> conv2/norm2
I0805 12:56:13.388718 12393 net.cpp:120] Setting up conv2/norm2
I0805 12:56:13.388752 12393 net.cpp:127] Top shape: 32 192 57 57 (19961856)
I0805 12:56:13.388767 12393 layer_factory.hpp:74] Creating layer pool2/3x3_s2
I0805 12:56:13.388782 12393 net.cpp:90] Creating Layer pool2/3x3_s2
I0805 12:56:13.388794 12393 net.cpp:410] pool2/3x3_s2 <- conv2/norm2
I0805 12:56:13.388813 12393 net.cpp:368] pool2/3x3_s2 -> pool2/3x3_s2
I0805 12:56:13.388840 12393 net.cpp:120] Setting up pool2/3x3_s2
I0805 12:56:13.388862 12393 net.cpp:127] Top shape: 32 192 28 28 (4816896)
I0805 12:56:13.388875 12393 layer_factory.hpp:74] Creating layer pool2/3x3_s2_pool2/3x3_s2_0_split
I0805 12:56:13.388891 12393 net.cpp:90] Creating Layer pool2/3x3_s2_pool2/3x3_s2_0_split
I0805 12:56:13.388905 12393 net.cpp:410] pool2/3x3_s2_pool2/3x3_s2_0_split <- pool2/3x3_s2
I0805 12:56:13.388924 12393 net.cpp:368] pool2/3x3_s2_pool2/3x3_s2_0_split -> pool2/3x3_s2_pool2/3x3_s2_0_split_0
I0805 12:56:13.388944 12393 net.cpp:368] pool2/3x3_s2_pool2/3x3_s2_0_split -> pool2/3x3_s2_pool2/3x3_s2_0_split_1
I0805 12:56:13.388967 12393 net.cpp:368] pool2/3x3_s2_pool2/3x3_s2_0_split -> pool2/3x3_s2_pool2/3x3_s2_0_split_2
I0805 12:56:13.388986 12393 net.cpp:368] pool2/3x3_s2_pool2/3x3_s2_0_split -> pool2/3x3_s2_pool2/3x3_s2_0_split_3
I0805 12:56:13.389019 12393 net.cpp:120] Setting up pool2/3x3_s2_pool2/3x3_s2_0_split
I0805 12:56:13.389041 12393 net.cpp:127] Top shape: 32 192 28 28 (4816896)
I0805 12:56:13.389057 12393 net.cpp:127] Top shape: 32 192 28 28 (4816896)
I0805 12:56:13.389068 12393 net.cpp:127] Top shape: 32 192 28 28 (4816896)
I0805 12:56:13.389078 12393 net.cpp:127] Top shape: 32 192 28 28 (4816896)
I0805 12:56:13.389087 12393 layer_factory.hpp:74] Creating layer inception_3a/1x1
I0805 12:56:13.389111 12393 net.cpp:90] Creating Layer inception_3a/1x1
I0805 12:56:13.389122 12393 net.cpp:410] inception_3a/1x1 <- pool2/3x3_s2_pool2/3x3_s2_0_split_0
I0805 12:56:13.389140 12393 net.cpp:368] inception_3a/1x1 -> inception_3a/1x1
I0805 12:56:13.389163 12393 net.cpp:120] Setting up inception_3a/1x1
I0805 12:56:13.389340 12393 net.cpp:127] Top shape: 32 64 28 28 (1605632)
I0805 12:56:13.389358 12393 layer_factory.hpp:74] Creating layer inception_3a/relu_1x1
I0805 12:56:13.389374 12393 net.cpp:90] Creating Layer inception_3a/relu_1x1
I0805 12:56:13.389384 12393 net.cpp:410] inception_3a/relu_1x1 <- inception_3a/1x1
I0805 12:56:13.389399 12393 net.cpp:357] inception_3a/relu_1x1 -> inception_3a/1x1 (in-place)
I0805 12:56:13.389416 12393 net.cpp:120] Setting up inception_3a/relu_1x1
I0805 12:56:13.389441 12393 net.cpp:127] Top shape: 32 64 28 28 (1605632)
I0805 12:56:13.389451 12393 layer_factory.hpp:74] Creating layer inception_3a/3x3_reduce
I0805 12:56:13.389471 12393 net.cpp:90] Creating Layer inception_3a/3x3_reduce
I0805 12:56:13.389484 12393 net.cpp:410] inception_3a/3x3_reduce <- pool2/3x3_s2_pool2/3x3_s2_0_split_1
I0805 12:56:13.389508 12393 net.cpp:368] inception_3a/3x3_reduce -> inception_3a/3x3_reduce
I0805 12:56:13.389526 12393 net.cpp:120] Setting up inception_3a/3x3_reduce
I0805 12:56:13.389811 12393 net.cpp:127] Top shape: 32 96 28 28 (2408448)
I0805 12:56:13.389832 12393 layer_factory.hpp:74] Creating layer inception_3a/relu_3x3_reduce
I0805 12:56:13.389845 12393 net.cpp:90] Creating Layer inception_3a/relu_3x3_reduce
I0805 12:56:13.389858 12393 net.cpp:410] inception_3a/relu_3x3_reduce <- inception_3a/3x3_reduce
I0805 12:56:13.389873 12393 net.cpp:357] inception_3a/relu_3x3_reduce -> inception_3a/3x3_reduce (in-place)
I0805 12:56:13.389888 12393 net.cpp:120] Setting up inception_3a/relu_3x3_reduce
I0805 12:56:13.389899 12393 net.cpp:127] Top shape: 32 96 28 28 (2408448)
I0805 12:56:13.389909 12393 layer_factory.hpp:74] Creating layer inception_3a/3x3
I0805 12:56:13.389922 12393 net.cpp:90] Creating Layer inception_3a/3x3
I0805 12:56:13.389931 12393 net.cpp:410] inception_3a/3x3 <- inception_3a/3x3_reduce
I0805 12:56:13.389946 12393 net.cpp:368] inception_3a/3x3 -> inception_3a/3x3
I0805 12:56:13.389961 12393 net.cpp:120] Setting up inception_3a/3x3
I0805 12:56:13.391095 12393 net.cpp:127] Top shape: 32 128 28 28 (3211264)
I0805 12:56:13.391113 12393 layer_factory.hpp:74] Creating layer inception_3a/relu_3x3
I0805 12:56:13.391125 12393 net.cpp:90] Creating Layer inception_3a/relu_3x3
I0805 12:56:13.391134 12393 net.cpp:410] inception_3a/relu_3x3 <- inception_3a/3x3
I0805 12:56:13.391149 12393 net.cpp:357] inception_3a/relu_3x3 -> inception_3a/3x3 (in-place)
I0805 12:56:13.391176 12393 net.cpp:120] Setting up inception_3a/relu_3x3
I0805 12:56:13.391191 12393 net.cpp:127] Top shape: 32 128 28 28 (3211264)
I0805 12:56:13.391217 12393 layer_factory.hpp:74] Creating layer inception_3a/5x5_reduce
I0805 12:56:13.391232 12393 net.cpp:90] Creating Layer inception_3a/5x5_reduce
I0805 12:56:13.391252 12393 net.cpp:410] inception_3a/5x5_reduce <- pool2/3x3_s2_pool2/3x3_s2_0_split_2
I0805 12:56:13.391273 12393 net.cpp:368] inception_3a/5x5_reduce -> inception_3a/5x5_reduce
I0805 12:56:13.391290 12393 net.cpp:120] Setting up inception_3a/5x5_reduce
I0805 12:56:13.391351 12393 net.cpp:127] Top shape: 32 16 28 28 (401408)
I0805 12:56:13.391366 12393 layer_factory.hpp:74] Creating layer inception_3a/relu_5x5_reduce
I0805 12:56:13.391378 12393 net.cpp:90] Creating Layer inception_3a/relu_5x5_reduce
I0805 12:56:13.391387 12393 net.cpp:410] inception_3a/relu_5x5_reduce <- inception_3a/5x5_reduce
I0805 12:56:13.391398 12393 net.cpp:357] inception_3a/relu_5x5_reduce -> inception_3a/5x5_reduce (in-place)
I0805 12:56:13.391410 12393 net.cpp:120] Setting up inception_3a/relu_5x5_reduce
I0805 12:56:13.391427 12393 net.cpp:127] Top shape: 32 16 28 28 (401408)
I0805 12:56:13.391438 12393 layer_factory.hpp:74] Creating layer inception_3a/5x5
I0805 12:56:13.391455 12393 net.cpp:90] Creating Layer inception_3a/5x5
I0805 12:56:13.391465 12393 net.cpp:410] inception_3a/5x5 <- inception_3a/5x5_reduce
I0805 12:56:13.391481 12393 net.cpp:368] inception_3a/5x5 -> inception_3a/5x5
I0805 12:56:13.391500 12393 net.cpp:120] Setting up inception_3a/5x5
I0805 12:56:13.391664 12393 net.cpp:127] Top shape: 32 32 28 28 (802816)
I0805 12:56:13.391693 12393 layer_factory.hpp:74] Creating layer inception_3a/relu_5x5
I0805 12:56:13.391710 12393 net.cpp:90] Creating Layer inception_3a/relu_5x5
I0805 12:56:13.391721 12393 net.cpp:410] inception_3a/relu_5x5 <- inception_3a/5x5
I0805 12:56:13.391732 12393 net.cpp:357] inception_3a/relu_5x5 -> inception_3a/5x5 (in-place)
I0805 12:56:13.391765 12393 net.cpp:120] Setting up inception_3a/relu_5x5
I0805 12:56:13.391778 12393 net.cpp:127] Top shape: 32 32 28 28 (802816)
I0805 12:56:13.391788 12393 layer_factory.hpp:74] Creating layer inception_3a/pool
I0805 12:56:13.391803 12393 net.cpp:90] Creating Layer inception_3a/pool
I0805 12:56:13.391813 12393 net.cpp:410] inception_3a/pool <- pool2/3x3_s2_pool2/3x3_s2_0_split_3
I0805 12:56:13.391825 12393 net.cpp:368] inception_3a/pool -> inception_3a/pool
I0805 12:56:13.391839 12393 net.cpp:120] Setting up inception_3a/pool
I0805 12:56:13.391854 12393 net.cpp:127] Top shape: 32 192 28 28 (4816896)
I0805 12:56:13.391865 12393 layer_factory.hpp:74] Creating layer inception_3a/pool_proj
I0805 12:56:13.391878 12393 net.cpp:90] Creating Layer inception_3a/pool_proj
I0805 12:56:13.391887 12393 net.cpp:410] inception_3a/pool_proj <- inception_3a/pool
I0805 12:56:13.391906 12393 net.cpp:368] inception_3a/pool_proj -> inception_3a/pool_proj
I0805 12:56:13.391922 12393 net.cpp:120] Setting up inception_3a/pool_proj
I0805 12:56:13.392045 12393 net.cpp:127] Top shape: 32 32 28 28 (802816)
I0805 12:56:13.392065 12393 layer_factory.hpp:74] Creating layer inception_3a/relu_pool_proj
I0805 12:56:13.392079 12393 net.cpp:90] Creating Layer inception_3a/relu_pool_proj
I0805 12:56:13.392088 12393 net.cpp:410] inception_3a/relu_pool_proj <- inception_3a/pool_proj
I0805 12:56:13.392101 12393 net.cpp:357] inception_3a/relu_pool_proj -> inception_3a/pool_proj (in-place)
I0805 12:56:13.392113 12393 net.cpp:120] Setting up inception_3a/relu_pool_proj
I0805 12:56:13.392125 12393 net.cpp:127] Top shape: 32 32 28 28 (802816)
I0805 12:56:13.392134 12393 layer_factory.hpp:74] Creating layer inception_3a/output
I0805 12:56:13.392192 12393 net.cpp:90] Creating Layer inception_3a/output
I0805 12:56:13.392205 12393 net.cpp:410] inception_3a/output <- inception_3a/1x1
I0805 12:56:13.392216 12393 net.cpp:410] inception_3a/output <- inception_3a/3x3
I0805 12:56:13.392227 12393 net.cpp:410] inception_3a/output <- inception_3a/5x5
I0805 12:56:13.392241 12393 net.cpp:410] inception_3a/output <- inception_3a/pool_proj
I0805 12:56:13.392268 12393 net.cpp:368] inception_3a/output -> inception_3a/output
I0805 12:56:13.392285 12393 net.cpp:120] Setting up inception_3a/output
I0805 12:56:13.392305 12393 net.cpp:127] Top shape: 32 256 28 28 (6422528)
I0805 12:56:13.392316 12393 layer_factory.hpp:74] Creating layer inception_3a/output_inception_3a/output_0_split
I0805 12:56:13.392328 12393 net.cpp:90] Creating Layer inception_3a/output_inception_3a/output_0_split
I0805 12:56:13.392338 12393 net.cpp:410] inception_3a/output_inception_3a/output_0_split <- inception_3a/output
I0805 12:56:13.392349 12393 net.cpp:368] inception_3a/output_inception_3a/output_0_split -> inception_3a/output_inception_3a/output_0_split_0
I0805 12:56:13.392367 12393 net.cpp:368] inception_3a/output_inception_3a/output_0_split -> inception_3a/output_inception_3a/output_0_split_1
I0805 12:56:13.392385 12393 net.cpp:368] inception_3a/output_inception_3a/output_0_split -> inception_3a/output_inception_3a/output_0_split_2
I0805 12:56:13.392401 12393 net.cpp:368] inception_3a/output_inception_3a/output_0_split -> inception_3a/output_inception_3a/output_0_split_3
I0805 12:56:13.392417 12393 net.cpp:120] Setting up inception_3a/output_inception_3a/output_0_split
I0805 12:56:13.392454 12393 net.cpp:127] Top shape: 32 256 28 28 (6422528)
I0805 12:56:13.392467 12393 net.cpp:127] Top shape: 32 256 28 28 (6422528)
I0805 12:56:13.392482 12393 net.cpp:127] Top shape: 32 256 28 28 (6422528)
I0805 12:56:13.392493 12393 net.cpp:127] Top shape: 32 256 28 28 (6422528)
I0805 12:56:13.392503 12393 layer_factory.hpp:74] Creating layer inception_3b/1x1
I0805 12:56:13.392516 12393 net.cpp:90] Creating Layer inception_3b/1x1
I0805 12:56:13.392525 12393 net.cpp:410] inception_3b/1x1 <- inception_3a/output_inception_3a/output_0_split_0
I0805 12:56:13.392544 12393 net.cpp:368] inception_3b/1x1 -> inception_3b/1x1
I0805 12:56:13.392560 12393 net.cpp:120] Setting up inception_3b/1x1
I0805 12:56:13.392989 12393 net.cpp:127] Top shape: 32 128 28 28 (3211264)
I0805 12:56:13.393034 12393 layer_factory.hpp:74] Creating layer inception_3b/relu_1x1
I0805 12:56:13.393048 12393 net.cpp:90] Creating Layer inception_3b/relu_1x1
I0805 12:56:13.393056 12393 net.cpp:410] inception_3b/relu_1x1 <- inception_3b/1x1
I0805 12:56:13.393067 12393 net.cpp:357] inception_3b/relu_1x1 -> inception_3b/1x1 (in-place)
I0805 12:56:13.393079 12393 net.cpp:120] Setting up inception_3b/relu_1x1
I0805 12:56:13.393091 12393 net.cpp:127] Top shape: 32 128 28 28 (3211264)
I0805 12:56:13.393100 12393 layer_factory.hpp:74] Creating layer inception_3b/3x3_reduce
I0805 12:56:13.393116 12393 net.cpp:90] Creating Layer inception_3b/3x3_reduce
I0805 12:56:13.393147 12393 net.cpp:410] inception_3b/3x3_reduce <- inception_3a/output_inception_3a/output_0_split_1
I0805 12:56:13.393167 12393 net.cpp:368] inception_3b/3x3_reduce -> inception_3b/3x3_reduce
I0805 12:56:13.393183 12393 net.cpp:120] Setting up inception_3b/3x3_reduce
I0805 12:56:13.393570 12393 net.cpp:127] Top shape: 32 128 28 28 (3211264)
I0805 12:56:13.393589 12393 layer_factory.hpp:74] Creating layer inception_3b/relu_3x3_reduce
I0805 12:56:13.393604 12393 net.cpp:90] Creating Layer inception_3b/relu_3x3_reduce
I0805 12:56:13.393614 12393 net.cpp:410] inception_3b/relu_3x3_reduce <- inception_3b/3x3_reduce
I0805 12:56:13.393625 12393 net.cpp:357] inception_3b/relu_3x3_reduce -> inception_3b/3x3_reduce (in-place)
I0805 12:56:13.393637 12393 net.cpp:120] Setting up inception_3b/relu_3x3_reduce
I0805 12:56:13.393649 12393 net.cpp:127] Top shape: 32 128 28 28 (3211264)
I0805 12:56:13.393658 12393 layer_factory.hpp:74] Creating layer inception_3b/3x3
I0805 12:56:13.393677 12393 net.cpp:90] Creating Layer inception_3b/3x3
I0805 12:56:13.393698 12393 net.cpp:410] inception_3b/3x3 <- inception_3b/3x3_reduce
I0805 12:56:13.393715 12393 net.cpp:368] inception_3b/3x3 -> inception_3b/3x3
I0805 12:56:13.393733 12393 net.cpp:120] Setting up inception_3b/3x3
I0805 12:56:13.396267 12393 net.cpp:127] Top shape: 32 192 28 28 (4816896)
I0805 12:56:13.396292 12393 layer_factory.hpp:74] Creating layer inception_3b/relu_3x3
I0805 12:56:13.396327 12393 net.cpp:90] Creating Layer inception_3b/relu_3x3
I0805 12:56:13.396343 12393 net.cpp:410] inception_3b/relu_3x3 <- inception_3b/3x3
I0805 12:56:13.396364 12393 net.cpp:357] inception_3b/relu_3x3 -> inception_3b/3x3 (in-place)
I0805 12:56:13.396384 12393 net.cpp:120] Setting up inception_3b/relu_3x3
I0805 12:56:13.396425 12393 net.cpp:127] Top shape: 32 192 28 28 (4816896)
I0805 12:56:13.396440 12393 layer_factory.hpp:74] Creating layer inception_3b/5x5_reduce
I0805 12:56:13.396471 12393 net.cpp:90] Creating Layer inception_3b/5x5_reduce
I0805 12:56:13.396484 12393 net.cpp:410] inception_3b/5x5_reduce <- inception_3a/output_inception_3a/output_0_split_2
I0805 12:56:13.396517 12393 net.cpp:368] inception_3b/5x5_reduce -> inception_3b/5x5_reduce
I0805 12:56:13.396539 12393 net.cpp:120] Setting up inception_3b/5x5_reduce
I0805 12:56:13.396718 12393 net.cpp:127] Top shape: 32 32 28 28 (802816)
I0805 12:56:13.396741 12393 layer_factory.hpp:74] Creating layer inception_3b/relu_5x5_reduce
I0805 12:56:13.396772 12393 net.cpp:90] Creating Layer inception_3b/relu_5x5_reduce
I0805 12:56:13.396787 12393 net.cpp:410] inception_3b/relu_5x5_reduce <- inception_3b/5x5_reduce
I0805 12:56:13.396802 12393 net.cpp:357] inception_3b/relu_5x5_reduce -> inception_3b/5x5_reduce (in-place)
I0805 12:56:13.396818 12393 net.cpp:120] Setting up inception_3b/relu_5x5_reduce
I0805 12:56:13.396831 12393 net.cpp:127] Top shape: 32 32 28 28 (802816)
I0805 12:56:13.396841 12393 layer_factory.hpp:74] Creating layer inception_3b/5x5
I0805 12:56:13.396857 12393 net.cpp:90] Creating Layer inception_3b/5x5
I0805 12:56:13.396877 12393 net.cpp:410] inception_3b/5x5 <- inception_3b/5x5_reduce
I0805 12:56:13.396890 12393 net.cpp:368] inception_3b/5x5 -> inception_3b/5x5
I0805 12:56:13.396910 12393 net.cpp:120] Setting up inception_3b/5x5
I0805 12:56:13.397724 12393 net.cpp:127] Top shape: 32 96 28 28 (2408448)
I0805 12:56:13.397745 12393 layer_factory.hpp:74] Creating layer inception_3b/relu_5x5
I0805 12:56:13.397779 12393 net.cpp:90] Creating Layer inception_3b/relu_5x5
I0805 12:56:13.397794 12393 net.cpp:410] inception_3b/relu_5x5 <- inception_3b/5x5
I0805 12:56:13.397816 12393 net.cpp:357] inception_3b/relu_5x5 -> inception_3b/5x5 (in-place)
I0805 12:56:13.397837 12393 net.cpp:120] Setting up inception_3b/relu_5x5
I0805 12:56:13.397853 12393 net.cpp:127] Top shape: 32 96 28 28 (2408448)
I0805 12:56:13.397862 12393 layer_factory.hpp:74] Creating layer inception_3b/pool
I0805 12:56:13.397886 12393 net.cpp:90] Creating Layer inception_3b/pool
I0805 12:56:13.397898 12393 net.cpp:410] inception_3b/pool <- inception_3a/output_inception_3a/output_0_split_3
I0805 12:56:13.397912 12393 net.cpp:368] inception_3b/pool -> inception_3b/pool
I0805 12:56:13.397940 12393 net.cpp:120] Setting up inception_3b/pool
I0805 12:56:13.397964 12393 net.cpp:127] Top shape: 32 256 28 28 (6422528)
I0805 12:56:13.397975 12393 layer_factory.hpp:74] Creating layer inception_3b/pool_proj
I0805 12:56:13.397992 12393 net.cpp:90] Creating Layer inception_3b/pool_proj
I0805 12:56:13.398006 12393 net.cpp:410] inception_3b/pool_proj <- inception_3b/pool
I0805 12:56:13.398020 12393 net.cpp:368] inception_3b/pool_proj -> inception_3b/pool_proj
I0805 12:56:13.398036 12393 net.cpp:120] Setting up inception_3b/pool_proj
I0805 12:56:13.398238 12393 net.cpp:127] Top shape: 32 64 28 28 (1605632)
I0805 12:56:13.398257 12393 layer_factory.hpp:74] Creating layer inception_3b/relu_pool_proj
I0805 12:56:13.398272 12393 net.cpp:90] Creating Layer inception_3b/relu_pool_proj
I0805 12:56:13.398284 12393 net.cpp:410] inception_3b/relu_pool_proj <- inception_3b/pool_proj
I0805 12:56:13.398296 12393 net.cpp:357] inception_3b/relu_pool_proj -> inception_3b/pool_proj (in-place)
I0805 12:56:13.398309 12393 net.cpp:120] Setting up inception_3b/relu_pool_proj
I0805 12:56:13.398321 12393 net.cpp:127] Top shape: 32 64 28 28 (1605632)
I0805 12:56:13.398349 12393 layer_factory.hpp:74] Creating layer inception_3b/output
I0805 12:56:13.398373 12393 net.cpp:90] Creating Layer inception_3b/output
I0805 12:56:13.398385 12393 net.cpp:410] inception_3b/output <- inception_3b/1x1
I0805 12:56:13.398394 12393 net.cpp:410] inception_3b/output <- inception_3b/3x3
I0805 12:56:13.398414 12393 net.cpp:410] inception_3b/output <- inception_3b/5x5
I0805 12:56:13.398435 12393 net.cpp:410] inception_3b/output <- inception_3b/pool_proj
I0805 12:56:13.398448 12393 net.cpp:368] inception_3b/output -> inception_3b/output
I0805 12:56:13.398461 12393 net.cpp:120] Setting up inception_3b/output
I0805 12:56:13.398478 12393 net.cpp:127] Top shape: 32 480 28 28 (12042240)
I0805 12:56:13.398489 12393 layer_factory.hpp:74] Creating layer pool3/3x3_s2
I0805 12:56:13.398502 12393 net.cpp:90] Creating Layer pool3/3x3_s2
I0805 12:56:13.398511 12393 net.cpp:410] pool3/3x3_s2 <- inception_3b/output
I0805 12:56:13.398524 12393 net.cpp:368] pool3/3x3_s2 -> pool3/3x3_s2
I0805 12:56:13.398542 12393 net.cpp:120] Setting up pool3/3x3_s2
I0805 12:56:13.398561 12393 net.cpp:127] Top shape: 32 480 14 14 (3010560)
I0805 12:56:13.398573 12393 layer_factory.hpp:74] Creating layer pool3/3x3_s2_pool3/3x3_s2_0_split
I0805 12:56:13.398587 12393 net.cpp:90] Creating Layer pool3/3x3_s2_pool3/3x3_s2_0_split
I0805 12:56:13.398597 12393 net.cpp:410] pool3/3x3_s2_pool3/3x3_s2_0_split <- pool3/3x3_s2
I0805 12:56:13.398617 12393 net.cpp:368] pool3/3x3_s2_pool3/3x3_s2_0_split -> pool3/3x3_s2_pool3/3x3_s2_0_split_0
I0805 12:56:13.398643 12393 net.cpp:368] pool3/3x3_s2_pool3/3x3_s2_0_split -> pool3/3x3_s2_pool3/3x3_s2_0_split_1
I0805 12:56:13.398663 12393 net.cpp:368] pool3/3x3_s2_pool3/3x3_s2_0_split -> pool3/3x3_s2_pool3/3x3_s2_0_split_2
I0805 12:56:13.398686 12393 net.cpp:368] pool3/3x3_s2_pool3/3x3_s2_0_split -> pool3/3x3_s2_pool3/3x3_s2_0_split_3
I0805 12:56:13.398735 12393 net.cpp:120] Setting up pool3/3x3_s2_pool3/3x3_s2_0_split
I0805 12:56:13.398767 12393 net.cpp:127] Top shape: 32 480 14 14 (3010560)
I0805 12:56:13.398788 12393 net.cpp:127] Top shape: 32 480 14 14 (3010560)
I0805 12:56:13.398802 12393 net.cpp:127] Top shape: 32 480 14 14 (3010560)
I0805 12:56:13.398816 12393 net.cpp:127] Top shape: 32 480 14 14 (3010560)
I0805 12:56:13.398828 12393 layer_factory.hpp:74] Creating layer inception_4a/1x1
I0805 12:56:13.398849 12393 net.cpp:90] Creating Layer inception_4a/1x1
I0805 12:56:13.398861 12393 net.cpp:410] inception_4a/1x1 <- pool3/3x3_s2_pool3/3x3_s2_0_split_0
I0805 12:56:13.398881 12393 net.cpp:368] inception_4a/1x1 -> inception_4a/1x1
I0805 12:56:13.398903 12393 net.cpp:120] Setting up inception_4a/1x1
I0805 12:56:13.399865 12393 net.cpp:127] Top shape: 32 192 14 14 (1204224)
I0805 12:56:13.399884 12393 layer_factory.hpp:74] Creating layer inception_4a/relu_1x1
I0805 12:56:13.399905 12393 net.cpp:90] Creating Layer inception_4a/relu_1x1
I0805 12:56:13.399917 12393 net.cpp:410] inception_4a/relu_1x1 <- inception_4a/1x1
I0805 12:56:13.399934 12393 net.cpp:357] inception_4a/relu_1x1 -> inception_4a/1x1 (in-place)
I0805 12:56:13.399966 12393 net.cpp:120] Setting up inception_4a/relu_1x1
I0805 12:56:13.399983 12393 net.cpp:127] Top shape: 32 192 14 14 (1204224)
I0805 12:56:13.399997 12393 layer_factory.hpp:74] Creating layer inception_4a/3x3_reduce
I0805 12:56:13.400018 12393 net.cpp:90] Creating Layer inception_4a/3x3_reduce
I0805 12:56:13.400029 12393 net.cpp:410] inception_4a/3x3_reduce <- pool3/3x3_s2_pool3/3x3_s2_0_split_1
I0805 12:56:13.400043 12393 net.cpp:368] inception_4a/3x3_reduce -> inception_4a/3x3_reduce
I0805 12:56:13.400058 12393 net.cpp:120] Setting up inception_4a/3x3_reduce
I0805 12:56:13.400563 12393 net.cpp:127] Top shape: 32 96 14 14 (602112)
I0805 12:56:13.400591 12393 layer_factory.hpp:74] Creating layer inception_4a/relu_3x3_reduce
I0805 12:56:13.400607 12393 net.cpp:90] Creating Layer inception_4a/relu_3x3_reduce
I0805 12:56:13.400617 12393 net.cpp:410] inception_4a/relu_3x3_reduce <- inception_4a/3x3_reduce
I0805 12:56:13.400629 12393 net.cpp:357] inception_4a/relu_3x3_reduce -> inception_4a/3x3_reduce (in-place)
I0805 12:56:13.400642 12393 net.cpp:120] Setting up inception_4a/relu_3x3_reduce
I0805 12:56:13.400665 12393 net.cpp:127] Top shape: 32 96 14 14 (602112)
I0805 12:56:13.400676 12393 layer_factory.hpp:74] Creating layer inception_4a/3x3
I0805 12:56:13.400723 12393 net.cpp:90] Creating Layer inception_4a/3x3
I0805 12:56:13.400737 12393 net.cpp:410] inception_4a/3x3 <- inception_4a/3x3_reduce
I0805 12:56:13.400766 12393 net.cpp:368] inception_4a/3x3 -> inception_4a/3x3
I0805 12:56:13.400789 12393 net.cpp:120] Setting up inception_4a/3x3
I0805 12:56:13.402842 12393 net.cpp:127] Top shape: 32 208 14 14 (1304576)
I0805 12:56:13.402860 12393 layer_factory.hpp:74] Creating layer inception_4a/relu_3x3
I0805 12:56:13.402879 12393 net.cpp:90] Creating Layer inception_4a/relu_3x3
I0805 12:56:13.402894 12393 net.cpp:410] inception_4a/relu_3x3 <- inception_4a/3x3
I0805 12:56:13.402906 12393 net.cpp:357] inception_4a/relu_3x3 -> inception_4a/3x3 (in-place)
I0805 12:56:13.402920 12393 net.cpp:120] Setting up inception_4a/relu_3x3
I0805 12:56:13.402937 12393 net.cpp:127] Top shape: 32 208 14 14 (1304576)
I0805 12:56:13.402951 12393 layer_factory.hpp:74] Creating layer inception_4a/5x5_reduce
I0805 12:56:13.402972 12393 net.cpp:90] Creating Layer inception_4a/5x5_reduce
I0805 12:56:13.402987 12393 net.cpp:410] inception_4a/5x5_reduce <- pool3/3x3_s2_pool3/3x3_s2_0_split_2
I0805 12:56:13.403002 12393 net.cpp:368] inception_4a/5x5_reduce -> inception_4a/5x5_reduce
I0805 12:56:13.403022 12393 net.cpp:120] Setting up inception_4a/5x5_reduce
I0805 12:56:13.403138 12393 net.cpp:127] Top shape: 32 16 14 14 (100352)
I0805 12:56:13.403161 12393 layer_factory.hpp:74] Creating layer inception_4a/relu_5x5_reduce
I0805 12:56:13.403178 12393 net.cpp:90] Creating Layer inception_4a/relu_5x5_reduce
I0805 12:56:13.403189 12393 net.cpp:410] inception_4a/relu_5x5_reduce <- inception_4a/5x5_reduce
I0805 12:56:13.403201 12393 net.cpp:357] inception_4a/relu_5x5_reduce -> inception_4a/5x5_reduce (in-place)
I0805 12:56:13.403213 12393 net.cpp:120] Setting up inception_4a/relu_5x5_reduce
I0805 12:56:13.403228 12393 net.cpp:127] Top shape: 32 16 14 14 (100352)
I0805 12:56:13.403239 12393 layer_factory.hpp:74] Creating layer inception_4a/5x5
I0805 12:56:13.403252 12393 net.cpp:90] Creating Layer inception_4a/5x5
I0805 12:56:13.403261 12393 net.cpp:410] inception_4a/5x5 <- inception_4a/5x5_reduce
I0805 12:56:13.403276 12393 net.cpp:368] inception_4a/5x5 -> inception_4a/5x5
I0805 12:56:13.403293 12393 net.cpp:120] Setting up inception_4a/5x5
I0805 12:56:13.403525 12393 net.cpp:127] Top shape: 32 48 14 14 (301056)
I0805 12:56:13.403544 12393 layer_factory.hpp:74] Creating layer inception_4a/relu_5x5
I0805 12:56:13.403563 12393 net.cpp:90] Creating Layer inception_4a/relu_5x5
I0805 12:56:13.403574 12393 net.cpp:410] inception_4a/relu_5x5 <- inception_4a/5x5
I0805 12:56:13.403592 12393 net.cpp:357] inception_4a/relu_5x5 -> inception_4a/5x5 (in-place)
I0805 12:56:13.403610 12393 net.cpp:120] Setting up inception_4a/relu_5x5
I0805 12:56:13.403642 12393 net.cpp:127] Top shape: 32 48 14 14 (301056)
I0805 12:56:13.403658 12393 layer_factory.hpp:74] Creating layer inception_4a/pool
I0805 12:56:13.403677 12393 net.cpp:90] Creating Layer inception_4a/pool
I0805 12:56:13.403692 12393 net.cpp:410] inception_4a/pool <- pool3/3x3_s2_pool3/3x3_s2_0_split_3
I0805 12:56:13.403715 12393 net.cpp:368] inception_4a/pool -> inception_4a/pool
I0805 12:56:13.403738 12393 net.cpp:120] Setting up inception_4a/pool
I0805 12:56:13.403760 12393 net.cpp:127] Top shape: 32 480 14 14 (3010560)
I0805 12:56:13.403785 12393 layer_factory.hpp:74] Creating layer inception_4a/pool_proj
I0805 12:56:13.403800 12393 net.cpp:90] Creating Layer inception_4a/pool_proj
I0805 12:56:13.403827 12393 net.cpp:410] inception_4a/pool_proj <- inception_4a/pool
I0805 12:56:13.403856 12393 net.cpp:368] inception_4a/pool_proj -> inception_4a/pool_proj
I0805 12:56:13.403878 12393 net.cpp:120] Setting up inception_4a/pool_proj
I0805 12:56:13.404244 12393 net.cpp:127] Top shape: 32 64 14 14 (401408)
I0805 12:56:13.404263 12393 layer_factory.hpp:74] Creating layer inception_4a/relu_pool_proj
I0805 12:56:13.404289 12393 net.cpp:90] Creating Layer inception_4a/relu_pool_proj
I0805 12:56:13.404299 12393 net.cpp:410] inception_4a/relu_pool_proj <- inception_4a/pool_proj
I0805 12:56:13.404314 12393 net.cpp:357] inception_4a/relu_pool_proj -> inception_4a/pool_proj (in-place)
I0805 12:56:13.404330 12393 net.cpp:120] Setting up inception_4a/relu_pool_proj
I0805 12:56:13.404345 12393 net.cpp:127] Top shape: 32 64 14 14 (401408)
I0805 12:56:13.404356 12393 layer_factory.hpp:74] Creating layer inception_4a/output
I0805 12:56:13.404367 12393 net.cpp:90] Creating Layer inception_4a/output
I0805 12:56:13.404376 12393 net.cpp:410] inception_4a/output <- inception_4a/1x1
I0805 12:56:13.404387 12393 net.cpp:410] inception_4a/output <- inception_4a/3x3
I0805 12:56:13.404398 12393 net.cpp:410] inception_4a/output <- inception_4a/5x5
I0805 12:56:13.404408 12393 net.cpp:410] inception_4a/output <- inception_4a/pool_proj
I0805 12:56:13.404423 12393 net.cpp:368] inception_4a/output -> inception_4a/output
I0805 12:56:13.404440 12393 net.cpp:120] Setting up inception_4a/output
I0805 12:56:13.404459 12393 net.cpp:127] Top shape: 32 512 14 14 (3211264)
I0805 12:56:13.404470 12393 layer_factory.hpp:74] Creating layer inception_4a/output_inception_4a/output_0_split
I0805 12:56:13.404484 12393 net.cpp:90] Creating Layer inception_4a/output_inception_4a/output_0_split
I0805 12:56:13.404500 12393 net.cpp:410] inception_4a/output_inception_4a/output_0_split <- inception_4a/output
I0805 12:56:13.404521 12393 net.cpp:368] inception_4a/output_inception_4a/output_0_split -> inception_4a/output_inception_4a/output_0_split_0
I0805 12:56:13.404546 12393 net.cpp:368] inception_4a/output_inception_4a/output_0_split -> inception_4a/output_inception_4a/output_0_split_1
I0805 12:56:13.404582 12393 net.cpp:368] inception_4a/output_inception_4a/output_0_split -> inception_4a/output_inception_4a/output_0_split_2
I0805 12:56:13.404603 12393 net.cpp:368] inception_4a/output_inception_4a/output_0_split -> inception_4a/output_inception_4a/output_0_split_3
I0805 12:56:13.404618 12393 net.cpp:368] inception_4a/output_inception_4a/output_0_split -> inception_4a/output_inception_4a/output_0_split_4
I0805 12:56:13.404650 12393 net.cpp:120] Setting up inception_4a/output_inception_4a/output_0_split
I0805 12:56:13.404670 12393 net.cpp:127] Top shape: 32 512 14 14 (3211264)
I0805 12:56:13.404683 12393 net.cpp:127] Top shape: 32 512 14 14 (3211264)
I0805 12:56:13.404695 12393 net.cpp:127] Top shape: 32 512 14 14 (3211264)
I0805 12:56:13.404719 12393 net.cpp:127] Top shape: 32 512 14 14 (3211264)
I0805 12:56:13.404731 12393 net.cpp:127] Top shape: 32 512 14 14 (3211264)
I0805 12:56:13.404739 12393 layer_factory.hpp:74] Creating layer loss1/ave_pool
I0805 12:56:13.404752 12393 net.cpp:90] Creating Layer loss1/ave_pool
I0805 12:56:13.404774 12393 net.cpp:410] loss1/ave_pool <- inception_4a/output_inception_4a/output_0_split_0
I0805 12:56:13.404793 12393 net.cpp:368] loss1/ave_pool -> loss1/ave_pool
I0805 12:56:13.404808 12393 net.cpp:120] Setting up loss1/ave_pool
I0805 12:56:13.404824 12393 net.cpp:127] Top shape: 32 512 4 4 (262144)
I0805 12:56:13.404835 12393 layer_factory.hpp:74] Creating layer loss1/conv
I0805 12:56:13.404852 12393 net.cpp:90] Creating Layer loss1/conv
I0805 12:56:13.404863 12393 net.cpp:410] loss1/conv <- loss1/ave_pool
I0805 12:56:13.404903 12393 net.cpp:368] loss1/conv -> loss1/conv
I0805 12:56:13.404919 12393 net.cpp:120] Setting up loss1/conv
I0805 12:56:13.405690 12393 net.cpp:127] Top shape: 32 128 4 4 (65536)
I0805 12:56:13.405719 12393 layer_factory.hpp:74] Creating layer loss1/relu_conv
I0805 12:56:13.405735 12393 net.cpp:90] Creating Layer loss1/relu_conv
I0805 12:56:13.405750 12393 net.cpp:410] loss1/relu_conv <- loss1/conv
I0805 12:56:13.405761 12393 net.cpp:357] loss1/relu_conv -> loss1/conv (in-place)
I0805 12:56:13.405786 12393 net.cpp:120] Setting up loss1/relu_conv
I0805 12:56:13.405797 12393 net.cpp:127] Top shape: 32 128 4 4 (65536)
I0805 12:56:13.405805 12393 layer_factory.hpp:74] Creating layer loss1/fc
I0805 12:56:13.405853 12393 net.cpp:90] Creating Layer loss1/fc
I0805 12:56:13.405880 12393 net.cpp:410] loss1/fc <- loss1/conv
I0805 12:56:13.405900 12393 net.cpp:368] loss1/fc -> loss1/fc
I0805 12:56:13.405920 12393 net.cpp:120] Setting up loss1/fc
I0805 12:56:13.427502 12393 net.cpp:127] Top shape: 32 1024 (32768)
I0805 12:56:13.427527 12393 layer_factory.hpp:74] Creating layer loss1/relu_fc
I0805 12:56:13.427543 12393 net.cpp:90] Creating Layer loss1/relu_fc
I0805 12:56:13.427559 12393 net.cpp:410] loss1/relu_fc <- loss1/fc
I0805 12:56:13.427573 12393 net.cpp:357] loss1/relu_fc -> loss1/fc (in-place)
I0805 12:56:13.427587 12393 net.cpp:120] Setting up loss1/relu_fc
I0805 12:56:13.427602 12393 net.cpp:127] Top shape: 32 1024 (32768)
I0805 12:56:13.427611 12393 layer_factory.hpp:74] Creating layer loss1/drop_fc
I0805 12:56:13.427638 12393 net.cpp:90] Creating Layer loss1/drop_fc
I0805 12:56:13.427649 12393 net.cpp:410] loss1/drop_fc <- loss1/fc
I0805 12:56:13.427661 12393 net.cpp:357] loss1/drop_fc -> loss1/fc (in-place)
I0805 12:56:13.427677 12393 net.cpp:120] Setting up loss1/drop_fc
I0805 12:56:13.427744 12393 net.cpp:127] Top shape: 32 1024 (32768)
I0805 12:56:13.427757 12393 layer_factory.hpp:74] Creating layer ft_loss1/classifier
I0805 12:56:13.427777 12393 net.cpp:90] Creating Layer ft_loss1/classifier
I0805 12:56:13.427791 12393 net.cpp:410] ft_loss1/classifier <- loss1/fc
I0805 12:56:13.427825 12393 net.cpp:368] ft_loss1/classifier -> ft_loss1/classifier
I0805 12:56:13.427846 12393 net.cpp:120] Setting up ft_loss1/classifier
I0805 12:56:13.427907 12393 net.cpp:127] Top shape: 32 2 (64)
I0805 12:56:13.427927 12393 layer_factory.hpp:74] Creating layer loss1/loss
I0805 12:56:13.427988 12393 net.cpp:90] Creating Layer loss1/loss
I0805 12:56:13.428004 12393 net.cpp:410] loss1/loss <- ft_loss1/classifier
I0805 12:56:13.428015 12393 net.cpp:410] loss1/loss <- label_data_1_split_0
I0805 12:56:13.428031 12393 net.cpp:368] loss1/loss -> loss1/loss1
I0805 12:56:13.428048 12393 net.cpp:120] Setting up loss1/loss
I0805 12:56:13.428066 12393 layer_factory.hpp:74] Creating layer loss1/loss
I0805 12:56:13.428122 12393 net.cpp:127] Top shape: (1)
I0805 12:56:13.428133 12393 net.cpp:129]     with loss weight 0.3
I0805 12:56:13.428200 12393 layer_factory.hpp:74] Creating layer inception_4b/1x1
I0805 12:56:13.428217 12393 net.cpp:90] Creating Layer inception_4b/1x1
I0805 12:56:13.428227 12393 net.cpp:410] inception_4b/1x1 <- inception_4a/output_inception_4a/output_0_split_1
I0805 12:56:13.428244 12393 net.cpp:368] inception_4b/1x1 -> inception_4b/1x1
I0805 12:56:13.428262 12393 net.cpp:120] Setting up inception_4b/1x1
I0805 12:56:13.429121 12393 net.cpp:127] Top shape: 32 160 14 14 (1003520)
I0805 12:56:13.429144 12393 layer_factory.hpp:74] Creating layer inception_4b/relu_1x1
I0805 12:56:13.429158 12393 net.cpp:90] Creating Layer inception_4b/relu_1x1
I0805 12:56:13.429167 12393 net.cpp:410] inception_4b/relu_1x1 <- inception_4b/1x1
I0805 12:56:13.429183 12393 net.cpp:357] inception_4b/relu_1x1 -> inception_4b/1x1 (in-place)
I0805 12:56:13.429196 12393 net.cpp:120] Setting up inception_4b/relu_1x1
I0805 12:56:13.429210 12393 net.cpp:127] Top shape: 32 160 14 14 (1003520)
I0805 12:56:13.429221 12393 layer_factory.hpp:74] Creating layer inception_4b/3x3_reduce
I0805 12:56:13.429234 12393 net.cpp:90] Creating Layer inception_4b/3x3_reduce
I0805 12:56:13.429244 12393 net.cpp:410] inception_4b/3x3_reduce <- inception_4a/output_inception_4a/output_0_split_2
I0805 12:56:13.429270 12393 net.cpp:368] inception_4b/3x3_reduce -> inception_4b/3x3_reduce
I0805 12:56:13.429296 12393 net.cpp:120] Setting up inception_4b/3x3_reduce
I0805 12:56:13.429924 12393 net.cpp:127] Top shape: 32 112 14 14 (702464)
I0805 12:56:13.429940 12393 layer_factory.hpp:74] Creating layer inception_4b/relu_3x3_reduce
I0805 12:56:13.429954 12393 net.cpp:90] Creating Layer inception_4b/relu_3x3_reduce
I0805 12:56:13.429962 12393 net.cpp:410] inception_4b/relu_3x3_reduce <- inception_4b/3x3_reduce
I0805 12:56:13.429976 12393 net.cpp:357] inception_4b/relu_3x3_reduce -> inception_4b/3x3_reduce (in-place)
I0805 12:56:13.430004 12393 net.cpp:120] Setting up inception_4b/relu_3x3_reduce
I0805 12:56:13.430018 12393 net.cpp:127] Top shape: 32 112 14 14 (702464)
I0805 12:56:13.430029 12393 layer_factory.hpp:74] Creating layer inception_4b/3x3
I0805 12:56:13.430042 12393 net.cpp:90] Creating Layer inception_4b/3x3
I0805 12:56:13.430052 12393 net.cpp:410] inception_4b/3x3 <- inception_4b/3x3_reduce
I0805 12:56:13.430068 12393 net.cpp:368] inception_4b/3x3 -> inception_4b/3x3
I0805 12:56:13.430101 12393 net.cpp:120] Setting up inception_4b/3x3
I0805 12:56:13.432515 12393 net.cpp:127] Top shape: 32 224 14 14 (1404928)
I0805 12:56:13.432538 12393 layer_factory.hpp:74] Creating layer inception_4b/relu_3x3
I0805 12:56:13.432551 12393 net.cpp:90] Creating Layer inception_4b/relu_3x3
I0805 12:56:13.432565 12393 net.cpp:410] inception_4b/relu_3x3 <- inception_4b/3x3
I0805 12:56:13.432580 12393 net.cpp:357] inception_4b/relu_3x3 -> inception_4b/3x3 (in-place)
I0805 12:56:13.432595 12393 net.cpp:120] Setting up inception_4b/relu_3x3
I0805 12:56:13.432607 12393 net.cpp:127] Top shape: 32 224 14 14 (1404928)
I0805 12:56:13.432617 12393 layer_factory.hpp:74] Creating layer inception_4b/5x5_reduce
I0805 12:56:13.432631 12393 net.cpp:90] Creating Layer inception_4b/5x5_reduce
I0805 12:56:13.432639 12393 net.cpp:410] inception_4b/5x5_reduce <- inception_4a/output_inception_4a/output_0_split_3
I0805 12:56:13.432658 12393 net.cpp:368] inception_4b/5x5_reduce -> inception_4b/5x5_reduce
I0805 12:56:13.432675 12393 net.cpp:120] Setting up inception_4b/5x5_reduce
I0805 12:56:13.432858 12393 net.cpp:127] Top shape: 32 24 14 14 (150528)
I0805 12:56:13.432874 12393 layer_factory.hpp:74] Creating layer inception_4b/relu_5x5_reduce
I0805 12:56:13.432886 12393 net.cpp:90] Creating Layer inception_4b/relu_5x5_reduce
I0805 12:56:13.432896 12393 net.cpp:410] inception_4b/relu_5x5_reduce <- inception_4b/5x5_reduce
I0805 12:56:13.432907 12393 net.cpp:357] inception_4b/relu_5x5_reduce -> inception_4b/5x5_reduce (in-place)
I0805 12:56:13.432920 12393 net.cpp:120] Setting up inception_4b/relu_5x5_reduce
I0805 12:56:13.432931 12393 net.cpp:127] Top shape: 32 24 14 14 (150528)
I0805 12:56:13.432940 12393 layer_factory.hpp:74] Creating layer inception_4b/5x5
I0805 12:56:13.432952 12393 net.cpp:90] Creating Layer inception_4b/5x5
I0805 12:56:13.432961 12393 net.cpp:410] inception_4b/5x5 <- inception_4b/5x5_reduce
I0805 12:56:13.432978 12393 net.cpp:368] inception_4b/5x5 -> inception_4b/5x5
I0805 12:56:13.432994 12393 net.cpp:120] Setting up inception_4b/5x5
I0805 12:56:13.433403 12393 net.cpp:127] Top shape: 32 64 14 14 (401408)
I0805 12:56:13.433425 12393 layer_factory.hpp:74] Creating layer inception_4b/relu_5x5
I0805 12:56:13.433441 12393 net.cpp:90] Creating Layer inception_4b/relu_5x5
I0805 12:56:13.433451 12393 net.cpp:410] inception_4b/relu_5x5 <- inception_4b/5x5
I0805 12:56:13.433466 12393 net.cpp:357] inception_4b/relu_5x5 -> inception_4b/5x5 (in-place)
I0805 12:56:13.433481 12393 net.cpp:120] Setting up inception_4b/relu_5x5
I0805 12:56:13.433496 12393 net.cpp:127] Top shape: 32 64 14 14 (401408)
I0805 12:56:13.433506 12393 layer_factory.hpp:74] Creating layer inception_4b/pool
I0805 12:56:13.433518 12393 net.cpp:90] Creating Layer inception_4b/pool
I0805 12:56:13.433527 12393 net.cpp:410] inception_4b/pool <- inception_4a/output_inception_4a/output_0_split_4
I0805 12:56:13.433540 12393 net.cpp:368] inception_4b/pool -> inception_4b/pool
I0805 12:56:13.433568 12393 net.cpp:120] Setting up inception_4b/pool
I0805 12:56:13.433588 12393 net.cpp:127] Top shape: 32 512 14 14 (3211264)
I0805 12:56:13.433600 12393 layer_factory.hpp:74] Creating layer inception_4b/pool_proj
I0805 12:56:13.433614 12393 net.cpp:90] Creating Layer inception_4b/pool_proj
I0805 12:56:13.433622 12393 net.cpp:410] inception_4b/pool_proj <- inception_4b/pool
I0805 12:56:13.433639 12393 net.cpp:368] inception_4b/pool_proj -> inception_4b/pool_proj
I0805 12:56:13.433658 12393 net.cpp:120] Setting up inception_4b/pool_proj
I0805 12:56:13.434044 12393 net.cpp:127] Top shape: 32 64 14 14 (401408)
I0805 12:56:13.434068 12393 layer_factory.hpp:74] Creating layer inception_4b/relu_pool_proj
I0805 12:56:13.434082 12393 net.cpp:90] Creating Layer inception_4b/relu_pool_proj
I0805 12:56:13.434090 12393 net.cpp:410] inception_4b/relu_pool_proj <- inception_4b/pool_proj
I0805 12:56:13.434101 12393 net.cpp:357] inception_4b/relu_pool_proj -> inception_4b/pool_proj (in-place)
I0805 12:56:13.434123 12393 net.cpp:120] Setting up inception_4b/relu_pool_proj
I0805 12:56:13.434139 12393 net.cpp:127] Top shape: 32 64 14 14 (401408)
I0805 12:56:13.434160 12393 layer_factory.hpp:74] Creating layer inception_4b/output
I0805 12:56:13.434172 12393 net.cpp:90] Creating Layer inception_4b/output
I0805 12:56:13.434181 12393 net.cpp:410] inception_4b/output <- inception_4b/1x1
I0805 12:56:13.434192 12393 net.cpp:410] inception_4b/output <- inception_4b/3x3
I0805 12:56:13.434202 12393 net.cpp:410] inception_4b/output <- inception_4b/5x5
I0805 12:56:13.434211 12393 net.cpp:410] inception_4b/output <- inception_4b/pool_proj
I0805 12:56:13.434226 12393 net.cpp:368] inception_4b/output -> inception_4b/output
I0805 12:56:13.434240 12393 net.cpp:120] Setting up inception_4b/output
I0805 12:56:13.434257 12393 net.cpp:127] Top shape: 32 512 14 14 (3211264)
I0805 12:56:13.434269 12393 layer_factory.hpp:74] Creating layer inception_4b/output_inception_4b/output_0_split
I0805 12:56:13.434281 12393 net.cpp:90] Creating Layer inception_4b/output_inception_4b/output_0_split
I0805 12:56:13.434295 12393 net.cpp:410] inception_4b/output_inception_4b/output_0_split <- inception_4b/output
I0805 12:56:13.434310 12393 net.cpp:368] inception_4b/output_inception_4b/output_0_split -> inception_4b/output_inception_4b/output_0_split_0
I0805 12:56:13.434327 12393 net.cpp:368] inception_4b/output_inception_4b/output_0_split -> inception_4b/output_inception_4b/output_0_split_1
I0805 12:56:13.434345 12393 net.cpp:368] inception_4b/output_inception_4b/output_0_split -> inception_4b/output_inception_4b/output_0_split_2
I0805 12:56:13.434362 12393 net.cpp:368] inception_4b/output_inception_4b/output_0_split -> inception_4b/output_inception_4b/output_0_split_3
I0805 12:56:13.434376 12393 net.cpp:120] Setting up inception_4b/output_inception_4b/output_0_split
I0805 12:56:13.434402 12393 net.cpp:127] Top shape: 32 512 14 14 (3211264)
I0805 12:56:13.434414 12393 net.cpp:127] Top shape: 32 512 14 14 (3211264)
I0805 12:56:13.434432 12393 net.cpp:127] Top shape: 32 512 14 14 (3211264)
I0805 12:56:13.434443 12393 net.cpp:127] Top shape: 32 512 14 14 (3211264)
I0805 12:56:13.434451 12393 layer_factory.hpp:74] Creating layer inception_4c/1x1
I0805 12:56:13.434468 12393 net.cpp:90] Creating Layer inception_4c/1x1
I0805 12:56:13.434483 12393 net.cpp:410] inception_4c/1x1 <- inception_4b/output_inception_4b/output_0_split_0
I0805 12:56:13.434497 12393 net.cpp:368] inception_4c/1x1 -> inception_4c/1x1
I0805 12:56:13.434514 12393 net.cpp:120] Setting up inception_4c/1x1
I0805 12:56:13.435220 12393 net.cpp:127] Top shape: 32 128 14 14 (802816)
I0805 12:56:13.435237 12393 layer_factory.hpp:74] Creating layer inception_4c/relu_1x1
I0805 12:56:13.435264 12393 net.cpp:90] Creating Layer inception_4c/relu_1x1
I0805 12:56:13.435276 12393 net.cpp:410] inception_4c/relu_1x1 <- inception_4c/1x1
I0805 12:56:13.435288 12393 net.cpp:357] inception_4c/relu_1x1 -> inception_4c/1x1 (in-place)
I0805 12:56:13.435302 12393 net.cpp:120] Setting up inception_4c/relu_1x1
I0805 12:56:13.435312 12393 net.cpp:127] Top shape: 32 128 14 14 (802816)
I0805 12:56:13.435322 12393 layer_factory.hpp:74] Creating layer inception_4c/3x3_reduce
I0805 12:56:13.435355 12393 net.cpp:90] Creating Layer inception_4c/3x3_reduce
I0805 12:56:13.435367 12393 net.cpp:410] inception_4c/3x3_reduce <- inception_4b/output_inception_4b/output_0_split_1
I0805 12:56:13.435382 12393 net.cpp:368] inception_4c/3x3_reduce -> inception_4c/3x3_reduce
I0805 12:56:13.435400 12393 net.cpp:120] Setting up inception_4c/3x3_reduce
I0805 12:56:13.436219 12393 net.cpp:127] Top shape: 32 128 14 14 (802816)
I0805 12:56:13.436236 12393 layer_factory.hpp:74] Creating layer inception_4c/relu_3x3_reduce
I0805 12:56:13.436260 12393 net.cpp:90] Creating Layer inception_4c/relu_3x3_reduce
I0805 12:56:13.436275 12393 net.cpp:410] inception_4c/relu_3x3_reduce <- inception_4c/3x3_reduce
I0805 12:56:13.436288 12393 net.cpp:357] inception_4c/relu_3x3_reduce -> inception_4c/3x3_reduce (in-place)
I0805 12:56:13.436301 12393 net.cpp:120] Setting up inception_4c/relu_3x3_reduce
I0805 12:56:13.436313 12393 net.cpp:127] Top shape: 32 128 14 14 (802816)
I0805 12:56:13.436322 12393 layer_factory.hpp:74] Creating layer inception_4c/3x3
I0805 12:56:13.436334 12393 net.cpp:90] Creating Layer inception_4c/3x3
I0805 12:56:13.436343 12393 net.cpp:410] inception_4c/3x3 <- inception_4c/3x3_reduce
I0805 12:56:13.436359 12393 net.cpp:368] inception_4c/3x3 -> inception_4c/3x3
I0805 12:56:13.436377 12393 net.cpp:120] Setting up inception_4c/3x3
I0805 12:56:13.439358 12393 net.cpp:127] Top shape: 32 256 14 14 (1605632)
I0805 12:56:13.439390 12393 layer_factory.hpp:74] Creating layer inception_4c/relu_3x3
I0805 12:56:13.439409 12393 net.cpp:90] Creating Layer inception_4c/relu_3x3
I0805 12:56:13.439425 12393 net.cpp:410] inception_4c/relu_3x3 <- inception_4c/3x3
I0805 12:56:13.439451 12393 net.cpp:357] inception_4c/relu_3x3 -> inception_4c/3x3 (in-place)
I0805 12:56:13.439476 12393 net.cpp:120] Setting up inception_4c/relu_3x3
I0805 12:56:13.439491 12393 net.cpp:127] Top shape: 32 256 14 14 (1605632)
I0805 12:56:13.439517 12393 layer_factory.hpp:74] Creating layer inception_4c/5x5_reduce
I0805 12:56:13.439532 12393 net.cpp:90] Creating Layer inception_4c/5x5_reduce
I0805 12:56:13.439541 12393 net.cpp:410] inception_4c/5x5_reduce <- inception_4b/output_inception_4b/output_0_split_2
I0805 12:56:13.439587 12393 net.cpp:368] inception_4c/5x5_reduce -> inception_4c/5x5_reduce
I0805 12:56:13.439607 12393 net.cpp:120] Setting up inception_4c/5x5_reduce
I0805 12:56:13.439781 12393 net.cpp:127] Top shape: 32 24 14 14 (150528)
I0805 12:56:13.439797 12393 layer_factory.hpp:74] Creating layer inception_4c/relu_5x5_reduce
I0805 12:56:13.439821 12393 net.cpp:90] Creating Layer inception_4c/relu_5x5_reduce
I0805 12:56:13.439829 12393 net.cpp:410] inception_4c/relu_5x5_reduce <- inception_4c/5x5_reduce
I0805 12:56:13.439841 12393 net.cpp:357] inception_4c/relu_5x5_reduce -> inception_4c/5x5_reduce (in-place)
I0805 12:56:13.439853 12393 net.cpp:120] Setting up inception_4c/relu_5x5_reduce
I0805 12:56:13.439864 12393 net.cpp:127] Top shape: 32 24 14 14 (150528)
I0805 12:56:13.439873 12393 layer_factory.hpp:74] Creating layer inception_4c/5x5
I0805 12:56:13.439889 12393 net.cpp:90] Creating Layer inception_4c/5x5
I0805 12:56:13.439903 12393 net.cpp:410] inception_4c/5x5 <- inception_4c/5x5_reduce
I0805 12:56:13.439929 12393 net.cpp:368] inception_4c/5x5 -> inception_4c/5x5
I0805 12:56:13.439960 12393 net.cpp:120] Setting up inception_4c/5x5
I0805 12:56:13.440384 12393 net.cpp:127] Top shape: 32 64 14 14 (401408)
I0805 12:56:13.440400 12393 layer_factory.hpp:74] Creating layer inception_4c/relu_5x5
I0805 12:56:13.440412 12393 net.cpp:90] Creating Layer inception_4c/relu_5x5
I0805 12:56:13.440426 12393 net.cpp:410] inception_4c/relu_5x5 <- inception_4c/5x5
I0805 12:56:13.440449 12393 net.cpp:357] inception_4c/relu_5x5 -> inception_4c/5x5 (in-place)
I0805 12:56:13.440462 12393 net.cpp:120] Setting up inception_4c/relu_5x5
I0805 12:56:13.440475 12393 net.cpp:127] Top shape: 32 64 14 14 (401408)
I0805 12:56:13.440485 12393 layer_factory.hpp:74] Creating layer inception_4c/pool
I0805 12:56:13.440508 12393 net.cpp:90] Creating Layer inception_4c/pool
I0805 12:56:13.440517 12393 net.cpp:410] inception_4c/pool <- inception_4b/output_inception_4b/output_0_split_3
I0805 12:56:13.440537 12393 net.cpp:368] inception_4c/pool -> inception_4c/pool
I0805 12:56:13.440552 12393 net.cpp:120] Setting up inception_4c/pool
I0805 12:56:13.440569 12393 net.cpp:127] Top shape: 32 512 14 14 (3211264)
I0805 12:56:13.440580 12393 layer_factory.hpp:74] Creating layer inception_4c/pool_proj
I0805 12:56:13.440596 12393 net.cpp:90] Creating Layer inception_4c/pool_proj
I0805 12:56:13.440615 12393 net.cpp:410] inception_4c/pool_proj <- inception_4c/pool
I0805 12:56:13.440630 12393 net.cpp:368] inception_4c/pool_proj -> inception_4c/pool_proj
I0805 12:56:13.440649 12393 net.cpp:120] Setting up inception_4c/pool_proj
I0805 12:56:13.441006 12393 net.cpp:127] Top shape: 32 64 14 14 (401408)
I0805 12:56:13.441023 12393 layer_factory.hpp:74] Creating layer inception_4c/relu_pool_proj
I0805 12:56:13.441035 12393 net.cpp:90] Creating Layer inception_4c/relu_pool_proj
I0805 12:56:13.441048 12393 net.cpp:410] inception_4c/relu_pool_proj <- inception_4c/pool_proj
I0805 12:56:13.441059 12393 net.cpp:357] inception_4c/relu_pool_proj -> inception_4c/pool_proj (in-place)
I0805 12:56:13.441072 12393 net.cpp:120] Setting up inception_4c/relu_pool_proj
I0805 12:56:13.441084 12393 net.cpp:127] Top shape: 32 64 14 14 (401408)
I0805 12:56:13.441093 12393 layer_factory.hpp:74] Creating layer inception_4c/output
I0805 12:56:13.441104 12393 net.cpp:90] Creating Layer inception_4c/output
I0805 12:56:13.441112 12393 net.cpp:410] inception_4c/output <- inception_4c/1x1
I0805 12:56:13.441123 12393 net.cpp:410] inception_4c/output <- inception_4c/3x3
I0805 12:56:13.441133 12393 net.cpp:410] inception_4c/output <- inception_4c/5x5
I0805 12:56:13.441143 12393 net.cpp:410] inception_4c/output <- inception_4c/pool_proj
I0805 12:56:13.441154 12393 net.cpp:368] inception_4c/output -> inception_4c/output
I0805 12:56:13.441166 12393 net.cpp:120] Setting up inception_4c/output
I0805 12:56:13.441180 12393 net.cpp:127] Top shape: 32 512 14 14 (3211264)
I0805 12:56:13.441190 12393 layer_factory.hpp:74] Creating layer inception_4c/output_inception_4c/output_0_split
I0805 12:56:13.441206 12393 net.cpp:90] Creating Layer inception_4c/output_inception_4c/output_0_split
I0805 12:56:13.441217 12393 net.cpp:410] inception_4c/output_inception_4c/output_0_split <- inception_4c/output
I0805 12:56:13.441229 12393 net.cpp:368] inception_4c/output_inception_4c/output_0_split -> inception_4c/output_inception_4c/output_0_split_0
I0805 12:56:13.441244 12393 net.cpp:368] inception_4c/output_inception_4c/output_0_split -> inception_4c/output_inception_4c/output_0_split_1
I0805 12:56:13.441262 12393 net.cpp:368] inception_4c/output_inception_4c/output_0_split -> inception_4c/output_inception_4c/output_0_split_2
I0805 12:56:13.441282 12393 net.cpp:368] inception_4c/output_inception_4c/output_0_split -> inception_4c/output_inception_4c/output_0_split_3
I0805 12:56:13.441311 12393 net.cpp:120] Setting up inception_4c/output_inception_4c/output_0_split
I0805 12:56:13.441328 12393 net.cpp:127] Top shape: 32 512 14 14 (3211264)
I0805 12:56:13.441339 12393 net.cpp:127] Top shape: 32 512 14 14 (3211264)
I0805 12:56:13.441349 12393 net.cpp:127] Top shape: 32 512 14 14 (3211264)
I0805 12:56:13.441360 12393 net.cpp:127] Top shape: 32 512 14 14 (3211264)
I0805 12:56:13.441368 12393 layer_factory.hpp:74] Creating layer inception_4d/1x1
I0805 12:56:13.441381 12393 net.cpp:90] Creating Layer inception_4d/1x1
I0805 12:56:13.441390 12393 net.cpp:410] inception_4d/1x1 <- inception_4c/output_inception_4c/output_0_split_0
I0805 12:56:13.441411 12393 net.cpp:368] inception_4d/1x1 -> inception_4d/1x1
I0805 12:56:13.441443 12393 net.cpp:120] Setting up inception_4d/1x1
I0805 12:56:13.442039 12393 net.cpp:127] Top shape: 32 112 14 14 (702464)
I0805 12:56:13.442054 12393 layer_factory.hpp:74] Creating layer inception_4d/relu_1x1
I0805 12:56:13.442066 12393 net.cpp:90] Creating Layer inception_4d/relu_1x1
I0805 12:56:13.442075 12393 net.cpp:410] inception_4d/relu_1x1 <- inception_4d/1x1
I0805 12:56:13.442092 12393 net.cpp:357] inception_4d/relu_1x1 -> inception_4d/1x1 (in-place)
I0805 12:56:13.442108 12393 net.cpp:120] Setting up inception_4d/relu_1x1
I0805 12:56:13.442121 12393 net.cpp:127] Top shape: 32 112 14 14 (702464)
I0805 12:56:13.442134 12393 layer_factory.hpp:74] Creating layer inception_4d/3x3_reduce
I0805 12:56:13.442147 12393 net.cpp:90] Creating Layer inception_4d/3x3_reduce
I0805 12:56:13.442157 12393 net.cpp:410] inception_4d/3x3_reduce <- inception_4c/output_inception_4c/output_0_split_1
I0805 12:56:13.442184 12393 net.cpp:368] inception_4d/3x3_reduce -> inception_4d/3x3_reduce
I0805 12:56:13.442203 12393 net.cpp:120] Setting up inception_4d/3x3_reduce
I0805 12:56:13.442982 12393 net.cpp:127] Top shape: 32 144 14 14 (903168)
I0805 12:56:13.443002 12393 layer_factory.hpp:74] Creating layer inception_4d/relu_3x3_reduce
I0805 12:56:13.443017 12393 net.cpp:90] Creating Layer inception_4d/relu_3x3_reduce
I0805 12:56:13.443027 12393 net.cpp:410] inception_4d/relu_3x3_reduce <- inception_4d/3x3_reduce
I0805 12:56:13.443038 12393 net.cpp:357] inception_4d/relu_3x3_reduce -> inception_4d/3x3_reduce (in-place)
I0805 12:56:13.443059 12393 net.cpp:120] Setting up inception_4d/relu_3x3_reduce
I0805 12:56:13.443073 12393 net.cpp:127] Top shape: 32 144 14 14 (903168)
I0805 12:56:13.443081 12393 layer_factory.hpp:74] Creating layer inception_4d/3x3
I0805 12:56:13.443094 12393 net.cpp:90] Creating Layer inception_4d/3x3
I0805 12:56:13.443104 12393 net.cpp:410] inception_4d/3x3 <- inception_4d/3x3_reduce
I0805 12:56:13.443116 12393 net.cpp:368] inception_4d/3x3 -> inception_4d/3x3
I0805 12:56:13.443130 12393 net.cpp:120] Setting up inception_4d/3x3
I0805 12:56:13.447299 12393 net.cpp:127] Top shape: 32 288 14 14 (1806336)
I0805 12:56:13.447316 12393 layer_factory.hpp:74] Creating layer inception_4d/relu_3x3
I0805 12:56:13.447330 12393 net.cpp:90] Creating Layer inception_4d/relu_3x3
I0805 12:56:13.447343 12393 net.cpp:410] inception_4d/relu_3x3 <- inception_4d/3x3
I0805 12:56:13.447355 12393 net.cpp:357] inception_4d/relu_3x3 -> inception_4d/3x3 (in-place)
I0805 12:56:13.447368 12393 net.cpp:120] Setting up inception_4d/relu_3x3
I0805 12:56:13.447381 12393 net.cpp:127] Top shape: 32 288 14 14 (1806336)
I0805 12:56:13.447391 12393 layer_factory.hpp:74] Creating layer inception_4d/5x5_reduce
I0805 12:56:13.447406 12393 net.cpp:90] Creating Layer inception_4d/5x5_reduce
I0805 12:56:13.447417 12393 net.cpp:410] inception_4d/5x5_reduce <- inception_4c/output_inception_4c/output_0_split_2
I0805 12:56:13.447453 12393 net.cpp:368] inception_4d/5x5_reduce -> inception_4d/5x5_reduce
I0805 12:56:13.447471 12393 net.cpp:120] Setting up inception_4d/5x5_reduce
I0805 12:56:13.447685 12393 net.cpp:127] Top shape: 32 32 14 14 (200704)
I0805 12:56:13.447700 12393 layer_factory.hpp:74] Creating layer inception_4d/relu_5x5_reduce
I0805 12:56:13.447716 12393 net.cpp:90] Creating Layer inception_4d/relu_5x5_reduce
I0805 12:56:13.447726 12393 net.cpp:410] inception_4d/relu_5x5_reduce <- inception_4d/5x5_reduce
I0805 12:56:13.447737 12393 net.cpp:357] inception_4d/relu_5x5_reduce -> inception_4d/5x5_reduce (in-place)
I0805 12:56:13.447749 12393 net.cpp:120] Setting up inception_4d/relu_5x5_reduce
I0805 12:56:13.447762 12393 net.cpp:127] Top shape: 32 32 14 14 (200704)
I0805 12:56:13.447769 12393 layer_factory.hpp:74] Creating layer inception_4d/5x5
I0805 12:56:13.447784 12393 net.cpp:90] Creating Layer inception_4d/5x5
I0805 12:56:13.447796 12393 net.cpp:410] inception_4d/5x5 <- inception_4d/5x5_reduce
I0805 12:56:13.447810 12393 net.cpp:368] inception_4d/5x5 -> inception_4d/5x5
I0805 12:56:13.447824 12393 net.cpp:120] Setting up inception_4d/5x5
I0805 12:56:13.448357 12393 net.cpp:127] Top shape: 32 64 14 14 (401408)
I0805 12:56:13.448374 12393 layer_factory.hpp:74] Creating layer inception_4d/relu_5x5
I0805 12:56:13.448386 12393 net.cpp:90] Creating Layer inception_4d/relu_5x5
I0805 12:56:13.448395 12393 net.cpp:410] inception_4d/relu_5x5 <- inception_4d/5x5
I0805 12:56:13.448411 12393 net.cpp:357] inception_4d/relu_5x5 -> inception_4d/5x5 (in-place)
I0805 12:56:13.448432 12393 net.cpp:120] Setting up inception_4d/relu_5x5
I0805 12:56:13.448449 12393 net.cpp:127] Top shape: 32 64 14 14 (401408)
I0805 12:56:13.448459 12393 layer_factory.hpp:74] Creating layer inception_4d/pool
I0805 12:56:13.448470 12393 net.cpp:90] Creating Layer inception_4d/pool
I0805 12:56:13.448480 12393 net.cpp:410] inception_4d/pool <- inception_4c/output_inception_4c/output_0_split_3
I0805 12:56:13.448508 12393 net.cpp:368] inception_4d/pool -> inception_4d/pool
I0805 12:56:13.448523 12393 net.cpp:120] Setting up inception_4d/pool
I0805 12:56:13.448541 12393 net.cpp:127] Top shape: 32 512 14 14 (3211264)
I0805 12:56:13.448552 12393 layer_factory.hpp:74] Creating layer inception_4d/pool_proj
I0805 12:56:13.448570 12393 net.cpp:90] Creating Layer inception_4d/pool_proj
I0805 12:56:13.448580 12393 net.cpp:410] inception_4d/pool_proj <- inception_4d/pool
I0805 12:56:13.448597 12393 net.cpp:368] inception_4d/pool_proj -> inception_4d/pool_proj
I0805 12:56:13.448617 12393 net.cpp:120] Setting up inception_4d/pool_proj
I0805 12:56:13.448988 12393 net.cpp:127] Top shape: 32 64 14 14 (401408)
I0805 12:56:13.449009 12393 layer_factory.hpp:74] Creating layer inception_4d/relu_pool_proj
I0805 12:56:13.449033 12393 net.cpp:90] Creating Layer inception_4d/relu_pool_proj
I0805 12:56:13.449043 12393 net.cpp:410] inception_4d/relu_pool_proj <- inception_4d/pool_proj
I0805 12:56:13.449055 12393 net.cpp:357] inception_4d/relu_pool_proj -> inception_4d/pool_proj (in-place)
I0805 12:56:13.449069 12393 net.cpp:120] Setting up inception_4d/relu_pool_proj
I0805 12:56:13.449079 12393 net.cpp:127] Top shape: 32 64 14 14 (401408)
I0805 12:56:13.449089 12393 layer_factory.hpp:74] Creating layer inception_4d/output
I0805 12:56:13.449102 12393 net.cpp:90] Creating Layer inception_4d/output
I0805 12:56:13.449113 12393 net.cpp:410] inception_4d/output <- inception_4d/1x1
I0805 12:56:13.449123 12393 net.cpp:410] inception_4d/output <- inception_4d/3x3
I0805 12:56:13.449134 12393 net.cpp:410] inception_4d/output <- inception_4d/5x5
I0805 12:56:13.449144 12393 net.cpp:410] inception_4d/output <- inception_4d/pool_proj
I0805 12:56:13.449156 12393 net.cpp:368] inception_4d/output -> inception_4d/output
I0805 12:56:13.449168 12393 net.cpp:120] Setting up inception_4d/output
I0805 12:56:13.449182 12393 net.cpp:127] Top shape: 32 528 14 14 (3311616)
I0805 12:56:13.449193 12393 layer_factory.hpp:74] Creating layer inception_4d/output_inception_4d/output_0_split
I0805 12:56:13.449205 12393 net.cpp:90] Creating Layer inception_4d/output_inception_4d/output_0_split
I0805 12:56:13.449219 12393 net.cpp:410] inception_4d/output_inception_4d/output_0_split <- inception_4d/output
I0805 12:56:13.449234 12393 net.cpp:368] inception_4d/output_inception_4d/output_0_split -> inception_4d/output_inception_4d/output_0_split_0
I0805 12:56:13.449252 12393 net.cpp:368] inception_4d/output_inception_4d/output_0_split -> inception_4d/output_inception_4d/output_0_split_1
I0805 12:56:13.449270 12393 net.cpp:368] inception_4d/output_inception_4d/output_0_split -> inception_4d/output_inception_4d/output_0_split_2
I0805 12:56:13.449286 12393 net.cpp:368] inception_4d/output_inception_4d/output_0_split -> inception_4d/output_inception_4d/output_0_split_3
I0805 12:56:13.449316 12393 net.cpp:368] inception_4d/output_inception_4d/output_0_split -> inception_4d/output_inception_4d/output_0_split_4
I0805 12:56:13.449331 12393 net.cpp:120] Setting up inception_4d/output_inception_4d/output_0_split
I0805 12:56:13.449350 12393 net.cpp:127] Top shape: 32 528 14 14 (3311616)
I0805 12:56:13.449363 12393 net.cpp:127] Top shape: 32 528 14 14 (3311616)
I0805 12:56:13.449374 12393 net.cpp:127] Top shape: 32 528 14 14 (3311616)
I0805 12:56:13.449386 12393 net.cpp:127] Top shape: 32 528 14 14 (3311616)
I0805 12:56:13.449398 12393 net.cpp:127] Top shape: 32 528 14 14 (3311616)
I0805 12:56:13.449409 12393 layer_factory.hpp:74] Creating layer loss2/ave_pool
I0805 12:56:13.449426 12393 net.cpp:90] Creating Layer loss2/ave_pool
I0805 12:56:13.449439 12393 net.cpp:410] loss2/ave_pool <- inception_4d/output_inception_4d/output_0_split_0
I0805 12:56:13.449452 12393 net.cpp:368] loss2/ave_pool -> loss2/ave_pool
I0805 12:56:13.449465 12393 net.cpp:120] Setting up loss2/ave_pool
I0805 12:56:13.449479 12393 net.cpp:127] Top shape: 32 528 4 4 (270336)
I0805 12:56:13.449491 12393 layer_factory.hpp:74] Creating layer loss2/conv
I0805 12:56:13.449507 12393 net.cpp:90] Creating Layer loss2/conv
I0805 12:56:13.449525 12393 net.cpp:410] loss2/conv <- loss2/ave_pool
I0805 12:56:13.449544 12393 net.cpp:368] loss2/conv -> loss2/conv
I0805 12:56:13.449565 12393 net.cpp:120] Setting up loss2/conv
I0805 12:56:13.450268 12393 net.cpp:127] Top shape: 32 128 4 4 (65536)
I0805 12:56:13.450284 12393 layer_factory.hpp:74] Creating layer loss2/relu_conv
I0805 12:56:13.450297 12393 net.cpp:90] Creating Layer loss2/relu_conv
I0805 12:56:13.450306 12393 net.cpp:410] loss2/relu_conv <- loss2/conv
I0805 12:56:13.450321 12393 net.cpp:357] loss2/relu_conv -> loss2/conv (in-place)
I0805 12:56:13.450337 12393 net.cpp:120] Setting up loss2/relu_conv
I0805 12:56:13.450361 12393 net.cpp:127] Top shape: 32 128 4 4 (65536)
I0805 12:56:13.450373 12393 layer_factory.hpp:74] Creating layer loss2/fc
I0805 12:56:13.450387 12393 net.cpp:90] Creating Layer loss2/fc
I0805 12:56:13.450397 12393 net.cpp:410] loss2/fc <- loss2/conv
I0805 12:56:13.450429 12393 net.cpp:368] loss2/fc -> loss2/fc
I0805 12:56:13.450446 12393 net.cpp:120] Setting up loss2/fc
I0805 12:56:13.471488 12393 net.cpp:127] Top shape: 32 1024 (32768)
I0805 12:56:13.471510 12393 layer_factory.hpp:74] Creating layer loss2/relu_fc
I0805 12:56:13.471526 12393 net.cpp:90] Creating Layer loss2/relu_fc
I0805 12:56:13.471541 12393 net.cpp:410] loss2/relu_fc <- loss2/fc
I0805 12:56:13.471554 12393 net.cpp:357] loss2/relu_fc -> loss2/fc (in-place)
I0805 12:56:13.471568 12393 net.cpp:120] Setting up loss2/relu_fc
I0805 12:56:13.471585 12393 net.cpp:127] Top shape: 32 1024 (32768)
I0805 12:56:13.471595 12393 layer_factory.hpp:74] Creating layer loss2/drop_fc
I0805 12:56:13.471606 12393 net.cpp:90] Creating Layer loss2/drop_fc
I0805 12:56:13.471616 12393 net.cpp:410] loss2/drop_fc <- loss2/fc
I0805 12:56:13.471632 12393 net.cpp:357] loss2/drop_fc -> loss2/fc (in-place)
I0805 12:56:13.471648 12393 net.cpp:120] Setting up loss2/drop_fc
I0805 12:56:13.471664 12393 net.cpp:127] Top shape: 32 1024 (32768)
I0805 12:56:13.471675 12393 layer_factory.hpp:74] Creating layer ft_loss2/classifier
I0805 12:56:13.471689 12393 net.cpp:90] Creating Layer ft_loss2/classifier
I0805 12:56:13.471699 12393 net.cpp:410] ft_loss2/classifier <- loss2/fc
I0805 12:56:13.471712 12393 net.cpp:368] ft_loss2/classifier -> ft_loss2/classifier
I0805 12:56:13.471742 12393 net.cpp:120] Setting up ft_loss2/classifier
I0805 12:56:13.471796 12393 net.cpp:127] Top shape: 32 2 (64)
I0805 12:56:13.471812 12393 layer_factory.hpp:74] Creating layer loss2/loss
I0805 12:56:13.471827 12393 net.cpp:90] Creating Layer loss2/loss
I0805 12:56:13.471850 12393 net.cpp:410] loss2/loss <- ft_loss2/classifier
I0805 12:56:13.471863 12393 net.cpp:410] loss2/loss <- label_data_1_split_1
I0805 12:56:13.471875 12393 net.cpp:368] loss2/loss -> loss2/loss1
I0805 12:56:13.471889 12393 net.cpp:120] Setting up loss2/loss
I0805 12:56:13.471902 12393 layer_factory.hpp:74] Creating layer loss2/loss
I0805 12:56:13.471938 12393 net.cpp:127] Top shape: (1)
I0805 12:56:13.471949 12393 net.cpp:129]     with loss weight 0.3
I0805 12:56:13.471964 12393 layer_factory.hpp:74] Creating layer inception_4e/1x1
I0805 12:56:13.471989 12393 net.cpp:90] Creating Layer inception_4e/1x1
I0805 12:56:13.472000 12393 net.cpp:410] inception_4e/1x1 <- inception_4d/output_inception_4d/output_0_split_1
I0805 12:56:13.472014 12393 net.cpp:368] inception_4e/1x1 -> inception_4e/1x1
I0805 12:56:13.472028 12393 net.cpp:120] Setting up inception_4e/1x1
I0805 12:56:13.473445 12393 net.cpp:127] Top shape: 32 256 14 14 (1605632)
I0805 12:56:13.473464 12393 layer_factory.hpp:74] Creating layer inception_4e/relu_1x1
I0805 12:56:13.473476 12393 net.cpp:90] Creating Layer inception_4e/relu_1x1
I0805 12:56:13.473486 12393 net.cpp:410] inception_4e/relu_1x1 <- inception_4e/1x1
I0805 12:56:13.473497 12393 net.cpp:357] inception_4e/relu_1x1 -> inception_4e/1x1 (in-place)
I0805 12:56:13.473510 12393 net.cpp:120] Setting up inception_4e/relu_1x1
I0805 12:56:13.473522 12393 net.cpp:127] Top shape: 32 256 14 14 (1605632)
I0805 12:56:13.473531 12393 layer_factory.hpp:74] Creating layer inception_4e/3x3_reduce
I0805 12:56:13.473558 12393 net.cpp:90] Creating Layer inception_4e/3x3_reduce
I0805 12:56:13.473570 12393 net.cpp:410] inception_4e/3x3_reduce <- inception_4d/output_inception_4d/output_0_split_2
I0805 12:56:13.473588 12393 net.cpp:368] inception_4e/3x3_reduce -> inception_4e/3x3_reduce
I0805 12:56:13.473605 12393 net.cpp:120] Setting up inception_4e/3x3_reduce
I0805 12:56:13.474469 12393 net.cpp:127] Top shape: 32 160 14 14 (1003520)
I0805 12:56:13.474486 12393 layer_factory.hpp:74] Creating layer inception_4e/relu_3x3_reduce
I0805 12:56:13.474498 12393 net.cpp:90] Creating Layer inception_4e/relu_3x3_reduce
I0805 12:56:13.474511 12393 net.cpp:410] inception_4e/relu_3x3_reduce <- inception_4e/3x3_reduce
I0805 12:56:13.474524 12393 net.cpp:357] inception_4e/relu_3x3_reduce -> inception_4e/3x3_reduce (in-place)
I0805 12:56:13.474535 12393 net.cpp:120] Setting up inception_4e/relu_3x3_reduce
I0805 12:56:13.474547 12393 net.cpp:127] Top shape: 32 160 14 14 (1003520)
I0805 12:56:13.474555 12393 layer_factory.hpp:74] Creating layer inception_4e/3x3
I0805 12:56:13.474567 12393 net.cpp:90] Creating Layer inception_4e/3x3
I0805 12:56:13.474576 12393 net.cpp:410] inception_4e/3x3 <- inception_4e/3x3_reduce
I0805 12:56:13.474592 12393 net.cpp:368] inception_4e/3x3 -> inception_4e/3x3
I0805 12:56:13.474607 12393 net.cpp:120] Setting up inception_4e/3x3
I0805 12:56:13.479562 12393 net.cpp:127] Top shape: 32 320 14 14 (2007040)
I0805 12:56:13.479580 12393 layer_factory.hpp:74] Creating layer inception_4e/relu_3x3
I0805 12:56:13.479593 12393 net.cpp:90] Creating Layer inception_4e/relu_3x3
I0805 12:56:13.479604 12393 net.cpp:410] inception_4e/relu_3x3 <- inception_4e/3x3
I0805 12:56:13.479624 12393 net.cpp:357] inception_4e/relu_3x3 -> inception_4e/3x3 (in-place)
I0805 12:56:13.479640 12393 net.cpp:120] Setting up inception_4e/relu_3x3
I0805 12:56:13.479652 12393 net.cpp:127] Top shape: 32 320 14 14 (2007040)
I0805 12:56:13.479662 12393 layer_factory.hpp:74] Creating layer inception_4e/5x5_reduce
I0805 12:56:13.479679 12393 net.cpp:90] Creating Layer inception_4e/5x5_reduce
I0805 12:56:13.479691 12393 net.cpp:410] inception_4e/5x5_reduce <- inception_4d/output_inception_4d/output_0_split_3
I0805 12:56:13.479704 12393 net.cpp:368] inception_4e/5x5_reduce -> inception_4e/5x5_reduce
I0805 12:56:13.479718 12393 net.cpp:120] Setting up inception_4e/5x5_reduce
I0805 12:56:13.479918 12393 net.cpp:127] Top shape: 32 32 14 14 (200704)
I0805 12:56:13.479935 12393 layer_factory.hpp:74] Creating layer inception_4e/relu_5x5_reduce
I0805 12:56:13.479948 12393 net.cpp:90] Creating Layer inception_4e/relu_5x5_reduce
I0805 12:56:13.479956 12393 net.cpp:410] inception_4e/relu_5x5_reduce <- inception_4e/5x5_reduce
I0805 12:56:13.479969 12393 net.cpp:357] inception_4e/relu_5x5_reduce -> inception_4e/5x5_reduce (in-place)
I0805 12:56:13.479980 12393 net.cpp:120] Setting up inception_4e/relu_5x5_reduce
I0805 12:56:13.479991 12393 net.cpp:127] Top shape: 32 32 14 14 (200704)
I0805 12:56:13.480000 12393 layer_factory.hpp:74] Creating layer inception_4e/5x5
I0805 12:56:13.480031 12393 net.cpp:90] Creating Layer inception_4e/5x5
I0805 12:56:13.480042 12393 net.cpp:410] inception_4e/5x5 <- inception_4e/5x5_reduce
I0805 12:56:13.480057 12393 net.cpp:368] inception_4e/5x5 -> inception_4e/5x5
I0805 12:56:13.480072 12393 net.cpp:120] Setting up inception_4e/5x5
I0805 12:56:13.481129 12393 net.cpp:127] Top shape: 32 128 14 14 (802816)
I0805 12:56:13.481148 12393 layer_factory.hpp:74] Creating layer inception_4e/relu_5x5
I0805 12:56:13.481160 12393 net.cpp:90] Creating Layer inception_4e/relu_5x5
I0805 12:56:13.481169 12393 net.cpp:410] inception_4e/relu_5x5 <- inception_4e/5x5
I0805 12:56:13.481184 12393 net.cpp:357] inception_4e/relu_5x5 -> inception_4e/5x5 (in-place)
I0805 12:56:13.481199 12393 net.cpp:120] Setting up inception_4e/relu_5x5
I0805 12:56:13.481211 12393 net.cpp:127] Top shape: 32 128 14 14 (802816)
I0805 12:56:13.481220 12393 layer_factory.hpp:74] Creating layer inception_4e/pool
I0805 12:56:13.481232 12393 net.cpp:90] Creating Layer inception_4e/pool
I0805 12:56:13.481253 12393 net.cpp:410] inception_4e/pool <- inception_4d/output_inception_4d/output_0_split_4
I0805 12:56:13.481271 12393 net.cpp:368] inception_4e/pool -> inception_4e/pool
I0805 12:56:13.481287 12393 net.cpp:120] Setting up inception_4e/pool
I0805 12:56:13.481307 12393 net.cpp:127] Top shape: 32 528 14 14 (3311616)
I0805 12:56:13.481318 12393 layer_factory.hpp:74] Creating layer inception_4e/pool_proj
I0805 12:56:13.481333 12393 net.cpp:90] Creating Layer inception_4e/pool_proj
I0805 12:56:13.481341 12393 net.cpp:410] inception_4e/pool_proj <- inception_4e/pool
I0805 12:56:13.481356 12393 net.cpp:368] inception_4e/pool_proj -> inception_4e/pool_proj
I0805 12:56:13.481375 12393 net.cpp:120] Setting up inception_4e/pool_proj
I0805 12:56:13.482075 12393 net.cpp:127] Top shape: 32 128 14 14 (802816)
I0805 12:56:13.482092 12393 layer_factory.hpp:74] Creating layer inception_4e/relu_pool_proj
I0805 12:56:13.482105 12393 net.cpp:90] Creating Layer inception_4e/relu_pool_proj
I0805 12:56:13.482115 12393 net.cpp:410] inception_4e/relu_pool_proj <- inception_4e/pool_proj
I0805 12:56:13.482126 12393 net.cpp:357] inception_4e/relu_pool_proj -> inception_4e/pool_proj (in-place)
I0805 12:56:13.482138 12393 net.cpp:120] Setting up inception_4e/relu_pool_proj
I0805 12:56:13.482151 12393 net.cpp:127] Top shape: 32 128 14 14 (802816)
I0805 12:56:13.482159 12393 layer_factory.hpp:74] Creating layer inception_4e/output
I0805 12:56:13.482172 12393 net.cpp:90] Creating Layer inception_4e/output
I0805 12:56:13.482183 12393 net.cpp:410] inception_4e/output <- inception_4e/1x1
I0805 12:56:13.482194 12393 net.cpp:410] inception_4e/output <- inception_4e/3x3
I0805 12:56:13.482204 12393 net.cpp:410] inception_4e/output <- inception_4e/5x5
I0805 12:56:13.482214 12393 net.cpp:410] inception_4e/output <- inception_4e/pool_proj
I0805 12:56:13.482225 12393 net.cpp:368] inception_4e/output -> inception_4e/output
I0805 12:56:13.482239 12393 net.cpp:120] Setting up inception_4e/output
I0805 12:56:13.482252 12393 net.cpp:127] Top shape: 32 832 14 14 (5218304)
I0805 12:56:13.482262 12393 layer_factory.hpp:74] Creating layer pool4/3x3_s2
I0805 12:56:13.482283 12393 net.cpp:90] Creating Layer pool4/3x3_s2
I0805 12:56:13.482296 12393 net.cpp:410] pool4/3x3_s2 <- inception_4e/output
I0805 12:56:13.482311 12393 net.cpp:368] pool4/3x3_s2 -> pool4/3x3_s2
I0805 12:56:13.482323 12393 net.cpp:120] Setting up pool4/3x3_s2
I0805 12:56:13.482342 12393 net.cpp:127] Top shape: 32 832 7 7 (1304576)
I0805 12:56:13.482354 12393 layer_factory.hpp:74] Creating layer pool4/3x3_s2_pool4/3x3_s2_0_split
I0805 12:56:13.482367 12393 net.cpp:90] Creating Layer pool4/3x3_s2_pool4/3x3_s2_0_split
I0805 12:56:13.482377 12393 net.cpp:410] pool4/3x3_s2_pool4/3x3_s2_0_split <- pool4/3x3_s2
I0805 12:56:13.482408 12393 net.cpp:368] pool4/3x3_s2_pool4/3x3_s2_0_split -> pool4/3x3_s2_pool4/3x3_s2_0_split_0
I0805 12:56:13.482429 12393 net.cpp:368] pool4/3x3_s2_pool4/3x3_s2_0_split -> pool4/3x3_s2_pool4/3x3_s2_0_split_1
I0805 12:56:13.482447 12393 net.cpp:368] pool4/3x3_s2_pool4/3x3_s2_0_split -> pool4/3x3_s2_pool4/3x3_s2_0_split_2
I0805 12:56:13.482463 12393 net.cpp:368] pool4/3x3_s2_pool4/3x3_s2_0_split -> pool4/3x3_s2_pool4/3x3_s2_0_split_3
I0805 12:56:13.482481 12393 net.cpp:120] Setting up pool4/3x3_s2_pool4/3x3_s2_0_split
I0805 12:56:13.482503 12393 net.cpp:127] Top shape: 32 832 7 7 (1304576)
I0805 12:56:13.482517 12393 net.cpp:127] Top shape: 32 832 7 7 (1304576)
I0805 12:56:13.482528 12393 net.cpp:127] Top shape: 32 832 7 7 (1304576)
I0805 12:56:13.482538 12393 net.cpp:127] Top shape: 32 832 7 7 (1304576)
I0805 12:56:13.482547 12393 layer_factory.hpp:74] Creating layer inception_5a/1x1
I0805 12:56:13.482560 12393 net.cpp:90] Creating Layer inception_5a/1x1
I0805 12:56:13.482569 12393 net.cpp:410] inception_5a/1x1 <- pool4/3x3_s2_pool4/3x3_s2_0_split_0
I0805 12:56:13.482586 12393 net.cpp:368] inception_5a/1x1 -> inception_5a/1x1
I0805 12:56:13.482604 12393 net.cpp:120] Setting up inception_5a/1x1
I0805 12:56:13.484735 12393 net.cpp:127] Top shape: 32 256 7 7 (401408)
I0805 12:56:13.484760 12393 layer_factory.hpp:74] Creating layer inception_5a/relu_1x1
I0805 12:56:13.484772 12393 net.cpp:90] Creating Layer inception_5a/relu_1x1
I0805 12:56:13.484782 12393 net.cpp:410] inception_5a/relu_1x1 <- inception_5a/1x1
I0805 12:56:13.484794 12393 net.cpp:357] inception_5a/relu_1x1 -> inception_5a/1x1 (in-place)
I0805 12:56:13.484807 12393 net.cpp:120] Setting up inception_5a/relu_1x1
I0805 12:56:13.484818 12393 net.cpp:127] Top shape: 32 256 7 7 (401408)
I0805 12:56:13.484827 12393 layer_factory.hpp:74] Creating layer inception_5a/3x3_reduce
I0805 12:56:13.484845 12393 net.cpp:90] Creating Layer inception_5a/3x3_reduce
I0805 12:56:13.484858 12393 net.cpp:410] inception_5a/3x3_reduce <- pool4/3x3_s2_pool4/3x3_s2_0_split_1
I0805 12:56:13.484871 12393 net.cpp:368] inception_5a/3x3_reduce -> inception_5a/3x3_reduce
I0805 12:56:13.484890 12393 net.cpp:120] Setting up inception_5a/3x3_reduce
I0805 12:56:13.486366 12393 net.cpp:127] Top shape: 32 160 7 7 (250880)
I0805 12:56:13.486383 12393 layer_factory.hpp:74] Creating layer inception_5a/relu_3x3_reduce
I0805 12:56:13.486397 12393 net.cpp:90] Creating Layer inception_5a/relu_3x3_reduce
I0805 12:56:13.486405 12393 net.cpp:410] inception_5a/relu_3x3_reduce <- inception_5a/3x3_reduce
I0805 12:56:13.486425 12393 net.cpp:357] inception_5a/relu_3x3_reduce -> inception_5a/3x3_reduce (in-place)
I0805 12:56:13.486443 12393 net.cpp:120] Setting up inception_5a/relu_3x3_reduce
I0805 12:56:13.486455 12393 net.cpp:127] Top shape: 32 160 7 7 (250880)
I0805 12:56:13.486464 12393 layer_factory.hpp:74] Creating layer inception_5a/3x3
I0805 12:56:13.486477 12393 net.cpp:90] Creating Layer inception_5a/3x3
I0805 12:56:13.486486 12393 net.cpp:410] inception_5a/3x3 <- inception_5a/3x3_reduce
I0805 12:56:13.486503 12393 net.cpp:368] inception_5a/3x3 -> inception_5a/3x3
I0805 12:56:13.486521 12393 net.cpp:120] Setting up inception_5a/3x3
I0805 12:56:13.491389 12393 net.cpp:127] Top shape: 32 320 7 7 (501760)
I0805 12:56:13.491406 12393 layer_factory.hpp:74] Creating layer inception_5a/relu_3x3
I0805 12:56:13.491427 12393 net.cpp:90] Creating Layer inception_5a/relu_3x3
I0805 12:56:13.491438 12393 net.cpp:410] inception_5a/relu_3x3 <- inception_5a/3x3
I0805 12:56:13.491456 12393 net.cpp:357] inception_5a/relu_3x3 -> inception_5a/3x3 (in-place)
I0805 12:56:13.491473 12393 net.cpp:120] Setting up inception_5a/relu_3x3
I0805 12:56:13.491490 12393 net.cpp:127] Top shape: 32 320 7 7 (501760)
I0805 12:56:13.491498 12393 layer_factory.hpp:74] Creating layer inception_5a/5x5_reduce
I0805 12:56:13.491511 12393 net.cpp:90] Creating Layer inception_5a/5x5_reduce
I0805 12:56:13.491521 12393 net.cpp:410] inception_5a/5x5_reduce <- pool4/3x3_s2_pool4/3x3_s2_0_split_2
I0805 12:56:13.491540 12393 net.cpp:368] inception_5a/5x5_reduce -> inception_5a/5x5_reduce
I0805 12:56:13.491559 12393 net.cpp:120] Setting up inception_5a/5x5_reduce
I0805 12:56:13.491858 12393 net.cpp:127] Top shape: 32 32 7 7 (50176)
I0805 12:56:13.491875 12393 layer_factory.hpp:74] Creating layer inception_5a/relu_5x5_reduce
I0805 12:56:13.491888 12393 net.cpp:90] Creating Layer inception_5a/relu_5x5_reduce
I0805 12:56:13.491897 12393 net.cpp:410] inception_5a/relu_5x5_reduce <- inception_5a/5x5_reduce
I0805 12:56:13.491909 12393 net.cpp:357] inception_5a/relu_5x5_reduce -> inception_5a/5x5_reduce (in-place)
I0805 12:56:13.491921 12393 net.cpp:120] Setting up inception_5a/relu_5x5_reduce
I0805 12:56:13.491933 12393 net.cpp:127] Top shape: 32 32 7 7 (50176)
I0805 12:56:13.491942 12393 layer_factory.hpp:74] Creating layer inception_5a/5x5
I0805 12:56:13.491955 12393 net.cpp:90] Creating Layer inception_5a/5x5
I0805 12:56:13.491963 12393 net.cpp:410] inception_5a/5x5 <- inception_5a/5x5_reduce
I0805 12:56:13.491979 12393 net.cpp:368] inception_5a/5x5 -> inception_5a/5x5
I0805 12:56:13.492002 12393 net.cpp:120] Setting up inception_5a/5x5
I0805 12:56:13.493101 12393 net.cpp:127] Top shape: 32 128 7 7 (200704)
I0805 12:56:13.493119 12393 layer_factory.hpp:74] Creating layer inception_5a/relu_5x5
I0805 12:56:13.493131 12393 net.cpp:90] Creating Layer inception_5a/relu_5x5
I0805 12:56:13.493152 12393 net.cpp:410] inception_5a/relu_5x5 <- inception_5a/5x5
I0805 12:56:13.493165 12393 net.cpp:357] inception_5a/relu_5x5 -> inception_5a/5x5 (in-place)
I0805 12:56:13.493178 12393 net.cpp:120] Setting up inception_5a/relu_5x5
I0805 12:56:13.493191 12393 net.cpp:127] Top shape: 32 128 7 7 (200704)
I0805 12:56:13.493199 12393 layer_factory.hpp:74] Creating layer inception_5a/pool
I0805 12:56:13.493214 12393 net.cpp:90] Creating Layer inception_5a/pool
I0805 12:56:13.493227 12393 net.cpp:410] inception_5a/pool <- pool4/3x3_s2_pool4/3x3_s2_0_split_3
I0805 12:56:13.493240 12393 net.cpp:368] inception_5a/pool -> inception_5a/pool
I0805 12:56:13.493254 12393 net.cpp:120] Setting up inception_5a/pool
I0805 12:56:13.493273 12393 net.cpp:127] Top shape: 32 832 7 7 (1304576)
I0805 12:56:13.493283 12393 layer_factory.hpp:74] Creating layer inception_5a/pool_proj
I0805 12:56:13.493298 12393 net.cpp:90] Creating Layer inception_5a/pool_proj
I0805 12:56:13.493306 12393 net.cpp:410] inception_5a/pool_proj <- inception_5a/pool
I0805 12:56:13.493320 12393 net.cpp:368] inception_5a/pool_proj -> inception_5a/pool_proj
I0805 12:56:13.493335 12393 net.cpp:120] Setting up inception_5a/pool_proj
I0805 12:56:13.494657 12393 net.cpp:127] Top shape: 32 128 7 7 (200704)
I0805 12:56:13.494678 12393 layer_factory.hpp:74] Creating layer inception_5a/relu_pool_proj
I0805 12:56:13.494690 12393 net.cpp:90] Creating Layer inception_5a/relu_pool_proj
I0805 12:56:13.494700 12393 net.cpp:410] inception_5a/relu_pool_proj <- inception_5a/pool_proj
I0805 12:56:13.494716 12393 net.cpp:357] inception_5a/relu_pool_proj -> inception_5a/pool_proj (in-place)
I0805 12:56:13.494730 12393 net.cpp:120] Setting up inception_5a/relu_pool_proj
I0805 12:56:13.494743 12393 net.cpp:127] Top shape: 32 128 7 7 (200704)
I0805 12:56:13.494751 12393 layer_factory.hpp:74] Creating layer inception_5a/output
I0805 12:56:13.494763 12393 net.cpp:90] Creating Layer inception_5a/output
I0805 12:56:13.494771 12393 net.cpp:410] inception_5a/output <- inception_5a/1x1
I0805 12:56:13.494781 12393 net.cpp:410] inception_5a/output <- inception_5a/3x3
I0805 12:56:13.494791 12393 net.cpp:410] inception_5a/output <- inception_5a/5x5
I0805 12:56:13.494802 12393 net.cpp:410] inception_5a/output <- inception_5a/pool_proj
I0805 12:56:13.494813 12393 net.cpp:368] inception_5a/output -> inception_5a/output
I0805 12:56:13.494827 12393 net.cpp:120] Setting up inception_5a/output
I0805 12:56:13.494840 12393 net.cpp:127] Top shape: 32 832 7 7 (1304576)
I0805 12:56:13.494851 12393 layer_factory.hpp:74] Creating layer inception_5a/output_inception_5a/output_0_split
I0805 12:56:13.494866 12393 net.cpp:90] Creating Layer inception_5a/output_inception_5a/output_0_split
I0805 12:56:13.494876 12393 net.cpp:410] inception_5a/output_inception_5a/output_0_split <- inception_5a/output
I0805 12:56:13.494904 12393 net.cpp:368] inception_5a/output_inception_5a/output_0_split -> inception_5a/output_inception_5a/output_0_split_0
I0805 12:56:13.494922 12393 net.cpp:368] inception_5a/output_inception_5a/output_0_split -> inception_5a/output_inception_5a/output_0_split_1
I0805 12:56:13.494943 12393 net.cpp:368] inception_5a/output_inception_5a/output_0_split -> inception_5a/output_inception_5a/output_0_split_2
I0805 12:56:13.494964 12393 net.cpp:368] inception_5a/output_inception_5a/output_0_split -> inception_5a/output_inception_5a/output_0_split_3
I0805 12:56:13.494992 12393 net.cpp:120] Setting up inception_5a/output_inception_5a/output_0_split
I0805 12:56:13.495010 12393 net.cpp:127] Top shape: 32 832 7 7 (1304576)
I0805 12:56:13.495023 12393 net.cpp:127] Top shape: 32 832 7 7 (1304576)
I0805 12:56:13.495033 12393 net.cpp:127] Top shape: 32 832 7 7 (1304576)
I0805 12:56:13.495043 12393 net.cpp:127] Top shape: 32 832 7 7 (1304576)
I0805 12:56:13.495053 12393 layer_factory.hpp:74] Creating layer inception_5b/1x1
I0805 12:56:13.495065 12393 net.cpp:90] Creating Layer inception_5b/1x1
I0805 12:56:13.495075 12393 net.cpp:410] inception_5b/1x1 <- inception_5a/output_inception_5a/output_0_split_0
I0805 12:56:13.495103 12393 net.cpp:368] inception_5b/1x1 -> inception_5b/1x1
I0805 12:56:13.495121 12393 net.cpp:120] Setting up inception_5b/1x1
I0805 12:56:13.498368 12393 net.cpp:127] Top shape: 32 384 7 7 (602112)
I0805 12:56:13.498395 12393 layer_factory.hpp:74] Creating layer inception_5b/relu_1x1
I0805 12:56:13.498409 12393 net.cpp:90] Creating Layer inception_5b/relu_1x1
I0805 12:56:13.498437 12393 net.cpp:410] inception_5b/relu_1x1 <- inception_5b/1x1
I0805 12:56:13.498453 12393 net.cpp:357] inception_5b/relu_1x1 -> inception_5b/1x1 (in-place)
I0805 12:56:13.498469 12393 net.cpp:120] Setting up inception_5b/relu_1x1
I0805 12:56:13.498495 12393 net.cpp:127] Top shape: 32 384 7 7 (602112)
I0805 12:56:13.498507 12393 layer_factory.hpp:74] Creating layer inception_5b/3x3_reduce
I0805 12:56:13.498520 12393 net.cpp:90] Creating Layer inception_5b/3x3_reduce
I0805 12:56:13.498543 12393 net.cpp:410] inception_5b/3x3_reduce <- inception_5a/output_inception_5a/output_0_split_1
I0805 12:56:13.498558 12393 net.cpp:368] inception_5b/3x3_reduce -> inception_5b/3x3_reduce
I0805 12:56:13.498577 12393 net.cpp:120] Setting up inception_5b/3x3_reduce
I0805 12:56:13.500268 12393 net.cpp:127] Top shape: 32 192 7 7 (301056)
I0805 12:56:13.500288 12393 layer_factory.hpp:74] Creating layer inception_5b/relu_3x3_reduce
I0805 12:56:13.500301 12393 net.cpp:90] Creating Layer inception_5b/relu_3x3_reduce
I0805 12:56:13.500315 12393 net.cpp:410] inception_5b/relu_3x3_reduce <- inception_5b/3x3_reduce
I0805 12:56:13.500330 12393 net.cpp:357] inception_5b/relu_3x3_reduce -> inception_5b/3x3_reduce (in-place)
I0805 12:56:13.500346 12393 net.cpp:120] Setting up inception_5b/relu_3x3_reduce
I0805 12:56:13.500361 12393 net.cpp:127] Top shape: 32 192 7 7 (301056)
I0805 12:56:13.500373 12393 layer_factory.hpp:74] Creating layer inception_5b/3x3
I0805 12:56:13.500386 12393 net.cpp:90] Creating Layer inception_5b/3x3
I0805 12:56:13.500396 12393 net.cpp:410] inception_5b/3x3 <- inception_5b/3x3_reduce
I0805 12:56:13.500412 12393 net.cpp:368] inception_5b/3x3 -> inception_5b/3x3
I0805 12:56:13.500463 12393 net.cpp:120] Setting up inception_5b/3x3
I0805 12:56:13.507297 12393 net.cpp:127] Top shape: 32 384 7 7 (602112)
I0805 12:56:13.507315 12393 layer_factory.hpp:74] Creating layer inception_5b/relu_3x3
I0805 12:56:13.507328 12393 net.cpp:90] Creating Layer inception_5b/relu_3x3
I0805 12:56:13.507341 12393 net.cpp:410] inception_5b/relu_3x3 <- inception_5b/3x3
I0805 12:56:13.507354 12393 net.cpp:357] inception_5b/relu_3x3 -> inception_5b/3x3 (in-place)
I0805 12:56:13.507369 12393 net.cpp:120] Setting up inception_5b/relu_3x3
I0805 12:56:13.507380 12393 net.cpp:127] Top shape: 32 384 7 7 (602112)
I0805 12:56:13.507393 12393 layer_factory.hpp:74] Creating layer inception_5b/5x5_reduce
I0805 12:56:13.507411 12393 net.cpp:90] Creating Layer inception_5b/5x5_reduce
I0805 12:56:13.507428 12393 net.cpp:410] inception_5b/5x5_reduce <- inception_5a/output_inception_5a/output_0_split_2
I0805 12:56:13.507448 12393 net.cpp:368] inception_5b/5x5_reduce -> inception_5b/5x5_reduce
I0805 12:56:13.507465 12393 net.cpp:120] Setting up inception_5b/5x5_reduce
I0805 12:56:13.507889 12393 net.cpp:127] Top shape: 32 48 7 7 (75264)
I0805 12:56:13.507906 12393 layer_factory.hpp:74] Creating layer inception_5b/relu_5x5_reduce
I0805 12:56:13.507918 12393 net.cpp:90] Creating Layer inception_5b/relu_5x5_reduce
I0805 12:56:13.507928 12393 net.cpp:410] inception_5b/relu_5x5_reduce <- inception_5b/5x5_reduce
I0805 12:56:13.507942 12393 net.cpp:357] inception_5b/relu_5x5_reduce -> inception_5b/5x5_reduce (in-place)
I0805 12:56:13.507958 12393 net.cpp:120] Setting up inception_5b/relu_5x5_reduce
I0805 12:56:13.507971 12393 net.cpp:127] Top shape: 32 48 7 7 (75264)
I0805 12:56:13.507979 12393 layer_factory.hpp:74] Creating layer inception_5b/5x5
I0805 12:56:13.507992 12393 net.cpp:90] Creating Layer inception_5b/5x5
I0805 12:56:13.508002 12393 net.cpp:410] inception_5b/5x5 <- inception_5b/5x5_reduce
I0805 12:56:13.508018 12393 net.cpp:368] inception_5b/5x5 -> inception_5b/5x5
I0805 12:56:13.508044 12393 net.cpp:120] Setting up inception_5b/5x5
I0805 12:56:13.509580 12393 net.cpp:127] Top shape: 32 128 7 7 (200704)
I0805 12:56:13.509598 12393 layer_factory.hpp:74] Creating layer inception_5b/relu_5x5
I0805 12:56:13.509613 12393 net.cpp:90] Creating Layer inception_5b/relu_5x5
I0805 12:56:13.509627 12393 net.cpp:410] inception_5b/relu_5x5 <- inception_5b/5x5
I0805 12:56:13.509640 12393 net.cpp:357] inception_5b/relu_5x5 -> inception_5b/5x5 (in-place)
I0805 12:56:13.509652 12393 net.cpp:120] Setting up inception_5b/relu_5x5
I0805 12:56:13.509665 12393 net.cpp:127] Top shape: 32 128 7 7 (200704)
I0805 12:56:13.509673 12393 layer_factory.hpp:74] Creating layer inception_5b/pool
I0805 12:56:13.509688 12393 net.cpp:90] Creating Layer inception_5b/pool
I0805 12:56:13.509699 12393 net.cpp:410] inception_5b/pool <- inception_5a/output_inception_5a/output_0_split_3
I0805 12:56:13.509712 12393 net.cpp:368] inception_5b/pool -> inception_5b/pool
I0805 12:56:13.509728 12393 net.cpp:120] Setting up inception_5b/pool
I0805 12:56:13.509747 12393 net.cpp:127] Top shape: 32 832 7 7 (1304576)
I0805 12:56:13.509759 12393 layer_factory.hpp:74] Creating layer inception_5b/pool_proj
I0805 12:56:13.509773 12393 net.cpp:90] Creating Layer inception_5b/pool_proj
I0805 12:56:13.509799 12393 net.cpp:410] inception_5b/pool_proj <- inception_5b/pool
I0805 12:56:13.509822 12393 net.cpp:368] inception_5b/pool_proj -> inception_5b/pool_proj
I0805 12:56:13.509841 12393 net.cpp:120] Setting up inception_5b/pool_proj
I0805 12:56:13.510926 12393 net.cpp:127] Top shape: 32 128 7 7 (200704)
I0805 12:56:13.510943 12393 layer_factory.hpp:74] Creating layer inception_5b/relu_pool_proj
I0805 12:56:13.510957 12393 net.cpp:90] Creating Layer inception_5b/relu_pool_proj
I0805 12:56:13.510967 12393 net.cpp:410] inception_5b/relu_pool_proj <- inception_5b/pool_proj
I0805 12:56:13.510978 12393 net.cpp:357] inception_5b/relu_pool_proj -> inception_5b/pool_proj (in-place)
I0805 12:56:13.510992 12393 net.cpp:120] Setting up inception_5b/relu_pool_proj
I0805 12:56:13.511003 12393 net.cpp:127] Top shape: 32 128 7 7 (200704)
I0805 12:56:13.511013 12393 layer_factory.hpp:74] Creating layer inception_5b/output
I0805 12:56:13.511026 12393 net.cpp:90] Creating Layer inception_5b/output
I0805 12:56:13.511035 12393 net.cpp:410] inception_5b/output <- inception_5b/1x1
I0805 12:56:13.511046 12393 net.cpp:410] inception_5b/output <- inception_5b/3x3
I0805 12:56:13.511056 12393 net.cpp:410] inception_5b/output <- inception_5b/5x5
I0805 12:56:13.511066 12393 net.cpp:410] inception_5b/output <- inception_5b/pool_proj
I0805 12:56:13.511077 12393 net.cpp:368] inception_5b/output -> inception_5b/output
I0805 12:56:13.511090 12393 net.cpp:120] Setting up inception_5b/output
I0805 12:56:13.511104 12393 net.cpp:127] Top shape: 32 1024 7 7 (1605632)
I0805 12:56:13.511114 12393 layer_factory.hpp:74] Creating layer pool5/7x7_s1
I0805 12:56:13.511132 12393 net.cpp:90] Creating Layer pool5/7x7_s1
I0805 12:56:13.511165 12393 net.cpp:410] pool5/7x7_s1 <- inception_5b/output
I0805 12:56:13.511184 12393 net.cpp:368] pool5/7x7_s1 -> pool5/7x7_s1
I0805 12:56:13.511200 12393 net.cpp:120] Setting up pool5/7x7_s1
I0805 12:56:13.511217 12393 net.cpp:127] Top shape: 32 1024 1 1 (32768)
I0805 12:56:13.511229 12393 layer_factory.hpp:74] Creating layer pool5/drop_7x7_s1
I0805 12:56:13.511256 12393 net.cpp:90] Creating Layer pool5/drop_7x7_s1
I0805 12:56:13.511270 12393 net.cpp:410] pool5/drop_7x7_s1 <- pool5/7x7_s1
I0805 12:56:13.511289 12393 net.cpp:357] pool5/drop_7x7_s1 -> pool5/7x7_s1 (in-place)
I0805 12:56:13.511303 12393 net.cpp:120] Setting up pool5/drop_7x7_s1
I0805 12:56:13.511318 12393 net.cpp:127] Top shape: 32 1024 1 1 (32768)
I0805 12:56:13.511329 12393 layer_factory.hpp:74] Creating layer ft_loss3/classifier
I0805 12:56:13.511344 12393 net.cpp:90] Creating Layer ft_loss3/classifier
I0805 12:56:13.511353 12393 net.cpp:410] ft_loss3/classifier <- pool5/7x7_s1
I0805 12:56:13.511369 12393 net.cpp:368] ft_loss3/classifier -> ft_loss3/classifier
I0805 12:56:13.511394 12393 net.cpp:120] Setting up ft_loss3/classifier
I0805 12:56:13.511456 12393 net.cpp:127] Top shape: 32 2 (64)
I0805 12:56:13.511476 12393 layer_factory.hpp:74] Creating layer loss3/loss3
I0805 12:56:13.511492 12393 net.cpp:90] Creating Layer loss3/loss3
I0805 12:56:13.511513 12393 net.cpp:410] loss3/loss3 <- ft_loss3/classifier
I0805 12:56:13.511525 12393 net.cpp:410] loss3/loss3 <- label_data_1_split_2
I0805 12:56:13.511538 12393 net.cpp:368] loss3/loss3 -> loss3/loss3
I0805 12:56:13.511553 12393 net.cpp:120] Setting up loss3/loss3
…
I0805 12:56:13.518034 12393 solver.cpp:154] Creating test net (#0) specified by net file: /home/kruchinin_d/Projects/scaling-archer/nn/bvlc_googlenet/train_val.prototxt
I0805 12:56:13.518242 12393 net.cpp:287] The NetState phase (1) differed from the phase (0) specified by a rule in layer data
I0805 12:56:13.519289 12393 net.cpp:42] Initializing net from parameters: 
name: "FullTrain_GoogleNet"
state {
  phase: TEST
}
layer {
  name: "data"
  type: "ImageData"
  top: "data"
  top: "label"
  include {
    phase: TEST
  }
  image_data_param {
    source: "/home/kruchinin_d/Projects/KITTI/prepared_data/test.txt"
    batch_size: 50
  }
}
layer {
  name: "conv1/7x7_s2"
  type: "Convolution"
  bottom: "data"
  top: "conv1/7x7_s2"
  param {
    lr_mult: 1
    decay_mult: 1
  }
  param {
    lr_mult: 2
    decay_mult: 0
  }
  convolution_param {
    num_output: 64
    pad: 3
    kernel_size: 7
    stride: 2
    weight_filler {
      type: "xavier"
    }
    bias_filler {
      type: "constant"
      value: 0.2
    }
  }
}
layer {
  name: "conv1/relu_7x7"
  type: "ReLU"
  bottom: "conv1/7x7_s2"
  top: "conv1/7x7_s2"
}
layer {
  name: "pool1/3x3_s2"
  type: "Pooling"
  bottom: "conv1/7x7_s2"
  top: "pool1/3x3_s2"
  pooling_param {
    pool: MAX
    kernel_size: 3
    stride: 2
  }
}
layer {
  name: "pool1/norm1"
  type: "LRN"
  bottom: "pool1/3x3_s2"
  top: "pool1/norm1"
  lrn_param {
    local_size: 5
    alpha: 0.0001
    beta: 0.75
  }
}
layer {
  name: "conv2/3x3_reduce"
  type: "Convolution"
  bottom: "pool1/norm1"
  top: "conv2/3x3_reduce"
  param {
    lr_mult: 1
    decay_mult: 1
  }
  param {
    lr_mult: 2
    decay_mult: 0
  }
  convolution_param {
    num_output: 64
    kernel_size: 1
    weight_filler {
      type: "xavier"
    }
    bias_filler {
      type: "constant"
      value: 0.2
    }
  }
}
layer {
  name: "conv2/relu_3x3_reduce"
  type: "ReLU"
  bottom: "conv2/3x3_reduce"
  top: "conv2/3x3_reduce"
}
layer {
  name: "conv2/3x3"
  type: "Convolution"
  bottom: "conv2/3x3_reduce"
  top: "conv2/3x3"
  param {
    lr_mult: 1
    decay_mult: 1
  }
  param {
    lr_mult: 2
    decay_mult: 0
  }
  convolution_param {
    num_output: 192
    pad: 1
    kernel_size: 3
    weight_filler {
      type: "xavier"
    }
    bias_filler {
      type: "constant"
      value: 0.2
    }
  }
}
layer {
  name: "conv2/relu_3x3"
  type: "ReLU"
  bottom: "conv2/3x3"
  top: "conv2/3x3"
}
layer {
  name: "conv2/norm2"
  type: "LRN"
  bottom: "conv2/3x3"
  top: "conv2/norm2"
  lrn_param {
    local_size: 5
    alpha: 0.0001
    beta: 0.75
  }
}
layer {
  name: "pool2/3x3_s2"
  type: "Pooling"
  bottom: "conv2/norm2"
  top: "pool2/3x3_s2"
  pooling_param {
    pool: MAX
    kernel_size: 3
    stride: 2
  }
}
layer {
  name: "inception_3a/1x1"
  type: "Convolution"
  bottom: "pool2/3x3_s2"
  top: "inception_3a/1x1"
  param {
    lr_mult: 1
    decay_mult: 1
  }
  param {
    lr_mult: 2
    decay_mult: 0
  }
  convolution_param {
    num_output: 64
    kernel_size: 1
    weight_filler {
      type: "xavier"
    }
    bias_filler {
      type: "constant"
      value: 0.2
    }
  }
}
layer {
  name: "inception_3a/relu_1x1"
  type: "ReLU"
  bottom: "inception_3a/1x1"
  top: "inception_3a/1x1"
}
layer {
  name: "inception_3a/3x3_reduce"
  type: "Convolution"
  bottom: "pool2/3x3_s2"
  top: "inception_3a/3x3_reduce"
  param {
    lr_mult: 1
    decay_mult: 1
  }
  param {
    lr_mult: 2
    decay_mult: 0
  }
  convolution_param {
    num_output: 96
    kernel_size: 1
    weight_filler {
      type: "xavier"
    }
    bias_filler {
      type: "constant"
      value: 0.2
    }
  }
}
layer {
  name: "inception_3a/relu_3x3_reduce"
  type: "ReLU"
  bottom: "inception_3a/3x3_reduce"
  top: "inception_3a/3x3_reduce"
}
layer {
  name: "inception_3a/3x3"
  type: "Convolution"
  bottom: "inception_3a/3x3_reduce"
  top: "inception_3a/3x3"
  param {
    lr_mult: 1
    decay_mult: 1
  }
  param {
    lr_mult: 2
    decay_mult: 0
  }
  convolution_param {
    num_output: 128
    pad: 1
    kernel_size: 3
    weight_filler {
      type: "xavier"
    }
    bias_filler {
      type: "constant"
      value: 0.2
    }
  }
}
layer {
  name: "inception_3a/relu_3x3"
  type: "ReLU"
  bottom: "inception_3a/3x3"
  top: "inception_3a/3x3"
}
layer {
  name: "inception_3a/5x5_reduce"
  type: "Convolution"
  bottom: "pool2/3x3_s2"
  top: "inception_3a/5x5_reduce"
  param {
    lr_mult: 1
    decay_mult: 1
  }
  param {
    lr_mult: 2
    decay_mult: 0
  }
  convolution_param {
    num_output: 16
    kernel_size: 1
    weight_filler {
      type: "xavier"
    }
    bias_filler {
      type: "constant"
      value: 0.2
    }
  }
}
layer {
  name: "inception_3a/relu_5x5_reduce"
  type: "ReLU"
  bottom: "inception_3a/5x5_reduce"
  top: "inception_3a/5x5_reduce"
}
layer {
  name: "inception_3a/5x5"
  type: "Convolution"
  bottom: "inception_3a/5x5_reduce"
  top: "inception_3a/5x5"
  param {
    lr_mult: 1
    decay_mult: 1
  }
  param {
    lr_mult: 2
    decay_mult: 0
  }
  convolution_param {
    num_output: 32
    pad: 2
    kernel_size: 5
    weight_filler {
      type: "xavier"
    }
    bias_filler {
      type: "constant"
      value: 0.2
    }
  }
}
layer {
  name: "inception_3a/relu_5x5"
  type: "ReLU"
  bottom: "inception_3a/5x5"
  top: "inception_3a/5x5"
}
layer {
  name: "inception_3a/pool"
  type: "Pooling"
  bottom: "pool2/3x3_s2"
  top: "inception_3a/pool"
  pooling_param {
    pool: MAX
    kernel_size: 3
    stride: 1
    pad: 1
  }
}
layer {
  name: "inception_3a/pool_proj"
  type: "Convolution"
  bottom: "inception_3a/pool"
  top: "inception_3a/pool_proj"
  param {
    lr_mult: 1
    decay_mult: 1
  }
  param {
    lr_mult: 2
    decay_mult: 0
  }
  convolution_param {
    num_output: 32
    kernel_size: 1
    weight_filler {
      type: "xavier"
    }
    bias_filler {
      type: "constant"
      value: 0.2
    }
  }
}
layer {
  name: "inception_3a/relu_pool_proj"
  type: "ReLU"
  bottom: "inception_3a/pool_proj"
  top: "inception_3a/pool_proj"
}
layer {
  name: "inception_3a/output"
  type: "Concat"
  bottom: "inception_3a/1x1"
  bottom: "inception_3a/3x3"
  bottom: "inception_3a/5x5"
  bottom: "inception_3a/pool_proj"
  top: "inception_3a/output"
}
layer {
  name: "inception_3b/1x1"
  type: "Convolution"
  bottom: "inception_3a/output"
  top: "inception_3b/1x1"
  param {
    lr_mult: 1
    decay_mult: 1
  }
  param {
    lr_mult: 2
    decay_mult: 0
  }
  convolution_param {
    num_output: 128
    kernel_size: 1
    weight_filler {
      type: "xavier"
    }
    bias_filler {
      type: "constant"
      value: 0.2
    }
  }
}
layer {
  name: "inception_3b/relu_1x1"
  type: "ReLU"
  bottom: "inception_3b/1x1"
  top: "inception_3b/1x1"
}
layer {
  name: "inception_3b/3x3_reduce"
  type: "Convolution"
  bottom: "inception_3a/output"
  top: "inception_3b/3x3_reduce"
  param {
    lr_mult: 1
    decay_mult: 1
  }
  param {
    lr_mult: 2
    decay_mult: 0
  }
  convolution_param {
    num_output: 128
    kernel_size: 1
    weight_filler {
      type: "xavier"
    }
    bias_filler {
      type: "constant"
      value: 0.2
    }
  }
}
layer {
  name: "inception_3b/relu_3x3_reduce"
  type: "ReLU"
  bottom: "inception_3b/3x3_reduce"
  top: "inception_3b/3x3_reduce"
}
layer {
  name: "inception_3b/3x3"
  type: "Convolution"
  bottom: "inception_3b/3x3_reduce"
  top: "inception_3b/3x3"
  param {
    lr_mult: 1
    decay_mult: 1
  }
  param {
    lr_mult: 2
    decay_mult: 0
  }
  convolution_param {
    num_output: 192
    pad: 1
    kernel_size: 3
    weight_filler {
      type: "xavier"
    }
    bias_filler {
      type: "constant"
      value: 0.2
    }
  }
}
layer {
  name: "inception_3b/relu_3x3"
  type: "ReLU"
  bottom: "inception_3b/3x3"
  top: "inception_3b/3x3"
}
layer {
  name: "inception_3b/5x5_reduce"
  type: "Convolution"
  bottom: "inception_3a/output"
  top: "inception_3b/5x5_reduce"
  param {
    lr_mult: 1
    decay_mult: 1
  }
  param {
    lr_mult: 2
    decay_mult: 0
  }
  convolution_param {
    num_output: 32
    kernel_size: 1
    weight_filler {
      type: "xavier"
    }
    bias_filler {
      type: "constant"
      value: 0.2
    }
  }
}
layer {
  name: "inception_3b/relu_5x5_reduce"
  type: "ReLU"
  bottom: "inception_3b/5x5_reduce"
  top: "inception_3b/5x5_reduce"
}
layer {
  name: "inception_3b/5x5"
  type: "Convolution"
  bottom: "inception_3b/5x5_reduce"
  top: "inception_3b/5x5"
  param {
    lr_mult: 1
    decay_mult: 1
  }
  param {
    lr_mult: 2
    decay_mult: 0
  }
  convolution_param {
    num_output: 96
    pad: 2
    kernel_size: 5
    weight_filler {
      type: "xavier"
    }
    bias_filler {
      type: "constant"
      value: 0.2
    }
  }
}
layer {
  name: "inception_3b/relu_5x5"
  type: "ReLU"
  bottom: "inception_3b/5x5"
  top: "inception_3b/5x5"
}
layer {
  name: "inception_3b/pool"
  type: "Pooling"
  bottom: "inception_3a/output"
  top: "inception_3b/pool"
  pooling_param {
    pool: MAX
    kernel_size: 3
    stride: 1
    pad: 1
  }
}
layer {
  name: "inception_3b/pool_proj"
  type: "Convolution"
  bottom: "inception_3b/pool"
  top: "inception_3b/pool_proj"
  param {
    lr_mult: 1
    decay_mult: 1
  }
  param {
    lr_mult: 2
    decay_mult: 0
  }
  convolution_param {
    num_output: 64
    kernel_size: 1
    weight_filler {
      type: "xavier"
    }
    bias_filler {
      type: "constant"
      value: 0.2
    }
  }
}
layer {
  name: "inception_3b/relu_pool_proj"
  type: "ReLU"
  bottom: "inception_3b/pool_proj"
  top: "inception_3b/pool_proj"
}
layer {
  name: "inception_3b/output"
  type: "Concat"
  bottom: "inception_3b/1x1"
  bottom: "inception_3b/3x3"
  bottom: "inception_3b/5x5"
  bottom: "inception_3b/pool_proj"
  top: "inception_3b/output"
}
layer {
  name: "pool3/3x3_s2"
  type: "Pooling"
  bottom: "inception_3b/output"
  top: "pool3/3x3_s2"
  pooling_param {
    pool: MAX
    kernel_size: 3
    stride: 2
  }
}
layer {
  name: "inception_4a/1x1"
  type: "Convolution"
  bottom: "pool3/3x3_s2"
  top: "inception_4a/1x1"
  param {
    lr_mult: 1
    decay_mult: 1
  }
  param {
    lr_mult: 2
    decay_mult: 0
  }
  convolution_param {
    num_output: 192
    kernel_size: 1
    weight_filler {
      type: "xavier"
    }
    bias_filler {
      type: "constant"
      value: 0.2
    }
  }
}
layer {
  name: "inception_4a/relu_1x1"
  type: "ReLU"
  bottom: "inception_4a/1x1"
  top: "inception_4a/1x1"
}
layer {
  name: "inception_4a/3x3_reduce"
  type: "Convolution"
  bottom: "pool3/3x3_s2"
  top: "inception_4a/3x3_reduce"
  param {
    lr_mult: 1
    decay_mult: 1
  }
  param {
    lr_mult: 2
    decay_mult: 0
  }
  convolution_param {
    num_output: 96
    kernel_size: 1
    weight_filler {
      type: "xavier"
    }
    bias_filler {
      type: "constant"
      value: 0.2
    }
  }
}
layer {
  name: "inception_4a/relu_3x3_reduce"
  type: "ReLU"
  bottom: "inception_4a/3x3_reduce"
  top: "inception_4a/3x3_reduce"
}
layer {
  name: "inception_4a/3x3"
  type: "Convolution"
  bottom: "inception_4a/3x3_reduce"
  top: "inception_4a/3x3"
  param {
    lr_mult: 1
    decay_mult: 1
  }
  param {
    lr_mult: 2
    decay_mult: 0
  }
  convolution_param {
    num_output: 208
    pad: 1
    kernel_size: 3
    weight_filler {
      type: "xavier"
    }
    bias_filler {
      type: "constant"
      value: 0.2
    }
  }
}
layer {
  name: "inception_4a/relu_3x3"
  type: "ReLU"
  bottom: "inception_4a/3x3"
  top: "inception_4a/3x3"
}
layer {
  name: "inception_4a/5x5_reduce"
  type: "Convolution"
  bottom: "pool3/3x3_s2"
  top: "inception_4a/5x5_reduce"
  param {
    lr_mult: 1
    decay_mult: 1
  }
  param {
    lr_mult: 2
    decay_mult: 0
  }
  convolution_param {
    num_output: 16
    kernel_size: 1
    weight_filler {
      type: "xavier"
    }
    bias_filler {
      type: "constant"
      value: 0.2
    }
  }
}
layer {
  name: "inception_4a/relu_5x5_reduce"
  type: "ReLU"
  bottom: "inception_4a/5x5_reduce"
  top: "inception_4a/5x5_reduce"
}
layer {
  name: "inception_4a/5x5"
  type: "Convolution"
  bottom: "inception_4a/5x5_reduce"
  top: "inception_4a/5x5"
  param {
    lr_mult: 1
    decay_mult: 1
  }
  param {
    lr_mult: 2
    decay_mult: 0
  }
  convolution_param {
    num_output: 48
    pad: 2
    kernel_size: 5
    weight_filler {
      type: "xavier"
    }
    bias_filler {
      type: "constant"
      value: 0.2
    }
  }
}
layer {
  name: "inception_4a/relu_5x5"
  type: "ReLU"
  bottom: "inception_4a/5x5"
  top: "inception_4a/5x5"
}
layer {
  name: "inception_4a/pool"
  type: "Pooling"
  bottom: "pool3/3x3_s2"
  top: "inception_4a/pool"
  pooling_param {
    pool: MAX
    kernel_size: 3
    stride: 1
    pad: 1
  }
}
layer {
  name: "inception_4a/pool_proj"
  type: "Convolution"
  bottom: "inception_4a/pool"
  top: "inception_4a/pool_proj"
  param {
    lr_mult: 1
    decay_mult: 1
  }
  param {
    lr_mult: 2
    decay_mult: 0
  }
  convolution_param {
    num_output: 64
    kernel_size: 1
    weight_filler {
      type: "xavier"
    }
    bias_filler {
      type: "constant"
      value: 0.2
    }
  }
}
layer {
  name: "inception_4a/relu_pool_proj"
  type: "ReLU"
  bottom: "inception_4a/pool_proj"
  top: "inception_4a/pool_proj"
}
layer {
  name: "inception_4a/output"
  type: "Concat"
  bottom: "inception_4a/1x1"
  bottom: "inception_4a/3x3"
  bottom: "inception_4a/5x5"
  bottom: "inception_4a/pool_proj"
  top: "inception_4a/output"
}
layer {
  name: "loss1/ave_pool"
  type: "Pooling"
  bottom: "inception_4a/output"
  top: "loss1/ave_pool"
  pooling_param {
    pool: AVE
    kernel_size: 5
    stride: 3
  }
}
layer {
  name: "loss1/conv"
  type: "Convolution"
  bottom: "loss1/ave_pool"
  top: "loss1/conv"
  param {
    lr_mult: 1
    decay_mult: 1
  }
  param {
    lr_mult: 2
    decay_mult: 0
  }
  convolution_param {
    num_output: 128
    kernel_size: 1
    weight_filler {
      type: "xavier"
    }
    bias_filler {
      type: "constant"
      value: 0.2
    }
  }
}
layer {
  name: "loss1/relu_conv"
  type: "ReLU"
  bottom: "loss1/conv"
  top: "loss1/conv"
}
layer {
  name: "loss1/fc"
  type: "InnerProduct"
  bottom: "loss1/conv"
  top: "loss1/fc"
  param {
    lr_mult: 1
    decay_mult: 1
  }
  param {
    lr_mult: 2
    decay_mult: 0
  }
  inner_product_param {
    num_output: 1024
    weight_filler {
      type: "xavier"
    }
    bias_filler {
      type: "constant"
      value: 0.2
    }
  }
}
layer {
  name: "loss1/relu_fc"
  type: "ReLU"
  bottom: "loss1/fc"
  top: "loss1/fc"
}
layer {
  name: "loss1/drop_fc"
  type: "Dropout"
  bottom: "loss1/fc"
  top: "loss1/fc"
  dropout_param {
    dropout_ratio: 0.7
  }
}
layer {
  name: "ft_loss1/classifier"
  type: "InnerProduct"
  bottom: "loss1/fc"
  top: "ft_loss1/classifier"
  param {
    lr_mult: 1
    decay_mult: 1
  }
  param {
    lr_mult: 2
    decay_mult: 0
  }
  inner_product_param {
    num_output: 2
    weight_filler {
      type: "xavier"
    }
    bias_filler {
      type: "constant"
      value: 0
    }
  }
}
layer {
  name: "loss1/loss"
  type: "SoftmaxWithLoss"
  bottom: "ft_loss1/classifier"
  bottom: "label"
  top: "loss1/loss1"
  loss_weight: 0.3
}
layer {
  name: "loss1/top-1"
  type: "Accuracy"
  bottom: "ft_loss1/classifier"
  bottom: "label"
  top: "loss1/top-1"
  include {
    phase: TEST
  }
}
layer {
  name: "inception_4b/1x1"
  type: "Convolution"
  bottom: "inception_4a/output"
  top: "inception_4b/1x1"
  param {
    lr_mult: 1
    decay_mult: 1
  }
  param {
    lr_mult: 2
    decay_mult: 0
  }
  convolution_param {
    num_output: 160
    kernel_size: 1
    weight_filler {
      type: "xavier"
    }
    bias_filler {
      type: "constant"
      value: 0.2
    }
  }
}
layer {
  name: "inception_4b/relu_1x1"
  type: "ReLU"
  bottom: "inception_4b/1x1"
  top: "inception_4b/1x1"
}
layer {
  name: "inception_4b/3x3_reduce"
  type: "Convolution"
  bottom: "inception_4a/output"
  top: "inception_4b/3x3_reduce"
  param {
    lr_mult: 1
    decay_mult: 1
  }
  param {
    lr_mult: 2
    decay_mult: 0
  }
  convolution_param {
    num_output: 112
    kernel_size: 1
    weight_filler {
      type: "xavier"
    }
    bias_filler {
      type: "constant"
      value: 0.2
    }
  }
}
layer {
  name: "inception_4b/relu_3x3_reduce"
  type: "ReLU"
  bottom: "inception_4b/3x3_reduce"
  top: "inception_4b/3x3_reduce"
}
layer {
  name: "inception_4b/3x3"
  type: "Convolution"
  bottom: "inception_4b/3x3_reduce"
  top: "inception_4b/3x3"
  param {
    lr_mult: 1
    decay_mult: 1
  }
  param {
    lr_mult: 2
    decay_mult: 0
  }
  convolution_param {
    num_output: 224
    pad: 1
    kernel_size: 3
    weight_filler {
      type: "xavier"
    }
    bias_filler {
      type: "constant"
      value: 0.2
    }
  }
}
layer {
  name: "inception_4b/relu_3x3"
  type: "ReLU"
  bottom: "inception_4b/3x3"
  top: "inception_4b/3x3"
}
layer {
  name: "inception_4b/5x5_reduce"
  type: "Convolution"
  bottom: "inception_4a/output"
  top: "inception_4b/5x5_reduce"
  param {
    lr_mult: 1
    decay_mult: 1
  }
  param {
    lr_mult: 2
    decay_mult: 0
  }
  convolution_param {
    num_output: 24
    kernel_size: 1
    weight_filler {
      type: "xavier"
    }
    bias_filler {
      type: "constant"
      value: 0.2
    }
  }
}
layer {
  name: "inception_4b/relu_5x5_reduce"
  type: "ReLU"
  bottom: "inception_4b/5x5_reduce"
  top: "inception_4b/5x5_reduce"
}
layer {
  name: "inception_4b/5x5"
  type: "Convolution"
  bottom: "inception_4b/5x5_reduce"
  top: "inception_4b/5x5"
  param {
    lr_mult: 1
    decay_mult: 1
  }
  param {
    lr_mult: 2
    decay_mult: 0
  }
  convolution_param {
    num_output: 64
    pad: 2
    kernel_size: 5
    weight_filler {
      type: "xavier"
    }
    bias_filler {
      type: "constant"
      value: 0.2
    }
  }
}
layer {
  name: "inception_4b/relu_5x5"
  type: "ReLU"
  bottom: "inception_4b/5x5"
  top: "inception_4b/5x5"
}
layer {
  name: "inception_4b/pool"
  type: "Pooling"
  bottom: "inception_4a/output"
  top: "inception_4b/pool"
  pooling_param {
    pool: MAX
    kernel_size: 3
    stride: 1
    pad: 1
  }
}
layer {
  name: "inception_4b/pool_proj"
  type: "Convolution"
  bottom: "inception_4b/pool"
  top: "inception_4b/pool_proj"
  param {
    lr_mult: 1
    decay_mult: 1
  }
  param {
    lr_mult: 2
    decay_mult: 0
  }
  convolution_param {
    num_output: 64
    kernel_size: 1
    weight_filler {
      type: "xavier"
    }
    bias_filler {
      type: "constant"
      value: 0.2
    }
  }
}
layer {
  name: "inception_4b/relu_pool_proj"
  type: "ReLU"
  bottom: "inception_4b/pool_proj"
  top: "inception_4b/pool_proj"
}
layer {
  name: "inception_4b/output"
  type: "Concat"
  bottom: "inception_4b/1x1"
  bottom: "inception_4b/3x3"
  bottom: "inception_4b/5x5"
  bottom: "inception_4b/pool_proj"
  top: "inception_4b/output"
}
layer {
  name: "inception_4c/1x1"
  type: "Convolution"
  bottom: "inception_4b/output"
  top: "inception_4c/1x1"
  param {
    lr_mult: 1
    decay_mult: 1
  }
  param {
    lr_mult: 2
    decay_mult: 0
  }
  convolution_param {
    num_output: 128
    kernel_size: 1
    weight_filler {
      type: "xavier"
    }
    bias_filler {
      type: "constant"
      value: 0.2
    }
  }
}
layer {
  name: "inception_4c/relu_1x1"
  type: "ReLU"
  bottom: "inception_4c/1x1"
  top: "inception_4c/1x1"
}
layer {
  name: "inception_4c/3x3_reduce"
  type: "Convolution"
  bottom: "inception_4b/output"
  top: "inception_4c/3x3_reduce"
  param {
    lr_mult: 1
    decay_mult: 1
  }
  param {
    lr_mult: 2
    decay_mult: 0
  }
  convolution_param {
    num_output: 128
    kernel_size: 1
    weight_filler {
      type: "xavier"
    }
    bias_filler {
      type: "constant"
      value: 0.2
    }
  }
}
layer {
  name: "inception_4c/relu_3x3_reduce"
  type: "ReLU"
  bottom: "inception_4c/3x3_reduce"
  top: "inception_4c/3x3_reduce"
}
layer {
  name: "inception_4c/3x3"
  type: "Convolution"
  bottom: "inception_4c/3x3_reduce"
  top: "inception_4c/3x3"
  param {
    lr_mult: 1
    decay_mult: 1
  }
  param {
    lr_mult: 2
    decay_mult: 0
  }
  convolution_param {
    num_output: 256
    pad: 1
    kernel_size: 3
    weight_filler {
      type: "xavier"
    }
    bias_filler {
      type: "constant"
      value: 0.2
    }
  }
}
layer {
  name: "inception_4c/relu_3x3"
  type: "ReLU"
  bottom: "inception_4c/3x3"
  top: "inception_4c/3x3"
}
layer {
  name: "inception_4c/5x5_reduce"
  type: "Convolution"
  bottom: "inception_4b/output"
  top: "inception_4c/5x5_reduce"
  param {
    lr_mult: 1
    decay_mult: 1
  }
  param {
    lr_mult: 2
    decay_mult: 0
  }
  convolution_param {
    num_output: 24
    kernel_size: 1
    weight_filler {
      type: "xavier"
    }
    bias_filler {
      type: "constant"
      value: 0.2
    }
  }
}
layer {
  name: "inception_4c/relu_5x5_reduce"
  type: "ReLU"
  bottom: "inception_4c/5x5_reduce"
  top: "inception_4c/5x5_reduce"
}
layer {
  name: "inception_4c/5x5"
  type: "Convolution"
  bottom: "inception_4c/5x5_reduce"
  top: "inception_4c/5x5"
  param {
    lr_mult: 1
    decay_mult: 1
  }
  param {
    lr_mult: 2
    decay_mult: 0
  }
  convolution_param {
    num_output: 64
    pad: 2
    kernel_size: 5
    weight_filler {
      type: "xavier"
    }
    bias_filler {
      type: "constant"
      value: 0.2
    }
  }
}
layer {
  name: "inception_4c/relu_5x5"
  type: "ReLU"
  bottom: "inception_4c/5x5"
  top: "inception_4c/5x5"
}
layer {
  name: "inception_4c/pool"
  type: "Pooling"
  bottom: "inception_4b/output"
  top: "inception_4c/pool"
  pooling_param {
    pool: MAX
    kernel_size: 3
    stride: 1
    pad: 1
  }
}
layer {
  name: "inception_4c/pool_proj"
  type: "Convolution"
  bottom: "inception_4c/pool"
  top: "inception_4c/pool_proj"
  param {
    lr_mult: 1
    decay_mult: 1
  }
  param {
    lr_mult: 2
    decay_mult: 0
  }
  convolution_param {
    num_output: 64
    kernel_size: 1
    weight_filler {
      type: "xavier"
    }
    bias_filler {
      type: "constant"
      value: 0.2
    }
  }
}
layer {
  name: "inception_4c/relu_pool_proj"
  type: "ReLU"
  bottom: "inception_4c/pool_proj"
  top: "inception_4c/pool_proj"
}
layer {
  name: "inception_4c/output"
  type: "Concat"
  bottom: "inception_4c/1x1"
  bottom: "inception_4c/3x3"
  bottom: "inception_4c/5x5"
  bottom: "inception_4c/pool_proj"
  top: "inception_4c/output"
}
layer {
  name: "inception_4d/1x1"
  type: "Convolution"
  bottom: "inception_4c/output"
  top: "inception_4d/1x1"
  param {
    lr_mult: 1
    decay_mult: 1
  }
  param {
    lr_mult: 2
    decay_mult: 0
  }
  convolution_param {
    num_output: 112
    kernel_size: 1
    weight_filler {
      type: "xavier"
    }
    bias_filler {
      type: "constant"
      value: 0.2
    }
  }
}
layer {
  name: "inception_4d/relu_1x1"
  type: "ReLU"
  bottom: "inception_4d/1x1"
  top: "inception_4d/1x1"
}
layer {
  name: "inception_4d/3x3_reduce"
  type: "Convolution"
  bottom: "inception_4c/output"
  top: "inception_4d/3x3_reduce"
  param {
    lr_mult: 1
    decay_mult: 1
  }
  param {
    lr_mult: 2
    decay_mult: 0
  }
  convolution_param {
    num_output: 144
    kernel_size: 1
    weight_filler {
      type: "xavier"
    }
    bias_filler {
      type: "constant"
      value: 0.2
    }
  }
}
layer {
  name: "inception_4d/relu_3x3_reduce"
  type: "ReLU"
  bottom: "inception_4d/3x3_reduce"
  top: "inception_4d/3x3_reduce"
}
layer {
  name: "inception_4d/3x3"
  type: "Convolution"
  bottom: "inception_4d/3x3_reduce"
  top: "inception_4d/3x3"
  param {
    lr_mult: 1
    decay_mult: 1
  }
  param {
    lr_mult: 2
    decay_mult: 0
  }
  convolution_param {
    num_output: 288
    pad: 1
    kernel_size: 3
    weight_filler {
      type: "xavier"
    }
    bias_filler {
      type: "constant"
      value: 0.2
    }
  }
}
layer {
  name: "inception_4d/relu_3x3"
  type: "ReLU"
  bottom: "inception_4d/3x3"
  top: "inception_4d/3x3"
}
layer {
  name: "inception_4d/5x5_reduce"
  type: "Convolution"
  bottom: "inception_4c/output"
  top: "inception_4d/5x5_reduce"
  param {
    lr_mult: 1
    decay_mult: 1
  }
  param {
    lr_mult: 2
    decay_mult: 0
  }
  convolution_param {
    num_output: 32
    kernel_size: 1
    weight_filler {
      type: "xavier"
    }
    bias_filler {
      type: "constant"
      value: 0.2
    }
  }
}
layer {
  name: "inception_4d/relu_5x5_reduce"
  type: "ReLU"
  bottom: "inception_4d/5x5_reduce"
  top: "inception_4d/5x5_reduce"
}
layer {
  name: "inception_4d/5x5"
  type: "Convolution"
  bottom: "inception_4d/5x5_reduce"
  top: "inception_4d/5x5"
  param {
    lr_mult: 1
    decay_mult: 1
  }
  param {
    lr_mult: 2
    decay_mult: 0
  }
  convolution_param {
    num_output: 64
    pad: 2
    kernel_size: 5
    weight_filler {
      type: "xavier"
    }
    bias_filler {
      type: "constant"
      value: 0.2
    }
  }
}
layer {
  name: "inception_4d/relu_5x5"
  type: "ReLU"
  bottom: "inception_4d/5x5"
  top: "inception_4d/5x5"
}
layer {
  name: "inception_4d/pool"
  type: "Pooling"
  bottom: "inception_4c/output"
  top: "inception_4d/pool"
  pooling_param {
    pool: MAX
    kernel_size: 3
    stride: 1
    pad: 1
  }
}
layer {
  name: "inception_4d/pool_proj"
  type: "Convolution"
  bottom: "inception_4d/pool"
  top: "inception_4d/pool_proj"
  param {
    lr_mult: 1
    decay_mult: 1
  }
  param {
    lr_mult: 2
    decay_mult: 0
  }
  convolution_param {
    num_output: 64
    kernel_size: 1
    weight_filler {
      type: "xavier"
    }
    bias_filler {
      type: "constant"
      value: 0.2
    }
  }
}
layer {
  name: "inception_4d/relu_pool_proj"
  type: "ReLU"
  bottom: "inception_4d/pool_proj"
  top: "inception_4d/pool_proj"
}
layer {
  name: "inception_4d/output"
  type: "Concat"
  bottom: "inception_4d/1x1"
  bottom: "inception_4d/3x3"
  bottom: "inception_4d/5x5"
  bottom: "inception_4d/pool_proj"
  top: "inception_4d/output"
}
layer {
  name: "loss2/ave_pool"
  type: "Pooling"
  bottom: "inception_4d/output"
  top: "loss2/ave_pool"
  pooling_param {
    pool: AVE
    kernel_size: 5
    stride: 3
  }
}
layer {
  name: "loss2/conv"
  type: "Convolution"
  bottom: "loss2/ave_pool"
  top: "loss2/conv"
  param {
    lr_mult: 1
    decay_mult: 1
  }
  param {
    lr_mult: 2
    decay_mult: 0
  }
  convolution_param {
    num_output: 128
    kernel_size: 1
    weight_filler {
      type: "xavier"
    }
    bias_filler {
      type: "constant"
      value: 0.2
    }
  }
}
layer {
  name: "loss2/relu_conv"
  type: "ReLU"
  bottom: "loss2/conv"
  top: "loss2/conv"
}
layer {
  name: "loss2/fc"
  type: "InnerProduct"
  bottom: "loss2/conv"
  top: "loss2/fc"
  param {
    lr_mult: 1
    decay_mult: 1
  }
  param {
    lr_mult: 2
    decay_mult: 0
  }
  inner_product_param {
    num_output: 1024
    weight_filler {
      type: "xavier"
    }
    bias_filler {
      type: "constant"
      value: 0.2
    }
  }
}
layer {
  name: "loss2/relu_fc"
  type: "ReLU"
  bottom: "loss2/fc"
  top: "loss2/fc"
}
layer {
  name: "loss2/drop_fc"
  type: "Dropout"
  bottom: "loss2/fc"
  top: "loss2/fc"
  dropout_param {
    dropout_ratio: 0.7
  }
}
layer {
  name: "ft_loss2/classifier"
  type: "InnerProduct"
  bottom: "loss2/fc"
  top: "ft_loss2/classifier"
  param {
    lr_mult: 1
    decay_mult: 1
  }
  param {
    lr_mult: 2
    decay_mult: 0
  }
  inner_product_param {
    num_output: 2
    weight_filler {
      type: "xavier"
    }
    bias_filler {
      type: "constant"
      value: 0
    }
  }
}
layer {
  name: "loss2/loss"
  type: "SoftmaxWithLoss"
  bottom: "ft_loss2/classifier"
…
I0805 12:56:13.595604 12393 net.cpp:90] Creating Layer inception_4b/output_inception_4b/output_0_split
I0805 12:56:13.595624 12393 net.cpp:410] inception_4b/output_inception_4b/output_0_split <- inception_4b/output
I0805 12:56:13.595638 12393 net.cpp:368] inception_4b/output_inception_4b/output_0_split -> inception_4b/output_inception_4b/output_0_split_0
I0805 12:56:13.595656 12393 net.cpp:368] inception_4b/output_inception_4b/output_0_split -> inception_4b/output_inception_4b/output_0_split_1
I0805 12:56:13.595674 12393 net.cpp:368] inception_4b/output_inception_4b/output_0_split -> inception_4b/output_inception_4b/output_0_split_2
I0805 12:56:13.595698 12393 net.cpp:368] inception_4b/output_inception_4b/output_0_split -> inception_4b/output_inception_4b/output_0_split_3
I0805 12:56:13.595713 12393 net.cpp:120] Setting up inception_4b/output_inception_4b/output_0_split
I0805 12:56:13.595729 12393 net.cpp:127] Top shape: 50 512 14 14 (5017600)
I0805 12:56:13.595741 12393 net.cpp:127] Top shape: 50 512 14 14 (5017600)
I0805 12:56:13.595751 12393 net.cpp:127] Top shape: 50 512 14 14 (5017600)
I0805 12:56:13.595762 12393 net.cpp:127] Top shape: 50 512 14 14 (5017600)
I0805 12:56:13.595770 12393 layer_factory.hpp:74] Creating layer inception_4c/1x1
I0805 12:56:13.595788 12393 net.cpp:90] Creating Layer inception_4c/1x1
I0805 12:56:13.595803 12393 net.cpp:410] inception_4c/1x1 <- inception_4b/output_inception_4b/output_0_split_0
I0805 12:56:13.595818 12393 net.cpp:368] inception_4c/1x1 -> inception_4c/1x1
I0805 12:56:13.595834 12393 net.cpp:120] Setting up inception_4c/1x1
I0805 12:56:13.596524 12393 net.cpp:127] Top shape: 50 128 14 14 (1254400)
I0805 12:56:13.596549 12393 layer_factory.hpp:74] Creating layer inception_4c/relu_1x1
I0805 12:56:13.596563 12393 net.cpp:90] Creating Layer inception_4c/relu_1x1
I0805 12:56:13.596576 12393 net.cpp:410] inception_4c/relu_1x1 <- inception_4c/1x1
I0805 12:56:13.596588 12393 net.cpp:357] inception_4c/relu_1x1 -> inception_4c/1x1 (in-place)
I0805 12:56:13.596606 12393 net.cpp:120] Setting up inception_4c/relu_1x1
I0805 12:56:13.596618 12393 net.cpp:127] Top shape: 50 128 14 14 (1254400)
I0805 12:56:13.596628 12393 layer_factory.hpp:74] Creating layer inception_4c/3x3_reduce
I0805 12:56:13.596642 12393 net.cpp:90] Creating Layer inception_4c/3x3_reduce
I0805 12:56:13.596650 12393 net.cpp:410] inception_4c/3x3_reduce <- inception_4b/output_inception_4b/output_0_split_1
I0805 12:56:13.596667 12393 net.cpp:368] inception_4c/3x3_reduce -> inception_4c/3x3_reduce
I0805 12:56:13.596696 12393 net.cpp:120] Setting up inception_4c/3x3_reduce
I0805 12:56:13.597384 12393 net.cpp:127] Top shape: 50 128 14 14 (1254400)
I0805 12:56:13.597401 12393 layer_factory.hpp:74] Creating layer inception_4c/relu_3x3_reduce
I0805 12:56:13.597414 12393 net.cpp:90] Creating Layer inception_4c/relu_3x3_reduce
I0805 12:56:13.597430 12393 net.cpp:410] inception_4c/relu_3x3_reduce <- inception_4c/3x3_reduce
I0805 12:56:13.597448 12393 net.cpp:357] inception_4c/relu_3x3_reduce -> inception_4c/3x3_reduce (in-place)
I0805 12:56:13.597465 12393 net.cpp:120] Setting up inception_4c/relu_3x3_reduce
I0805 12:56:13.597477 12393 net.cpp:127] Top shape: 50 128 14 14 (1254400)
I0805 12:56:13.597486 12393 layer_factory.hpp:74] Creating layer inception_4c/3x3
I0805 12:56:13.597499 12393 net.cpp:90] Creating Layer inception_4c/3x3
I0805 12:56:13.597508 12393 net.cpp:410] inception_4c/3x3 <- inception_4c/3x3_reduce
I0805 12:56:13.597525 12393 net.cpp:368] inception_4c/3x3 -> inception_4c/3x3
I0805 12:56:13.597543 12393 net.cpp:120] Setting up inception_4c/3x3
I0805 12:56:13.600589 12393 net.cpp:127] Top shape: 50 256 14 14 (2508800)
I0805 12:56:13.600622 12393 layer_factory.hpp:74] Creating layer inception_4c/relu_3x3
I0805 12:56:13.600638 12393 net.cpp:90] Creating Layer inception_4c/relu_3x3
I0805 12:56:13.600649 12393 net.cpp:410] inception_4c/relu_3x3 <- inception_4c/3x3
I0805 12:56:13.600661 12393 net.cpp:357] inception_4c/relu_3x3 -> inception_4c/3x3 (in-place)
I0805 12:56:13.600675 12393 net.cpp:120] Setting up inception_4c/relu_3x3
I0805 12:56:13.600687 12393 net.cpp:127] Top shape: 50 256 14 14 (2508800)
I0805 12:56:13.600697 12393 layer_factory.hpp:74] Creating layer inception_4c/5x5_reduce
I0805 12:56:13.600715 12393 net.cpp:90] Creating Layer inception_4c/5x5_reduce
I0805 12:56:13.600728 12393 net.cpp:410] inception_4c/5x5_reduce <- inception_4b/output_inception_4b/output_0_split_2
I0805 12:56:13.600744 12393 net.cpp:368] inception_4c/5x5_reduce -> inception_4c/5x5_reduce
I0805 12:56:13.600757 12393 net.cpp:120] Setting up inception_4c/5x5_reduce
I0805 12:56:13.600917 12393 net.cpp:127] Top shape: 50 24 14 14 (235200)
I0805 12:56:13.600935 12393 layer_factory.hpp:74] Creating layer inception_4c/relu_5x5_reduce
I0805 12:56:13.600950 12393 net.cpp:90] Creating Layer inception_4c/relu_5x5_reduce
I0805 12:56:13.600960 12393 net.cpp:410] inception_4c/relu_5x5_reduce <- inception_4c/5x5_reduce
I0805 12:56:13.600973 12393 net.cpp:357] inception_4c/relu_5x5_reduce -> inception_4c/5x5_reduce (in-place)
I0805 12:56:13.600987 12393 net.cpp:120] Setting up inception_4c/relu_5x5_reduce
I0805 12:56:13.601001 12393 net.cpp:127] Top shape: 50 24 14 14 (235200)
I0805 12:56:13.601009 12393 layer_factory.hpp:74] Creating layer inception_4c/5x5
I0805 12:56:13.601027 12393 net.cpp:90] Creating Layer inception_4c/5x5
I0805 12:56:13.601038 12393 net.cpp:410] inception_4c/5x5 <- inception_4c/5x5_reduce
I0805 12:56:13.601055 12393 net.cpp:368] inception_4c/5x5 -> inception_4c/5x5
I0805 12:56:13.601073 12393 net.cpp:120] Setting up inception_4c/5x5
I0805 12:56:13.601492 12393 net.cpp:127] Top shape: 50 64 14 14 (627200)
I0805 12:56:13.601519 12393 layer_factory.hpp:74] Creating layer inception_4c/relu_5x5
I0805 12:56:13.601536 12393 net.cpp:90] Creating Layer inception_4c/relu_5x5
I0805 12:56:13.601547 12393 net.cpp:410] inception_4c/relu_5x5 <- inception_4c/5x5
I0805 12:56:13.601558 12393 net.cpp:357] inception_4c/relu_5x5 -> inception_4c/5x5 (in-place)
I0805 12:56:13.601570 12393 net.cpp:120] Setting up inception_4c/relu_5x5
I0805 12:56:13.601588 12393 net.cpp:127] Top shape: 50 64 14 14 (627200)
I0805 12:56:13.601598 12393 layer_factory.hpp:74] Creating layer inception_4c/pool
I0805 12:56:13.601624 12393 net.cpp:90] Creating Layer inception_4c/pool
I0805 12:56:13.601637 12393 net.cpp:410] inception_4c/pool <- inception_4b/output_inception_4b/output_0_split_3
I0805 12:56:13.601652 12393 net.cpp:368] inception_4c/pool -> inception_4c/pool
I0805 12:56:13.601666 12393 net.cpp:120] Setting up inception_4c/pool
I0805 12:56:13.601683 12393 net.cpp:127] Top shape: 50 512 14 14 (5017600)
I0805 12:56:13.601693 12393 layer_factory.hpp:74] Creating layer inception_4c/pool_proj
I0805 12:56:13.601711 12393 net.cpp:90] Creating Layer inception_4c/pool_proj
I0805 12:56:13.601722 12393 net.cpp:410] inception_4c/pool_proj <- inception_4c/pool
I0805 12:56:13.601740 12393 net.cpp:368] inception_4c/pool_proj -> inception_4c/pool_proj
I0805 12:56:13.601758 12393 net.cpp:120] Setting up inception_4c/pool_proj
I0805 12:56:13.602125 12393 net.cpp:127] Top shape: 50 64 14 14 (627200)
I0805 12:56:13.602143 12393 layer_factory.hpp:74] Creating layer inception_4c/relu_pool_proj
I0805 12:56:13.602155 12393 net.cpp:90] Creating Layer inception_4c/relu_pool_proj
I0805 12:56:13.602165 12393 net.cpp:410] inception_4c/relu_pool_proj <- inception_4c/pool_proj
I0805 12:56:13.602180 12393 net.cpp:357] inception_4c/relu_pool_proj -> inception_4c/pool_proj (in-place)
I0805 12:56:13.602195 12393 net.cpp:120] Setting up inception_4c/relu_pool_proj
I0805 12:56:13.602207 12393 net.cpp:127] Top shape: 50 64 14 14 (627200)
I0805 12:56:13.602216 12393 layer_factory.hpp:74] Creating layer inception_4c/output
I0805 12:56:13.602228 12393 net.cpp:90] Creating Layer inception_4c/output
I0805 12:56:13.602239 12393 net.cpp:410] inception_4c/output <- inception_4c/1x1
I0805 12:56:13.602263 12393 net.cpp:410] inception_4c/output <- inception_4c/3x3
I0805 12:56:13.602274 12393 net.cpp:410] inception_4c/output <- inception_4c/5x5
I0805 12:56:13.602285 12393 net.cpp:410] inception_4c/output <- inception_4c/pool_proj
I0805 12:56:13.602298 12393 net.cpp:368] inception_4c/output -> inception_4c/output
I0805 12:56:13.602310 12393 net.cpp:120] Setting up inception_4c/output
I0805 12:56:13.602332 12393 net.cpp:127] Top shape: 50 512 14 14 (5017600)
I0805 12:56:13.602345 12393 layer_factory.hpp:74] Creating layer inception_4c/output_inception_4c/output_0_split
I0805 12:56:13.602358 12393 net.cpp:90] Creating Layer inception_4c/output_inception_4c/output_0_split
I0805 12:56:13.602372 12393 net.cpp:410] inception_4c/output_inception_4c/output_0_split <- inception_4c/output
I0805 12:56:13.602385 12393 net.cpp:368] inception_4c/output_inception_4c/output_0_split -> inception_4c/output_inception_4c/output_0_split_0
I0805 12:56:13.602399 12393 net.cpp:368] inception_4c/output_inception_4c/output_0_split -> inception_4c/output_inception_4c/output_0_split_1
I0805 12:56:13.602417 12393 net.cpp:368] inception_4c/output_inception_4c/output_0_split -> inception_4c/output_inception_4c/output_0_split_2
I0805 12:56:13.602440 12393 net.cpp:368] inception_4c/output_inception_4c/output_0_split -> inception_4c/output_inception_4c/output_0_split_3
I0805 12:56:13.602468 12393 net.cpp:120] Setting up inception_4c/output_inception_4c/output_0_split
I0805 12:56:13.602484 12393 net.cpp:127] Top shape: 50 512 14 14 (5017600)
I0805 12:56:13.602499 12393 net.cpp:127] Top shape: 50 512 14 14 (5017600)
I0805 12:56:13.602514 12393 net.cpp:127] Top shape: 50 512 14 14 (5017600)
I0805 12:56:13.602524 12393 net.cpp:127] Top shape: 50 512 14 14 (5017600)
I0805 12:56:13.602533 12393 layer_factory.hpp:74] Creating layer inception_4d/1x1
I0805 12:56:13.602566 12393 net.cpp:90] Creating Layer inception_4d/1x1
I0805 12:56:13.602578 12393 net.cpp:410] inception_4d/1x1 <- inception_4c/output_inception_4c/output_0_split_0
I0805 12:56:13.602597 12393 net.cpp:368] inception_4d/1x1 -> inception_4d/1x1
I0805 12:56:13.602613 12393 net.cpp:120] Setting up inception_4d/1x1
I0805 12:56:13.603217 12393 net.cpp:127] Top shape: 50 112 14 14 (1097600)
I0805 12:56:13.603235 12393 layer_factory.hpp:74] Creating layer inception_4d/relu_1x1
I0805 12:56:13.603246 12393 net.cpp:90] Creating Layer inception_4d/relu_1x1
I0805 12:56:13.603256 12393 net.cpp:410] inception_4d/relu_1x1 <- inception_4d/1x1
I0805 12:56:13.603271 12393 net.cpp:357] inception_4d/relu_1x1 -> inception_4d/1x1 (in-place)
I0805 12:56:13.603283 12393 net.cpp:120] Setting up inception_4d/relu_1x1
I0805 12:56:13.603296 12393 net.cpp:127] Top shape: 50 112 14 14 (1097600)
I0805 12:56:13.603309 12393 layer_factory.hpp:74] Creating layer inception_4d/3x3_reduce
I0805 12:56:13.603323 12393 net.cpp:90] Creating Layer inception_4d/3x3_reduce
I0805 12:56:13.603333 12393 net.cpp:410] inception_4d/3x3_reduce <- inception_4c/output_inception_4c/output_0_split_1
I0805 12:56:13.603349 12393 net.cpp:368] inception_4d/3x3_reduce -> inception_4d/3x3_reduce
I0805 12:56:13.603365 12393 net.cpp:120] Setting up inception_4d/3x3_reduce
I0805 12:56:13.604159 12393 net.cpp:127] Top shape: 50 144 14 14 (1411200)
I0805 12:56:13.604177 12393 layer_factory.hpp:74] Creating layer inception_4d/relu_3x3_reduce
I0805 12:56:13.604190 12393 net.cpp:90] Creating Layer inception_4d/relu_3x3_reduce
I0805 12:56:13.604200 12393 net.cpp:410] inception_4d/relu_3x3_reduce <- inception_4d/3x3_reduce
I0805 12:56:13.604212 12393 net.cpp:357] inception_4d/relu_3x3_reduce -> inception_4d/3x3_reduce (in-place)
I0805 12:56:13.604224 12393 net.cpp:120] Setting up inception_4d/relu_3x3_reduce
I0805 12:56:13.604238 12393 net.cpp:127] Top shape: 50 144 14 14 (1411200)
I0805 12:56:13.604245 12393 layer_factory.hpp:74] Creating layer inception_4d/3x3
I0805 12:56:13.604262 12393 net.cpp:90] Creating Layer inception_4d/3x3
I0805 12:56:13.604274 12393 net.cpp:410] inception_4d/3x3 <- inception_4d/3x3_reduce
I0805 12:56:13.604290 12393 net.cpp:368] inception_4d/3x3 -> inception_4d/3x3
I0805 12:56:13.604306 12393 net.cpp:120] Setting up inception_4d/3x3
I0805 12:56:13.608424 12393 net.cpp:127] Top shape: 50 288 14 14 (2822400)
I0805 12:56:13.608443 12393 layer_factory.hpp:74] Creating layer inception_4d/relu_3x3
I0805 12:56:13.608456 12393 net.cpp:90] Creating Layer inception_4d/relu_3x3
I0805 12:56:13.608470 12393 net.cpp:410] inception_4d/relu_3x3 <- inception_4d/3x3
I0805 12:56:13.608486 12393 net.cpp:357] inception_4d/relu_3x3 -> inception_4d/3x3 (in-place)
I0805 12:56:13.608502 12393 net.cpp:120] Setting up inception_4d/relu_3x3
I0805 12:56:13.608515 12393 net.cpp:127] Top shape: 50 288 14 14 (2822400)
I0805 12:56:13.608525 12393 layer_factory.hpp:74] Creating layer inception_4d/5x5_reduce
I0805 12:56:13.608537 12393 net.cpp:90] Creating Layer inception_4d/5x5_reduce
I0805 12:56:13.608547 12393 net.cpp:410] inception_4d/5x5_reduce <- inception_4c/output_inception_4c/output_0_split_2
I0805 12:56:13.608567 12393 net.cpp:368] inception_4d/5x5_reduce -> inception_4d/5x5_reduce
I0805 12:56:13.608584 12393 net.cpp:120] Setting up inception_4d/5x5_reduce
I0805 12:56:13.608786 12393 net.cpp:127] Top shape: 50 32 14 14 (313600)
I0805 12:56:13.608803 12393 layer_factory.hpp:74] Creating layer inception_4d/relu_5x5_reduce
I0805 12:56:13.608816 12393 net.cpp:90] Creating Layer inception_4d/relu_5x5_reduce
I0805 12:56:13.608826 12393 net.cpp:410] inception_4d/relu_5x5_reduce <- inception_4d/5x5_reduce
I0805 12:56:13.608837 12393 net.cpp:357] inception_4d/relu_5x5_reduce -> inception_4d/5x5_reduce (in-place)
I0805 12:56:13.608850 12393 net.cpp:120] Setting up inception_4d/relu_5x5_reduce
I0805 12:56:13.608865 12393 net.cpp:127] Top shape: 50 32 14 14 (313600)
I0805 12:56:13.608880 12393 layer_factory.hpp:74] Creating layer inception_4d/5x5
I0805 12:56:13.608893 12393 net.cpp:90] Creating Layer inception_4d/5x5
I0805 12:56:13.608916 12393 net.cpp:410] inception_4d/5x5 <- inception_4d/5x5_reduce
I0805 12:56:13.608935 12393 net.cpp:368] inception_4d/5x5 -> inception_4d/5x5
I0805 12:56:13.608952 12393 net.cpp:120] Setting up inception_4d/5x5
I0805 12:56:13.609519 12393 net.cpp:127] Top shape: 50 64 14 14 (627200)
I0805 12:56:13.609537 12393 layer_factory.hpp:74] Creating layer inception_4d/relu_5x5
I0805 12:56:13.609549 12393 net.cpp:90] Creating Layer inception_4d/relu_5x5
I0805 12:56:13.609560 12393 net.cpp:410] inception_4d/relu_5x5 <- inception_4d/5x5
I0805 12:56:13.609575 12393 net.cpp:357] inception_4d/relu_5x5 -> inception_4d/5x5 (in-place)
I0805 12:56:13.609590 12393 net.cpp:120] Setting up inception_4d/relu_5x5
I0805 12:56:13.609603 12393 net.cpp:127] Top shape: 50 64 14 14 (627200)
I0805 12:56:13.609613 12393 layer_factory.hpp:74] Creating layer inception_4d/pool
I0805 12:56:13.609625 12393 net.cpp:90] Creating Layer inception_4d/pool
I0805 12:56:13.609634 12393 net.cpp:410] inception_4d/pool <- inception_4c/output_inception_4c/output_0_split_3
I0805 12:56:13.609650 12393 net.cpp:368] inception_4d/pool -> inception_4d/pool
I0805 12:56:13.609666 12393 net.cpp:120] Setting up inception_4d/pool
I0805 12:56:13.609683 12393 net.cpp:127] Top shape: 50 512 14 14 (5017600)
I0805 12:56:13.609694 12393 layer_factory.hpp:74] Creating layer inception_4d/pool_proj
I0805 12:56:13.609706 12393 net.cpp:90] Creating Layer inception_4d/pool_proj
I0805 12:56:13.609716 12393 net.cpp:410] inception_4d/pool_proj <- inception_4d/pool
I0805 12:56:13.609732 12393 net.cpp:368] inception_4d/pool_proj -> inception_4d/pool_proj
I0805 12:56:13.609752 12393 net.cpp:120] Setting up inception_4d/pool_proj
I0805 12:56:13.610142 12393 net.cpp:127] Top shape: 50 64 14 14 (627200)
I0805 12:56:13.610170 12393 layer_factory.hpp:74] Creating layer inception_4d/relu_pool_proj
I0805 12:56:13.610183 12393 net.cpp:90] Creating Layer inception_4d/relu_pool_proj
I0805 12:56:13.610198 12393 net.cpp:410] inception_4d/relu_pool_proj <- inception_4d/pool_proj
I0805 12:56:13.610209 12393 net.cpp:357] inception_4d/relu_pool_proj -> inception_4d/pool_proj (in-place)
I0805 12:56:13.610224 12393 net.cpp:120] Setting up inception_4d/relu_pool_proj
I0805 12:56:13.610235 12393 net.cpp:127] Top shape: 50 64 14 14 (627200)
I0805 12:56:13.610244 12393 layer_factory.hpp:74] Creating layer inception_4d/output
I0805 12:56:13.610256 12393 net.cpp:90] Creating Layer inception_4d/output
I0805 12:56:13.610265 12393 net.cpp:410] inception_4d/output <- inception_4d/1x1
I0805 12:56:13.610276 12393 net.cpp:410] inception_4d/output <- inception_4d/3x3
I0805 12:56:13.610286 12393 net.cpp:410] inception_4d/output <- inception_4d/5x5
I0805 12:56:13.610297 12393 net.cpp:410] inception_4d/output <- inception_4d/pool_proj
I0805 12:56:13.610312 12393 net.cpp:368] inception_4d/output -> inception_4d/output
I0805 12:56:13.610332 12393 net.cpp:120] Setting up inception_4d/output
I0805 12:56:13.610348 12393 net.cpp:127] Top shape: 50 528 14 14 (5174400)
I0805 12:56:13.610360 12393 layer_factory.hpp:74] Creating layer inception_4d/output_inception_4d/output_0_split
I0805 12:56:13.610373 12393 net.cpp:90] Creating Layer inception_4d/output_inception_4d/output_0_split
I0805 12:56:13.610385 12393 net.cpp:410] inception_4d/output_inception_4d/output_0_split <- inception_4d/output
I0805 12:56:13.610402 12393 net.cpp:368] inception_4d/output_inception_4d/output_0_split -> inception_4d/output_inception_4d/output_0_split_0
I0805 12:56:13.610419 12393 net.cpp:368] inception_4d/output_inception_4d/output_0_split -> inception_4d/output_inception_4d/output_0_split_1
I0805 12:56:13.610445 12393 net.cpp:368] inception_4d/output_inception_4d/output_0_split -> inception_4d/output_inception_4d/output_0_split_2
I0805 12:56:13.610461 12393 net.cpp:368] inception_4d/output_inception_4d/output_0_split -> inception_4d/output_inception_4d/output_0_split_3
I0805 12:56:13.610494 12393 net.cpp:368] inception_4d/output_inception_4d/output_0_split -> inception_4d/output_inception_4d/output_0_split_4
I0805 12:56:13.610517 12393 net.cpp:120] Setting up inception_4d/output_inception_4d/output_0_split
I0805 12:56:13.610538 12393 net.cpp:127] Top shape: 50 528 14 14 (5174400)
I0805 12:56:13.610553 12393 net.cpp:127] Top shape: 50 528 14 14 (5174400)
I0805 12:56:13.610563 12393 net.cpp:127] Top shape: 50 528 14 14 (5174400)
I0805 12:56:13.610574 12393 net.cpp:127] Top shape: 50 528 14 14 (5174400)
I0805 12:56:13.610585 12393 net.cpp:127] Top shape: 50 528 14 14 (5174400)
I0805 12:56:13.610594 12393 layer_factory.hpp:74] Creating layer loss2/ave_pool
I0805 12:56:13.610612 12393 net.cpp:90] Creating Layer loss2/ave_pool
I0805 12:56:13.610625 12393 net.cpp:410] loss2/ave_pool <- inception_4d/output_inception_4d/output_0_split_0
I0805 12:56:13.610640 12393 net.cpp:368] loss2/ave_pool -> loss2/ave_pool
I0805 12:56:13.610652 12393 net.cpp:120] Setting up loss2/ave_pool
I0805 12:56:13.610667 12393 net.cpp:127] Top shape: 50 528 4 4 (422400)
I0805 12:56:13.610677 12393 layer_factory.hpp:74] Creating layer loss2/conv
I0805 12:56:13.610694 12393 net.cpp:90] Creating Layer loss2/conv
I0805 12:56:13.610705 12393 net.cpp:410] loss2/conv <- loss2/ave_pool
I0805 12:56:13.610718 12393 net.cpp:368] loss2/conv -> loss2/conv
I0805 12:56:13.610738 12393 net.cpp:120] Setting up loss2/conv
I0805 12:56:13.611457 12393 net.cpp:127] Top shape: 50 128 4 4 (102400)
I0805 12:56:13.611475 12393 layer_factory.hpp:74] Creating layer loss2/relu_conv
I0805 12:56:13.611491 12393 net.cpp:90] Creating Layer loss2/relu_conv
I0805 12:56:13.611501 12393 net.cpp:410] loss2/relu_conv <- loss2/conv
I0805 12:56:13.611513 12393 net.cpp:357] loss2/relu_conv -> loss2/conv (in-place)
I0805 12:56:13.611526 12393 net.cpp:120] Setting up loss2/relu_conv
I0805 12:56:13.611538 12393 net.cpp:127] Top shape: 50 128 4 4 (102400)
I0805 12:56:13.611547 12393 layer_factory.hpp:74] Creating layer loss2/fc
I0805 12:56:13.611562 12393 net.cpp:90] Creating Layer loss2/fc
I0805 12:56:13.611570 12393 net.cpp:410] loss2/fc <- loss2/conv
I0805 12:56:13.611585 12393 net.cpp:368] loss2/fc -> loss2/fc
I0805 12:56:13.611603 12393 net.cpp:120] Setting up loss2/fc
I0805 12:56:13.633158 12393 net.cpp:127] Top shape: 50 1024 (51200)
I0805 12:56:13.633179 12393 layer_factory.hpp:74] Creating layer loss2/relu_fc
I0805 12:56:13.633196 12393 net.cpp:90] Creating Layer loss2/relu_fc
I0805 12:56:13.633208 12393 net.cpp:410] loss2/relu_fc <- loss2/fc
I0805 12:56:13.633227 12393 net.cpp:357] loss2/relu_fc -> loss2/fc (in-place)
I0805 12:56:13.633242 12393 net.cpp:120] Setting up loss2/relu_fc
I0805 12:56:13.633256 12393 net.cpp:127] Top shape: 50 1024 (51200)
I0805 12:56:13.633265 12393 layer_factory.hpp:74] Creating layer loss2/drop_fc
I0805 12:56:13.633278 12393 net.cpp:90] Creating Layer loss2/drop_fc
I0805 12:56:13.633287 12393 net.cpp:410] loss2/drop_fc <- loss2/fc
I0805 12:56:13.633302 12393 net.cpp:357] loss2/drop_fc -> loss2/fc (in-place)
I0805 12:56:13.633316 12393 net.cpp:120] Setting up loss2/drop_fc
I0805 12:56:13.633333 12393 net.cpp:127] Top shape: 50 1024 (51200)
I0805 12:56:13.633345 12393 layer_factory.hpp:74] Creating layer ft_loss2/classifier
I0805 12:56:13.633364 12393 net.cpp:90] Creating Layer ft_loss2/classifier
I0805 12:56:13.633393 12393 net.cpp:410] ft_loss2/classifier <- loss2/fc
I0805 12:56:13.633416 12393 net.cpp:368] ft_loss2/classifier -> ft_loss2/classifier
I0805 12:56:13.633443 12393 net.cpp:120] Setting up ft_loss2/classifier
I0805 12:56:13.633496 12393 net.cpp:127] Top shape: 50 2 (100)
I0805 12:56:13.633513 12393 layer_factory.hpp:74] Creating layer ft_loss2/classifier_ft_loss2/classifier_0_split
I0805 12:56:13.633537 12393 net.cpp:90] Creating Layer ft_loss2/classifier_ft_loss2/classifier_0_split
I0805 12:56:13.633548 12393 net.cpp:410] ft_loss2/classifier_ft_loss2/classifier_0_split <- ft_loss2/classifier
I0805 12:56:13.633563 12393 net.cpp:368] ft_loss2/classifier_ft_loss2/classifier_0_split -> ft_loss2/classifier_ft_loss2/classifier_0_split_0
I0805 12:56:13.633581 12393 net.cpp:368] ft_loss2/classifier_ft_loss2/classifier_0_split -> ft_loss2/classifier_ft_loss2/classifier_0_split_1
I0805 12:56:13.633610 12393 net.cpp:120] Setting up ft_loss2/classifier_ft_loss2/classifier_0_split
I0805 12:56:13.633625 12393 net.cpp:127] Top shape: 50 2 (100)
I0805 12:56:13.633636 12393 net.cpp:127] Top shape: 50 2 (100)
I0805 12:56:13.633646 12393 layer_factory.hpp:74] Creating layer loss2/loss
I0805 12:56:13.633659 12393 net.cpp:90] Creating Layer loss2/loss
I0805 12:56:13.633667 12393 net.cpp:410] loss2/loss <- ft_loss2/classifier_ft_loss2/classifier_0_split_0
I0805 12:56:13.633678 12393 net.cpp:410] loss2/loss <- label_data_1_split_2
I0805 12:56:13.633695 12393 net.cpp:368] loss2/loss -> loss2/loss1
I0805 12:56:13.633715 12393 net.cpp:120] Setting up loss2/loss
…
I0805 12:56:13.633857 12393 net.cpp:368] loss2/top-1 -> loss2/top-1
I0805 12:56:13.633872 12393 net.cpp:120] Setting up loss2/top-1
I0805 12:56:13.633885 12393 net.cpp:127] Top shape: (1)
I0805 12:56:13.633900 12393 layer_factory.hpp:74] Creating layer inception_4e/1x1
I0805 12:56:13.633916 12393 net.cpp:90] Creating Layer inception_4e/1x1
I0805 12:56:13.633929 12393 net.cpp:410] inception_4e/1x1 <- inception_4d/output_inception_4d/output_0_split_1
I0805 12:56:13.633947 12393 net.cpp:368] inception_4e/1x1 -> inception_4e/1x1
I0805 12:56:13.633965 12393 net.cpp:120] Setting up inception_4e/1x1
I0805 12:56:13.635375 12393 net.cpp:127] Top shape: 50 256 14 14 (2508800)
I0805 12:56:13.635393 12393 layer_factory.hpp:74] Creating layer inception_4e/relu_1x1
I0805 12:56:13.635406 12393 net.cpp:90] Creating Layer inception_4e/relu_1x1
I0805 12:56:13.635416 12393 net.cpp:410] inception_4e/relu_1x1 <- inception_4e/1x1
I0805 12:56:13.635447 12393 net.cpp:357] inception_4e/relu_1x1 -> inception_4e/1x1 (in-place)
I0805 12:56:13.635462 12393 net.cpp:120] Setting up inception_4e/relu_1x1
I0805 12:56:13.635478 12393 net.cpp:127] Top shape: 50 256 14 14 (2508800)
I0805 12:56:13.635488 12393 layer_factory.hpp:74] Creating layer inception_4e/3x3_reduce
I0805 12:56:13.635506 12393 net.cpp:90] Creating Layer inception_4e/3x3_reduce
I0805 12:56:13.635519 12393 net.cpp:410] inception_4e/3x3_reduce <- inception_4d/output_inception_4d/output_0_split_2
I0805 12:56:13.635537 12393 net.cpp:368] inception_4e/3x3_reduce -> inception_4e/3x3_reduce
I0805 12:56:13.635555 12393 net.cpp:120] Setting up inception_4e/3x3_reduce
I0805 12:56:13.636450 12393 net.cpp:127] Top shape: 50 160 14 14 (1568000)
I0805 12:56:13.636466 12393 layer_factory.hpp:74] Creating layer inception_4e/relu_3x3_reduce
I0805 12:56:13.636479 12393 net.cpp:90] Creating Layer inception_4e/relu_3x3_reduce
I0805 12:56:13.636489 12393 net.cpp:410] inception_4e/relu_3x3_reduce <- inception_4e/3x3_reduce
I0805 12:56:13.636503 12393 net.cpp:357] inception_4e/relu_3x3_reduce -> inception_4e/3x3_reduce (in-place)
I0805 12:56:13.636517 12393 net.cpp:120] Setting up inception_4e/relu_3x3_reduce
I0805 12:56:13.636529 12393 net.cpp:127] Top shape: 50 160 14 14 (1568000)
I0805 12:56:13.636539 12393 layer_factory.hpp:74] Creating layer inception_4e/3x3
I0805 12:56:13.636574 12393 net.cpp:90] Creating Layer inception_4e/3x3
I0805 12:56:13.636585 12393 net.cpp:410] inception_4e/3x3 <- inception_4e/3x3_reduce
I0805 12:56:13.636600 12393 net.cpp:368] inception_4e/3x3 -> inception_4e/3x3
I0805 12:56:13.636615 12393 net.cpp:120] Setting up inception_4e/3x3
I0805 12:56:13.641732 12393 net.cpp:127] Top shape: 50 320 14 14 (3136000)
I0805 12:56:13.641752 12393 layer_factory.hpp:74] Creating layer inception_4e/relu_3x3
I0805 12:56:13.641767 12393 net.cpp:90] Creating Layer inception_4e/relu_3x3
I0805 12:56:13.641782 12393 net.cpp:410] inception_4e/relu_3x3 <- inception_4e/3x3
I0805 12:56:13.641806 12393 net.cpp:357] inception_4e/relu_3x3 -> inception_4e/3x3 (in-place)
I0805 12:56:13.641824 12393 net.cpp:120] Setting up inception_4e/relu_3x3
I0805 12:56:13.641839 12393 net.cpp:127] Top shape: 50 320 14 14 (3136000)
I0805 12:56:13.641849 12393 layer_factory.hpp:74] Creating layer inception_4e/5x5_reduce
I0805 12:56:13.641865 12393 net.cpp:90] Creating Layer inception_4e/5x5_reduce
I0805 12:56:13.641880 12393 net.cpp:410] inception_4e/5x5_reduce <- inception_4d/output_inception_4d/output_0_split_3
I0805 12:56:13.641894 12393 net.cpp:368] inception_4e/5x5_reduce -> inception_4e/5x5_reduce
I0805 12:56:13.641909 12393 net.cpp:120] Setting up inception_4e/5x5_reduce
I0805 12:56:13.642117 12393 net.cpp:127] Top shape: 50 32 14 14 (313600)
I0805 12:56:13.642133 12393 layer_factory.hpp:74] Creating layer inception_4e/relu_5x5_reduce
I0805 12:56:13.642146 12393 net.cpp:90] Creating Layer inception_4e/relu_5x5_reduce
I0805 12:56:13.642156 12393 net.cpp:410] inception_4e/relu_5x5_reduce <- inception_4e/5x5_reduce
I0805 12:56:13.642170 12393 net.cpp:357] inception_4e/relu_5x5_reduce -> inception_4e/5x5_reduce (in-place)
I0805 12:56:13.642184 12393 net.cpp:120] Setting up inception_4e/relu_5x5_reduce
I0805 12:56:13.642195 12393 net.cpp:127] Top shape: 50 32 14 14 (313600)
I0805 12:56:13.642205 12393 layer_factory.hpp:74] Creating layer inception_4e/5x5
I0805 12:56:13.642218 12393 net.cpp:90] Creating Layer inception_4e/5x5
I0805 12:56:13.642227 12393 net.cpp:410] inception_4e/5x5 <- inception_4e/5x5_reduce
I0805 12:56:13.642243 12393 net.cpp:368] inception_4e/5x5 -> inception_4e/5x5
I0805 12:56:13.642258 12393 net.cpp:120] Setting up inception_4e/5x5
I0805 12:56:13.643335 12393 net.cpp:127] Top shape: 50 128 14 14 (1254400)
I0805 12:56:13.643363 12393 layer_factory.hpp:74] Creating layer inception_4e/relu_5x5
I0805 12:56:13.643376 12393 net.cpp:90] Creating Layer inception_4e/relu_5x5
I0805 12:56:13.643386 12393 net.cpp:410] inception_4e/relu_5x5 <- inception_4e/5x5
I0805 12:56:13.643401 12393 net.cpp:357] inception_4e/relu_5x5 -> inception_4e/5x5 (in-place)
I0805 12:56:13.643415 12393 net.cpp:120] Setting up inception_4e/relu_5x5
I0805 12:56:13.643435 12393 net.cpp:127] Top shape: 50 128 14 14 (1254400)
I0805 12:56:13.643445 12393 layer_factory.hpp:74] Creating layer inception_4e/pool
I0805 12:56:13.643457 12393 net.cpp:90] Creating Layer inception_4e/pool
I0805 12:56:13.643467 12393 net.cpp:410] inception_4e/pool <- inception_4d/output_inception_4d/output_0_split_4
I0805 12:56:13.643481 12393 net.cpp:368] inception_4e/pool -> inception_4e/pool
I0805 12:56:13.643494 12393 net.cpp:120] Setting up inception_4e/pool
I0805 12:56:13.643512 12393 net.cpp:127] Top shape: 50 528 14 14 (5174400)
I0805 12:56:13.643522 12393 layer_factory.hpp:74] Creating layer inception_4e/pool_proj
I0805 12:56:13.643540 12393 net.cpp:90] Creating Layer inception_4e/pool_proj
I0805 12:56:13.643554 12393 net.cpp:410] inception_4e/pool_proj <- inception_4e/pool
I0805 12:56:13.643571 12393 net.cpp:368] inception_4e/pool_proj -> inception_4e/pool_proj
I0805 12:56:13.643590 12393 net.cpp:120] Setting up inception_4e/pool_proj
I0805 12:56:13.644331 12393 net.cpp:127] Top shape: 50 128 14 14 (1254400)
I0805 12:56:13.644352 12393 layer_factory.hpp:74] Creating layer inception_4e/relu_pool_proj
I0805 12:56:13.644366 12393 net.cpp:90] Creating Layer inception_4e/relu_pool_proj
I0805 12:56:13.644376 12393 net.cpp:410] inception_4e/relu_pool_proj <- inception_4e/pool_proj
I0805 12:56:13.644387 12393 net.cpp:357] inception_4e/relu_pool_proj -> inception_4e/pool_proj (in-place)
I0805 12:56:13.644404 12393 net.cpp:120] Setting up inception_4e/relu_pool_proj
I0805 12:56:13.644418 12393 net.cpp:127] Top shape: 50 128 14 14 (1254400)
I0805 12:56:13.644435 12393 layer_factory.hpp:74] Creating layer inception_4e/output
I0805 12:56:13.644448 12393 net.cpp:90] Creating Layer inception_4e/output
I0805 12:56:13.644457 12393 net.cpp:410] inception_4e/output <- inception_4e/1x1
I0805 12:56:13.644469 12393 net.cpp:410] inception_4e/output <- inception_4e/3x3
I0805 12:56:13.644491 12393 net.cpp:410] inception_4e/output <- inception_4e/5x5
I0805 12:56:13.644502 12393 net.cpp:410] inception_4e/output <- inception_4e/pool_proj
I0805 12:56:13.644515 12393 net.cpp:368] inception_4e/output -> inception_4e/output
I0805 12:56:13.644528 12393 net.cpp:120] Setting up inception_4e/output
I0805 12:56:13.644544 12393 net.cpp:127] Top shape: 50 832 14 14 (8153600)
I0805 12:56:13.644556 12393 layer_factory.hpp:74] Creating layer pool4/3x3_s2
I0805 12:56:13.644569 12393 net.cpp:90] Creating Layer pool4/3x3_s2
I0805 12:56:13.644583 12393 net.cpp:410] pool4/3x3_s2 <- inception_4e/output
I0805 12:56:13.644600 12393 net.cpp:368] pool4/3x3_s2 -> pool4/3x3_s2
I0805 12:56:13.644618 12393 net.cpp:120] Setting up pool4/3x3_s2
I0805 12:56:13.644637 12393 net.cpp:127] Top shape: 50 832 7 7 (2038400)
I0805 12:56:13.644649 12393 layer_factory.hpp:74] Creating layer pool4/3x3_s2_pool4/3x3_s2_0_split
I0805 12:56:13.644661 12393 net.cpp:90] Creating Layer pool4/3x3_s2_pool4/3x3_s2_0_split
I0805 12:56:13.644686 12393 net.cpp:410] pool4/3x3_s2_pool4/3x3_s2_0_split <- pool4/3x3_s2
I0805 12:56:13.644704 12393 net.cpp:368] pool4/3x3_s2_pool4/3x3_s2_0_split -> pool4/3x3_s2_pool4/3x3_s2_0_split_0
I0805 12:56:13.644721 12393 net.cpp:368] pool4/3x3_s2_pool4/3x3_s2_0_split -> pool4/3x3_s2_pool4/3x3_s2_0_split_1
I0805 12:56:13.644737 12393 net.cpp:368] pool4/3x3_s2_pool4/3x3_s2_0_split -> pool4/3x3_s2_pool4/3x3_s2_0_split_2
I0805 12:56:13.644755 12393 net.cpp:368] pool4/3x3_s2_pool4/3x3_s2_0_split -> pool4/3x3_s2_pool4/3x3_s2_0_split_3
I0805 12:56:13.644775 12393 net.cpp:120] Setting up pool4/3x3_s2_pool4/3x3_s2_0_split
I0805 12:56:13.644793 12393 net.cpp:127] Top shape: 50 832 7 7 (2038400)
I0805 12:56:13.644809 12393 net.cpp:127] Top shape: 50 832 7 7 (2038400)
I0805 12:56:13.644819 12393 net.cpp:127] Top shape: 50 832 7 7 (2038400)
I0805 12:56:13.644830 12393 net.cpp:127] Top shape: 50 832 7 7 (2038400)
I0805 12:56:13.644840 12393 layer_factory.hpp:74] Creating layer inception_5a/1x1
I0805 12:56:13.644856 12393 net.cpp:90] Creating Layer inception_5a/1x1
I0805 12:56:13.644870 12393 net.cpp:410] inception_5a/1x1 <- pool4/3x3_s2_pool4/3x3_s2_0_split_0
I0805 12:56:13.644888 12393 net.cpp:368] inception_5a/1x1 -> inception_5a/1x1
I0805 12:56:13.644907 12393 net.cpp:120] Setting up inception_5a/1x1
I0805 12:56:13.647130 12393 net.cpp:127] Top shape: 50 256 7 7 (627200)
I0805 12:56:13.647148 12393 layer_factory.hpp:74] Creating layer inception_5a/relu_1x1
I0805 12:56:13.647164 12393 net.cpp:90] Creating Layer inception_5a/relu_1x1
I0805 12:56:13.647176 12393 net.cpp:410] inception_5a/relu_1x1 <- inception_5a/1x1
I0805 12:56:13.647187 12393 net.cpp:357] inception_5a/relu_1x1 -> inception_5a/1x1 (in-place)
I0805 12:56:13.647200 12393 net.cpp:120] Setting up inception_5a/relu_1x1
I0805 12:56:13.647213 12393 net.cpp:127] Top shape: 50 256 7 7 (627200)
I0805 12:56:13.647222 12393 layer_factory.hpp:74] Creating layer inception_5a/3x3_reduce
I0805 12:56:13.647238 12393 net.cpp:90] Creating Layer inception_5a/3x3_reduce
I0805 12:56:13.647250 12393 net.cpp:410] inception_5a/3x3_reduce <- pool4/3x3_s2_pool4/3x3_s2_0_split_1
I0805 12:56:13.647264 12393 net.cpp:368] inception_5a/3x3_reduce -> inception_5a/3x3_reduce
I0805 12:56:13.647279 12393 net.cpp:120] Setting up inception_5a/3x3_reduce
I0805 12:56:13.648669 12393 net.cpp:127] Top shape: 50 160 7 7 (392000)
I0805 12:56:13.648689 12393 layer_factory.hpp:74] Creating layer inception_5a/relu_3x3_reduce
I0805 12:56:13.648702 12393 net.cpp:90] Creating Layer inception_5a/relu_3x3_reduce
I0805 12:56:13.648712 12393 net.cpp:410] inception_5a/relu_3x3_reduce <- inception_5a/3x3_reduce
I0805 12:56:13.648727 12393 net.cpp:357] inception_5a/relu_3x3_reduce -> inception_5a/3x3_reduce (in-place)
I0805 12:56:13.648741 12393 net.cpp:120] Setting up inception_5a/relu_3x3_reduce
I0805 12:56:13.648754 12393 net.cpp:127] Top shape: 50 160 7 7 (392000)
I0805 12:56:13.648764 12393 layer_factory.hpp:74] Creating layer inception_5a/3x3
I0805 12:56:13.648790 12393 net.cpp:90] Creating Layer inception_5a/3x3
I0805 12:56:13.648802 12393 net.cpp:410] inception_5a/3x3 <- inception_5a/3x3_reduce
I0805 12:56:13.648820 12393 net.cpp:368] inception_5a/3x3 -> inception_5a/3x3
I0805 12:56:13.648838 12393 net.cpp:120] Setting up inception_5a/3x3
I0805 12:56:13.653867 12393 net.cpp:127] Top shape: 50 320 7 7 (784000)
I0805 12:56:13.653885 12393 layer_factory.hpp:74] Creating layer inception_5a/relu_3x3
I0805 12:56:13.653898 12393 net.cpp:90] Creating Layer inception_5a/relu_3x3
I0805 12:56:13.653913 12393 net.cpp:410] inception_5a/relu_3x3 <- inception_5a/3x3
I0805 12:56:13.653925 12393 net.cpp:357] inception_5a/relu_3x3 -> inception_5a/3x3 (in-place)
I0805 12:56:13.653939 12393 net.cpp:120] Setting up inception_5a/relu_3x3
I0805 12:56:13.653951 12393 net.cpp:127] Top shape: 50 320 7 7 (784000)
I0805 12:56:13.653960 12393 layer_factory.hpp:74] Creating layer inception_5a/5x5_reduce
I0805 12:56:13.653977 12393 net.cpp:90] Creating Layer inception_5a/5x5_reduce
I0805 12:56:13.653991 12393 net.cpp:410] inception_5a/5x5_reduce <- pool4/3x3_s2_pool4/3x3_s2_0_split_2
I0805 12:56:13.654011 12393 net.cpp:368] inception_5a/5x5_reduce -> inception_5a/5x5_reduce
I0805 12:56:13.654028 12393 net.cpp:120] Setting up inception_5a/5x5_reduce
I0805 12:56:13.654333 12393 net.cpp:127] Top shape: 50 32 7 7 (78400)
I0805 12:56:13.654350 12393 layer_factory.hpp:74] Creating layer inception_5a/relu_5x5_reduce
I0805 12:56:13.654363 12393 net.cpp:90] Creating Layer inception_5a/relu_5x5_reduce
I0805 12:56:13.654372 12393 net.cpp:410] inception_5a/relu_5x5_reduce <- inception_5a/5x5_reduce
I0805 12:56:13.654387 12393 net.cpp:357] inception_5a/relu_5x5_reduce -> inception_5a/5x5_reduce (in-place)
I0805 12:56:13.654400 12393 net.cpp:120] Setting up inception_5a/relu_5x5_reduce
I0805 12:56:13.654412 12393 net.cpp:127] Top shape: 50 32 7 7 (78400)
I0805 12:56:13.654428 12393 layer_factory.hpp:74] Creating layer inception_5a/5x5
I0805 12:56:13.654443 12393 net.cpp:90] Creating Layer inception_5a/5x5
I0805 12:56:13.654455 12393 net.cpp:410] inception_5a/5x5 <- inception_5a/5x5_reduce
I0805 12:56:13.654472 12393 net.cpp:368] inception_5a/5x5 -> inception_5a/5x5
I0805 12:56:13.654489 12393 net.cpp:120] Setting up inception_5a/5x5
I0805 12:56:13.655577 12393 net.cpp:127] Top shape: 50 128 7 7 (313600)
I0805 12:56:13.655597 12393 layer_factory.hpp:74] Creating layer inception_5a/relu_5x5
I0805 12:56:13.655611 12393 net.cpp:90] Creating Layer inception_5a/relu_5x5
I0805 12:56:13.655625 12393 net.cpp:410] inception_5a/relu_5x5 <- inception_5a/5x5
I0805 12:56:13.655637 12393 net.cpp:357] inception_5a/relu_5x5 -> inception_5a/5x5 (in-place)
I0805 12:56:13.655652 12393 net.cpp:120] Setting up inception_5a/relu_5x5
I0805 12:56:13.655663 12393 net.cpp:127] Top shape: 50 128 7 7 (313600)
I0805 12:56:13.655673 12393 layer_factory.hpp:74] Creating layer inception_5a/pool
I0805 12:56:13.655689 12393 net.cpp:90] Creating Layer inception_5a/pool
I0805 12:56:13.655699 12393 net.cpp:410] inception_5a/pool <- pool4/3x3_s2_pool4/3x3_s2_0_split_3
I0805 12:56:13.655711 12393 net.cpp:368] inception_5a/pool -> inception_5a/pool
I0805 12:56:13.655750 12393 net.cpp:120] Setting up inception_5a/pool
I0805 12:56:13.655769 12393 net.cpp:127] Top shape: 50 832 7 7 (2038400)
I0805 12:56:13.655781 12393 layer_factory.hpp:74] Creating layer inception_5a/pool_proj
I0805 12:56:13.655819 12393 net.cpp:90] Creating Layer inception_5a/pool_proj
I0805 12:56:13.655834 12393 net.cpp:410] inception_5a/pool_proj <- inception_5a/pool
I0805 12:56:13.655849 12393 net.cpp:368] inception_5a/pool_proj -> inception_5a/pool_proj
I0805 12:56:13.655864 12393 net.cpp:120] Setting up inception_5a/pool_proj
I0805 12:56:13.656996 12393 net.cpp:127] Top shape: 50 128 7 7 (313600)
I0805 12:56:13.657014 12393 layer_factory.hpp:74] Creating layer inception_5a/relu_pool_proj
I0805 12:56:13.657027 12393 net.cpp:90] Creating Layer inception_5a/relu_pool_proj
I0805 12:56:13.657042 12393 net.cpp:410] inception_5a/relu_pool_proj <- inception_5a/pool_proj
I0805 12:56:13.657065 12393 net.cpp:357] inception_5a/relu_pool_proj -> inception_5a/pool_proj (in-place)
I0805 12:56:13.657081 12393 net.cpp:120] Setting up inception_5a/relu_pool_proj
I0805 12:56:13.657100 12393 net.cpp:127] Top shape: 50 128 7 7 (313600)
I0805 12:56:13.657110 12393 layer_factory.hpp:74] Creating layer inception_5a/output
I0805 12:56:13.657125 12393 net.cpp:90] Creating Layer inception_5a/output
I0805 12:56:13.657137 12393 net.cpp:410] inception_5a/output <- inception_5a/1x1
I0805 12:56:13.657150 12393 net.cpp:410] inception_5a/output <- inception_5a/3x3
I0805 12:56:13.657160 12393 net.cpp:410] inception_5a/output <- inception_5a/5x5
I0805 12:56:13.657171 12393 net.cpp:410] inception_5a/output <- inception_5a/pool_proj
I0805 12:56:13.657198 12393 net.cpp:368] inception_5a/output -> inception_5a/output
I0805 12:56:13.657217 12393 net.cpp:120] Setting up inception_5a/output
I0805 12:56:13.657232 12393 net.cpp:127] Top shape: 50 832 7 7 (2038400)
I0805 12:56:13.657246 12393 layer_factory.hpp:74] Creating layer inception_5a/output_inception_5a/output_0_split
I0805 12:56:13.657259 12393 net.cpp:90] Creating Layer inception_5a/output_inception_5a/output_0_split
I0805 12:56:13.657269 12393 net.cpp:410] inception_5a/output_inception_5a/output_0_split <- inception_5a/output
I0805 12:56:13.657287 12393 net.cpp:368] inception_5a/output_inception_5a/output_0_split -> inception_5a/output_inception_5a/output_0_split_0
I0805 12:56:13.657305 12393 net.cpp:368] inception_5a/output_inception_5a/output_0_split -> inception_5a/output_inception_5a/output_0_split_1
I0805 12:56:13.657323 12393 net.cpp:368] inception_5a/output_inception_5a/output_0_split -> inception_5a/output_inception_5a/output_0_split_2
I0805 12:56:13.657341 12393 net.cpp:368] inception_5a/output_inception_5a/output_0_split -> inception_5a/output_inception_5a/output_0_split_3
I0805 12:56:13.657356 12393 net.cpp:120] Setting up inception_5a/output_inception_5a/output_0_split
I0805 12:56:13.657371 12393 net.cpp:127] Top shape: 50 832 7 7 (2038400)
I0805 12:56:13.657387 12393 net.cpp:127] Top shape: 50 832 7 7 (2038400)
I0805 12:56:13.657399 12393 net.cpp:127] Top shape: 50 832 7 7 (2038400)
I0805 12:56:13.657409 12393 net.cpp:127] Top shape: 50 832 7 7 (2038400)
I0805 12:56:13.657418 12393 layer_factory.hpp:74] Creating layer inception_5b/1x1
I0805 12:56:13.657443 12393 net.cpp:90] Creating Layer inception_5b/1x1
I0805 12:56:13.657454 12393 net.cpp:410] inception_5b/1x1 <- inception_5a/output_inception_5a/output_0_split_0
I0805 12:56:13.657486 12393 net.cpp:368] inception_5b/1x1 -> inception_5b/1x1
I0805 12:56:13.657505 12393 net.cpp:120] Setting up inception_5b/1x1
I0805 12:56:13.660756 12393 net.cpp:127] Top shape: 50 384 7 7 (940800)
I0805 12:56:13.660774 12393 layer_factory.hpp:74] Creating layer inception_5b/relu_1x1
I0805 12:56:13.660787 12393 net.cpp:90] Creating Layer inception_5b/relu_1x1
I0805 12:56:13.660801 12393 net.cpp:410] inception_5b/relu_1x1 <- inception_5b/1x1
I0805 12:56:13.660817 12393 net.cpp:357] inception_5b/relu_1x1 -> inception_5b/1x1 (in-place)
I0805 12:56:13.660832 12393 net.cpp:120] Setting up inception_5b/relu_1x1
I0805 12:56:13.660848 12393 net.cpp:127] Top shape: 50 384 7 7 (940800)
I0805 12:56:13.660861 12393 layer_factory.hpp:74] Creating layer inception_5b/3x3_reduce
I0805 12:56:13.660874 12393 net.cpp:90] Creating Layer inception_5b/3x3_reduce
I0805 12:56:13.660884 12393 net.cpp:410] inception_5b/3x3_reduce <- inception_5a/output_inception_5a/output_0_split_1
I0805 12:56:13.660902 12393 net.cpp:368] inception_5b/3x3_reduce -> inception_5b/3x3_reduce
I0805 12:56:13.660920 12393 net.cpp:120] Setting up inception_5b/3x3_reduce
I0805 12:56:13.662565 12393 net.cpp:127] Top shape: 50 192 7 7 (470400)
I0805 12:56:13.662583 12393 layer_factory.hpp:74] Creating layer inception_5b/relu_3x3_reduce
I0805 12:56:13.662596 12393 net.cpp:90] Creating Layer inception_5b/relu_3x3_reduce
I0805 12:56:13.662611 12393 net.cpp:410] inception_5b/relu_3x3_reduce <- inception_5b/3x3_reduce
I0805 12:56:13.662622 12393 net.cpp:357] inception_5b/relu_3x3_reduce -> inception_5b/3x3_reduce (in-place)
I0805 12:56:13.662652 12393 net.cpp:120] Setting up inception_5b/relu_3x3_reduce
I0805 12:56:13.662669 12393 net.cpp:127] Top shape: 50 192 7 7 (470400)
I0805 12:56:13.662679 12393 layer_factory.hpp:74] Creating layer inception_5b/3x3
I0805 12:56:13.662698 12393 net.cpp:90] Creating Layer inception_5b/3x3
I0805 12:56:13.662709 12393 net.cpp:410] inception_5b/3x3 <- inception_5b/3x3_reduce
I0805 12:56:13.662724 12393 net.cpp:368] inception_5b/3x3 -> inception_5b/3x3
I0805 12:56:13.662739 12393 net.cpp:120] Setting up inception_5b/3x3
I0805 12:56:13.669538 12393 net.cpp:127] Top shape: 50 384 7 7 (940800)
I0805 12:56:13.669555 12393 layer_factory.hpp:74] Creating layer inception_5b/relu_3x3
I0805 12:56:13.669572 12393 net.cpp:90] Creating Layer inception_5b/relu_3x3
I0805 12:56:13.669587 12393 net.cpp:410] inception_5b/relu_3x3 <- inception_5b/3x3
I0805 12:56:13.669600 12393 net.cpp:357] inception_5b/relu_3x3 -> inception_5b/3x3 (in-place)
I0805 12:56:13.669613 12393 net.cpp:120] Setting up inception_5b/relu_3x3
I0805 12:56:13.669626 12393 net.cpp:127] Top shape: 50 384 7 7 (940800)
I0805 12:56:13.669636 12393 layer_factory.hpp:74] Creating layer inception_5b/5x5_reduce
I0805 12:56:13.669651 12393 net.cpp:90] Creating Layer inception_5b/5x5_reduce
I0805 12:56:13.669663 12393 net.cpp:410] inception_5b/5x5_reduce <- inception_5a/output_inception_5a/output_0_split_2
I0805 12:56:13.669680 12393 net.cpp:368] inception_5b/5x5_reduce -> inception_5b/5x5_reduce
I0805 12:56:13.669697 12393 net.cpp:120] Setting up inception_5b/5x5_reduce
I0805 12:56:13.670140 12393 net.cpp:127] Top shape: 50 48 7 7 (117600)
I0805 12:56:13.670159 12393 layer_factory.hpp:74] Creating layer inception_5b/relu_5x5_reduce
I0805 12:56:13.670173 12393 net.cpp:90] Creating Layer inception_5b/relu_5x5_reduce
I0805 12:56:13.670184 12393 net.cpp:410] inception_5b/relu_5x5_reduce <- inception_5b/5x5_reduce
I0805 12:56:13.670198 12393 net.cpp:357] inception_5b/relu_5x5_reduce -> inception_5b/5x5_reduce (in-place)
I0805 12:56:13.670212 12393 net.cpp:120] Setting up inception_5b/relu_5x5_reduce
I0805 12:56:13.670225 12393 net.cpp:127] Top shape: 50 48 7 7 (117600)
I0805 12:56:13.670235 12393 layer_factory.hpp:74] Creating layer inception_5b/5x5
I0805 12:56:13.670251 12393 net.cpp:90] Creating Layer inception_5b/5x5
I0805 12:56:13.670260 12393 net.cpp:410] inception_5b/5x5 <- inception_5b/5x5_reduce
I0805 12:56:13.670279 12393 net.cpp:368] inception_5b/5x5 -> inception_5b/5x5
I0805 12:56:13.670295 12393 net.cpp:120] Setting up inception_5b/5x5
I0805 12:56:13.671921 12393 net.cpp:127] Top shape: 50 128 7 7 (313600)
I0805 12:56:13.671939 12393 layer_factory.hpp:74] Creating layer inception_5b/relu_5x5
I0805 12:56:13.671952 12393 net.cpp:90] Creating Layer inception_5b/relu_5x5
I0805 12:56:13.671967 12393 net.cpp:410] inception_5b/relu_5x5 <- inception_5b/5x5
I0805 12:56:13.671979 12393 net.cpp:357] inception_5b/relu_5x5 -> inception_5b/5x5 (in-place)
I0805 12:56:13.671993 12393 net.cpp:120] Setting up inception_5b/relu_5x5
I0805 12:56:13.672006 12393 net.cpp:127] Top shape: 50 128 7 7 (313600)
I0805 12:56:13.672015 12393 layer_factory.hpp:74] Creating layer inception_5b/pool
I0805 12:56:13.672027 12393 net.cpp:90] Creating Layer inception_5b/pool
I0805 12:56:13.672037 12393 net.cpp:410] inception_5b/pool <- inception_5a/output_inception_5a/output_0_split_3
I0805 12:56:13.672056 12393 net.cpp:368] inception_5b/pool -> inception_5b/pool
I0805 12:56:13.672073 12393 net.cpp:120] Setting up inception_5b/pool
I0805 12:56:13.672092 12393 net.cpp:127] Top shape: 50 832 7 7 (2038400)
I0805 12:56:13.672103 12393 layer_factory.hpp:74] Creating layer inception_5b/pool_proj
I0805 12:56:13.672117 12393 net.cpp:90] Creating Layer inception_5b/pool_proj
I0805 12:56:13.672145 12393 net.cpp:410] inception_5b/pool_proj <- inception_5b/pool
I0805 12:56:13.672165 12393 net.cpp:368] inception_5b/pool_proj -> inception_5b/pool_proj
I0805 12:56:13.672183 12393 net.cpp:120] Setting up inception_5b/pool_proj
I0805 12:56:13.673293 12393 net.cpp:127] Top shape: 50 128 7 7 (313600)
I0805 12:56:13.673326 12393 layer_factory.hpp:74] Creating layer inception_5b/relu_pool_proj
I0805 12:56:13.673341 12393 net.cpp:90] Creating Layer inception_5b/relu_pool_proj
I0805 12:56:13.673352 12393 net.cpp:410] inception_5b/relu_pool_proj <- inception_5b/pool_proj
I0805 12:56:13.673367 12393 net.cpp:357] inception_5b/relu_pool_proj -> inception_5b/pool_proj (in-place)
I0805 12:56:13.673382 12393 net.cpp:120] Setting up inception_5b/relu_pool_proj
I0805 12:56:13.673399 12393 net.cpp:127] Top shape: 50 128 7 7 (313600)
I0805 12:56:13.673409 12393 layer_factory.hpp:74] Creating layer inception_5b/output
I0805 12:56:13.673425 12393 net.cpp:90] Creating Layer inception_5b/output
I0805 12:56:13.673437 12393 net.cpp:410] inception_5b/output <- inception_5b/1x1
I0805 12:56:13.673449 12393 net.cpp:410] inception_5b/output <- inception_5b/3x3
I0805 12:56:13.673460 12393 net.cpp:410] inception_5b/output <- inception_5b/5x5
I0805 12:56:13.673470 12393 net.cpp:410] inception_5b/output <- inception_5b/pool_proj
I0805 12:56:13.673483 12393 net.cpp:368] inception_5b/output -> inception_5b/output
I0805 12:56:13.673512 12393 net.cpp:120] Setting up inception_5b/output
I0805 12:56:13.673529 12393 net.cpp:127] Top shape: 50 1024 7 7 (2508800)
I0805 12:56:13.673540 12393 layer_factory.hpp:74] Creating layer pool5/7x7_s1
I0805 12:56:13.673555 12393 net.cpp:90] Creating Layer pool5/7x7_s1
I0805 12:56:13.673568 12393 net.cpp:410] pool5/7x7_s1 <- inception_5b/output
I0805 12:56:13.673588 12393 net.cpp:368] pool5/7x7_s1 -> pool5/7x7_s1
I0805 12:56:13.673605 12393 net.cpp:120] Setting up pool5/7x7_s1
I0805 12:56:13.673622 12393 net.cpp:127] Top shape: 50 1024 1 1 (51200)
I0805 12:56:13.673635 12393 layer_factory.hpp:74] Creating layer pool5/drop_7x7_s1
I0805 12:56:13.673650 12393 net.cpp:90] Creating Layer pool5/drop_7x7_s1
I0805 12:56:13.673660 12393 net.cpp:410] pool5/drop_7x7_s1 <- pool5/7x7_s1
I0805 12:56:13.673676 12393 net.cpp:357] pool5/drop_7x7_s1 -> pool5/7x7_s1 (in-place)
I0805 12:56:13.673689 12393 net.cpp:120] Setting up pool5/drop_7x7_s1
I0805 12:56:13.673704 12393 net.cpp:127] Top shape: 50 1024 1 1 (51200)
I0805 12:56:13.673717 12393 layer_factory.hpp:74] Creating layer ft_loss3/classifier
I0805 12:56:13.673732 12393 net.cpp:90] Creating Layer ft_loss3/classifier
I0805 12:56:13.673740 12393 net.cpp:410] ft_loss3/classifier <- pool5/7x7_s1
I0805 12:56:13.673758 12393 net.cpp:368] ft_loss3/classifier -> ft_loss3/classifier
I0805 12:56:13.673777 12393 net.cpp:120] Setting up ft_loss3/classifier
I0805 12:56:13.673830 12393 net.cpp:127] Top shape: 50 2 (100)
I0805 12:56:13.673846 12393 layer_factory.hpp:74] Creating layer ft_loss3/classifier_ft_loss3/classifier_0_split
I0805 12:56:13.673871 12393 net.cpp:90] Creating Layer ft_loss3/classifier_ft_loss3/classifier_0_split
I0805 12:56:13.673887 12393 net.cpp:410] ft_loss3/classifier_ft_loss3/classifier_0_split <- ft_loss3/classifier
I0805 12:56:13.673900 12393 net.cpp:368] ft_loss3/classifier_ft_loss3/classifier_0_split -> ft_loss3/classifier_ft_loss3/classifier_0_split_0
I0805 12:56:13.673914 12393 net.cpp:368] ft_loss3/classifier_ft_loss3/classifier_0_split -> ft_loss3/classifier_ft_loss3/classifier_0_split_1
I0805 12:56:13.673935 12393 net.cpp:120] Setting up ft_loss3/classifier_ft_loss3/classifier_0_split
I0805 12:56:13.673952 12393 net.cpp:127] Top shape: 50 2 (100)
I0805 12:56:13.673964 12393 net.cpp:127] Top shape: 50 2 (100)
I0805 12:56:13.673974 12393 layer_factory.hpp:74] Creating layer loss3/loss3
I0805 12:56:13.673986 12393 net.cpp:90] Creating Layer loss3/loss3
I0805 12:56:13.673996 12393 net.cpp:410] loss3/loss3 <- ft_loss3/classifier_ft_loss3/classifier_0_split_0
I0805 12:56:13.674007 12393 net.cpp:410] loss3/loss3 <- label_data_1_split_4
I0805 12:56:13.674023 12393 net.cpp:368] loss3/loss3 -> loss3/loss3
…
