…
I1010 02:22:10.240520 18017 net.cpp:287] The NetState phase (0) differed from the phase (1) specified by a rule in layer loss2/top-1
I1010 02:22:10.240550 18017 net.cpp:287] The NetState phase (0) differed from the phase (1) specified by a rule in layer loss3/top-1
I1010 02:22:10.241511 18017 net.cpp:42] Initializing net from parameters: 
name: "FullTrain_GoogleNet"
state {
  phase: TRAIN
}
layer {
  name: "data"
  type: "ImageData"
  top: "data"
  top: "label"
  include {
    phase: TRAIN
  }
  image_data_param {
    source: "/home/kruchinin_d/Projects/data/KITTI/prepared_data/train.txt"
    batch_size: 32
  }
}
layer {
  name: "conv1/7x7_s2"
  type: "Convolution"
  bottom: "data"
  top: "conv1/7x7_s2"
  param {
    lr_mult: 0.1
  }
  param {
    lr_mult: 0.1
  }
  convolution_param {
    num_output: 64
    pad: 3
    kernel_size: 7
    stride: 2
    weight_filler {
      type: "xavier"
    }
    bias_filler {
      type: "constant"
      value: 0.2
    }
  }
}
layer {
  name: "conv1/relu_7x7"
  type: "ReLU"
  bottom: "conv1/7x7_s2"
  top: "conv1/7x7_s2"
}
layer {
  name: "pool1/3x3_s2"
  type: "Pooling"
  bottom: "conv1/7x7_s2"
  top: "pool1/3x3_s2"
  pooling_param {
    pool: MAX
    kernel_size: 3
    stride: 2
  }
}
layer {
  name: "pool1/norm1"
  type: "LRN"
  bottom: "pool1/3x3_s2"
  top: "pool1/norm1"
  lrn_param {
    local_size: 5
    alpha: 0.0001
    beta: 0.75
  }
}
layer {
  name: "conv2/3x3_reduce"
  type: "Convolution"
  bottom: "pool1/norm1"
  top: "conv2/3x3_reduce"
  param {
    lr_mult: 0.1
  }
  param {
    lr_mult: 0.1
  }
  convolution_param {
    num_output: 64
    kernel_size: 1
    weight_filler {
      type: "xavier"
    }
    bias_filler {
      type: "constant"
      value: 0.2
    }
  }
}
layer {
  name: "conv2/relu_3x3_reduce"
  type: "ReLU"
  bottom: "conv2/3x3_reduce"
  top: "conv2/3x3_reduce"
}
layer {
  name: "conv2/3x3"
  type: "Convolution"
  bottom: "conv2/3x3_reduce"
  top: "conv2/3x3"
  param {
    lr_mult: 0.1
  }
  param {
    lr_mult: 0.1
  }
  convolution_param {
    num_output: 192
    pad: 1
    kernel_size: 3
    weight_filler {
      type: "xavier"
    }
    bias_filler {
      type: "constant"
      value: 0.2
    }
  }
}
layer {
  name: "conv2/relu_3x3"
  type: "ReLU"
  bottom: "conv2/3x3"
  top: "conv2/3x3"
}
layer {
  name: "conv2/norm2"
  type: "LRN"
  bottom: "conv2/3x3"
  top: "conv2/norm2"
  lrn_param {
    local_size: 5
    alpha: 0.0001
    beta: 0.75
  }
}
layer {
  name: "pool2/3x3_s2"
  type: "Pooling"
  bottom: "conv2/norm2"
  top: "pool2/3x3_s2"
  pooling_param {
    pool: MAX
    kernel_size: 3
    stride: 2
  }
}
layer {
  name: "inception_3a/1x1"
  type: "Convolution"
  bottom: "pool2/3x3_s2"
  top: "inception_3a/1x1"
  param {
    lr_mult: 0.1
  }
  param {
    lr_mult: 0.1
  }
  convolution_param {
    num_output: 64
    kernel_size: 1
    weight_filler {
      type: "xavier"
    }
    bias_filler {
      type: "constant"
      value: 0.2
    }
  }
}
layer {
  name: "inception_3a/relu_1x1"
  type: "ReLU"
  bottom: "inception_3a/1x1"
  top: "inception_3a/1x1"
}
layer {
  name: "inception_3a/3x3_reduce"
  type: "Convolution"
  bottom: "pool2/3x3_s2"
  top: "inception_3a/3x3_reduce"
  param {
    lr_mult: 0.1
  }
  param {
    lr_mult: 0.1
  }
  convolution_param {
    num_output: 96
    kernel_size: 1
    weight_filler {
      type: "xavier"
    }
    bias_filler {
      type: "constant"
      value: 0.2
    }
  }
}
layer {
  name: "inception_3a/relu_3x3_reduce"
  type: "ReLU"
  bottom: "inception_3a/3x3_reduce"
  top: "inception_3a/3x3_reduce"
}
layer {
  name: "inception_3a/3x3"
  type: "Convolution"
  bottom: "inception_3a/3x3_reduce"
  top: "inception_3a/3x3"
  param {
    lr_mult: 0.1
  }
  param {
    lr_mult: 0.1
  }
  convolution_param {
    num_output: 128
    pad: 1
    kernel_size: 3
    weight_filler {
      type: "xavier"
    }
    bias_filler {
      type: "constant"
      value: 0.2
    }
  }
}
layer {
  name: "inception_3a/relu_3x3"
  type: "ReLU"
  bottom: "inception_3a/3x3"
  top: "inception_3a/3x3"
}
layer {
  name: "inception_3a/5x5_reduce"
  type: "Convolution"
  bottom: "pool2/3x3_s2"
  top: "inception_3a/5x5_reduce"
  param {
    lr_mult: 0.1
  }
  param {
    lr_mult: 0.1
  }
  convolution_param {
    num_output: 16
    kernel_size: 1
    weight_filler {
      type: "xavier"
    }
    bias_filler {
      type: "constant"
      value: 0.2
    }
  }
}
layer {
  name: "inception_3a/relu_5x5_reduce"
  type: "ReLU"
  bottom: "inception_3a/5x5_reduce"
  top: "inception_3a/5x5_reduce"
}
layer {
  name: "inception_3a/5x5"
  type: "Convolution"
  bottom: "inception_3a/5x5_reduce"
  top: "inception_3a/5x5"
  param {
    lr_mult: 0.1
  }
  param {
    lr_mult: 0.1
  }
  convolution_param {
    num_output: 32
    pad: 2
    kernel_size: 5
    weight_filler {
      type: "xavier"
    }
    bias_filler {
      type: "constant"
      value: 0.2
    }
  }
}
layer {
  name: "inception_3a/relu_5x5"
  type: "ReLU"
  bottom: "inception_3a/5x5"
  top: "inception_3a/5x5"
}
layer {
  name: "inception_3a/pool"
  type: "Pooling"
  bottom: "pool2/3x3_s2"
  top: "inception_3a/pool"
  pooling_param {
    pool: MAX
    kernel_size: 3
    stride: 1
    pad: 1
  }
}
layer {
  name: "inception_3a/pool_proj"
  type: "Convolution"
  bottom: "inception_3a/pool"
  top: "inception_3a/pool_proj"
  param {
    lr_mult: 0.1
  }
  param {
    lr_mult: 0.1
  }
  convolution_param {
    num_output: 32
    kernel_size: 1
    weight_filler {
      type: "xavier"
    }
    bias_filler {
      type: "constant"
      value: 0.2
    }
  }
}
layer {
  name: "inception_3a/relu_pool_proj"
  type: "ReLU"
  bottom: "inception_3a/pool_proj"
  top: "inception_3a/pool_proj"
}
layer {
  name: "inception_3a/output"
  type: "Concat"
  bottom: "inception_3a/1x1"
  bottom: "inception_3a/3x3"
  bottom: "inception_3a/5x5"
  bottom: "inception_3a/pool_proj"
  top: "inception_3a/output"
}
layer {
  name: "inception_3b/1x1"
  type: "Convolution"
  bottom: "inception_3a/output"
  top: "inception_3b/1x1"
  param {
    lr_mult: 0.1
  }
  param {
    lr_mult: 0.1
  }
  convolution_param {
    num_output: 128
    kernel_size: 1
    weight_filler {
      type: "xavier"
    }
    bias_filler {
      type: "constant"
      value: 0.2
    }
  }
}
layer {
  name: "inception_3b/relu_1x1"
  type: "ReLU"
  bottom: "inception_3b/1x1"
  top: "inception_3b/1x1"
}
layer {
  name: "inception_3b/3x3_reduce"
  type: "Convolution"
  bottom: "inception_3a/output"
  top: "inception_3b/3x3_reduce"
  param {
    lr_mult: 0.1
  }
  param {
    lr_mult: 0.1
  }
  convolution_param {
    num_output: 128
    kernel_size: 1
    weight_filler {
      type: "xavier"
    }
    bias_filler {
      type: "constant"
      value: 0.2
    }
  }
}
layer {
  name: "inception_3b/relu_3x3_reduce"
  type: "ReLU"
  bottom: "inception_3b/3x3_reduce"
  top: "inception_3b/3x3_reduce"
}
layer {
  name: "inception_3b/3x3"
  type: "Convolution"
  bottom: "inception_3b/3x3_reduce"
  top: "inception_3b/3x3"
  param {
    lr_mult: 0.1
  }
  param {
    lr_mult: 0.1
  }
  convolution_param {
    num_output: 192
    pad: 1
    kernel_size: 3
    weight_filler {
      type: "xavier"
    }
    bias_filler {
      type: "constant"
      value: 0.2
    }
  }
}
layer {
  name: "inception_3b/relu_3x3"
  type: "ReLU"
  bottom: "inception_3b/3x3"
  top: "inception_3b/3x3"
}
layer {
  name: "inception_3b/5x5_reduce"
  type: "Convolution"
  bottom: "inception_3a/output"
  top: "inception_3b/5x5_reduce"
  param {
    lr_mult: 0.1
  }
  param {
    lr_mult: 0.1
  }
  convolution_param {
    num_output: 32
    kernel_size: 1
    weight_filler {
      type: "xavier"
    }
    bias_filler {
      type: "constant"
      value: 0.2
    }
  }
}
layer {
  name: "inception_3b/relu_5x5_reduce"
  type: "ReLU"
  bottom: "inception_3b/5x5_reduce"
  top: "inception_3b/5x5_reduce"
}
layer {
  name: "inception_3b/5x5"
  type: "Convolution"
  bottom: "inception_3b/5x5_reduce"
  top: "inception_3b/5x5"
  param {
    lr_mult: 0.1
  }
  param {
    lr_mult: 0.1
  }
  convolution_param {
    num_output: 96
    pad: 2
    kernel_size: 5
    weight_filler {
      type: "xavier"
    }
    bias_filler {
      type: "constant"
      value: 0.2
    }
  }
}
layer {
  name: "inception_3b/relu_5x5"
  type: "ReLU"
  bottom: "inception_3b/5x5"
  top: "inception_3b/5x5"
}
layer {
  name: "inception_3b/pool"
  type: "Pooling"
  bottom: "inception_3a/output"
  top: "inception_3b/pool"
  pooling_param {
    pool: MAX
    kernel_size: 3
    stride: 1
    pad: 1
  }
}
layer {
  name: "inception_3b/pool_proj"
  type: "Convolution"
  bottom: "inception_3b/pool"
  top: "inception_3b/pool_proj"
  param {
    lr_mult: 0.1
  }
  param {
    lr_mult: 0.1
  }
  convolution_param {
    num_output: 64
    kernel_size: 1
    weight_filler {
      type: "xavier"
    }
    bias_filler {
      type: "constant"
      value: 0.2
    }
  }
}
layer {
  name: "inception_3b/relu_pool_proj"
  type: "ReLU"
  bottom: "inception_3b/pool_proj"
  top: "inception_3b/pool_proj"
}
layer {
  name: "inception_3b/output"
  type: "Concat"
  bottom: "inception_3b/1x1"
  bottom: "inception_3b/3x3"
  bottom: "inception_3b/5x5"
  bottom: "inception_3b/pool_proj"
  top: "inception_3b/output"
}
layer {
  name: "pool3/3x3_s2"
  type: "Pooling"
  bottom: "inception_3b/output"
  top: "pool3/3x3_s2"
  pooling_param {
    pool: MAX
    kernel_size: 3
    stride: 2
  }
}
layer {
  name: "inception_4a/1x1"
  type: "Convolution"
  bottom: "pool3/3x3_s2"
  top: "inception_4a/1x1"
  param {
    lr_mult: 0.1
  }
  param {
    lr_mult: 0.1
  }
  convolution_param {
    num_output: 192
    kernel_size: 1
    weight_filler {
      type: "xavier"
    }
    bias_filler {
      type: "constant"
      value: 0.2
    }
  }
}
layer {
  name: "inception_4a/relu_1x1"
  type: "ReLU"
  bottom: "inception_4a/1x1"
  top: "inception_4a/1x1"
}
layer {
  name: "inception_4a/3x3_reduce"
  type: "Convolution"
  bottom: "pool3/3x3_s2"
  top: "inception_4a/3x3_reduce"
  param {
    lr_mult: 0.1
  }
  param {
    lr_mult: 0.1
  }
  convolution_param {
    num_output: 96
    kernel_size: 1
    weight_filler {
      type: "xavier"
    }
    bias_filler {
      type: "constant"
      value: 0.2
    }
  }
}
layer {
  name: "inception_4a/relu_3x3_reduce"
  type: "ReLU"
  bottom: "inception_4a/3x3_reduce"
  top: "inception_4a/3x3_reduce"
}
layer {
  name: "inception_4a/3x3"
  type: "Convolution"
  bottom: "inception_4a/3x3_reduce"
  top: "inception_4a/3x3"
  param {
    lr_mult: 0.1
  }
  param {
    lr_mult: 0.1
  }
  convolution_param {
    num_output: 208
    pad: 1
    kernel_size: 3
    weight_filler {
      type: "xavier"
    }
    bias_filler {
      type: "constant"
      value: 0.2
    }
  }
}
layer {
  name: "inception_4a/relu_3x3"
  type: "ReLU"
  bottom: "inception_4a/3x3"
  top: "inception_4a/3x3"
}
layer {
  name: "inception_4a/5x5_reduce"
  type: "Convolution"
  bottom: "pool3/3x3_s2"
  top: "inception_4a/5x5_reduce"
  param {
    lr_mult: 0.1
  }
  param {
    lr_mult: 0.1
  }
  convolution_param {
    num_output: 16
    kernel_size: 1
    weight_filler {
      type: "xavier"
    }
    bias_filler {
      type: "constant"
      value: 0.2
    }
  }
}
layer {
  name: "inception_4a/relu_5x5_reduce"
  type: "ReLU"
  bottom: "inception_4a/5x5_reduce"
  top: "inception_4a/5x5_reduce"
}
layer {
  name: "inception_4a/5x5"
  type: "Convolution"
  bottom: "inception_4a/5x5_reduce"
  top: "inception_4a/5x5"
  param {
    lr_mult: 0.1
  }
  param {
    lr_mult: 0.1
  }
  convolution_param {
    num_output: 48
    pad: 2
    kernel_size: 5
    weight_filler {
      type: "xavier"
    }
    bias_filler {
      type: "constant"
      value: 0.2
    }
  }
}
layer {
  name: "inception_4a/relu_5x5"
  type: "ReLU"
  bottom: "inception_4a/5x5"
  top: "inception_4a/5x5"
}
layer {
  name: "inception_4a/pool"
  type: "Pooling"
  bottom: "pool3/3x3_s2"
  top: "inception_4a/pool"
  pooling_param {
    pool: MAX
    kernel_size: 3
    stride: 1
    pad: 1
  }
}
layer {
  name: "inception_4a/pool_proj"
  type: "Convolution"
  bottom: "inception_4a/pool"
  top: "inception_4a/pool_proj"
  param {
    lr_mult: 0.1
  }
  param {
    lr_mult: 0.1
  }
  convolution_param {
    num_output: 64
    kernel_size: 1
    weight_filler {
      type: "xavier"
    }
    bias_filler {
      type: "constant"
      value: 0.2
    }
  }
}
layer {
  name: "inception_4a/relu_pool_proj"
  type: "ReLU"
  bottom: "inception_4a/pool_proj"
  top: "inception_4a/pool_proj"
}
layer {
  name: "inception_4a/output"
  type: "Concat"
  bottom: "inception_4a/1x1"
  bottom: "inception_4a/3x3"
  bottom: "inception_4a/5x5"
  bottom: "inception_4a/pool_proj"
  top: "inception_4a/output"
}
layer {
  name: "loss1/ave_pool"
  type: "Pooling"
  bottom: "inception_4a/output"
  top: "loss1/ave_pool"
  pooling_param {
    pool: AVE
    kernel_size: 5
    stride: 3
  }
}
layer {
  name: "loss1/conv"
  type: "Convolution"
  bottom: "loss1/ave_pool"
  top: "loss1/conv"
  param {
    lr_mult: 1
  }
  param {
    lr_mult: 1
  }
  convolution_param {
    num_output: 128
    kernel_size: 1
    weight_filler {
      type: "xavier"
    }
    bias_filler {
      type: "constant"
      value: 0.2
    }
  }
}
layer {
  name: "loss1/relu_conv"
  type: "ReLU"
  bottom: "loss1/conv"
  top: "loss1/conv"
}
layer {
  name: "loss1/fc"
  type: "InnerProduct"
  bottom: "loss1/conv"
  top: "loss1/fc"
  param {
    lr_mult: 1
  }
  param {
    lr_mult: 1
  }
  inner_product_param {
    num_output: 1024
    weight_filler {
      type: "xavier"
    }
    bias_filler {
      type: "constant"
      value: 0.2
    }
  }
}
layer {
  name: "loss1/relu_fc"
  type: "ReLU"
  bottom: "loss1/fc"
  top: "loss1/fc"
}
layer {
  name: "loss1/drop_fc"
  type: "Dropout"
  bottom: "loss1/fc"
  top: "loss1/fc"
  dropout_param {
    dropout_ratio: 0.7
  }
}
layer {
  name: "ft_loss1/classifier"
  type: "InnerProduct"
  bottom: "loss1/fc"
  top: "ft_loss1/classifier"
  param {
    lr_mult: 1
  }
  param {
    lr_mult: 1
  }
  inner_product_param {
    num_output: 2
    weight_filler {
      type: "xavier"
    }
    bias_filler {
      type: "constant"
      value: 0
    }
  }
}
layer {
  name: "loss1/loss"
  type: "SoftmaxWithLoss"
  bottom: "ft_loss1/classifier"
  bottom: "label"
  top: "loss1/loss1"
  loss_weight: 0.3
}
layer {
  name: "inception_4b/1x1"
  type: "Convolution"
  bottom: "inception_4a/output"
  top: "inception_4b/1x1"
  param {
    lr_mult: 0.1
  }
  param {
    lr_mult: 0.1
  }
  convolution_param {
    num_output: 160
    kernel_size: 1
    weight_filler {
      type: "xavier"
    }
    bias_filler {
      type: "constant"
      value: 0.2
    }
  }
}
layer {
  name: "inception_4b/relu_1x1"
  type: "ReLU"
  bottom: "inception_4b/1x1"
  top: "inception_4b/1x1"
}
layer {
  name: "inception_4b/3x3_reduce"
  type: "Convolution"
  bottom: "inception_4a/output"
  top: "inception_4b/3x3_reduce"
  param {
    lr_mult: 0.1
  }
  param {
    lr_mult: 0.1
  }
  convolution_param {
    num_output: 112
    kernel_size: 1
    weight_filler {
      type: "xavier"
    }
    bias_filler {
      type: "constant"
      value: 0.2
    }
  }
}
layer {
  name: "inception_4b/relu_3x3_reduce"
  type: "ReLU"
  bottom: "inception_4b/3x3_reduce"
  top: "inception_4b/3x3_reduce"
}
layer {
  name: "inception_4b/3x3"
  type: "Convolution"
  bottom: "inception_4b/3x3_reduce"
  top: "inception_4b/3x3"
  param {
    lr_mult: 0.1
  }
  param {
    lr_mult: 0.1
  }
  convolution_param {
    num_output: 224
    pad: 1
    kernel_size: 3
    weight_filler {
      type: "xavier"
    }
    bias_filler {
      type: "constant"
      value: 0.2
    }
  }
}
layer {
  name: "inception_4b/relu_3x3"
  type: "ReLU"
  bottom: "inception_4b/3x3"
  top: "inception_4b/3x3"
}
layer {
  name: "inception_4b/5x5_reduce"
  type: "Convolution"
  bottom: "inception_4a/output"
  top: "inception_4b/5x5_reduce"
  param {
    lr_mult: 0.1
  }
  param {
    lr_mult: 0.1
  }
  convolution_param {
    num_output: 24
    kernel_size: 1
    weight_filler {
      type: "xavier"
    }
    bias_filler {
      type: "constant"
      value: 0.2
    }
  }
}
layer {
  name: "inception_4b/relu_5x5_reduce"
  type: "ReLU"
  bottom: "inception_4b/5x5_reduce"
  top: "inception_4b/5x5_reduce"
}
layer {
  name: "inception_4b/5x5"
  type: "Convolution"
  bottom: "inception_4b/5x5_reduce"
  top: "inception_4b/5x5"
  param {
    lr_mult: 0.1
  }
  param {
    lr_mult: 0.1
  }
  convolution_param {
    num_output: 64
    pad: 2
    kernel_size: 5
    weight_filler {
      type: "xavier"
    }
    bias_filler {
      type: "constant"
      value: 0.2
    }
  }
}
layer {
  name: "inception_4b/relu_5x5"
  type: "ReLU"
  bottom: "inception_4b/5x5"
  top: "inception_4b/5x5"
}
layer {
  name: "inception_4b/pool"
  type: "Pooling"
  bottom: "inception_4a/output"
  top: "inception_4b/pool"
  pooling_param {
    pool: MAX
    kernel_size: 3
    stride: 1
    pad: 1
  }
}
layer {
  name: "inception_4b/pool_proj"
  type: "Convolution"
  bottom: "inception_4b/pool"
  top: "inception_4b/pool_proj"
  param {
    lr_mult: 0.1
  }
  param {
    lr_mult: 0.1
  }
  convolution_param {
    num_output: 64
    kernel_size: 1
    weight_filler {
      type: "xavier"
    }
    bias_filler {
      type: "constant"
      value: 0.2
    }
  }
}
layer {
  name: "inception_4b/relu_pool_proj"
  type: "ReLU"
  bottom: "inception_4b/pool_proj"
  top: "inception_4b/pool_proj"
}
layer {
  name: "inception_4b/output"
  type: "Concat"
  bottom: "inception_4b/1x1"
  bottom: "inception_4b/3x3"
  bottom: "inception_4b/5x5"
  bottom: "inception_4b/pool_proj"
  top: "inception_4b/output"
}
layer {
  name: "inception_4c/1x1"
  type: "Convolution"
  bottom: "inception_4b/output"
  top: "inception_4c/1x1"
  param {
    lr_mult: 0.1
  }
  param {
    lr_mult: 0.1
  }
  convolution_param {
    num_output: 128
    kernel_size: 1
    weight_filler {
      type: "xavier"
    }
    bias_filler {
      type: "constant"
      value: 0.2
    }
  }
}
layer {
  name: "inception_4c/relu_1x1"
  type: "ReLU"
  bottom: "inception_4c/1x1"
  top: "inception_4c/1x1"
}
layer {
  name: "inception_4c/3x3_reduce"
  type: "Convolution"
  bottom: "inception_4b/output"
  top: "inception_4c/3x3_reduce"
  param {
    lr_mult: 0.1
  }
  param {
    lr_mult: 0.1
  }
  convolution_param {
    num_output: 128
    kernel_size: 1
    weight_filler {
      type: "xavier"
    }
    bias_filler {
      type: "constant"
      value: 0.2
    }
  }
}
layer {
  name: "inception_4c/relu_3x3_reduce"
  type: "ReLU"
  bottom: "inception_4c/3x3_reduce"
  top: "inception_4c/3x3_reduce"
}
layer {
  name: "inception_4c/3x3"
  type: "Convolution"
  bottom: "inception_4c/3x3_reduce"
  top: "inception_4c/3x3"
  param {
    lr_mult: 0.1
  }
  param {
    lr_mult: 0.1
  }
  convolution_param {
    num_output: 256
    pad: 1
    kernel_size: 3
    weight_filler {
      type: "xavier"
    }
    bias_filler {
      type: "constant"
      value: 0.2
    }
  }
}
layer {
  name: "inception_4c/relu_3x3"
  type: "ReLU"
  bottom: "inception_4c/3x3"
  top: "inception_4c/3x3"
}
layer {
  name: "inception_4c/5x5_reduce"
  type: "Convolution"
  bottom: "inception_4b/output"
  top: "inception_4c/5x5_reduce"
  param {
    lr_mult: 0.1
  }
  param {
    lr_mult: 0.1
  }
  convolution_param {
    num_output: 24
    kernel_size: 1
    weight_filler {
      type: "xavier"
    }
    bias_filler {
      type: "constant"
      value: 0.2
    }
  }
}
layer {
  name: "inception_4c/relu_5x5_reduce"
  type: "ReLU"
  bottom: "inception_4c/5x5_reduce"
  top: "inception_4c/5x5_reduce"
}
layer {
  name: "inception_4c/5x5"
  type: "Convolution"
  bottom: "inception_4c/5x5_reduce"
  top: "inception_4c/5x5"
  param {
    lr_mult: 0.1
  }
  param {
    lr_mult: 0.1
  }
  convolution_param {
    num_output: 64
    pad: 2
    kernel_size: 5
    weight_filler {
      type: "xavier"
    }
    bias_filler {
      type: "constant"
      value: 0.2
    }
  }
}
layer {
  name: "inception_4c/relu_5x5"
  type: "ReLU"
  bottom: "inception_4c/5x5"
  top: "inception_4c/5x5"
}
layer {
  name: "inception_4c/pool"
  type: "Pooling"
  bottom: "inception_4b/output"
  top: "inception_4c/pool"
  pooling_param {
    pool: MAX
    kernel_size: 3
    stride: 1
    pad: 1
  }
}
layer {
  name: "inception_4c/pool_proj"
  type: "Convolution"
  bottom: "inception_4c/pool"
  top: "inception_4c/pool_proj"
  param {
    lr_mult: 0.1
  }
  param {
    lr_mult: 0.1
  }
  convolution_param {
    num_output: 64
    kernel_size: 1
    weight_filler {
      type: "xavier"
    }
    bias_filler {
      type: "constant"
      value: 0.2
    }
  }
}
layer {
  name: "inception_4c/relu_pool_proj"
  type: "ReLU"
  bottom: "inception_4c/pool_proj"
  top: "inception_4c/pool_proj"
}
layer {
  name: "inception_4c/output"
  type: "Concat"
  bottom: "inception_4c/1x1"
  bottom: "inception_4c/3x3"
  bottom: "inception_4c/5x5"
  bottom: "inception_4c/pool_proj"
  top: "inception_4c/output"
}
layer {
  name: "inception_4d/1x1"
  type: "Convolution"
  bottom: "inception_4c/output"
  top: "inception_4d/1x1"
  param {
    lr_mult: 0.1
  }
  param {
    lr_mult: 0.1
  }
  convolution_param {
    num_output: 112
    kernel_size: 1
    weight_filler {
      type: "xavier"
    }
    bias_filler {
      type: "constant"
      value: 0.2
    }
  }
}
layer {
  name: "inception_4d/relu_1x1"
  type: "ReLU"
  bottom: "inception_4d/1x1"
  top: "inception_4d/1x1"
}
layer {
  name: "inception_4d/3x3_reduce"
  type: "Convolution"
  bottom: "inception_4c/output"
  top: "inception_4d/3x3_reduce"
  param {
    lr_mult: 0.1
  }
  param {
    lr_mult: 0.1
  }
  convolution_param {
    num_output: 144
    kernel_size: 1
    weight_filler {
      type: "xavier"
    }
    bias_filler {
      type: "constant"
      value: 0.2
    }
  }
}
layer {
  name: "inception_4d/relu_3x3_reduce"
  type: "ReLU"
  bottom: "inception_4d/3x3_reduce"
  top: "inception_4d/3x3_reduce"
}
layer {
  name: "inception_4d/3x3"
  type: "Convolution"
  bottom: "inception_4d/3x3_reduce"
  top: "inception_4d/3x3"
  param {
    lr_mult: 0.1
  }
  param {
    lr_mult: 0.1
  }
  convolution_param {
    num_output: 288
    pad: 1
    kernel_size: 3
    weight_filler {
      type: "xavier"
    }
    bias_filler {
      type: "constant"
      value: 0.2
    }
  }
}
layer {
  name: "inception_4d/relu_3x3"
  type: "ReLU"
  bottom: "inception_4d/3x3"
  top: "inception_4d/3x3"
}
layer {
  name: "inception_4d/5x5_reduce"
  type: "Convolution"
  bottom: "inception_4c/output"
  top: "inception_4d/5x5_reduce"
  param {
    lr_mult: 0.1
  }
  param {
    lr_mult: 0.1
  }
  convolution_param {
    num_output: 32
    kernel_size: 1
    weight_filler {
      type: "xavier"
    }
    bias_filler {
      type: "constant"
      value: 0.2
    }
  }
}
layer {
  name: "inception_4d/relu_5x5_reduce"
  type: "ReLU"
  bottom: "inception_4d/5x5_reduce"
  top: "inception_4d/5x5_reduce"
}
layer {
  name: "inception_4d/5x5"
  type: "Convolution"
  bottom: "inception_4d/5x5_reduce"
  top: "inception_4d/5x5"
  param {
    lr_mult: 0.1
  }
  param {
    lr_mult: 0.1
  }
  convolution_param {
    num_output: 64
    pad: 2
    kernel_size: 5
    weight_filler {
      type: "xavier"
    }
    bias_filler {
      type: "constant"
      value: 0.2
    }
  }
}
layer {
  name: "inception_4d/relu_5x5"
  type: "ReLU"
  bottom: "inception_4d/5x5"
  top: "inception_4d/5x5"
}
layer {
  name: "inception_4d/pool"
  type: "Pooling"
  bottom: "inception_4c/output"
  top: "inception_4d/pool"
  pooling_param {
    pool: MAX
    kernel_size: 3
    stride: 1
    pad: 1
  }
}
layer {
  name: "inception_4d/pool_proj"
  type: "Convolution"
  bottom: "inception_4d/pool"
  top: "inception_4d/pool_proj"
  param {
    lr_mult: 0.1
  }
  param {
    lr_mult: 0.1
  }
  convolution_param {
    num_output: 64
    kernel_size: 1
    weight_filler {
      type: "xavier"
    }
    bias_filler {
      type: "constant"
      value: 0.2
    }
  }
}
layer {
  name: "inception_4d/relu_pool_proj"
  type: "ReLU"
  bottom: "inception_4d/pool_proj"
  top: "inception_4d/pool_proj"
}
layer {
  name: "inception_4d/output"
  type: "Concat"
  bottom: "inception_4d/1x1"
  bottom: "inception_4d/3x3"
  bottom: "inception_4d/5x5"
  bottom: "inception_4d/pool_proj"
  top: "inception_4d/output"
}
layer {
  name: "loss2/ave_pool"
  type: "Pooling"
  bottom: "inception_4d/output"
  top: "loss2/ave_pool"
  pooling_param {
    pool: AVE
    kernel_size: 5
    stride: 3
  }
}
layer {
  name: "loss2/conv"
  type: "Convolution"
  bottom: "loss2/ave_pool"
  top: "loss2/conv"
  param {
    lr_mult: 1
  }
  param {
    lr_mult: 1
  }
  convolution_param {
    num_output: 128
    kernel_size: 1
    weight_filler {
      type: "xavier"
    }
    bias_filler {
      type: "constant"
      value: 0.2
    }
  }
}
layer {
  name: "loss2/relu_conv"
  type: "ReLU"
  bottom: "loss2/conv"
  top: "loss2/conv"
}
layer {
  name: "loss2/fc"
  type: "InnerProduct"
  bottom: "loss2/conv"
  top: "loss2/fc"
  param {
    lr_mult: 1
  }
  param {
    lr_mult: 1
  }
  inner_product_param {
    num_output: 1024
    weight_filler {
      type: "xavier"
    }
    bias_filler {
      type: "constant"
      value: 0.2
    }
  }
}
layer {
  name: "loss2/relu_fc"
  type: "ReLU"
  bottom: "loss2/fc"
  top: "loss2/fc"
}
layer {
  name: "loss2/drop_fc"
  type: "Dropout"
  bottom: "loss2/fc"
  top: "loss2/fc"
  dropout_param {
    dropout_ratio: 0.7
  }
}
layer {
  name: "ft_loss2/classifier"
  type: "InnerProduct"
  bottom: "loss2/fc"
  top: "ft_loss2/classifier"
  param {
    lr_mult: 1
  }
  param {
    lr_mult: 1
  }
  inner_product_param {
    num_output: 2
    weight_filler {
      type: "xavier"
    }
    bias_filler {
      type: "constant"
      value: 0
    }
  }
}
layer {
  name: "loss2/loss"
  type: "SoftmaxWithLoss"
  bottom: "ft_loss2/classifier"
  bottom: "label"
  top: "loss2/loss1"
  loss_weight: 0.3
}
layer {
  name: "inception_4e/1x1"
  type: "Convolution"
  bottom: "inception_4d/output"
  top: "inception_4e/1x1"
  param {
    lr_mult: 0.1
  }
  param {
    lr_mult: 0.1
  }
  convolution_param {
    num_output: 256
    kernel_size: 1
    weight_filler {
      type: "xavier"
    }
    bias_filler {
      type: "constant"
      value: 0.2
    }
  }
}
layer {
  name: "inception_4e/relu_1x1"
  type: "ReLU"
  bottom: "inception_4e/1x1"
  top: "inception_4e/1x1"
}
layer {
  name: "inception_4e/3x3_reduce"
  type: "Convolution"
  bottom: "inception_4d/output"
  top: "inception_4e/3x3_reduce"
  param {
    lr_mult: 0.1
  }
  param {
    lr_mult: 0.1
  }
  convolution_param {
    num_output: 160
    kernel_size: 1
    weight_filler {
      type: "xavier"
    }
    bias_filler {
      type: "constant"
      value: 0.2
    }
  }
}
layer {
  name: "inception_4e/relu_3x3_reduce"
  type: "ReLU"
  bottom: "inception_4e/3x3_reduce"
  top: "inception_4e/3x3_reduce"
}
layer {
  name: "inception_4e/3x3"
  type: "Convolution"
  bottom: "inception_4e/3x3_reduce"
  top: "inception_4e/3x3"
  param {
    lr_mult: 0.1
  }
  param {
    lr_mult: 0.1
  }
  convolution_param {
    num_output: 320
    pad: 1
    kernel_size: 3
    weight_filler {
      type: "xavier"
    }
    bias_filler {
      type: "constant"
      value: 0.2
    }
  }
}
layer {
  name: "inception_4e/relu_3x3"
  type: "ReLU"
  bottom: "inception_4e/3x3"
  top: "inception_4e/3x3"
}
layer {
  name: "inception_4e/5x5_reduce"
  type: "Convolution"
  bottom: "inception_4d/output"
  top: "inception_4e/5x5_reduce"
  param {
    lr_mult: 0.1
  }
  param {
    lr_mult: 0.1
  }
  convolution_param {
    num_output: 32
    kernel_size: 1
    weight_filler {
      type: "xavier"
    }
    bias_filler {
      type: "constant"
      value: 0.2
    }
  }
}
layer {
  name: "inception_4e/relu_5x5_reduce"
  type: "ReLU"
  bottom: "inception_4e/5x5_reduce"
  top: "inception_4e/5x5_reduce"
}
layer {
  name: "inception_4e/5x5"
  type: "Convolution"
  bottom: "inception_4e/5x5_reduce"
  top: "inception_4e/5x5"
  param {
    lr_mult: 0.1
  }
  param {
    lr_mult: 0.1
  }
  convolution_param {
    num_output: 128
    pad: 2
    kernel_size: 5
    weight_filler {
      type: "xavier"
    }
    bias_filler {
      type: "constant"
      value: 0.2
    }
  }
}
layer {
  name: "inception_4e/relu_5x5"
  type: "ReLU"
  bottom: "inception_4e/5x5"
  top: "inception_4e/5x5"
}
layer {
  name: "inception_4e/pool"
  type: "Pooling"
  bottom: "inception_4d/output"
  top: "inception_4e/pool"
  pooling_param {
    pool: MAX
    kernel_size: 3
    stride: 1
    pad: 1
  }
}
layer {
  name: "inception_4e/pool_proj"
  type: "Convolution"
  bottom: "inception_4e/pool"
  top: "inception_4e/pool_proj"
  param {
    lr_mult: 0.1
  }
  param {
    lr_mult: 0.1
  }
  convolution_param {
    num_output: 128
    kernel_size: 1
    weight_filler {
      type: "xavier"
    }
    bias_filler {
      type: "constant"
      value: 0.2
    }
  }
}
layer {
  name: "inception_4e/relu_pool_proj"
  type: "ReLU"
  bottom: "inception_4e/pool_proj"
  top: "inception_4e/pool_proj"
}
layer {
  name: "inception_4e/output"
  type: "Concat"
  bottom: "inception_4e/1x1"
  bottom: "inception_4e/3x3"
  bottom: "inception_4e/5x5"
  bottom: "inception_4e/pool_proj"
  top: "inception_4e/output"
}
layer {
  name: "pool4/3x3_s2"
  type: "Pooling"
  bottom: "inception_4e/output"
  top: "pool4/3x3_s2"
  pooling_param {
    pool: MAX
    kernel_size: 3
    stride: 2
  }
}
layer {
  name: "inception_5a/1x1"
  type: "Convolution"
  bottom: "pool4/3x3_s2"
  top: "inception_5a/1x1"
  param {
    lr_mult: 0.1
  }
  param {
    lr_mult: 0.1
  }
  convolution_param {
    num_output: 256
    kernel_size: 1
    weight_filler {
      type: "xavier"
    }
    bias_filler {
      type: "constant"
      value: 0.2
    }
  }
}
layer {
  name: "inception_5a/relu_1x1"
  type: "ReLU"
  bottom: "inception_5a/1x1"
  top: "inception_5a/1x1"
}
layer {
  name: "inception_5a/3x3_reduce"
  type: "Convolution"
  bottom: "pool4/3x3_s2"
  top: "inception_5a/3x3_reduce"
  param {
    lr_mult: 0.1
  }
  param {
    lr_mult: 0.1
  }
  convolution_param {
    num_output: 160
    kernel_size: 1
    weight_filler {
      type: "xavier"
    }
    bias_filler {
      type: "constant"
      value: 0.2
 
I1010 02:22:10.242524 18017 layer_factory.hpp:74] Creating layer data
I1010 02:22:10.242595 18017 net.cpp:90] Creating Layer data
I1010 02:22:10.242631 18017 net.cpp:368] data -> data
I1010 02:22:10.242760 18017 net.cpp:368] data -> label
I1010 02:22:10.242775 18017 net.cpp:120] Setting up data
I1010 02:22:10.242846 18017 image_data_layer.cpp:36] Opening file /home/kruchinin_d/Projects/data/KITTI/prepared_data/train.txt
I1010 02:22:10.304702 18017 image_data_layer.cpp:51] A total of 82274 images.
I1010 02:22:10.313710 18017 image_data_layer.cpp:74] output data size: 32,3,227,227
I1010 02:22:10.321841 18017 net.cpp:127] Top shape: 32 3 227 227 (4946784)
I1010 02:22:10.321856 18017 net.cpp:127] Top shape: 32 (32)
I1010 02:22:10.321897 18017 layer_factory.hpp:74] Creating layer label_data_1_split
I1010 02:22:10.321915 18017 net.cpp:90] Creating Layer label_data_1_split
I1010 02:22:10.321923 18017 net.cpp:410] label_data_1_split <- label
I1010 02:22:10.321939 18017 net.cpp:368] label_data_1_split -> label_data_1_split_0
I1010 02:22:10.321954 18017 net.cpp:368] label_data_1_split -> label_data_1_split_1
I1010 02:22:10.321964 18017 net.cpp:368] label_data_1_split -> label_data_1_split_2
I1010 02:22:10.321972 18017 net.cpp:120] Setting up label_data_1_split
I1010 02:22:10.322011 18017 net.cpp:127] Top shape: 32 (32)
I1010 02:22:10.322022 18017 net.cpp:127] Top shape: 32 (32)
I1010 02:22:10.322028 18017 net.cpp:127] Top shape: 32 (32)
I1010 02:22:10.322033 18017 layer_factory.hpp:74] Creating layer conv1/7x7_s2
I1010 02:22:10.322060 18017 net.cpp:90] Creating Layer conv1/7x7_s2
I1010 02:22:10.322068 18017 net.cpp:410] conv1/7x7_s2 <- data
I1010 02:22:10.322095 18017 net.cpp:368] conv1/7x7_s2 -> conv1/7x7_s2
I1010 02:22:10.322109 18017 net.cpp:120] Setting up conv1/7x7_s2
I1010 02:22:10.325284 18017 net.cpp:127] Top shape: 32 64 114 114 (26615808)
I1010 02:22:10.325309 18017 layer_factory.hpp:74] Creating layer conv1/relu_7x7
I1010 02:22:10.325361 18017 net.cpp:90] Creating Layer conv1/relu_7x7
I1010 02:22:10.325372 18017 net.cpp:410] conv1/relu_7x7 <- conv1/7x7_s2
I1010 02:22:10.325381 18017 net.cpp:357] conv1/relu_7x7 -> conv1/7x7_s2 (in-place)
I1010 02:22:10.325388 18017 net.cpp:120] Setting up conv1/relu_7x7
I1010 02:22:10.326289 18017 net.cpp:127] Top shape: 32 64 114 114 (26615808)
I1010 02:22:10.326302 18017 layer_factory.hpp:74] Creating layer pool1/3x3_s2
I1010 02:22:10.326313 18017 net.cpp:90] Creating Layer pool1/3x3_s2
I1010 02:22:10.326318 18017 net.cpp:410] pool1/3x3_s2 <- conv1/7x7_s2
I1010 02:22:10.326326 18017 net.cpp:368] pool1/3x3_s2 -> pool1/3x3_s2
I1010 02:22:10.326339 18017 net.cpp:120] Setting up pool1/3x3_s2
I1010 02:22:10.326421 18017 net.cpp:127] Top shape: 32 64 57 57 (6653952)
I1010 02:22:10.326432 18017 layer_factory.hpp:74] Creating layer pool1/norm1
I1010 02:22:10.326464 18017 net.cpp:90] Creating Layer pool1/norm1
I1010 02:22:10.326474 18017 net.cpp:410] pool1/norm1 <- pool1/3x3_s2
I1010 02:22:10.326483 18017 net.cpp:368] pool1/norm1 -> pool1/norm1
I1010 02:22:10.326491 18017 net.cpp:120] Setting up pool1/norm1
I1010 02:22:10.326539 18017 net.cpp:127] Top shape: 32 64 57 57 (6653952)
I1010 02:22:10.326550 18017 layer_factory.hpp:74] Creating layer conv2/3x3_reduce
I1010 02:22:10.326560 18017 net.cpp:90] Creating Layer conv2/3x3_reduce
I1010 02:22:10.326570 18017 net.cpp:410] conv2/3x3_reduce <- pool1/norm1
I1010 02:22:10.326580 18017 net.cpp:368] conv2/3x3_reduce -> conv2/3x3_reduce
I1010 02:22:10.326589 18017 net.cpp:120] Setting up conv2/3x3_reduce
I1010 02:22:10.326643 18017 net.cpp:127] Top shape: 32 64 57 57 (6653952)
I1010 02:22:10.326655 18017 layer_factory.hpp:74] Creating layer conv2/relu_3x3_reduce
I1010 02:22:10.326666 18017 net.cpp:90] Creating Layer conv2/relu_3x3_reduce
I1010 02:22:10.326686 18017 net.cpp:410] conv2/relu_3x3_reduce <- conv2/3x3_reduce
I1010 02:22:10.326694 18017 net.cpp:357] conv2/relu_3x3_reduce -> conv2/3x3_reduce (in-place)
I1010 02:22:10.326701 18017 net.cpp:120] Setting up conv2/relu_3x3_reduce
I1010 02:22:10.326709 18017 net.cpp:127] Top shape: 32 64 57 57 (6653952)
I1010 02:22:10.326714 18017 layer_factory.hpp:74] Creating layer conv2/3x3
I1010 02:22:10.326722 18017 net.cpp:90] Creating Layer conv2/3x3
I1010 02:22:10.326728 18017 net.cpp:410] conv2/3x3 <- conv2/3x3_reduce
I1010 02:22:10.326748 18017 net.cpp:368] conv2/3x3 -> conv2/3x3
I1010 02:22:10.326756 18017 net.cpp:120] Setting up conv2/3x3
I1010 02:22:10.327898 18017 net.cpp:127] Top shape: 32 192 57 57 (19961856)
I1010 02:22:10.327913 18017 layer_factory.hpp:74] Creating layer conv2/relu_3x3
I1010 02:22:10.327920 18017 net.cpp:90] Creating Layer conv2/relu_3x3
I1010 02:22:10.327925 18017 net.cpp:410] conv2/relu_3x3 <- conv2/3x3
I1010 02:22:10.327934 18017 net.cpp:357] conv2/relu_3x3 -> conv2/3x3 (in-place)
I1010 02:22:10.327941 18017 net.cpp:120] Setting up conv2/relu_3x3
I1010 02:22:10.327947 18017 net.cpp:127] Top shape: 32 192 57 57 (19961856)
I1010 02:22:10.327952 18017 layer_factory.hpp:74] Creating layer conv2/norm2
I1010 02:22:10.327960 18017 net.cpp:90] Creating Layer conv2/norm2
I1010 02:22:10.327965 18017 net.cpp:410] conv2/norm2 <- conv2/3x3
I1010 02:22:10.327972 18017 net.cpp:368] conv2/norm2 -> conv2/norm2
I1010 02:22:10.327981 18017 net.cpp:120] Setting up conv2/norm2
I1010 02:22:10.327992 18017 net.cpp:127] Top shape: 32 192 57 57 (19961856)
I1010 02:22:10.327998 18017 layer_factory.hpp:74] Creating layer pool2/3x3_s2
I1010 02:22:10.328006 18017 net.cpp:90] Creating Layer pool2/3x3_s2
I1010 02:22:10.328011 18017 net.cpp:410] pool2/3x3_s2 <- conv2/norm2
I1010 02:22:10.328027 18017 net.cpp:368] pool2/3x3_s2 -> pool2/3x3_s2
I1010 02:22:10.328035 18017 net.cpp:120] Setting up pool2/3x3_s2
I1010 02:22:10.328047 18017 net.cpp:127] Top shape: 32 192 28 28 (4816896)
I1010 02:22:10.328052 18017 layer_factory.hpp:74] Creating layer pool2/3x3_s2_pool2/3x3_s2_0_split
I1010 02:22:10.328064 18017 net.cpp:90] Creating Layer pool2/3x3_s2_pool2/3x3_s2_0_split
I1010 02:22:10.328091 18017 net.cpp:410] pool2/3x3_s2_pool2/3x3_s2_0_split <- pool2/3x3_s2
I1010 02:22:10.328105 18017 net.cpp:368] pool2/3x3_s2_pool2/3x3_s2_0_split -> pool2/3x3_s2_pool2/3x3_s2_0_split_0
I1010 02:22:10.328121 18017 net.cpp:368] pool2/3x3_s2_pool2/3x3_s2_0_split -> pool2/3x3_s2_pool2/3x3_s2_0_split_1
I1010 02:22:10.328131 18017 net.cpp:368] pool2/3x3_s2_pool2/3x3_s2_0_split -> pool2/3x3_s2_pool2/3x3_s2_0_split_2
I1010 02:22:10.328140 18017 net.cpp:368] pool2/3x3_s2_pool2/3x3_s2_0_split -> pool2/3x3_s2_pool2/3x3_s2_0_split_3
I1010 02:22:10.328147 18017 net.cpp:120] Setting up pool2/3x3_s2_pool2/3x3_s2_0_split
I1010 02:22:10.328161 18017 net.cpp:127] Top shape: 32 192 28 28 (4816896)
I1010 02:22:10.328167 18017 net.cpp:127] Top shape: 32 192 28 28 (4816896)
I1010 02:22:10.328173 18017 net.cpp:127] Top shape: 32 192 28 28 (4816896)
I1010 02:22:10.328179 18017 net.cpp:127] Top shape: 32 192 28 28 (4816896)
I1010 02:22:10.328186 18017 layer_factory.hpp:74] Creating layer inception_3a/1x1
I1010 02:22:10.328198 18017 net.cpp:90] Creating Layer inception_3a/1x1
I1010 02:22:10.328204 18017 net.cpp:410] inception_3a/1x1 <- pool2/3x3_s2_pool2/3x3_s2_0_split_0
I1010 02:22:10.328219 18017 net.cpp:368] inception_3a/1x1 -> inception_3a/1x1
I1010 02:22:10.328235 18017 net.cpp:120] Setting up inception_3a/1x1
I1010 02:22:10.328423 18017 net.cpp:127] Top shape: 32 64 28 28 (1605632)
I1010 02:22:10.328435 18017 layer_factory.hpp:74] Creating layer inception_3a/relu_1x1
I1010 02:22:10.328450 18017 net.cpp:90] Creating Layer inception_3a/relu_1x1
I1010 02:22:10.328459 18017 net.cpp:410] inception_3a/relu_1x1 <- inception_3a/1x1
I1010 02:22:10.328467 18017 net.cpp:357] inception_3a/relu_1x1 -> inception_3a/1x1 (in-place)
I1010 02:22:10.328474 18017 net.cpp:120] Setting up inception_3a/relu_1x1
I1010 02:22:10.328481 18017 net.cpp:127] Top shape: 32 64 28 28 (1605632)
I1010 02:22:10.328490 18017 layer_factory.hpp:74] Creating layer inception_3a/3x3_reduce
I1010 02:22:10.328503 18017 net.cpp:90] Creating Layer inception_3a/3x3_reduce
I1010 02:22:10.328510 18017 net.cpp:410] inception_3a/3x3_reduce <- pool2/3x3_s2_pool2/3x3_s2_0_split_1
I1010 02:22:10.328518 18017 net.cpp:368] inception_3a/3x3_reduce -> inception_3a/3x3_reduce
I1010 02:22:10.328531 18017 net.cpp:120] Setting up inception_3a/3x3_reduce
I1010 02:22:10.328738 18017 net.cpp:127] Top shape: 32 96 28 28 (2408448)
I1010 02:22:10.328752 18017 layer_factory.hpp:74] Creating layer inception_3a/relu_3x3_reduce
I1010 02:22:10.328760 18017 net.cpp:90] Creating Layer inception_3a/relu_3x3_reduce
I1010 02:22:10.328765 18017 net.cpp:410] inception_3a/relu_3x3_reduce <- inception_3a/3x3_reduce
I1010 02:22:10.328771 18017 net.cpp:357] inception_3a/relu_3x3_reduce -> inception_3a/3x3_reduce (in-place)
I1010 02:22:10.328778 18017 net.cpp:120] Setting up inception_3a/relu_3x3_reduce
I1010 02:22:10.328784 18017 net.cpp:127] Top shape: 32 96 28 28 (2408448)
I1010 02:22:10.328789 18017 layer_factory.hpp:74] Creating layer inception_3a/3x3
I1010 02:22:10.328799 18017 net.cpp:90] Creating Layer inception_3a/3x3
I1010 02:22:10.328804 18017 net.cpp:410] inception_3a/3x3 <- inception_3a/3x3_reduce
I1010 02:22:10.328812 18017 net.cpp:368] inception_3a/3x3 -> inception_3a/3x3
I1010 02:22:10.328820 18017 net.cpp:120] Setting up inception_3a/3x3
I1010 02:22:10.329999 18017 net.cpp:127] Top shape: 32 128 28 28 (3211264)
I1010 02:22:10.330015 18017 layer_factory.hpp:74] Creating layer inception_3a/relu_3x3
I1010 02:22:10.330029 18017 net.cpp:90] Creating Layer inception_3a/relu_3x3
I1010 02:22:10.330034 18017 net.cpp:410] inception_3a/relu_3x3 <- inception_3a/3x3
I1010 02:22:10.330041 18017 net.cpp:357] inception_3a/relu_3x3 -> inception_3a/3x3 (in-place)
I1010 02:22:10.330059 18017 net.cpp:120] Setting up inception_3a/relu_3x3
I1010 02:22:10.330065 18017 net.cpp:127] Top shape: 32 128 28 28 (3211264)
I1010 02:22:10.330070 18017 layer_factory.hpp:74] Creating layer inception_3a/5x5_reduce
I1010 02:22:10.330080 18017 net.cpp:90] Creating Layer inception_3a/5x5_reduce
I1010 02:22:10.330092 18017 net.cpp:410] inception_3a/5x5_reduce <- pool2/3x3_s2_pool2/3x3_s2_0_split_2
I1010 02:22:10.330099 18017 net.cpp:368] inception_3a/5x5_reduce -> inception_3a/5x5_reduce
I1010 02:22:10.330111 18017 net.cpp:120] Setting up inception_3a/5x5_reduce
I1010 02:22:10.330163 18017 net.cpp:127] Top shape: 32 16 28 28 (401408)
I1010 02:22:10.330173 18017 layer_factory.hpp:74] Creating layer inception_3a/relu_5x5_reduce
I1010 02:22:10.330183 18017 net.cpp:90] Creating Layer inception_3a/relu_5x5_reduce
I1010 02:22:10.330188 18017 net.cpp:410] inception_3a/relu_5x5_reduce <- inception_3a/5x5_reduce
I1010 02:22:10.330194 18017 net.cpp:357] inception_3a/relu_5x5_reduce -> inception_3a/5x5_reduce (in-place)
I1010 02:22:10.330200 18017 net.cpp:120] Setting up inception_3a/relu_5x5_reduce
I1010 02:22:10.330207 18017 net.cpp:127] Top shape: 32 16 28 28 (401408)
I1010 02:22:10.330212 18017 layer_factory.hpp:74] Creating layer inception_3a/5x5
I1010 02:22:10.330220 18017 net.cpp:90] Creating Layer inception_3a/5x5
I1010 02:22:10.330227 18017 net.cpp:410] inception_3a/5x5 <- inception_3a/5x5_reduce
I1010 02:22:10.330237 18017 net.cpp:368] inception_3a/5x5 -> inception_3a/5x5
I1010 02:22:10.330245 18017 net.cpp:120] Setting up inception_3a/5x5
I1010 02:22:10.330404 18017 net.cpp:127] Top shape: 32 32 28 28 (802816)
I1010 02:22:10.330427 18017 layer_factory.hpp:74] Creating layer inception_3a/relu_5x5
I1010 02:22:10.330435 18017 net.cpp:90] Creating Layer inception_3a/relu_5x5
I1010 02:22:10.330440 18017 net.cpp:410] inception_3a/relu_5x5 <- inception_3a/5x5
I1010 02:22:10.330448 18017 net.cpp:357] inception_3a/relu_5x5 -> inception_3a/5x5 (in-place)
I1010 02:22:10.330456 18017 net.cpp:120] Setting up inception_3a/relu_5x5
I1010 02:22:10.330461 18017 net.cpp:127] Top shape: 32 32 28 28 (802816)
I1010 02:22:10.330466 18017 layer_factory.hpp:74] Creating layer inception_3a/pool
I1010 02:22:10.330473 18017 net.cpp:90] Creating Layer inception_3a/pool
I1010 02:22:10.330478 18017 net.cpp:410] inception_3a/pool <- pool2/3x3_s2_pool2/3x3_s2_0_split_3
I1010 02:22:10.330487 18017 net.cpp:368] inception_3a/pool -> inception_3a/pool
I1010 02:22:10.330494 18017 net.cpp:120] Setting up inception_3a/pool
I1010 02:22:10.330503 18017 net.cpp:127] Top shape: 32 192 28 28 (4816896)
I1010 02:22:10.330509 18017 layer_factory.hpp:74] Creating layer inception_3a/pool_proj
I1010 02:22:10.330517 18017 net.cpp:90] Creating Layer inception_3a/pool_proj
I1010 02:22:10.330521 18017 net.cpp:410] inception_3a/pool_proj <- inception_3a/pool
I1010 02:22:10.330530 18017 net.cpp:368] inception_3a/pool_proj -> inception_3a/pool_proj
I1010 02:22:10.330538 18017 net.cpp:120] Setting up inception_3a/pool_proj
I1010 02:22:10.330621 18017 net.cpp:127] Top shape: 32 32 28 28 (802816)
I1010 02:22:10.330636 18017 layer_factory.hpp:74] Creating layer inception_3a/relu_pool_proj
I1010 02:22:10.330644 18017 net.cpp:90] Creating Layer inception_3a/relu_pool_proj
I1010 02:22:10.330649 18017 net.cpp:410] inception_3a/relu_pool_proj <- inception_3a/pool_proj
I1010 02:22:10.330656 18017 net.cpp:357] inception_3a/relu_pool_proj -> inception_3a/pool_proj (in-place)
I1010 02:22:10.330662 18017 net.cpp:120] Setting up inception_3a/relu_pool_proj
I1010 02:22:10.330668 18017 net.cpp:127] Top shape: 32 32 28 28 (802816)
I1010 02:22:10.330673 18017 layer_factory.hpp:74] Creating layer inception_3a/output
I1010 02:22:10.330719 18017 net.cpp:90] Creating Layer inception_3a/output
I1010 02:22:10.330744 18017 net.cpp:410] inception_3a/output <- inception_3a/1x1
I1010 02:22:10.330751 18017 net.cpp:410] inception_3a/output <- inception_3a/3x3
I1010 02:22:10.330757 18017 net.cpp:410] inception_3a/output <- inception_3a/5x5
I1010 02:22:10.330772 18017 net.cpp:410] inception_3a/output <- inception_3a/pool_proj
I1010 02:22:10.330780 18017 net.cpp:368] inception_3a/output -> inception_3a/output
I1010 02:22:10.330801 18017 net.cpp:120] Setting up inception_3a/output
I1010 02:22:10.330811 18017 net.cpp:127] Top shape: 32 256 28 28 (6422528)
I1010 02:22:10.330818 18017 layer_factory.hpp:74] Creating layer inception_3a/output_inception_3a/output_0_split
I1010 02:22:10.330832 18017 net.cpp:90] Creating Layer inception_3a/output_inception_3a/output_0_split
I1010 02:22:10.330837 18017 net.cpp:410] inception_3a/output_inception_3a/output_0_split <- inception_3a/output
I1010 02:22:10.330843 18017 net.cpp:368] inception_3a/output_inception_3a/output_0_split -> inception_3a/output_inception_3a/output_0_split_0
I1010 02:22:10.330850 18017 net.cpp:368] inception_3a/output_inception_3a/output_0_split -> inception_3a/output_inception_3a/output_0_split_1
I1010 02:22:10.330858 18017 net.cpp:368] inception_3a/output_inception_3a/output_0_split -> inception_3a/output_inception_3a/output_0_split_2
I1010 02:22:10.330867 18017 net.cpp:368] inception_3a/output_inception_3a/output_0_split -> inception_3a/output_inception_3a/output_0_split_3
I1010 02:22:10.330875 18017 net.cpp:120] Setting up inception_3a/output_inception_3a/output_0_split
I1010 02:22:10.330883 18017 net.cpp:127] Top shape: 32 256 28 28 (6422528)
I1010 02:22:10.330889 18017 net.cpp:127] Top shape: 32 256 28 28 (6422528)
I1010 02:22:10.330894 18017 net.cpp:127] Top shape: 32 256 28 28 (6422528)
I1010 02:22:10.330900 18017 net.cpp:127] Top shape: 32 256 28 28 (6422528)
I1010 02:22:10.330904 18017 layer_factory.hpp:74] Creating layer inception_3b/1x1
I1010 02:22:10.330912 18017 net.cpp:90] Creating Layer inception_3b/1x1
I1010 02:22:10.330920 18017 net.cpp:410] inception_3b/1x1 <- inception_3a/output_inception_3a/output_0_split_0
I1010 02:22:10.330943 18017 net.cpp:368] inception_3b/1x1 -> inception_3b/1x1
I1010 02:22:10.330952 18017 net.cpp:120] Setting up inception_3b/1x1
I1010 02:22:10.331346 18017 net.cpp:127] Top shape: 32 128 28 28 (3211264)
I1010 02:22:10.331360 18017 layer_factory.hpp:74] Creating layer inception_3b/relu_1x1
I1010 02:22:10.331367 18017 net.cpp:90] Creating Layer inception_3b/relu_1x1
I1010 02:22:10.331372 18017 net.cpp:410] inception_3b/relu_1x1 <- inception_3b/1x1
I1010 02:22:10.331382 18017 net.cpp:357] inception_3b/relu_1x1 -> inception_3b/1x1 (in-place)
I1010 02:22:10.331388 18017 net.cpp:120] Setting up inception_3b/relu_1x1
I1010 02:22:10.331395 18017 net.cpp:127] Top shape: 32 128 28 28 (3211264)
I1010 02:22:10.331400 18017 layer_factory.hpp:74] Creating layer inception_3b/3x3_reduce
I1010 02:22:10.331408 18017 net.cpp:90] Creating Layer inception_3b/3x3_reduce
I1010 02:22:10.331413 18017 net.cpp:410] inception_3b/3x3_reduce <- inception_3a/output_inception_3a/output_0_split_1
I1010 02:22:10.331423 18017 net.cpp:368] inception_3b/3x3_reduce -> inception_3b/3x3_reduce
I1010 02:22:10.331430 18017 net.cpp:120] Setting up inception_3b/3x3_reduce
I1010 02:22:10.331804 18017 net.cpp:127] Top shape: 32 128 28 28 (3211264)
I1010 02:22:10.331815 18017 layer_factory.hpp:74] Creating layer inception_3b/relu_3x3_reduce
I1010 02:22:10.331823 18017 net.cpp:90] Creating Layer inception_3b/relu_3x3_reduce
I1010 02:22:10.331828 18017 net.cpp:410] inception_3b/relu_3x3_reduce <- inception_3b/3x3_reduce
I1010 02:22:10.331837 18017 net.cpp:357] inception_3b/relu_3x3_reduce -> inception_3b/3x3_reduce (in-place)
I1010 02:22:10.331845 18017 net.cpp:120] Setting up inception_3b/relu_3x3_reduce
I1010 02:22:10.331851 18017 net.cpp:127] Top shape: 32 128 28 28 (3211264)
I1010 02:22:10.331856 18017 layer_factory.hpp:74] Creating layer inception_3b/3x3
I1010 02:22:10.331867 18017 net.cpp:90] Creating Layer inception_3b/3x3
I1010 02:22:10.331874 18017 net.cpp:410] inception_3b/3x3 <- inception_3b/3x3_reduce
I1010 02:22:10.331884 18017 net.cpp:368] inception_3b/3x3 -> inception_3b/3x3
I1010 02:22:10.331894 18017 net.cpp:120] Setting up inception_3b/3x3
I1010 02:22:10.334358 18017 net.cpp:127] Top shape: 32 192 28 28 (4816896)
I1010 02:22:10.334380 18017 layer_factory.hpp:74] Creating layer inception_3b/relu_3x3
I1010 02:22:10.334388 18017 net.cpp:90] Creating Layer inception_3b/relu_3x3
I1010 02:22:10.334393 18017 net.cpp:410] inception_3b/relu_3x3 <- inception_3b/3x3
I1010 02:22:10.334400 18017 net.cpp:357] inception_3b/relu_3x3 -> inception_3b/3x3 (in-place)
I1010 02:22:10.334408 18017 net.cpp:120] Setting up inception_3b/relu_3x3
I1010 02:22:10.334414 18017 net.cpp:127] Top shape: 32 192 28 28 (4816896)
I1010 02:22:10.334419 18017 layer_factory.hpp:74] Creating layer inception_3b/5x5_reduce
I1010 02:22:10.334426 18017 net.cpp:90] Creating Layer inception_3b/5x5_reduce
I1010 02:22:10.334431 18017 net.cpp:410] inception_3b/5x5_reduce <- inception_3a/output_inception_3a/output_0_split_2
I1010 02:22:10.334441 18017 net.cpp:368] inception_3b/5x5_reduce -> inception_3b/5x5_reduce
I1010 02:22:10.334450 18017 net.cpp:120] Setting up inception_3b/5x5_reduce
I1010 02:22:10.334549 18017 net.cpp:127] Top shape: 32 32 28 28 (802816)
I1010 02:22:10.334560 18017 layer_factory.hpp:74] Creating layer inception_3b/relu_5x5_reduce
I1010 02:22:10.334568 18017 net.cpp:90] Creating Layer inception_3b/relu_5x5_reduce
I1010 02:22:10.334575 18017 net.cpp:410] inception_3b/relu_5x5_reduce <- inception_3b/5x5_reduce
I1010 02:22:10.334583 18017 net.cpp:357] inception_3b/relu_5x5_reduce -> inception_3b/5x5_reduce (in-place)
I1010 02:22:10.334589 18017 net.cpp:120] Setting up inception_3b/relu_5x5_reduce
I1010 02:22:10.334595 18017 net.cpp:127] Top shape: 32 32 28 28 (802816)
I1010 02:22:10.334600 18017 layer_factory.hpp:74] Creating layer inception_3b/5x5
I1010 02:22:10.334609 18017 net.cpp:90] Creating Layer inception_3b/5x5
I1010 02:22:10.334614 18017 net.cpp:410] inception_3b/5x5 <- inception_3b/5x5_reduce
I1010 02:22:10.334624 18017 net.cpp:368] inception_3b/5x5 -> inception_3b/5x5
I1010 02:22:10.334633 18017 net.cpp:120] Setting up inception_3b/5x5
I1010 02:22:10.335496 18017 net.cpp:127] Top shape: 32 96 28 28 (2408448)
I1010 02:22:10.335511 18017 layer_factory.hpp:74] Creating layer inception_3b/relu_5x5
I1010 02:22:10.335518 18017 net.cpp:90] Creating Layer inception_3b/relu_5x5
I1010 02:22:10.335525 18017 net.cpp:410] inception_3b/relu_5x5 <- inception_3b/5x5
I1010 02:22:10.335531 18017 net.cpp:357] inception_3b/relu_5x5 -> inception_3b/5x5 (in-place)
I1010 02:22:10.335538 18017 net.cpp:120] Setting up inception_3b/relu_5x5
I1010 02:22:10.335544 18017 net.cpp:127] Top shape: 32 96 28 28 (2408448)
I1010 02:22:10.335549 18017 layer_factory.hpp:74] Creating layer inception_3b/pool
I1010 02:22:10.335556 18017 net.cpp:90] Creating Layer inception_3b/pool
I1010 02:22:10.335561 18017 net.cpp:410] inception_3b/pool <- inception_3a/output_inception_3a/output_0_split_3
I1010 02:22:10.335572 18017 net.cpp:368] inception_3b/pool -> inception_3b/pool
I1010 02:22:10.335580 18017 net.cpp:120] Setting up inception_3b/pool
I1010 02:22:10.335590 18017 net.cpp:127] Top shape: 32 256 28 28 (6422528)
I1010 02:22:10.335595 18017 layer_factory.hpp:74] Creating layer inception_3b/pool_proj
I1010 02:22:10.335607 18017 net.cpp:90] Creating Layer inception_3b/pool_proj
I1010 02:22:10.335611 18017 net.cpp:410] inception_3b/pool_proj <- inception_3b/pool
I1010 02:22:10.335619 18017 net.cpp:368] inception_3b/pool_proj -> inception_3b/pool_proj
I1010 02:22:10.335626 18017 net.cpp:120] Setting up inception_3b/pool_proj
I1010 02:22:10.335809 18017 net.cpp:127] Top shape: 32 64 28 28 (1605632)
I1010 02:22:10.335821 18017 layer_factory.hpp:74] Creating layer inception_3b/relu_pool_proj
I1010 02:22:10.335829 18017 net.cpp:90] Creating Layer inception_3b/relu_pool_proj
I1010 02:22:10.335834 18017 net.cpp:410] inception_3b/relu_pool_proj <- inception_3b/pool_proj
I1010 02:22:10.335842 18017 net.cpp:357] inception_3b/relu_pool_proj -> inception_3b/pool_proj (in-place)
I1010 02:22:10.335850 18017 net.cpp:120] Setting up inception_3b/relu_pool_proj
I1010 02:22:10.335856 18017 net.cpp:127] Top shape: 32 64 28 28 (1605632)
I1010 02:22:10.335861 18017 layer_factory.hpp:74] Creating layer inception_3b/output
I1010 02:22:10.335876 18017 net.cpp:90] Creating Layer inception_3b/output
I1010 02:22:10.335881 18017 net.cpp:410] inception_3b/output <- inception_3b/1x1
I1010 02:22:10.335887 18017 net.cpp:410] inception_3b/output <- inception_3b/3x3
I1010 02:22:10.335893 18017 net.cpp:410] inception_3b/output <- inception_3b/5x5
I1010 02:22:10.335898 18017 net.cpp:410] inception_3b/output <- inception_3b/pool_proj
I1010 02:22:10.335906 18017 net.cpp:368] inception_3b/output -> inception_3b/output
I1010 02:22:10.335914 18017 net.cpp:120] Setting up inception_3b/output
I1010 02:22:10.335923 18017 net.cpp:127] Top shape: 32 480 28 28 (12042240)
I1010 02:22:10.335928 18017 layer_factory.hpp:74] Creating layer pool3/3x3_s2
I1010 02:22:10.335935 18017 net.cpp:90] Creating Layer pool3/3x3_s2
I1010 02:22:10.335940 18017 net.cpp:410] pool3/3x3_s2 <- inception_3b/output
I1010 02:22:10.335947 18017 net.cpp:368] pool3/3x3_s2 -> pool3/3x3_s2
I1010 02:22:10.335954 18017 net.cpp:120] Setting up pool3/3x3_s2
I1010 02:22:10.335963 18017 net.cpp:127] Top shape: 32 480 14 14 (3010560)
I1010 02:22:10.335968 18017 layer_factory.hpp:74] Creating layer pool3/3x3_s2_pool3/3x3_s2_0_split
I1010 02:22:10.335978 18017 net.cpp:90] Creating Layer pool3/3x3_s2_pool3/3x3_s2_0_split
I1010 02:22:10.335983 18017 net.cpp:410] pool3/3x3_s2_pool3/3x3_s2_0_split <- pool3/3x3_s2
I1010 02:22:10.335989 18017 net.cpp:368] pool3/3x3_s2_pool3/3x3_s2_0_split -> pool3/3x3_s2_pool3/3x3_s2_0_split_0
I1010 02:22:10.335997 18017 net.cpp:368] pool3/3x3_s2_pool3/3x3_s2_0_split -> pool3/3x3_s2_pool3/3x3_s2_0_split_1
I1010 02:22:10.336004 18017 net.cpp:368] pool3/3x3_s2_pool3/3x3_s2_0_split -> pool3/3x3_s2_pool3/3x3_s2_0_split_2
I1010 02:22:10.336015 18017 net.cpp:368] pool3/3x3_s2_pool3/3x3_s2_0_split -> pool3/3x3_s2_pool3/3x3_s2_0_split_3
I1010 02:22:10.336021 18017 net.cpp:120] Setting up pool3/3x3_s2_pool3/3x3_s2_0_split
I1010 02:22:10.336030 18017 net.cpp:127] Top shape: 32 480 14 14 (3010560)
I1010 02:22:10.336035 18017 net.cpp:127] Top shape: 32 480 14 14 (3010560)
I1010 02:22:10.336041 18017 net.cpp:127] Top shape: 32 480 14 14 (3010560)
I1010 02:22:10.336047 18017 net.cpp:127] Top shape: 32 480 14 14 (3010560)
I1010 02:22:10.336052 18017 layer_factory.hpp:74] Creating layer inception_4a/1x1
I1010 02:22:10.336060 18017 net.cpp:90] Creating Layer inception_4a/1x1
I1010 02:22:10.336064 18017 net.cpp:410] inception_4a/1x1 <- pool3/3x3_s2_pool3/3x3_s2_0_split_0
I1010 02:22:10.336074 18017 net.cpp:368] inception_4a/1x1 -> inception_4a/1x1
I1010 02:22:10.336082 18017 net.cpp:120] Setting up inception_4a/1x1
I1010 02:22:10.337054 18017 net.cpp:127] Top shape: 32 192 14 14 (1204224)
I1010 02:22:10.337069 18017 layer_factory.hpp:74] Creating layer inception_4a/relu_1x1
I1010 02:22:10.337076 18017 net.cpp:90] Creating Layer inception_4a/relu_1x1
I1010 02:22:10.337081 18017 net.cpp:410] inception_4a/relu_1x1 <- inception_4a/1x1
I1010 02:22:10.337095 18017 net.cpp:357] inception_4a/relu_1x1 -> inception_4a/1x1 (in-place)
I1010 02:22:10.337105 18017 net.cpp:120] Setting up inception_4a/relu_1x1
I1010 02:22:10.337111 18017 net.cpp:127] Top shape: 32 192 14 14 (1204224)
I1010 02:22:10.337116 18017 layer_factory.hpp:74] Creating layer inception_4a/3x3_reduce
I1010 02:22:10.337124 18017 net.cpp:90] Creating Layer inception_4a/3x3_reduce
I1010 02:22:10.337129 18017 net.cpp:410] inception_4a/3x3_reduce <- pool3/3x3_s2_pool3/3x3_s2_0_split_1
I1010 02:22:10.337138 18017 net.cpp:368] inception_4a/3x3_reduce -> inception_4a/3x3_reduce
I1010 02:22:10.337147 18017 net.cpp:120] Setting up inception_4a/3x3_reduce
I1010 02:22:10.337652 18017 net.cpp:127] Top shape: 32 96 14 14 (602112)
I1010 02:22:10.337671 18017 layer_factory.hpp:74] Creating layer inception_4a/relu_3x3_reduce
I1010 02:22:10.337680 18017 net.cpp:90] Creating Layer inception_4a/relu_3x3_reduce
I1010 02:22:10.337687 18017 net.cpp:410] inception_4a/relu_3x3_reduce <- inception_4a/3x3_reduce
I1010 02:22:10.337693 18017 net.cpp:357] inception_4a/relu_3x3_reduce -> inception_4a/3x3_reduce (in-place)
I1010 02:22:10.337700 18017 net.cpp:120] Setting up inception_4a/relu_3x3_reduce
I1010 02:22:10.337713 18017 net.cpp:127] Top shape: 32 96 14 14 (602112)
I1010 02:22:10.337720 18017 layer_factory.hpp:74] Creating layer inception_4a/3x3
I1010 02:22:10.337728 18017 net.cpp:90] Creating Layer inception_4a/3x3
I1010 02:22:10.337733 18017 net.cpp:410] inception_4a/3x3 <- inception_4a/3x3_reduce
I1010 02:22:10.337743 18017 net.cpp:368] inception_4a/3x3 -> inception_4a/3x3
I1010 02:22:10.337751 18017 net.cpp:120] Setting up inception_4a/3x3
I1010 02:22:10.339638 18017 net.cpp:127] Top shape: 32 208 14 14 (1304576)
I1010 02:22:10.339660 18017 layer_factory.hpp:74] Creating layer inception_4a/relu_3x3
I1010 02:22:10.339668 18017 net.cpp:90] Creating Layer inception_4a/relu_3x3
I1010 02:22:10.339673 18017 net.cpp:410] inception_4a/relu_3x3 <- inception_4a/3x3
I1010 02:22:10.339679 18017 net.cpp:357] inception_4a/relu_3x3 -> inception_4a/3x3 (in-place)
I1010 02:22:10.339686 18017 net.cpp:120] Setting up inception_4a/relu_3x3
I1010 02:22:10.339694 18017 net.cpp:127] Top shape: 32 208 14 14 (1304576)
I1010 02:22:10.339699 18017 layer_factory.hpp:74] Creating layer inception_4a/5x5_reduce
I1010 02:22:10.339705 18017 net.cpp:90] Creating Layer inception_4a/5x5_reduce
I1010 02:22:10.339710 18017 net.cpp:410] inception_4a/5x5_reduce <- pool3/3x3_s2_pool3/3x3_s2_0_split_2
I1010 02:22:10.339720 18017 net.cpp:368] inception_4a/5x5_reduce -> inception_4a/5x5_reduce
I1010 02:22:10.339730 18017 net.cpp:120] Setting up inception_4a/5x5_reduce
I1010 02:22:10.339826 18017 net.cpp:127] Top shape: 32 16 14 14 (100352)
I1010 02:22:10.339839 18017 layer_factory.hpp:74] Creating layer inception_4a/relu_5x5_reduce
I1010 02:22:10.339848 18017 net.cpp:90] Creating Layer inception_4a/relu_5x5_reduce
I1010 02:22:10.339854 18017 net.cpp:410] inception_4a/relu_5x5_reduce <- inception_4a/5x5_reduce
I1010 02:22:10.339862 18017 net.cpp:357] inception_4a/relu_5x5_reduce -> inception_4a/5x5_reduce (in-place)
I1010 02:22:10.339869 18017 net.cpp:120] Setting up inception_4a/relu_5x5_reduce
I1010 02:22:10.339875 18017 net.cpp:127] Top shape: 32 16 14 14 (100352)
I1010 02:22:10.339880 18017 layer_factory.hpp:74] Creating layer inception_4a/5x5
I1010 02:22:10.339887 18017 net.cpp:90] Creating Layer inception_4a/5x5
I1010 02:22:10.339892 18017 net.cpp:410] inception_4a/5x5 <- inception_4a/5x5_reduce
I1010 02:22:10.339902 18017 net.cpp:368] inception_4a/5x5 -> inception_4a/5x5
I1010 02:22:10.339910 18017 net.cpp:120] Setting up inception_4a/5x5
I1010 02:22:10.340148 18017 net.cpp:127] Top shape: 32 48 14 14 (301056)
I1010 02:22:10.340162 18017 layer_factory.hpp:74] Creating layer inception_4a/relu_5x5
I1010 02:22:10.340169 18017 net.cpp:90] Creating Layer inception_4a/relu_5x5
I1010 02:22:10.340174 18017 net.cpp:410] inception_4a/relu_5x5 <- inception_4a/5x5
I1010 02:22:10.340183 18017 net.cpp:357] inception_4a/relu_5x5 -> inception_4a/5x5 (in-place)
I1010 02:22:10.340190 18017 net.cpp:120] Setting up inception_4a/relu_5x5
I1010 02:22:10.340198 18017 net.cpp:127] Top shape: 32 48 14 14 (301056)
I1010 02:22:10.340201 18017 layer_factory.hpp:74] Creating layer inception_4a/pool
I1010 02:22:10.340209 18017 net.cpp:90] Creating Layer inception_4a/pool
I1010 02:22:10.340214 18017 net.cpp:410] inception_4a/pool <- pool3/3x3_s2_pool3/3x3_s2_0_split_3
I1010 02:22:10.340220 18017 net.cpp:368] inception_4a/pool -> inception_4a/pool
I1010 02:22:10.340229 18017 net.cpp:120] Setting up inception_4a/pool
I1010 02:22:10.340237 18017 net.cpp:127] Top shape: 32 480 14 14 (3010560)
I1010 02:22:10.340242 18017 layer_factory.hpp:74] Creating layer inception_4a/pool_proj
I1010 02:22:10.340252 18017 net.cpp:90] Creating Layer inception_4a/pool_proj
I1010 02:22:10.340260 18017 net.cpp:410] inception_4a/pool_proj <- inception_4a/pool
I1010 02:22:10.340270 18017 net.cpp:368] inception_4a/pool_proj -> inception_4a/pool_proj
I1010 02:22:10.340279 18017 net.cpp:120] Setting up inception_4a/pool_proj
I1010 02:22:10.340612 18017 net.cpp:127] Top shape: 32 64 14 14 (401408)
I1010 02:22:10.340626 18017 layer_factory.hpp:74] Creating layer inception_4a/relu_pool_proj
I1010 02:22:10.340642 18017 net.cpp:90] Creating Layer inception_4a/relu_pool_proj
I1010 02:22:10.340648 18017 net.cpp:410] inception_4a/relu_pool_proj <- inception_4a/pool_proj
I1010 02:22:10.340654 18017 net.cpp:357] inception_4a/relu_pool_proj -> inception_4a/pool_proj (in-place)
I1010 02:22:10.340662 18017 net.cpp:120] Setting up inception_4a/relu_pool_proj
I1010 02:22:10.340668 18017 net.cpp:127] Top shape: 32 64 14 14 (401408)
I1010 02:22:10.340673 18017 layer_factory.hpp:74] Creating layer inception_4a/output
I1010 02:22:10.340680 18017 net.cpp:90] Creating Layer inception_4a/output
I1010 02:22:10.340687 18017 net.cpp:410] inception_4a/output <- inception_4a/1x1
I1010 02:22:10.340693 18017 net.cpp:410] inception_4a/output <- inception_4a/3x3
I1010 02:22:10.340699 18017 net.cpp:410] inception_4a/output <- inception_4a/5x5
I1010 02:22:10.340704 18017 net.cpp:410] inception_4a/output <- inception_4a/pool_proj
I1010 02:22:10.340710 18017 net.cpp:368] inception_4a/output -> inception_4a/output
I1010 02:22:10.340718 18017 net.cpp:120] Setting up inception_4a/output
I1010 02:22:10.340725 18017 net.cpp:127] Top shape: 32 512 14 14 (3211264)
I1010 02:22:10.340730 18017 layer_factory.hpp:74] Creating layer inception_4a/output_inception_4a/output_0_split
I1010 02:22:10.340737 18017 net.cpp:90] Creating Layer inception_4a/output_inception_4a/output_0_split
I1010 02:22:10.340742 18017 net.cpp:410] inception_4a/output_inception_4a/output_0_split <- inception_4a/output
I1010 02:22:10.340749 18017 net.cpp:368] inception_4a/output_inception_4a/output_0_split -> inception_4a/output_inception_4a/output_0_split_0
I1010 02:22:10.340771 18017 net.cpp:368] inception_4a/output_inception_4a/output_0_split -> inception_4a/output_inception_4a/output_0_split_1
I1010 02:22:10.340785 18017 net.cpp:368] inception_4a/output_inception_4a/output_0_split -> inception_4a/output_inception_4a/output_0_split_2
I1010 02:22:10.340793 18017 net.cpp:368] inception_4a/output_inception_4a/output_0_split -> inception_4a/output_inception_4a/output_0_split_3
I1010 02:22:10.340801 18017 net.cpp:368] inception_4a/output_inception_4a/output_0_split -> inception_4a/output_inception_4a/output_0_split_4
I1010 02:22:10.340808 18017 net.cpp:120] Setting up inception_4a/output_inception_4a/output_0_split
I1010 02:22:10.340817 18017 net.cpp:127] Top shape: 32 512 14 14 (3211264)
I1010 02:22:10.340831 18017 net.cpp:127] Top shape: 32 512 14 14 (3211264)
I1010 02:22:10.340837 18017 net.cpp:127] Top shape: 32 512 14 14 (3211264)
I1010 02:22:10.340842 18017 net.cpp:127] Top shape: 32 512 14 14 (3211264)
I1010 02:22:10.340847 18017 net.cpp:127] Top shape: 32 512 14 14 (3211264)
I1010 02:22:10.340852 18017 layer_factory.hpp:74] Creating layer loss1/ave_pool
I1010 02:22:10.340859 18017 net.cpp:90] Creating Layer loss1/ave_pool
I1010 02:22:10.340864 18017 net.cpp:410] loss1/ave_pool <- inception_4a/output_inception_4a/output_0_split_0
I1010 02:22:10.340872 18017 net.cpp:368] loss1/ave_pool -> loss1/ave_pool
I1010 02:22:10.340878 18017 net.cpp:120] Setting up loss1/ave_pool
I1010 02:22:10.340888 18017 net.cpp:127] Top shape: 32 512 4 4 (262144)
I1010 02:22:10.340893 18017 layer_factory.hpp:74] Creating layer loss1/conv
I1010 02:22:10.340903 18017 net.cpp:90] Creating Layer loss1/conv
I1010 02:22:10.340908 18017 net.cpp:410] loss1/conv <- loss1/ave_pool
I1010 02:22:10.340917 18017 net.cpp:368] loss1/conv -> loss1/conv
I1010 02:22:10.340927 18017 net.cpp:120] Setting up loss1/conv
I1010 02:22:10.341660 18017 net.cpp:127] Top shape: 32 128 4 4 (65536)
I1010 02:22:10.341681 18017 layer_factory.hpp:74] Creating layer loss1/relu_conv
I1010 02:22:10.341692 18017 net.cpp:90] Creating Layer loss1/relu_conv
I1010 02:22:10.341701 18017 net.cpp:410] loss1/relu_conv <- loss1/conv
I1010 02:22:10.341714 18017 net.cpp:357] loss1/relu_conv -> loss1/conv (in-place)
I1010 02:22:10.341727 18017 net.cpp:120] Setting up loss1/relu_conv
I1010 02:22:10.341740 18017 net.cpp:127] Top shape: 32 128 4 4 (65536)
I1010 02:22:10.341749 18017 layer_factory.hpp:74] Creating layer loss1/fc
I1010 02:22:10.341771 18017 net.cpp:90] Creating Layer loss1/fc
I1010 02:22:10.341780 18017 net.cpp:410] loss1/fc <- loss1/conv
I1010 02:22:10.341797 18017 net.cpp:368] loss1/fc -> loss1/fc
I1010 02:22:10.341814 18017 net.cpp:120] Setting up loss1/fc
I1010 02:22:10.365713 18017 net.cpp:127] Top shape: 32 1024 (32768)
I1010 02:22:10.365731 18017 layer_factory.hpp:74] Creating layer loss1/relu_fc
I1010 02:22:10.365741 18017 net.cpp:90] Creating Layer loss1/relu_fc
I1010 02:22:10.365746 18017 net.cpp:410] loss1/relu_fc <- loss1/fc
I1010 02:22:10.365756 18017 net.cpp:357] loss1/relu_fc -> loss1/fc (in-place)
I1010 02:22:10.365763 18017 net.cpp:120] Setting up loss1/relu_fc
I1010 02:22:10.365770 18017 net.cpp:127] Top shape: 32 1024 (32768)
I1010 02:22:10.365774 18017 layer_factory.hpp:74] Creating layer loss1/drop_fc
I1010 02:22:10.365790 18017 net.cpp:90] Creating Layer loss1/drop_fc
I1010 02:22:10.365797 18017 net.cpp:410] loss1/drop_fc <- loss1/fc
I1010 02:22:10.365804 18017 net.cpp:357] loss1/drop_fc -> loss1/fc (in-place)
I1010 02:22:10.365813 18017 net.cpp:120] Setting up loss1/drop_fc
I1010 02:22:10.365855 18017 net.cpp:127] Top shape: 32 1024 (32768)
I1010 02:22:10.365865 18017 layer_factory.hpp:74] Creating layer ft_loss1/classifier
I1010 02:22:10.365877 18017 net.cpp:90] Creating Layer ft_loss1/classifier
I1010 02:22:10.365883 18017 net.cpp:410] ft_loss1/classifier <- loss1/fc
I1010 02:22:10.365890 18017 net.cpp:368] ft_loss1/classifier -> ft_loss1/classifier
I1010 02:22:10.365900 18017 net.cpp:120] Setting up ft_loss1/classifier
I1010 02:22:10.365936 18017 net.cpp:127] Top shape: 32 2 (64)
I1010 02:22:10.365947 18017 layer_factory.hpp:74] Creating layer loss1/loss
I1010 02:22:10.365985 18017 net.cpp:90] Creating Layer loss1/loss
I1010 02:22:10.365996 18017 net.cpp:410] loss1/loss <- ft_loss1/classifier
I1010 02:22:10.366003 18017 net.cpp:410] loss1/loss <- label_data_1_split_0
I1010 02:22:10.366009 18017 net.cpp:368] loss1/loss -> loss1/loss1
I1010 02:22:10.366017 18017 net.cpp:120] Setting up loss1/loss
I1010 02:22:10.366025 18017 layer_factory.hpp:74] Creating layer loss1/loss
I1010 02:22:10.366076 18017 net.cpp:127] Top shape: (1)
I1010 02:22:10.366091 18017 net.cpp:129]     with loss weight 0.3
I1010 02:22:10.366153 18017 layer_factory.hpp:74] Creating layer inception_4b/1x1
I1010 02:22:10.366166 18017 net.cpp:90] Creating Layer inception_4b/1x1
I1010 02:22:10.366173 18017 net.cpp:410] inception_4b/1x1 <- inception_4a/output_inception_4a/output_0_split_1
I1010 02:22:10.366184 18017 net.cpp:368] inception_4b/1x1 -> inception_4b/1x1
I1010 02:22:10.366194 18017 net.cpp:120] Setting up inception_4b/1x1
I1010 02:22:10.367069 18017 net.cpp:127] Top shape: 32 160 14 14 (1003520)
I1010 02:22:10.367099 18017 layer_factory.hpp:74] Creating layer inception_4b/relu_1x1
I1010 02:22:10.367108 18017 net.cpp:90] Creating Layer inception_4b/relu_1x1
I1010 02:22:10.367115 18017 net.cpp:410] inception_4b/relu_1x1 <- inception_4b/1x1
I1010 02:22:10.367120 18017 net.cpp:357] inception_4b/relu_1x1 -> inception_4b/1x1 (in-place)
I1010 02:22:10.367127 18017 net.cpp:120] Setting up inception_4b/relu_1x1
I1010 02:22:10.367133 18017 net.cpp:127] Top shape: 32 160 14 14 (1003520)
I1010 02:22:10.367139 18017 layer_factory.hpp:74] Creating layer inception_4b/3x3_reduce
I1010 02:22:10.367149 18017 net.cpp:90] Creating Layer inception_4b/3x3_reduce
I1010 02:22:10.367154 18017 net.cpp:410] inception_4b/3x3_reduce <- inception_4a/output_inception_4a/output_0_split_2
I1010 02:22:10.367163 18017 net.cpp:368] inception_4b/3x3_reduce -> inception_4b/3x3_reduce
I1010 02:22:10.367172 18017 net.cpp:120] Setting up inception_4b/3x3_reduce
I1010 02:22:10.367856 18017 net.cpp:127] Top shape: 32 112 14 14 (702464)
I1010 02:22:10.367867 18017 layer_factory.hpp:74] Creating layer inception_4b/relu_3x3_reduce
I1010 02:22:10.367877 18017 net.cpp:90] Creating Layer inception_4b/relu_3x3_reduce
I1010 02:22:10.367882 18017 net.cpp:410] inception_4b/relu_3x3_reduce <- inception_4b/3x3_reduce
I1010 02:22:10.367889 18017 net.cpp:357] inception_4b/relu_3x3_reduce -> inception_4b/3x3_reduce (in-place)
I1010 02:22:10.367907 18017 net.cpp:120] Setting up inception_4b/relu_3x3_reduce
I1010 02:22:10.367913 18017 net.cpp:127] Top shape: 32 112 14 14 (702464)
I1010 02:22:10.367918 18017 layer_factory.hpp:74] Creating layer inception_4b/3x3
I1010 02:22:10.367928 18017 net.cpp:90] Creating Layer inception_4b/3x3
I1010 02:22:10.367933 18017 net.cpp:410] inception_4b/3x3 <- inception_4b/3x3_reduce
I1010 02:22:10.367940 18017 net.cpp:368] inception_4b/3x3 -> inception_4b/3x3
I1010 02:22:10.367956 18017 net.cpp:120] Setting up inception_4b/3x3
I1010 02:22:10.370471 18017 net.cpp:127] Top shape: 32 224 14 14 (1404928)
I1010 02:22:10.370497 18017 layer_factory.hpp:74] Creating layer inception_4b/relu_3x3
I1010 02:22:10.370508 18017 net.cpp:90] Creating Layer inception_4b/relu_3x3
I1010 02:22:10.370513 18017 net.cpp:410] inception_4b/relu_3x3 <- inception_4b/3x3
I1010 02:22:10.370520 18017 net.cpp:357] inception_4b/relu_3x3 -> inception_4b/3x3 (in-place)
I1010 02:22:10.370527 18017 net.cpp:120] Setting up inception_4b/relu_3x3
I1010 02:22:10.370533 18017 net.cpp:127] Top shape: 32 224 14 14 (1404928)
I1010 02:22:10.370537 18017 layer_factory.hpp:74] Creating layer inception_4b/5x5_reduce
I1010 02:22:10.370546 18017 net.cpp:90] Creating Layer inception_4b/5x5_reduce
I1010 02:22:10.370553 18017 net.cpp:410] inception_4b/5x5_reduce <- inception_4a/output_inception_4a/output_0_split_3
I1010 02:22:10.370559 18017 net.cpp:368] inception_4b/5x5_reduce -> inception_4b/5x5_reduce
I1010 02:22:10.370566 18017 net.cpp:120] Setting up inception_4b/5x5_reduce
I1010 02:22:10.370697 18017 net.cpp:127] Top shape: 32 24 14 14 (150528)
I1010 02:22:10.370707 18017 layer_factory.hpp:74] Creating layer inception_4b/relu_5x5_reduce
I1010 02:22:10.370713 18017 net.cpp:90] Creating Layer inception_4b/relu_5x5_reduce
I1010 02:22:10.370718 18017 net.cpp:410] inception_4b/relu_5x5_reduce <- inception_4b/5x5_reduce
I1010 02:22:10.370726 18017 net.cpp:357] inception_4b/relu_5x5_reduce -> inception_4b/5x5_reduce (in-place)
I1010 02:22:10.370733 18017 net.cpp:120] Setting up inception_4b/relu_5x5_reduce
I1010 02:22:10.370739 18017 net.cpp:127] Top shape: 32 24 14 14 (150528)
I1010 02:22:10.370743 18017 layer_factory.hpp:74] Creating layer inception_4b/5x5
I1010 02:22:10.370750 18017 net.cpp:90] Creating Layer inception_4b/5x5
I1010 02:22:10.370755 18017 net.cpp:410] inception_4b/5x5 <- inception_4b/5x5_reduce
I1010 02:22:10.370765 18017 net.cpp:368] inception_4b/5x5 -> inception_4b/5x5
I1010 02:22:10.370774 18017 net.cpp:120] Setting up inception_4b/5x5
I1010 02:22:10.371165 18017 net.cpp:127] Top shape: 32 64 14 14 (401408)
I1010 02:22:10.371179 18017 layer_factory.hpp:74] Creating layer inception_4b/relu_5x5
I1010 02:22:10.371187 18017 net.cpp:90] Creating Layer inception_4b/relu_5x5
I1010 02:22:10.371193 18017 net.cpp:410] inception_4b/relu_5x5 <- inception_4b/5x5
I1010 02:22:10.371199 18017 net.cpp:357] inception_4b/relu_5x5 -> inception_4b/5x5 (in-place)
I1010 02:22:10.371208 18017 net.cpp:120] Setting up inception_4b/relu_5x5
I1010 02:22:10.371214 18017 net.cpp:127] Top shape: 32 64 14 14 (401408)
I1010 02:22:10.371219 18017 layer_factory.hpp:74] Creating layer inception_4b/pool
I1010 02:22:10.371225 18017 net.cpp:90] Creating Layer inception_4b/pool
I1010 02:22:10.371230 18017 net.cpp:410] inception_4b/pool <- inception_4a/output_inception_4a/output_0_split_4
I1010 02:22:10.371237 18017 net.cpp:368] inception_4b/pool -> inception_4b/pool
I1010 02:22:10.371251 18017 net.cpp:120] Setting up inception_4b/pool
I1010 02:22:10.371264 18017 net.cpp:127] Top shape: 32 512 14 14 (3211264)
I1010 02:22:10.371269 18017 layer_factory.hpp:74] Creating layer inception_4b/pool_proj
I1010 02:22:10.371279 18017 net.cpp:90] Creating Layer inception_4b/pool_proj
I1010 02:22:10.371285 18017 net.cpp:410] inception_4b/pool_proj <- inception_4b/pool
I1010 02:22:10.371292 18017 net.cpp:368] inception_4b/pool_proj -> inception_4b/pool_proj
I1010 02:22:10.371312 18017 net.cpp:120] Setting up inception_4b/pool_proj
I1010 02:22:10.371702 18017 net.cpp:127] Top shape: 32 64 14 14 (401408)
I1010 02:22:10.371716 18017 layer_factory.hpp:74] Creating layer inception_4b/relu_pool_proj
I1010 02:22:10.371724 18017 net.cpp:90] Creating Layer inception_4b/relu_pool_proj
I1010 02:22:10.371731 18017 net.cpp:410] inception_4b/relu_pool_proj <- inception_4b/pool_proj
I1010 02:22:10.371737 18017 net.cpp:357] inception_4b/relu_pool_proj -> inception_4b/pool_proj (in-place)
I1010 02:22:10.371743 18017 net.cpp:120] Setting up inception_4b/relu_pool_proj
I1010 02:22:10.371750 18017 net.cpp:127] Top shape: 32 64 14 14 (401408)
I1010 02:22:10.371754 18017 layer_factory.hpp:74] Creating layer inception_4b/output
I1010 02:22:10.371762 18017 net.cpp:90] Creating Layer inception_4b/output
I1010 02:22:10.371767 18017 net.cpp:410] inception_4b/output <- inception_4b/1x1
I1010 02:22:10.371773 18017 net.cpp:410] inception_4b/output <- inception_4b/3x3
I1010 02:22:10.371778 18017 net.cpp:410] inception_4b/output <- inception_4b/5x5
I1010 02:22:10.371783 18017 net.cpp:410] inception_4b/output <- inception_4b/pool_proj
I1010 02:22:10.371788 18017 net.cpp:368] inception_4b/output -> inception_4b/output
I1010 02:22:10.371795 18017 net.cpp:120] Setting up inception_4b/output
I1010 02:22:10.371803 18017 net.cpp:127] Top shape: 32 512 14 14 (3211264)
I1010 02:22:10.371809 18017 layer_factory.hpp:74] Creating layer inception_4b/output_inception_4b/output_0_split
I1010 02:22:10.371817 18017 net.cpp:90] Creating Layer inception_4b/output_inception_4b/output_0_split
I1010 02:22:10.371822 18017 net.cpp:410] inception_4b/output_inception_4b/output_0_split <- inception_4b/output
I1010 02:22:10.371829 18017 net.cpp:368] inception_4b/output_inception_4b/output_0_split -> inception_4b/output_inception_4b/output_0_split_0
I1010 02:22:10.371837 18017 net.cpp:368] inception_4b/output_inception_4b/output_0_split -> inception_4b/output_inception_4b/output_0_split_1
I1010 02:22:10.371845 18017 net.cpp:368] inception_4b/output_inception_4b/output_0_split -> inception_4b/output_inception_4b/output_0_split_2
I1010 02:22:10.371855 18017 net.cpp:368] inception_4b/output_inception_4b/output_0_split -> inception_4b/output_inception_4b/output_0_split_3
I1010 02:22:10.371862 18017 net.cpp:120] Setting up inception_4b/output_inception_4b/output_0_split
I1010 02:22:10.371870 18017 net.cpp:127] Top shape: 32 512 14 14 (3211264)
I1010 02:22:10.371876 18017 net.cpp:127] Top shape: 32 512 14 14 (3211264)
I1010 02:22:10.371882 18017 net.cpp:127] Top shape: 32 512 14 14 (3211264)
I1010 02:22:10.371887 18017 net.cpp:127] Top shape: 32 512 14 14 (3211264)
I1010 02:22:10.371891 18017 layer_factory.hpp:74] Creating layer inception_4c/1x1
I1010 02:22:10.371899 18017 net.cpp:90] Creating Layer inception_4c/1x1
I1010 02:22:10.371904 18017 net.cpp:410] inception_4c/1x1 <- inception_4b/output_inception_4b/output_0_split_0
I1010 02:22:10.371913 18017 net.cpp:368] inception_4c/1x1 -> inception_4c/1x1
I1010 02:22:10.371922 18017 net.cpp:120] Setting up inception_4c/1x1
I1010 02:22:10.372652 18017 net.cpp:127] Top shape: 32 128 14 14 (802816)
I1010 02:22:10.372665 18017 layer_factory.hpp:74] Creating layer inception_4c/relu_1x1
I1010 02:22:10.372673 18017 net.cpp:90] Creating Layer inception_4c/relu_1x1
I1010 02:22:10.372678 18017 net.cpp:410] inception_4c/relu_1x1 <- inception_4c/1x1
I1010 02:22:10.372686 18017 net.cpp:357] inception_4c/relu_1x1 -> inception_4c/1x1 (in-place)
I1010 02:22:10.372694 18017 net.cpp:120] Setting up inception_4c/relu_1x1
I1010 02:22:10.372701 18017 net.cpp:127] Top shape: 32 128 14 14 (802816)
I1010 02:22:10.372705 18017 layer_factory.hpp:74] Creating layer inception_4c/3x3_reduce
I1010 02:22:10.372714 18017 net.cpp:90] Creating Layer inception_4c/3x3_reduce
I1010 02:22:10.372719 18017 net.cpp:410] inception_4c/3x3_reduce <- inception_4b/output_inception_4b/output_0_split_1
I1010 02:22:10.372728 18017 net.cpp:368] inception_4c/3x3_reduce -> inception_4c/3x3_reduce
I1010 02:22:10.372737 18017 net.cpp:120] Setting up inception_4c/3x3_reduce
I1010 02:22:10.373489 18017 net.cpp:127] Top shape: 32 128 14 14 (802816)
I1010 02:22:10.373512 18017 layer_factory.hpp:74] Creating layer inception_4c/relu_3x3_reduce
I1010 02:22:10.373519 18017 net.cpp:90] Creating Layer inception_4c/relu_3x3_reduce
I1010 02:22:10.373524 18017 net.cpp:410] inception_4c/relu_3x3_reduce <- inception_4c/3x3_reduce
I1010 02:22:10.373533 18017 net.cpp:357] inception_4c/relu_3x3_reduce -> inception_4c/3x3_reduce (in-place)
I1010 02:22:10.373540 18017 net.cpp:120] Setting up inception_4c/relu_3x3_reduce
I1010 02:22:10.373559 18017 net.cpp:127] Top shape: 32 128 14 14 (802816)
I1010 02:22:10.373564 18017 layer_factory.hpp:74] Creating layer inception_4c/3x3
I1010 02:22:10.373571 18017 net.cpp:90] Creating Layer inception_4c/3x3
I1010 02:22:10.373576 18017 net.cpp:410] inception_4c/3x3 <- inception_4c/3x3_reduce
I1010 02:22:10.373584 18017 net.cpp:368] inception_4c/3x3 -> inception_4c/3x3
I1010 02:22:10.373591 18017 net.cpp:120] Setting up inception_4c/3x3
I1010 02:22:10.376936 18017 net.cpp:127] Top shape: 32 256 14 14 (1605632)
I1010 02:22:10.376984 18017 layer_factory.hpp:74] Creating layer inception_4c/relu_3x3
I1010 02:22:10.376996 18017 net.cpp:90] Creating Layer inception_4c/relu_3x3
I1010 02:22:10.377002 18017 net.cpp:410] inception_4c/relu_3x3 <- inception_4c/3x3
I1010 02:22:10.377008 18017 net.cpp:357] inception_4c/relu_3x3 -> inception_4c/3x3 (in-place)
I1010 02:22:10.377017 18017 net.cpp:120] Setting up inception_4c/relu_3x3
I1010 02:22:10.377023 18017 net.cpp:127] Top shape: 32 256 14 14 (1605632)
I1010 02:22:10.377027 18017 layer_factory.hpp:74] Creating layer inception_4c/5x5_reduce
I1010 02:22:10.377035 18017 net.cpp:90] Creating Layer inception_4c/5x5_reduce
I1010 02:22:10.377041 18017 net.cpp:410] inception_4c/5x5_reduce <- inception_4b/output_inception_4b/output_0_split_2
I1010 02:22:10.377050 18017 net.cpp:368] inception_4c/5x5_reduce -> inception_4c/5x5_reduce
I1010 02:22:10.377059 18017 net.cpp:120] Setting up inception_4c/5x5_reduce
I1010 02:22:10.377197 18017 net.cpp:127] Top shape: 32 24 14 14 (150528)
I1010 02:22:10.377209 18017 layer_factory.hpp:74] Creating layer inception_4c/relu_5x5_reduce
I1010 02:22:10.377216 18017 net.cpp:90] Creating Layer inception_4c/relu_5x5_reduce
I1010 02:22:10.377221 18017 net.cpp:410] inception_4c/relu_5x5_reduce <- inception_4c/5x5_reduce
I1010 02:22:10.377228 18017 net.cpp:357] inception_4c/relu_5x5_reduce -> inception_4c/5x5_reduce (in-place)
I1010 02:22:10.377234 18017 net.cpp:120] Setting up inception_4c/relu_5x5_reduce
I1010 02:22:10.377240 18017 net.cpp:127] Top shape: 32 24 14 14 (150528)
I1010 02:22:10.377245 18017 layer_factory.hpp:74] Creating layer inception_4c/5x5
I1010 02:22:10.377254 18017 net.cpp:90] Creating Layer inception_4c/5x5
I1010 02:22:10.377260 18017 net.cpp:410] inception_4c/5x5 <- inception_4c/5x5_reduce
I1010 02:22:10.377267 18017 net.cpp:368] inception_4c/5x5 -> inception_4c/5x5
I1010 02:22:10.377275 18017 net.cpp:120] Setting up inception_4c/5x5
I1010 02:22:10.377691 18017 net.cpp:127] Top shape: 32 64 14 14 (401408)
I1010 02:22:10.377703 18017 layer_factory.hpp:74] Creating layer inception_4c/relu_5x5
I1010 02:22:10.377712 18017 net.cpp:90] Creating Layer inception_4c/relu_5x5
I1010 02:22:10.377718 18017 net.cpp:410] inception_4c/relu_5x5 <- inception_4c/5x5
I1010 02:22:10.377724 18017 net.cpp:357] inception_4c/relu_5x5 -> inception_4c/5x5 (in-place)
I1010 02:22:10.377734 18017 net.cpp:120] Setting up inception_4c/relu_5x5
I1010 02:22:10.377743 18017 net.cpp:127] Top shape: 32 64 14 14 (401408)
I1010 02:22:10.377748 18017 layer_factory.hpp:74] Creating layer inception_4c/pool
I1010 02:22:10.377763 18017 net.cpp:90] Creating Layer inception_4c/pool
I1010 02:22:10.377769 18017 net.cpp:410] inception_4c/pool <- inception_4b/output_inception_4b/output_0_split_3
I1010 02:22:10.377775 18017 net.cpp:368] inception_4c/pool -> inception_4c/pool
I1010 02:22:10.377784 18017 net.cpp:120] Setting up inception_4c/pool
I1010 02:22:10.377792 18017 net.cpp:127] Top shape: 32 512 14 14 (3211264)
I1010 02:22:10.377799 18017 layer_factory.hpp:74] Creating layer inception_4c/pool_proj
I1010 02:22:10.377823 18017 net.cpp:90] Creating Layer inception_4c/pool_proj
I1010 02:22:10.377830 18017 net.cpp:410] inception_4c/pool_proj <- inception_4c/pool
I1010 02:22:10.377840 18017 net.cpp:368] inception_4c/pool_proj -> inception_4c/pool_proj
I1010 02:22:10.377849 18017 net.cpp:120] Setting up inception_4c/pool_proj
I1010 02:22:10.378231 18017 net.cpp:127] Top shape: 32 64 14 14 (401408)
I1010 02:22:10.378245 18017 layer_factory.hpp:74] Creating layer inception_4c/relu_pool_proj
I1010 02:22:10.378252 18017 net.cpp:90] Creating Layer inception_4c/relu_pool_proj
I1010 02:22:10.378258 18017 net.cpp:410] inception_4c/relu_pool_proj <- inception_4c/pool_proj
I1010 02:22:10.378267 18017 net.cpp:357] inception_4c/relu_pool_proj -> inception_4c/pool_proj (in-place)
I1010 02:22:10.378286 18017 net.cpp:120] Setting up inception_4c/relu_pool_proj
I1010 02:22:10.378293 18017 net.cpp:127] Top shape: 32 64 14 14 (401408)
I1010 02:22:10.378298 18017 layer_factory.hpp:74] Creating layer inception_4c/output
I1010 02:22:10.378305 18017 net.cpp:90] Creating Layer inception_4c/output
I1010 02:22:10.378310 18017 net.cpp:410] inception_4c/output <- inception_4c/1x1
I1010 02:22:10.378316 18017 net.cpp:410] inception_4c/output <- inception_4c/3x3
I1010 02:22:10.378321 18017 net.cpp:410] inception_4c/output <- inception_4c/5x5
I1010 02:22:10.378327 18017 net.cpp:410] inception_4c/output <- inception_4c/pool_proj
I1010 02:22:10.378346 18017 net.cpp:368] inception_4c/output -> inception_4c/output
I1010 02:22:10.378352 18017 net.cpp:120] Setting up inception_4c/output
I1010 02:22:10.378360 18017 net.cpp:127] Top shape: 32 512 14 14 (3211264)
I1010 02:22:10.378365 18017 layer_factory.hpp:74] Creating layer inception_4c/output_inception_4c/output_0_split
I1010 02:22:10.378372 18017 net.cpp:90] Creating Layer inception_4c/output_inception_4c/output_0_split
I1010 02:22:10.378376 18017 net.cpp:410] inception_4c/output_inception_4c/output_0_split <- inception_4c/output
I1010 02:22:10.378386 18017 net.cpp:368] inception_4c/output_inception_4c/output_0_split -> inception_4c/output_inception_4c/output_0_split_0
I1010 02:22:10.378393 18017 net.cpp:368] inception_4c/output_inception_4c/output_0_split -> inception_4c/output_inception_4c/output_0_split_1
I1010 02:22:10.378401 18017 net.cpp:368] inception_4c/output_inception_4c/output_0_split -> inception_4c/output_inception_4c/output_0_split_2
I1010 02:22:10.378409 18017 net.cpp:368] inception_4c/output_inception_4c/output_0_split -> inception_4c/output_inception_4c/output_0_split_3
I1010 02:22:10.378417 18017 net.cpp:120] Setting up inception_4c/output_inception_4c/output_0_split
I1010 02:22:10.378424 18017 net.cpp:127] Top shape: 32 512 14 14 (3211264)
I1010 02:22:10.378430 18017 net.cpp:127] Top shape: 32 512 14 14 (3211264)
I1010 02:22:10.378435 18017 net.cpp:127] Top shape: 32 512 14 14 (3211264)
I1010 02:22:10.378442 18017 net.cpp:127] Top shape: 32 512 14 14 (3211264)
I1010 02:22:10.378445 18017 layer_factory.hpp:74] Creating layer inception_4d/1x1
I1010 02:22:10.378454 18017 net.cpp:90] Creating Layer inception_4d/1x1
I1010 02:22:10.378460 18017 net.cpp:410] inception_4d/1x1 <- inception_4c/output_inception_4c/output_0_split_0
I1010 02:22:10.378469 18017 net.cpp:368] inception_4d/1x1 -> inception_4d/1x1
I1010 02:22:10.378478 18017 net.cpp:120] Setting up inception_4d/1x1
I1010 02:22:10.379078 18017 net.cpp:127] Top shape: 32 112 14 14 (702464)
I1010 02:22:10.379099 18017 layer_factory.hpp:74] Creating layer inception_4d/relu_1x1
I1010 02:22:10.379106 18017 net.cpp:90] Creating Layer inception_4d/relu_1x1
I1010 02:22:10.379112 18017 net.cpp:410] inception_4d/relu_1x1 <- inception_4d/1x1
I1010 02:22:10.379118 18017 net.cpp:357] inception_4d/relu_1x1 -> inception_4d/1x1 (in-place)
I1010 02:22:10.379125 18017 net.cpp:120] Setting up inception_4d/relu_1x1
I1010 02:22:10.379132 18017 net.cpp:127] Top shape: 32 112 14 14 (702464)
I1010 02:22:10.379137 18017 layer_factory.hpp:74] Creating layer inception_4d/3x3_reduce
I1010 02:22:10.379159 18017 net.cpp:90] Creating Layer inception_4d/3x3_reduce
I1010 02:22:10.379174 18017 net.cpp:410] inception_4d/3x3_reduce <- inception_4c/output_inception_4c/output_0_split_1
I1010 02:22:10.379184 18017 net.cpp:368] inception_4d/3x3_reduce -> inception_4d/3x3_reduce
I1010 02:22:10.379195 18017 net.cpp:120] Setting up inception_4d/3x3_reduce
I1010 02:22:10.379992 18017 net.cpp:127] Top shape: 32 144 14 14 (903168)
I1010 02:22:10.380004 18017 layer_factory.hpp:74] Creating layer inception_4d/relu_3x3_reduce
I1010 02:22:10.380013 18017 net.cpp:90] Creating Layer inception_4d/relu_3x3_reduce
I1010 02:22:10.380020 18017 net.cpp:410] inception_4d/relu_3x3_reduce <- inception_4d/3x3_reduce
I1010 02:22:10.380028 18017 net.cpp:357] inception_4d/relu_3x3_reduce -> inception_4d/3x3_reduce (in-place)
I1010 02:22:10.380035 18017 net.cpp:120] Setting up inception_4d/relu_3x3_reduce
I1010 02:22:10.380041 18017 net.cpp:127] Top shape: 32 144 14 14 (903168)
I1010 02:22:10.380046 18017 layer_factory.hpp:74] Creating layer inception_4d/3x3
I1010 02:22:10.380056 18017 net.cpp:90] Creating Layer inception_4d/3x3
I1010 02:22:10.380062 18017 net.cpp:410] inception_4d/3x3 <- inception_4d/3x3_reduce
I1010 02:22:10.380069 18017 net.cpp:368] inception_4d/3x3 -> inception_4d/3x3
I1010 02:22:10.380077 18017 net.cpp:120] Setting up inception_4d/3x3
I1010 02:22:10.384295 18017 net.cpp:127] Top shape: 32 288 14 14 (1806336)
I1010 02:22:10.384310 18017 layer_factory.hpp:74] Creating layer inception_4d/relu_3x3
I1010 02:22:10.384316 18017 net.cpp:90] Creating Layer inception_4d/relu_3x3
I1010 02:22:10.384322 18017 net.cpp:410] inception_4d/relu_3x3 <- inception_4d/3x3
I1010 02:22:10.384328 18017 net.cpp:357] inception_4d/relu_3x3 -> inception_4d/3x3 (in-place)
I1010 02:22:10.384336 18017 net.cpp:120] Setting up inception_4d/relu_3x3
I1010 02:22:10.384342 18017 net.cpp:127] Top shape: 32 288 14 14 (1806336)
I1010 02:22:10.384347 18017 layer_factory.hpp:74] Creating layer inception_4d/5x5_reduce
I1010 02:22:10.384356 18017 net.cpp:90] Creating Layer inception_4d/5x5_reduce
I1010 02:22:10.384362 18017 net.cpp:410] inception_4d/5x5_reduce <- inception_4c/output_inception_4c/output_0_split_2
I1010 02:22:10.384369 18017 net.cpp:368] inception_4d/5x5_reduce -> inception_4d/5x5_reduce
I1010 02:22:10.384377 18017 net.cpp:120] Setting up inception_4d/5x5_reduce
I1010 02:22:10.384552 18017 net.cpp:127] Top shape: 32 32 14 14 (200704)
I1010 02:22:10.384564 18017 layer_factory.hpp:74] Creating layer inception_4d/relu_5x5_reduce
I1010 02:22:10.384570 18017 net.cpp:90] Creating Layer inception_4d/relu_5x5_reduce
I1010 02:22:10.384577 18017 net.cpp:410] inception_4d/relu_5x5_reduce <- inception_4d/5x5_reduce
I1010 02:22:10.384584 18017 net.cpp:357] inception_4d/relu_5x5_reduce -> inception_4d/5x5_reduce (in-place)
I1010 02:22:10.384591 18017 net.cpp:120] Setting up inception_4d/relu_5x5_reduce
I1010 02:22:10.384598 18017 net.cpp:127] Top shape: 32 32 14 14 (200704)
I1010 02:22:10.384603 18017 layer_factory.hpp:74] Creating layer inception_4d/5x5
I1010 02:22:10.384609 18017 net.cpp:90] Creating Layer inception_4d/5x5
I1010 02:22:10.384614 18017 net.cpp:410] inception_4d/5x5 <- inception_4d/5x5_reduce
I1010 02:22:10.384624 18017 net.cpp:368] inception_4d/5x5 -> inception_4d/5x5
I1010 02:22:10.384631 18017 net.cpp:120] Setting up inception_4d/5x5
I1010 02:22:10.385164 18017 net.cpp:127] Top shape: 32 64 14 14 (401408)
I1010 02:22:10.385180 18017 layer_factory.hpp:74] Creating layer inception_4d/relu_5x5
I1010 02:22:10.385187 18017 net.cpp:90] Creating Layer inception_4d/relu_5x5
I1010 02:22:10.385193 18017 net.cpp:410] inception_4d/relu_5x5 <- inception_4d/5x5
I1010 02:22:10.385200 18017 net.cpp:357] inception_4d/relu_5x5 -> inception_4d/5x5 (in-place)
I1010 02:22:10.385208 18017 net.cpp:120] Setting up inception_4d/relu_5x5
I1010 02:22:10.385215 18017 net.cpp:127] Top shape: 32 64 14 14 (401408)
I1010 02:22:10.385220 18017 layer_factory.hpp:74] Creating layer inception_4d/pool
I1010 02:22:10.385226 18017 net.cpp:90] Creating Layer inception_4d/pool
I1010 02:22:10.385231 18017 net.cpp:410] inception_4d/pool <- inception_4c/output_inception_4c/output_0_split_3
I1010 02:22:10.385246 18017 net.cpp:368] inception_4d/pool -> inception_4d/pool
I1010 02:22:10.385256 18017 net.cpp:120] Setting up inception_4d/pool
I1010 02:22:10.385264 18017 net.cpp:127] Top shape: 32 512 14 14 (3211264)
I1010 02:22:10.385270 18017 layer_factory.hpp:74] Creating layer inception_4d/pool_proj
I1010 02:22:10.385280 18017 net.cpp:90] Creating Layer inception_4d/pool_proj
I1010 02:22:10.385288 18017 net.cpp:410] inception_4d/pool_proj <- inception_4d/pool
I1010 02:22:10.385296 18017 net.cpp:368] inception_4d/pool_proj -> inception_4d/pool_proj
I1010 02:22:10.385306 18017 net.cpp:120] Setting up inception_4d/pool_proj
I1010 02:22:10.385643 18017 net.cpp:127] Top shape: 32 64 14 14 (401408)
I1010 02:22:10.385655 18017 layer_factory.hpp:74] Creating layer inception_4d/relu_pool_proj
I1010 02:22:10.385664 18017 net.cpp:90] Creating Layer inception_4d/relu_pool_proj
I1010 02:22:10.385670 18017 net.cpp:410] inception_4d/relu_pool_proj <- inception_4d/pool_proj
I1010 02:22:10.385676 18017 net.cpp:357] inception_4d/relu_pool_proj -> inception_4d/pool_proj (in-place)
I1010 02:22:10.385684 18017 net.cpp:120] Setting up inception_4d/relu_pool_proj
I1010 02:22:10.385689 18017 net.cpp:127] Top shape: 32 64 14 14 (401408)
I1010 02:22:10.385694 18017 layer_factory.hpp:74] Creating layer inception_4d/output
I1010 02:22:10.385700 18017 net.cpp:90] Creating Layer inception_4d/output
I1010 02:22:10.385705 18017 net.cpp:410] inception_4d/output <- inception_4d/1x1
I1010 02:22:10.385710 18017 net.cpp:410] inception_4d/output <- inception_4d/3x3
I1010 02:22:10.385716 18017 net.cpp:410] inception_4d/output <- inception_4d/5x5
I1010 02:22:10.385722 18017 net.cpp:410] inception_4d/output <- inception_4d/pool_proj
I1010 02:22:10.385730 18017 net.cpp:368] inception_4d/output -> inception_4d/output
I1010 02:22:10.385737 18017 net.cpp:120] Setting up inception_4d/output
I1010 02:22:10.385746 18017 net.cpp:127] Top shape: 32 528 14 14 (3311616)
I1010 02:22:10.385751 18017 layer_factory.hpp:74] Creating layer inception_4d/output_inception_4d/output_0_split
I1010 02:22:10.385756 18017 net.cpp:90] Creating Layer inception_4d/output_inception_4d/output_0_split
I1010 02:22:10.385761 18017 net.cpp:410] inception_4d/output_inception_4d/output_0_split <- inception_4d/output
I1010 02:22:10.385767 18017 net.cpp:368] inception_4d/output_inception_4d/output_0_split -> inception_4d/output_inception_4d/output_0_split_0
I1010 02:22:10.385776 18017 net.cpp:368] inception_4d/output_inception_4d/output_0_split -> inception_4d/output_inception_4d/output_0_split_1
I1010 02:22:10.385783 18017 net.cpp:368] inception_4d/output_inception_4d/output_0_split -> inception_4d/output_inception_4d/output_0_split_2
I1010 02:22:10.385793 18017 net.cpp:368] inception_4d/output_inception_4d/output_0_split -> inception_4d/output_inception_4d/output_0_split_3
I1010 02:22:10.385804 18017 net.cpp:368] inception_4d/output_inception_4d/output_0_split -> inception_4d/output_inception_4d/output_0_split_4
I1010 02:22:10.385812 18017 net.cpp:120] Setting up inception_4d/output_inception_4d/output_0_split
I1010 02:22:10.385820 18017 net.cpp:127] Top shape: 32 528 14 14 (3311616)
I1010 02:22:10.385826 18017 net.cpp:127] Top shape: 32 528 14 14 (3311616)
I1010 02:22:10.385831 18017 net.cpp:127] Top shape: 32 528 14 14 (3311616)
I1010 02:22:10.385838 18017 net.cpp:127] Top shape: 32 528 14 14 (3311616)
I1010 02:22:10.385843 18017 net.cpp:127] Top shape: 32 528 14 14 (3311616)
I1010 02:22:10.385848 18017 layer_factory.hpp:74] Creating layer loss2/ave_pool
I1010 02:22:10.385855 18017 net.cpp:90] Creating Layer loss2/ave_pool
I1010 02:22:10.385861 18017 net.cpp:410] loss2/ave_pool <- inception_4d/output_inception_4d/output_0_split_0
I1010 02:22:10.385869 18017 net.cpp:368] loss2/ave_pool -> loss2/ave_pool
I1010 02:22:10.385875 18017 net.cpp:120] Setting up loss2/ave_pool
I1010 02:22:10.385884 18017 net.cpp:127] Top shape: 32 528 4 4 (270336)
I1010 02:22:10.385889 18017 layer_factory.hpp:74] Creating layer loss2/conv
I1010 02:22:10.385895 18017 net.cpp:90] Creating Layer loss2/conv
I1010 02:22:10.385908 18017 net.cpp:410] loss2/conv <- loss2/ave_pool
I1010 02:22:10.385920 18017 net.cpp:368] loss2/conv -> loss2/conv
I1010 02:22:10.385929 18017 net.cpp:120] Setting up loss2/conv
I1010 02:22:10.386628 18017 net.cpp:127] Top shape: 32 128 4 4 (65536)
I1010 02:22:10.386642 18017 layer_factory.hpp:74] Creating layer loss2/relu_conv
I1010 02:22:10.386649 18017 net.cpp:90] Creating Layer loss2/relu_conv
I1010 02:22:10.386656 18017 net.cpp:410] loss2/relu_conv <- loss2/conv
I1010 02:22:10.386662 18017 net.cpp:357] loss2/relu_conv -> loss2/conv (in-place)
I1010 02:22:10.386668 18017 net.cpp:120] Setting up loss2/relu_conv
I1010 02:22:10.386674 18017 net.cpp:127] Top shape: 32 128 4 4 (65536)
I1010 02:22:10.386679 18017 layer_factory.hpp:74] Creating layer loss2/fc
I1010 02:22:10.386689 18017 net.cpp:90] Creating Layer loss2/fc
I1010 02:22:10.386695 18017 net.cpp:410] loss2/fc <- loss2/conv
I1010 02:22:10.386705 18017 net.cpp:368] loss2/fc -> loss2/fc
I1010 02:22:10.386713 18017 net.cpp:120] Setting up loss2/fc
I1010 02:22:10.409118 18017 net.cpp:127] Top shape: 32 1024 (32768)
I1010 02:22:10.409147 18017 layer_factory.hpp:74] Creating layer loss2/relu_fc
I1010 02:22:10.409155 18017 net.cpp:90] Creating Layer loss2/relu_fc
I1010 02:22:10.409162 18017 net.cpp:410] loss2/relu_fc <- loss2/fc
I1010 02:22:10.409171 18017 net.cpp:357] loss2/relu_fc -> loss2/fc (in-place)
I1010 02:22:10.409180 18017 net.cpp:120] Setting up loss2/relu_fc
I1010 02:22:10.409186 18017 net.cpp:127] Top shape: 32 1024 (32768)
I1010 02:22:10.409191 18017 layer_factory.hpp:74] Creating layer loss2/drop_fc
I1010 02:22:10.409198 18017 net.cpp:90] Creating Layer loss2/drop_fc
I1010 02:22:10.409204 18017 net.cpp:410] loss2/drop_fc <- loss2/fc
I1010 02:22:10.409210 18017 net.cpp:357] loss2/drop_fc -> loss2/fc (in-place)
I1010 02:22:10.409216 18017 net.cpp:120] Setting up loss2/drop_fc
I1010 02:22:10.409224 18017 net.cpp:127] Top shape: 32 1024 (32768)
I1010 02:22:10.409229 18017 layer_factory.hpp:74] Creating layer ft_loss2/classifier
I1010 02:22:10.409240 18017 net.cpp:90] Creating Layer ft_loss2/classifier
I1010 02:22:10.409245 18017 net.cpp:410] ft_loss2/classifier <- loss2/fc
I1010 02:22:10.409252 18017 net.cpp:368] ft_loss2/classifier -> ft_loss2/classifier
I1010 02:22:10.409261 18017 net.cpp:120] Setting up ft_loss2/classifier
I1010 02:22:10.409299 18017 net.cpp:127] Top shape: 32 2 (64)
I1010 02:22:10.409309 18017 layer_factory.hpp:74] Creating layer loss2/loss
I1010 02:22:10.409319 18017 net.cpp:90] Creating Layer loss2/loss
I1010 02:22:10.409325 18017 net.cpp:410] loss2/loss <- ft_loss2/classifier
I1010 02:22:10.409332 18017 net.cpp:410] loss2/loss <- label_data_1_split_1
I1010 02:22:10.409338 18017 net.cpp:368] loss2/loss -> loss2/loss1
I1010 02:22:10.409354 18017 net.cpp:120] Setting up loss2/loss
I1010 02:22:10.409361 18017 layer_factory.hpp:74] Creating layer loss2/loss
I1010 02:22:10.409384 18017 net.cpp:127] Top shape: (1)
I1010 02:22:10.409390 18017 net.cpp:129]     with loss weight 0.3
I1010 02:22:10.409405 18017 layer_factory.hpp:74] Creating layer inception_4e/1x1
I1010 02:22:10.409418 18017 net.cpp:90] Creating Layer inception_4e/1x1
I1010 02:22:10.409425 18017 net.cpp:410] inception_4e/1x1 <- inception_4d/output_inception_4d/output_0_split_1
I1010 02:22:10.409432 18017 net.cpp:368] inception_4e/1x1 -> inception_4e/1x1
I1010 02:22:10.409440 18017 net.cpp:120] Setting up inception_4e/1x1
I1010 02:22:10.410989 18017 net.cpp:127] Top shape: 32 256 14 14 (1605632)
I1010 02:22:10.411002 18017 layer_factory.hpp:74] Creating layer inception_4e/relu_1x1
I1010 02:22:10.411010 18017 net.cpp:90] Creating Layer inception_4e/relu_1x1
I1010 02:22:10.411015 18017 net.cpp:410] inception_4e/relu_1x1 <- inception_4e/1x1
I1010 02:22:10.411025 18017 net.cpp:357] inception_4e/relu_1x1 -> inception_4e/1x1 (in-place)
I1010 02:22:10.411031 18017 net.cpp:120] Setting up inception_4e/relu_1x1
I1010 02:22:10.411038 18017 net.cpp:127] Top shape: 32 256 14 14 (1605632)
I1010 02:22:10.411046 18017 layer_factory.hpp:74] Creating layer inception_4e/3x3_reduce
I1010 02:22:10.411062 18017 net.cpp:90] Creating Layer inception_4e/3x3_reduce
I1010 02:22:10.411079 18017 net.cpp:410] inception_4e/3x3_reduce <- inception_4d/output_inception_4d/output_0_split_2
I1010 02:22:10.411093 18017 net.cpp:368] inception_4e/3x3_reduce -> inception_4e/3x3_reduce
I1010 02:22:10.411104 18017 net.cpp:120] Setting up inception_4e/3x3_reduce
I1010 02:22:10.412015 18017 net.cpp:127] Top shape: 32 160 14 14 (1003520)
I1010 02:22:10.412031 18017 layer_factory.hpp:74] Creating layer inception_4e/relu_3x3_reduce
I1010 02:22:10.412039 18017 net.cpp:90] Creating Layer inception_4e/relu_3x3_reduce
I1010 02:22:10.412045 18017 net.cpp:410] inception_4e/relu_3x3_reduce <- inception_4e/3x3_reduce
I1010 02:22:10.412053 18017 net.cpp:357] inception_4e/relu_3x3_reduce -> inception_4e/3x3_reduce (in-place)
I1010 02:22:10.412061 18017 net.cpp:120] Setting up inception_4e/relu_3x3_reduce
I1010 02:22:10.412068 18017 net.cpp:127] Top shape: 32 160 14 14 (1003520)
I1010 02:22:10.412072 18017 layer_factory.hpp:74] Creating layer inception_4e/3x3
I1010 02:22:10.412081 18017 net.cpp:90] Creating Layer inception_4e/3x3
I1010 02:22:10.412089 18017 net.cpp:410] inception_4e/3x3 <- inception_4e/3x3_reduce
I1010 02:22:10.412098 18017 net.cpp:368] inception_4e/3x3 -> inception_4e/3x3
I1010 02:22:10.412107 18017 net.cpp:120] Setting up inception_4e/3x3
I1010 02:22:10.417377 18017 net.cpp:127] Top shape: 32 320 14 14 (2007040)
I1010 02:22:10.417392 18017 layer_factory.hpp:74] Creating layer inception_4e/relu_3x3
I1010 02:22:10.417400 18017 net.cpp:90] Creating Layer inception_4e/relu_3x3
I1010 02:22:10.417407 18017 net.cpp:410] inception_4e/relu_3x3 <- inception_4e/3x3
I1010 02:22:10.417415 18017 net.cpp:357] inception_4e/relu_3x3 -> inception_4e/3x3 (in-place)
I1010 02:22:10.417423 18017 net.cpp:120] Setting up inception_4e/relu_3x3
I1010 02:22:10.417429 18017 net.cpp:127] Top shape: 32 320 14 14 (2007040)
I1010 02:22:10.417434 18017 layer_factory.hpp:74] Creating layer inception_4e/5x5_reduce
I1010 02:22:10.417443 18017 net.cpp:90] Creating Layer inception_4e/5x5_reduce
I1010 02:22:10.417448 18017 net.cpp:410] inception_4e/5x5_reduce <- inception_4d/output_inception_4d/output_0_split_3
I1010 02:22:10.417457 18017 net.cpp:368] inception_4e/5x5_reduce -> inception_4e/5x5_reduce
I1010 02:22:10.417466 18017 net.cpp:120] Setting up inception_4e/5x5_reduce
I1010 02:22:10.417650 18017 net.cpp:127] Top shape: 32 32 14 14 (200704)
I1010 02:22:10.417661 18017 layer_factory.hpp:74] Creating layer inception_4e/relu_5x5_reduce
I1010 02:22:10.417670 18017 net.cpp:90] Creating Layer inception_4e/relu_5x5_reduce
I1010 02:22:10.417675 18017 net.cpp:410] inception_4e/relu_5x5_reduce <- inception_4e/5x5_reduce
I1010 02:22:10.417681 18017 net.cpp:357] inception_4e/relu_5x5_reduce -> inception_4e/5x5_reduce (in-place)
I1010 02:22:10.417687 18017 net.cpp:120] Setting up inception_4e/relu_5x5_reduce
I1010 02:22:10.417695 18017 net.cpp:127] Top shape: 32 32 14 14 (200704)
I1010 02:22:10.417700 18017 layer_factory.hpp:74] Creating layer inception_4e/5x5
I1010 02:22:10.417721 18017 net.cpp:90] Creating Layer inception_4e/5x5
I1010 02:22:10.417729 18017 net.cpp:410] inception_4e/5x5 <- inception_4e/5x5_reduce
I1010 02:22:10.417739 18017 net.cpp:368] inception_4e/5x5 -> inception_4e/5x5
I1010 02:22:10.417748 18017 net.cpp:120] Setting up inception_4e/5x5
I1010 02:22:10.418828 18017 net.cpp:127] Top shape: 32 128 14 14 (802816)
I1010 02:22:10.418843 18017 layer_factory.hpp:74] Creating layer inception_4e/relu_5x5
I1010 02:22:10.418855 18017 net.cpp:90] Creating Layer inception_4e/relu_5x5
I1010 02:22:10.418861 18017 net.cpp:410] inception_4e/relu_5x5 <- inception_4e/5x5
I1010 02:22:10.418869 18017 net.cpp:357] inception_4e/relu_5x5 -> inception_4e/5x5 (in-place)
I1010 02:22:10.418875 18017 net.cpp:120] Setting up inception_4e/relu_5x5
I1010 02:22:10.418882 18017 net.cpp:127] Top shape: 32 128 14 14 (802816)
I1010 02:22:10.418892 18017 layer_factory.hpp:74] Creating layer inception_4e/pool
I1010 02:22:10.418901 18017 net.cpp:90] Creating Layer inception_4e/pool
I1010 02:22:10.418921 18017 net.cpp:410] inception_4e/pool <- inception_4d/output_inception_4d/output_0_split_4
I1010 02:22:10.418930 18017 net.cpp:368] inception_4e/pool -> inception_4e/pool
I1010 02:22:10.418937 18017 net.cpp:120] Setting up inception_4e/pool
I1010 02:22:10.418951 18017 net.cpp:127] Top shape: 32 528 14 14 (3311616)
I1010 02:22:10.418956 18017 layer_factory.hpp:74] Creating layer inception_4e/pool_proj
I1010 02:22:10.418964 18017 net.cpp:90] Creating Layer inception_4e/pool_proj
I1010 02:22:10.418970 18017 net.cpp:410] inception_4e/pool_proj <- inception_4e/pool
I1010 02:22:10.418977 18017 net.cpp:368] inception_4e/pool_proj -> inception_4e/pool_proj
I1010 02:22:10.418985 18017 net.cpp:120] Setting up inception_4e/pool_proj
I1010 02:22:10.419736 18017 net.cpp:127] Top shape: 32 128 14 14 (802816)
I1010 02:22:10.419750 18017 layer_factory.hpp:74] Creating layer inception_4e/relu_pool_proj
I1010 02:22:10.419759 18017 net.cpp:90] Creating Layer inception_4e/relu_pool_proj
I1010 02:22:10.419764 18017 net.cpp:410] inception_4e/relu_pool_proj <- inception_4e/pool_proj
I1010 02:22:10.419770 18017 net.cpp:357] inception_4e/relu_pool_proj -> inception_4e/pool_proj (in-place)
I1010 02:22:10.419777 18017 net.cpp:120] Setting up inception_4e/relu_pool_proj
I1010 02:22:10.419783 18017 net.cpp:127] Top shape: 32 128 14 14 (802816)
I1010 02:22:10.419788 18017 layer_factory.hpp:74] Creating layer inception_4e/output
I1010 02:22:10.419795 18017 net.cpp:90] Creating Layer inception_4e/output
I1010 02:22:10.419800 18017 net.cpp:410] inception_4e/output <- inception_4e/1x1
I1010 02:22:10.419806 18017 net.cpp:410] inception_4e/output <- inception_4e/3x3
I1010 02:22:10.419811 18017 net.cpp:410] inception_4e/output <- inception_4e/5x5
I1010 02:22:10.419817 18017 net.cpp:410] inception_4e/output <- inception_4e/pool_proj
I1010 02:22:10.419826 18017 net.cpp:368] inception_4e/output -> inception_4e/output
I1010 02:22:10.419833 18017 net.cpp:120] Setting up inception_4e/output
I1010 02:22:10.419842 18017 net.cpp:127] Top shape: 32 832 14 14 (5218304)
I1010 02:22:10.419847 18017 layer_factory.hpp:74] Creating layer pool4/3x3_s2
I1010 02:22:10.419853 18017 net.cpp:90] Creating Layer pool4/3x3_s2
I1010 02:22:10.419858 18017 net.cpp:410] pool4/3x3_s2 <- inception_4e/output
I1010 02:22:10.419869 18017 net.cpp:368] pool4/3x3_s2 -> pool4/3x3_s2
I1010 02:22:10.419878 18017 net.cpp:120] Setting up pool4/3x3_s2
I1010 02:22:10.419888 18017 net.cpp:127] Top shape: 32 832 7 7 (1304576)
I1010 02:22:10.419894 18017 layer_factory.hpp:74] Creating layer pool4/3x3_s2_pool4/3x3_s2_0_split
I1010 02:22:10.419903 18017 net.cpp:90] Creating Layer pool4/3x3_s2_pool4/3x3_s2_0_split
I1010 02:22:10.419908 18017 net.cpp:410] pool4/3x3_s2_pool4/3x3_s2_0_split <- pool4/3x3_s2
I1010 02:22:10.419914 18017 net.cpp:368] pool4/3x3_s2_pool4/3x3_s2_0_split -> pool4/3x3_s2_pool4/3x3_s2_0_split_0
I1010 02:22:10.419922 18017 net.cpp:368] pool4/3x3_s2_pool4/3x3_s2_0_split -> pool4/3x3_s2_pool4/3x3_s2_0_split_1
I1010 02:22:10.419932 18017 net.cpp:368] pool4/3x3_s2_pool4/3x3_s2_0_split -> pool4/3x3_s2_pool4/3x3_s2_0_split_2
I1010 02:22:10.419940 18017 net.cpp:368] pool4/3x3_s2_pool4/3x3_s2_0_split -> pool4/3x3_s2_pool4/3x3_s2_0_split_3
I1010 02:22:10.419947 18017 net.cpp:120] Setting up pool4/3x3_s2_pool4/3x3_s2_0_split
I1010 02:22:10.419955 18017 net.cpp:127] Top shape: 32 832 7 7 (1304576)
I1010 02:22:10.419961 18017 net.cpp:127] Top shape: 32 832 7 7 (1304576)
I1010 02:22:10.419967 18017 net.cpp:127] Top shape: 32 832 7 7 (1304576)
I1010 02:22:10.419972 18017 net.cpp:127] Top shape: 32 832 7 7 (1304576)
I1010 02:22:10.419977 18017 layer_factory.hpp:74] Creating layer inception_5a/1x1
I1010 02:22:10.419987 18017 net.cpp:90] Creating Layer inception_5a/1x1
I1010 02:22:10.419994 18017 net.cpp:410] inception_5a/1x1 <- pool4/3x3_s2_pool4/3x3_s2_0_split_0
I1010 02:22:10.420002 18017 net.cpp:368] inception_5a/1x1 -> inception_5a/1x1
I1010 02:22:10.420011 18017 net.cpp:120] Setting up inception_5a/1x1
I1010 02:22:10.422377 18017 net.cpp:127] Top shape: 32 256 7 7 (401408)
I1010 02:22:10.422399 18017 layer_factory.hpp:74] Creating layer inception_5a/relu_1x1
I1010 02:22:10.422406 18017 net.cpp:90] Creating Layer inception_5a/relu_1x1
I1010 02:22:10.422412 18017 net.cpp:410] inception_5a/relu_1x1 <- inception_5a/1x1
I1010 02:22:10.422420 18017 net.cpp:357] inception_5a/relu_1x1 -> inception_5a/1x1 (in-place)
I1010 02:22:10.422426 18017 net.cpp:120] Setting up inception_5a/relu_1x1
I1010 02:22:10.422432 18017 net.cpp:127] Top shape: 32 256 7 7 (401408)
I1010 02:22:10.422437 18017 layer_factory.hpp:74] Creating layer inception_5a/3x3_reduce
I1010 02:22:10.422444 18017 net.cpp:90] Creating Layer inception_5a/3x3_reduce
I1010 02:22:10.422449 18017 net.cpp:410] inception_5a/3x3_reduce <- pool4/3x3_s2_pool4/3x3_s2_0_split_1
I1010 02:22:10.422461 18017 net.cpp:368] inception_5a/3x3_reduce -> inception_5a/3x3_reduce
I1010 02:22:10.422471 18017 net.cpp:120] Setting up inception_5a/3x3_reduce
I1010 02:22:10.423851 18017 net.cpp:127] Top shape: 32 160 7 7 (250880)
I1010 02:22:10.423877 18017 layer_factory.hpp:74] Creating layer inception_5a/relu_3x3_reduce
I1010 02:22:10.423893 18017 net.cpp:90] Creating Layer inception_5a/relu_3x3_reduce
I1010 02:22:10.423900 18017 net.cpp:410] inception_5a/relu_3x3_reduce <- inception_5a/3x3_reduce
I1010 02:22:10.423907 18017 net.cpp:357] inception_5a/relu_3x3_reduce -> inception_5a/3x3_reduce (in-place)
I1010 02:22:10.423914 18017 net.cpp:120] Setting up inception_5a/relu_3x3_reduce
I1010 02:22:10.423921 18017 net.cpp:127] Top shape: 32 160 7 7 (250880)
I1010 02:22:10.423926 18017 layer_factory.hpp:74] Creating layer inception_5a/3x3
I1010 02:22:10.423936 18017 net.cpp:90] Creating Layer inception_5a/3x3
I1010 02:22:10.423954 18017 net.cpp:410] inception_5a/3x3 <- inception_5a/3x3_reduce
I1010 02:22:10.423964 18017 net.cpp:368] inception_5a/3x3 -> inception_5a/3x3
I1010 02:22:10.423974 18017 net.cpp:120] Setting up inception_5a/3x3
I1010 02:22:10.429477 18017 net.cpp:127] Top shape: 32 320 7 7 (501760)
I1010 02:22:10.429491 18017 layer_factory.hpp:74] Creating layer inception_5a/relu_3x3
I1010 02:22:10.429499 18017 net.cpp:90] Creating Layer inception_5a/relu_3x3
I1010 02:22:10.429504 18017 net.cpp:410] inception_5a/relu_3x3 <- inception_5a/3x3
I1010 02:22:10.429514 18017 net.cpp:357] inception_5a/relu_3x3 -> inception_5a/3x3 (in-place)
I1010 02:22:10.429522 18017 net.cpp:120] Setting up inception_5a/relu_3x3
I1010 02:22:10.429528 18017 net.cpp:127] Top shape: 32 320 7 7 (501760)
I1010 02:22:10.429543 18017 layer_factory.hpp:74] Creating layer inception_5a/5x5_reduce
I1010 02:22:10.429554 18017 net.cpp:90] Creating Layer inception_5a/5x5_reduce
I1010 02:22:10.429563 18017 net.cpp:410] inception_5a/5x5_reduce <- pool4/3x3_s2_pool4/3x3_s2_0_split_2
I1010 02:22:10.429569 18017 net.cpp:368] inception_5a/5x5_reduce -> inception_5a/5x5_reduce
I1010 02:22:10.429577 18017 net.cpp:120] Setting up inception_5a/5x5_reduce
I1010 02:22:10.429919 18017 net.cpp:127] Top shape: 32 32 7 7 (50176)
I1010 02:22:10.429930 18017 layer_factory.hpp:74] Creating layer inception_5a/relu_5x5_reduce
I1010 02:22:10.429937 18017 net.cpp:90] Creating Layer inception_5a/relu_5x5_reduce
I1010 02:22:10.429944 18017 net.cpp:410] inception_5a/relu_5x5_reduce <- inception_5a/5x5_reduce
I1010 02:22:10.429952 18017 net.cpp:357] inception_5a/relu_5x5_reduce -> inception_5a/5x5_reduce (in-place)
I1010 02:22:10.429960 18017 net.cpp:120] Setting up inception_5a/relu_5x5_reduce
I1010 02:22:10.429965 18017 net.cpp:127] Top shape: 32 32 7 7 (50176)
I1010 02:22:10.429970 18017 layer_factory.hpp:74] Creating layer inception_5a/5x5
I1010 02:22:10.429977 18017 net.cpp:90] Creating Layer inception_5a/5x5
I1010 02:22:10.429982 18017 net.cpp:410] inception_5a/5x5 <- inception_5a/5x5_reduce
I1010 02:22:10.429992 18017 net.cpp:368] inception_5a/5x5 -> inception_5a/5x5
I1010 02:22:10.430002 18017 net.cpp:120] Setting up inception_5a/5x5
I1010 02:22:10.431063 18017 net.cpp:127] Top shape: 32 128 7 7 (200704)
I1010 02:22:10.431077 18017 layer_factory.hpp:74] Creating layer inception_5a/relu_5x5
I1010 02:22:10.431104 18017 net.cpp:90] Creating Layer inception_5a/relu_5x5
I1010 02:22:10.431112 18017 net.cpp:410] inception_5a/relu_5x5 <- inception_5a/5x5
I1010 02:22:10.431118 18017 net.cpp:357] inception_5a/relu_5x5 -> inception_5a/5x5 (in-place)
I1010 02:22:10.431124 18017 net.cpp:120] Setting up inception_5a/relu_5x5
I1010 02:22:10.431131 18017 net.cpp:127] Top shape: 32 128 7 7 (200704)
I1010 02:22:10.431136 18017 layer_factory.hpp:74] Creating layer inception_5a/pool
I1010 02:22:10.431143 18017 net.cpp:90] Creating Layer inception_5a/pool
I1010 02:22:10.431149 18017 net.cpp:410] inception_5a/pool <- pool4/3x3_s2_pool4/3x3_s2_0_split_3
I1010 02:22:10.431157 18017 net.cpp:368] inception_5a/pool -> inception_5a/pool
I1010 02:22:10.431164 18017 net.cpp:120] Setting up inception_5a/pool
I1010 02:22:10.431174 18017 net.cpp:127] Top shape: 32 832 7 7 (1304576)
I1010 02:22:10.431180 18017 layer_factory.hpp:74] Creating layer inception_5a/pool_proj
I1010 02:22:10.431188 18017 net.cpp:90] Creating Layer inception_5a/pool_proj
I1010 02:22:10.431195 18017 net.cpp:410] inception_5a/pool_proj <- inception_5a/pool
I1010 02:22:10.431203 18017 net.cpp:368] inception_5a/pool_proj -> inception_5a/pool_proj
I1010 02:22:10.431211 18017 net.cpp:120] Setting up inception_5a/pool_proj
I1010 02:22:10.432334 18017 net.cpp:127] Top shape: 32 128 7 7 (200704)
I1010 02:22:10.432351 18017 layer_factory.hpp:74] Creating layer inception_5a/relu_pool_proj
I1010 02:22:10.432371 18017 net.cpp:90] Creating Layer inception_5a/relu_pool_proj
I1010 02:22:10.432382 18017 net.cpp:410] inception_5a/relu_pool_proj <- inception_5a/pool_proj
I1010 02:22:10.432392 18017 net.cpp:357] inception_5a/relu_pool_proj -> inception_5a/pool_proj (in-place)
I1010 02:22:10.432401 18017 net.cpp:120] Setting up inception_5a/relu_pool_proj
I1010 02:22:10.432409 18017 net.cpp:127] Top shape: 32 128 7 7 (200704)
I1010 02:22:10.432412 18017 layer_factory.hpp:74] Creating layer inception_5a/output
I1010 02:22:10.432420 18017 net.cpp:90] Creating Layer inception_5a/output
I1010 02:22:10.432425 18017 net.cpp:410] inception_5a/output <- inception_5a/1x1
I1010 02:22:10.432437 18017 net.cpp:410] inception_5a/output <- inception_5a/3x3
I1010 02:22:10.432445 18017 net.cpp:410] inception_5a/output <- inception_5a/5x5
I1010 02:22:10.432451 18017 net.cpp:410] inception_5a/output <- inception_5a/pool_proj
I1010 02:22:10.432456 18017 net.cpp:368] inception_5a/output -> inception_5a/output
I1010 02:22:10.432463 18017 net.cpp:120] Setting up inception_5a/output
I1010 02:22:10.432471 18017 net.cpp:127] Top shape: 32 832 7 7 (1304576)
I1010 02:22:10.432476 18017 layer_factory.hpp:74] Creating layer inception_5a/output_inception_5a/output_0_split
I1010 02:22:10.432482 18017 net.cpp:90] Creating Layer inception_5a/output_inception_5a/output_0_split
I1010 02:22:10.432492 18017 net.cpp:410] inception_5a/output_inception_5a/output_0_split <- inception_5a/output
I1010 02:22:10.432500 18017 net.cpp:368] inception_5a/output_inception_5a/output_0_split -> inception_5a/output_inception_5a/output_0_split_0
I1010 02:22:10.432509 18017 net.cpp:368] inception_5a/output_inception_5a/output_0_split -> inception_5a/output_inception_5a/output_0_split_1
I1010 02:22:10.432518 18017 net.cpp:368] inception_5a/output_inception_5a/output_0_split -> inception_5a/output_inception_5a/output_0_split_2
I1010 02:22:10.432525 18017 net.cpp:368] inception_5a/output_inception_5a/output_0_split -> inception_5a/output_inception_5a/output_0_split_3
I1010 02:22:10.432533 18017 net.cpp:120] Setting up inception_5a/output_inception_5a/output_0_split
I1010 02:22:10.432543 18017 net.cpp:127] Top shape: 32 832 7 7 (1304576)
I1010 02:22:10.432549 18017 net.cpp:127] Top shape: 32 832 7 7 (1304576)
I1010 02:22:10.432555 18017 net.cpp:127] Top shape: 32 832 7 7 (1304576)
I1010 02:22:10.432565 18017 net.cpp:127] Top shape: 32 832 7 7 (1304576)
I1010 02:22:10.432570 18017 layer_factory.hpp:74] Creating layer inception_5b/1x1
I1010 02:22:10.432579 18017 net.cpp:90] Creating Layer inception_5b/1x1
I1010 02:22:10.432584 18017 net.cpp:410] inception_5b/1x1 <- inception_5a/output_inception_5a/output_0_split_0
I1010 02:22:10.432600 18017 net.cpp:368] inception_5b/1x1 -> inception_5b/1x1
I1010 02:22:10.432610 18017 net.cpp:120] Setting up inception_5b/1x1
I1010 02:22:10.436138 18017 net.cpp:127] Top shape: 32 384 7 7 (602112)
I1010 02:22:10.436153 18017 layer_factory.hpp:74] Creating layer inception_5b/relu_1x1
I1010 02:22:10.436161 18017 net.cpp:90] Creating Layer inception_5b/relu_1x1
I1010 02:22:10.436167 18017 net.cpp:410] inception_5b/relu_1x1 <- inception_5b/1x1
I1010 02:22:10.436175 18017 net.cpp:357] inception_5b/relu_1x1 -> inception_5b/1x1 (in-place)
I1010 02:22:10.436182 18017 net.cpp:120] Setting up inception_5b/relu_1x1
I1010 02:22:10.436189 18017 net.cpp:127] Top shape: 32 384 7 7 (602112)
I1010 02:22:10.436193 18017 layer_factory.hpp:74] Creating layer inception_5b/3x3_reduce
I1010 02:22:10.436202 18017 net.cpp:90] Creating Layer inception_5b/3x3_reduce
I1010 02:22:10.436206 18017 net.cpp:410] inception_5b/3x3_reduce <- inception_5a/output_inception_5a/output_0_split_1
I1010 02:22:10.436216 18017 net.cpp:368] inception_5b/3x3_reduce -> inception_5b/3x3_reduce
I1010 02:22:10.436224 18017 net.cpp:120] Setting up inception_5b/3x3_reduce
I1010 02:22:10.438063 18017 net.cpp:127] Top shape: 32 192 7 7 (301056)
I1010 02:22:10.438078 18017 layer_factory.hpp:74] Creating layer inception_5b/relu_3x3_reduce
I1010 02:22:10.438103 18017 net.cpp:90] Creating Layer inception_5b/relu_3x3_reduce
I1010 02:22:10.438112 18017 net.cpp:410] inception_5b/relu_3x3_reduce <- inception_5b/3x3_reduce
I1010 02:22:10.438119 18017 net.cpp:357] inception_5b/relu_3x3_reduce -> inception_5b/3x3_reduce (in-place)
I1010 02:22:10.438127 18017 net.cpp:120] Setting up inception_5b/relu_3x3_reduce
I1010 02:22:10.438133 18017 net.cpp:127] Top shape: 32 192 7 7 (301056)
I1010 02:22:10.438138 18017 layer_factory.hpp:74] Creating layer inception_5b/3x3
I1010 02:22:10.438148 18017 net.cpp:90] Creating Layer inception_5b/3x3
I1010 02:22:10.438153 18017 net.cpp:410] inception_5b/3x3 <- inception_5b/3x3_reduce
I1010 02:22:10.438161 18017 net.cpp:368] inception_5b/3x3 -> inception_5b/3x3
I1010 02:22:10.438185 18017 net.cpp:120] Setting up inception_5b/3x3
I1010 02:22:10.445168 18017 net.cpp:127] Top shape: 32 384 7 7 (602112)
I1010 02:22:10.445181 18017 layer_factory.hpp:74] Creating layer inception_5b/relu_3x3
I1010 02:22:10.445189 18017 net.cpp:90] Creating Layer inception_5b/relu_3x3
I1010 02:22:10.445195 18017 net.cpp:410] inception_5b/relu_3x3 <- inception_5b/3x3
I1010 02:22:10.445202 18017 net.cpp:357] inception_5b/relu_3x3 -> inception_5b/3x3 (in-place)
I1010 02:22:10.445209 18017 net.cpp:120] Setting up inception_5b/relu_3x3
I1010 02:22:10.445215 18017 net.cpp:127] Top shape: 32 384 7 7 (602112)
I1010 02:22:10.445220 18017 layer_factory.hpp:74] Creating layer inception_5b/5x5_reduce
I1010 02:22:10.445227 18017 net.cpp:90] Creating Layer inception_5b/5x5_reduce
I1010 02:22:10.445233 18017 net.cpp:410] inception_5b/5x5_reduce <- inception_5a/output_inception_5a/output_0_split_2
I1010 02:22:10.445242 18017 net.cpp:368] inception_5b/5x5_reduce -> inception_5b/5x5_reduce
I1010 02:22:10.445250 18017 net.cpp:120] Setting up inception_5b/5x5_reduce
I1010 02:22:10.445686 18017 net.cpp:127] Top shape: 32 48 7 7 (75264)
I1010 02:22:10.445698 18017 layer_factory.hpp:74] Creating layer inception_5b/relu_5x5_reduce
I1010 02:22:10.445706 18017 net.cpp:90] Creating Layer inception_5b/relu_5x5_reduce
I1010 02:22:10.445711 18017 net.cpp:410] inception_5b/relu_5x5_reduce <- inception_5b/5x5_reduce
I1010 02:22:10.445718 18017 net.cpp:357] inception_5b/relu_5x5_reduce -> inception_5b/5x5_reduce (in-place)
I1010 02:22:10.445724 18017 net.cpp:120] Setting up inception_5b/relu_5x5_reduce
I1010 02:22:10.445730 18017 net.cpp:127] Top shape: 32 48 7 7 (75264)
I1010 02:22:10.445735 18017 layer_factory.hpp:74] Creating layer inception_5b/5x5
I1010 02:22:10.445745 18017 net.cpp:90] Creating Layer inception_5b/5x5
I1010 02:22:10.445750 18017 net.cpp:410] inception_5b/5x5 <- inception_5b/5x5_reduce
I1010 02:22:10.445768 18017 net.cpp:368] inception_5b/5x5 -> inception_5b/5x5
I1010 02:22:10.445780 18017 net.cpp:120] Setting up inception_5b/5x5
I1010 02:22:10.447571 18017 net.cpp:127] Top shape: 32 128 7 7 (200704)
I1010 02:22:10.447584 18017 layer_factory.hpp:74] Creating layer inception_5b/relu_5x5
I1010 02:22:10.447592 18017 net.cpp:90] Creating Layer inception_5b/relu_5x5
I1010 02:22:10.447597 18017 net.cpp:410] inception_5b/relu_5x5 <- inception_5b/5x5
I1010 02:22:10.447607 18017 net.cpp:357] inception_5b/relu_5x5 -> inception_5b/5x5 (in-place)
I1010 02:22:10.447615 18017 net.cpp:120] Setting up inception_5b/relu_5x5
I1010 02:22:10.447621 18017 net.cpp:127] Top shape: 32 128 7 7 (200704)
I1010 02:22:10.447638 18017 layer_factory.hpp:74] Creating layer inception_5b/pool
I1010 02:22:10.447646 18017 net.cpp:90] Creating Layer inception_5b/pool
I1010 02:22:10.447651 18017 net.cpp:410] inception_5b/pool <- inception_5a/output_inception_5a/output_0_split_3
I1010 02:22:10.447661 18017 net.cpp:368] inception_5b/pool -> inception_5b/pool
I1010 02:22:10.447669 18017 net.cpp:120] Setting up inception_5b/pool
I1010 02:22:10.447679 18017 net.cpp:127] Top shape: 32 832 7 7 (1304576)
I1010 02:22:10.447685 18017 layer_factory.hpp:74] Creating layer inception_5b/pool_proj
I1010 02:22:10.447706 18017 net.cpp:90] Creating Layer inception_5b/pool_proj
I1010 02:22:10.447711 18017 net.cpp:410] inception_5b/pool_proj <- inception_5b/pool
I1010 02:22:10.447721 18017 net.cpp:368] inception_5b/pool_proj -> inception_5b/pool_proj
I1010 02:22:10.447729 18017 net.cpp:120] Setting up inception_5b/pool_proj
I1010 02:22:10.448896 18017 net.cpp:127] Top shape: 32 128 7 7 (200704)
I1010 02:22:10.448910 18017 layer_factory.hpp:74] Creating layer inception_5b/relu_pool_proj
I1010 02:22:10.448917 18017 net.cpp:90] Creating Layer inception_5b/relu_pool_proj
I1010 02:22:10.448922 18017 net.cpp:410] inception_5b/relu_pool_proj <- inception_5b/pool_proj
I1010 02:22:10.448930 18017 net.cpp:357] inception_5b/relu_pool_proj -> inception_5b/pool_proj (in-place)
I1010 02:22:10.448936 18017 net.cpp:120] Setting up inception_5b/relu_pool_proj
I1010 02:22:10.448942 18017 net.cpp:127] Top shape: 32 128 7 7 (200704)
I1010 02:22:10.448947 18017 layer_factory.hpp:74] Creating layer inception_5b/output
I1010 02:22:10.448953 18017 net.cpp:90] Creating Layer inception_5b/output
I1010 02:22:10.448958 18017 net.cpp:410] inception_5b/output <- inception_5b/1x1
I1010 02:22:10.448964 18017 net.cpp:410] inception_5b/output <- inception_5b/3x3
I1010 02:22:10.448969 18017 net.cpp:410] inception_5b/output <- inception_5b/5x5
I1010 02:22:10.448976 18017 net.cpp:410] inception_5b/output <- inception_5b/pool_proj
I1010 02:22:10.448983 18017 net.cpp:368] inception_5b/output -> inception_5b/output
I1010 02:22:10.448992 18017 net.cpp:120] Setting up inception_5b/output
I1010 02:22:10.448998 18017 net.cpp:127] Top shape: 32 1024 7 7 (1605632)
I1010 02:22:10.449003 18017 layer_factory.hpp:74] Creating layer pool5/7x7_s1
I1010 02:22:10.449010 18017 net.cpp:90] Creating Layer pool5/7x7_s1
I1010 02:22:10.449015 18017 net.cpp:410] pool5/7x7_s1 <- inception_5b/output
I1010 02:22:10.449024 18017 net.cpp:368] pool5/7x7_s1 -> pool5/7x7_s1
I1010 02:22:10.449031 18017 net.cpp:120] Setting up pool5/7x7_s1
I1010 02:22:10.449039 18017 net.cpp:127] Top shape: 32 1024 1 1 (32768)
I1010 02:22:10.449045 18017 layer_factory.hpp:74] Creating layer pool5/drop_7x7_s1
I1010 02:22:10.449053 18017 net.cpp:90] Creating Layer pool5/drop_7x7_s1
I1010 02:22:10.449057 18017 net.cpp:410] pool5/drop_7x7_s1 <- pool5/7x7_s1
I1010 02:22:10.449064 18017 net.cpp:357] pool5/drop_7x7_s1 -> pool5/7x7_s1 (in-place)
I1010 02:22:10.449070 18017 net.cpp:120] Setting up pool5/drop_7x7_s1
I1010 02:22:10.449079 18017 net.cpp:127] Top shape: 32 1024 1 1 (32768)
I1010 02:22:10.449082 18017 layer_factory.hpp:74] Creating layer ft_loss3/classifier
I1010 02:22:10.449111 18017 net.cpp:90] Creating Layer ft_loss3/classifier
I1010 02:22:10.449117 18017 net.cpp:410] ft_loss3/classifier <- pool5/7x7_s1
I1010 02:22:10.449126 18017 net.cpp:368] ft_loss3/classifier -> ft_loss3/classifier
I1010 02:22:10.449144 18017 net.cpp:120] Setting up ft_loss3/classifier
I1010 02:22:10.449195 18017 net.cpp:127] Top shape: 32 2 (64)
I1010 02:22:10.449206 18017 layer_factory.hpp:74] Creating layer loss3/loss3
I1010 02:22:10.449213 18017 net.cpp:90] Creating Layer loss3/loss3
I1010 02:22:10.449218 18017 net.cpp:410] loss3/loss3 <- ft_loss3/classifier
I1010 02:22:10.449224 18017 net.cpp:410] loss3/loss3 <- label_data_1_split_2
I1010 02:22:10.449234 18017 net.cpp:368] loss3/loss3 -> loss3/loss3
I1010 02:22:10.449241 18017 net.cpp:120] Setting up loss3/loss3
…
I1010 02:22:10.454788 18017 solver.cpp:154] Creating test net (#0) specified by net file: /home/kruchinin_d/Projects/scaling-archer/nn/bvlc_googlenet_parttune/train_val.prototxt
I1010 02:22:10.454962 18017 net.cpp:287] The NetState phase (1) differed from the phase (0) specified by a rule in layer data
I1010 02:22:10.455981 18017 net.cpp:42] Initializing net from parameters: 
name: "FullTrain_GoogleNet"
state {
  phase: TEST
}
layer {
  name: "data"
  type: "ImageData"
  top: "data"
  top: "label"
  include {
    phase: TEST
  }
  image_data_param {
    source: "/home/kruchinin_d/Projects/data/KITTI/prepared_data/test.txt"
    batch_size: 50
  }
}
layer {
  name: "conv1/7x7_s2"
  type: "Convolution"
  bottom: "data"
  top: "conv1/7x7_s2"
  param {
    lr_mult: 0.1
  }
  param {
    lr_mult: 0.1
  }
  convolution_param {
    num_output: 64
    pad: 3
    kernel_size: 7
    stride: 2
    weight_filler {
      type: "xavier"
    }
    bias_filler {
      type: "constant"
      value: 0.2
    }
  }
}
layer {
  name: "conv1/relu_7x7"
  type: "ReLU"
  bottom: "conv1/7x7_s2"
  top: "conv1/7x7_s2"
}
layer {
  name: "pool1/3x3_s2"
  type: "Pooling"
  bottom: "conv1/7x7_s2"
  top: "pool1/3x3_s2"
  pooling_param {
    pool: MAX
    kernel_size: 3
    stride: 2
  }
}
layer {
  name: "pool1/norm1"
  type: "LRN"
  bottom: "pool1/3x3_s2"
  top: "pool1/norm1"
  lrn_param {
    local_size: 5
    alpha: 0.0001
    beta: 0.75
  }
}
layer {
  name: "conv2/3x3_reduce"
  type: "Convolution"
  bottom: "pool1/norm1"
  top: "conv2/3x3_reduce"
  param {
    lr_mult: 0.1
  }
  param {
    lr_mult: 0.1
  }
  convolution_param {
    num_output: 64
    kernel_size: 1
    weight_filler {
      type: "xavier"
    }
    bias_filler {
      type: "constant"
      value: 0.2
    }
  }
}
layer {
  name: "conv2/relu_3x3_reduce"
  type: "ReLU"
  bottom: "conv2/3x3_reduce"
  top: "conv2/3x3_reduce"
}
layer {
  name: "conv2/3x3"
  type: "Convolution"
  bottom: "conv2/3x3_reduce"
  top: "conv2/3x3"
  param {
    lr_mult: 0.1
  }
  param {
    lr_mult: 0.1
  }
  convolution_param {
    num_output: 192
    pad: 1
    kernel_size: 3
    weight_filler {
      type: "xavier"
    }
    bias_filler {
      type: "constant"
      value: 0.2
    }
  }
}
layer {
  name: "conv2/relu_3x3"
  type: "ReLU"
  bottom: "conv2/3x3"
  top: "conv2/3x3"
}
layer {
  name: "conv2/norm2"
  type: "LRN"
  bottom: "conv2/3x3"
  top: "conv2/norm2"
  lrn_param {
    local_size: 5
    alpha: 0.0001
    beta: 0.75
  }
}
layer {
  name: "pool2/3x3_s2"
  type: "Pooling"
  bottom: "conv2/norm2"
  top: "pool2/3x3_s2"
  pooling_param {
    pool: MAX
    kernel_size: 3
    stride: 2
  }
}
layer {
  name: "inception_3a/1x1"
  type: "Convolution"
  bottom: "pool2/3x3_s2"
  top: "inception_3a/1x1"
  param {
    lr_mult: 0.1
  }
  param {
    lr_mult: 0.1
  }
  convolution_param {
    num_output: 64
    kernel_size: 1
    weight_filler {
      type: "xavier"
    }
    bias_filler {
      type: "constant"
      value: 0.2
    }
  }
}
layer {
  name: "inception_3a/relu_1x1"
  type: "ReLU"
  bottom: "inception_3a/1x1"
  top: "inception_3a/1x1"
}
layer {
  name: "inception_3a/3x3_reduce"
  type: "Convolution"
  bottom: "pool2/3x3_s2"
  top: "inception_3a/3x3_reduce"
  param {
    lr_mult: 0.1
  }
  param {
    lr_mult: 0.1
  }
  convolution_param {
    num_output: 96
    kernel_size: 1
    weight_filler {
      type: "xavier"
    }
    bias_filler {
      type: "constant"
      value: 0.2
    }
  }
}
layer {
  name: "inception_3a/relu_3x3_reduce"
  type: "ReLU"
  bottom: "inception_3a/3x3_reduce"
  top: "inception_3a/3x3_reduce"
}
layer {
  name: "inception_3a/3x3"
  type: "Convolution"
  bottom: "inception_3a/3x3_reduce"
  top: "inception_3a/3x3"
  param {
    lr_mult: 0.1
  }
  param {
    lr_mult: 0.1
  }
  convolution_param {
    num_output: 128
    pad: 1
    kernel_size: 3
    weight_filler {
      type: "xavier"
    }
    bias_filler {
      type: "constant"
      value: 0.2
    }
  }
}
layer {
  name: "inception_3a/relu_3x3"
  type: "ReLU"
  bottom: "inception_3a/3x3"
  top: "inception_3a/3x3"
}
layer {
  name: "inception_3a/5x5_reduce"
  type: "Convolution"
  bottom: "pool2/3x3_s2"
  top: "inception_3a/5x5_reduce"
  param {
    lr_mult: 0.1
  }
  param {
    lr_mult: 0.1
  }
  convolution_param {
    num_output: 16
    kernel_size: 1
    weight_filler {
      type: "xavier"
    }
    bias_filler {
      type: "constant"
      value: 0.2
    }
  }
}
layer {
  name: "inception_3a/relu_5x5_reduce"
  type: "ReLU"
  bottom: "inception_3a/5x5_reduce"
  top: "inception_3a/5x5_reduce"
}
layer {
  name: "inception_3a/5x5"
  type: "Convolution"
  bottom: "inception_3a/5x5_reduce"
  top: "inception_3a/5x5"
  param {
    lr_mult: 0.1
  }
  param {
    lr_mult: 0.1
  }
  convolution_param {
    num_output: 32
    pad: 2
    kernel_size: 5
    weight_filler {
      type: "xavier"
    }
    bias_filler {
      type: "constant"
      value: 0.2
    }
  }
}
layer {
  name: "inception_3a/relu_5x5"
  type: "ReLU"
  bottom: "inception_3a/5x5"
  top: "inception_3a/5x5"
}
layer {
  name: "inception_3a/pool"
  type: "Pooling"
  bottom: "pool2/3x3_s2"
  top: "inception_3a/pool"
  pooling_param {
    pool: MAX
    kernel_size: 3
    stride: 1
    pad: 1
  }
}
layer {
  name: "inception_3a/pool_proj"
  type: "Convolution"
  bottom: "inception_3a/pool"
  top: "inception_3a/pool_proj"
  param {
    lr_mult: 0.1
  }
  param {
    lr_mult: 0.1
  }
  convolution_param {
    num_output: 32
    kernel_size: 1
    weight_filler {
      type: "xavier"
    }
    bias_filler {
      type: "constant"
      value: 0.2
    }
  }
}
layer {
  name: "inception_3a/relu_pool_proj"
  type: "ReLU"
  bottom: "inception_3a/pool_proj"
  top: "inception_3a/pool_proj"
}
layer {
  name: "inception_3a/output"
  type: "Concat"
  bottom: "inception_3a/1x1"
  bottom: "inception_3a/3x3"
  bottom: "inception_3a/5x5"
  bottom: "inception_3a/pool_proj"
  top: "inception_3a/output"
}
layer {
  name: "inception_3b/1x1"
  type: "Convolution"
  bottom: "inception_3a/output"
  top: "inception_3b/1x1"
  param {
    lr_mult: 0.1
  }
  param {
    lr_mult: 0.1
  }
  convolution_param {
    num_output: 128
    kernel_size: 1
    weight_filler {
      type: "xavier"
    }
    bias_filler {
      type: "constant"
      value: 0.2
    }
  }
}
layer {
  name: "inception_3b/relu_1x1"
  type: "ReLU"
  bottom: "inception_3b/1x1"
  top: "inception_3b/1x1"
}
layer {
  name: "inception_3b/3x3_reduce"
  type: "Convolution"
  bottom: "inception_3a/output"
  top: "inception_3b/3x3_reduce"
  param {
    lr_mult: 0.1
  }
  param {
    lr_mult: 0.1
  }
  convolution_param {
    num_output: 128
    kernel_size: 1
    weight_filler {
      type: "xavier"
    }
    bias_filler {
      type: "constant"
      value: 0.2
    }
  }
}
layer {
  name: "inception_3b/relu_3x3_reduce"
  type: "ReLU"
  bottom: "inception_3b/3x3_reduce"
  top: "inception_3b/3x3_reduce"
}
layer {
  name: "inception_3b/3x3"
  type: "Convolution"
  bottom: "inception_3b/3x3_reduce"
  top: "inception_3b/3x3"
  param {
    lr_mult: 0.1
  }
  param {
    lr_mult: 0.1
  }
  convolution_param {
    num_output: 192
    pad: 1
    kernel_size: 3
    weight_filler {
      type: "xavier"
    }
    bias_filler {
      type: "constant"
      value: 0.2
    }
  }
}
layer {
  name: "inception_3b/relu_3x3"
  type: "ReLU"
  bottom: "inception_3b/3x3"
  top: "inception_3b/3x3"
}
layer {
  name: "inception_3b/5x5_reduce"
  type: "Convolution"
  bottom: "inception_3a/output"
  top: "inception_3b/5x5_reduce"
  param {
    lr_mult: 0.1
  }
  param {
    lr_mult: 0.1
  }
  convolution_param {
    num_output: 32
    kernel_size: 1
    weight_filler {
      type: "xavier"
    }
    bias_filler {
      type: "constant"
      value: 0.2
    }
  }
}
layer {
  name: "inception_3b/relu_5x5_reduce"
  type: "ReLU"
  bottom: "inception_3b/5x5_reduce"
  top: "inception_3b/5x5_reduce"
}
layer {
  name: "inception_3b/5x5"
  type: "Convolution"
  bottom: "inception_3b/5x5_reduce"
  top: "inception_3b/5x5"
  param {
    lr_mult: 0.1
  }
  param {
    lr_mult: 0.1
  }
  convolution_param {
    num_output: 96
    pad: 2
    kernel_size: 5
    weight_filler {
      type: "xavier"
    }
    bias_filler {
      type: "constant"
      value: 0.2
    }
  }
}
layer {
  name: "inception_3b/relu_5x5"
  type: "ReLU"
  bottom: "inception_3b/5x5"
  top: "inception_3b/5x5"
}
layer {
  name: "inception_3b/pool"
  type: "Pooling"
  bottom: "inception_3a/output"
  top: "inception_3b/pool"
  pooling_param {
    pool: MAX
    kernel_size: 3
    stride: 1
    pad: 1
  }
}
layer {
  name: "inception_3b/pool_proj"
  type: "Convolution"
  bottom: "inception_3b/pool"
  top: "inception_3b/pool_proj"
  param {
    lr_mult: 0.1
  }
  param {
    lr_mult: 0.1
  }
  convolution_param {
    num_output: 64
    kernel_size: 1
    weight_filler {
      type: "xavier"
    }
    bias_filler {
      type: "constant"
      value: 0.2
    }
  }
}
layer {
  name: "inception_3b/relu_pool_proj"
  type: "ReLU"
  bottom: "inception_3b/pool_proj"
  top: "inception_3b/pool_proj"
}
layer {
  name: "inception_3b/output"
  type: "Concat"
  bottom: "inception_3b/1x1"
  bottom: "inception_3b/3x3"
  bottom: "inception_3b/5x5"
  bottom: "inception_3b/pool_proj"
  top: "inception_3b/output"
}
layer {
  name: "pool3/3x3_s2"
  type: "Pooling"
  bottom: "inception_3b/output"
  top: "pool3/3x3_s2"
  pooling_param {
    pool: MAX
    kernel_size: 3
    stride: 2
  }
}
layer {
  name: "inception_4a/1x1"
  type: "Convolution"
  bottom: "pool3/3x3_s2"
  top: "inception_4a/1x1"
  param {
    lr_mult: 0.1
  }
  param {
    lr_mult: 0.1
  }
  convolution_param {
    num_output: 192
    kernel_size: 1
    weight_filler {
      type: "xavier"
    }
    bias_filler {
      type: "constant"
      value: 0.2
    }
  }
}
layer {
  name: "inception_4a/relu_1x1"
  type: "ReLU"
  bottom: "inception_4a/1x1"
  top: "inception_4a/1x1"
}
layer {
  name: "inception_4a/3x3_reduce"
  type: "Convolution"
  bottom: "pool3/3x3_s2"
  top: "inception_4a/3x3_reduce"
  param {
    lr_mult: 0.1
  }
  param {
    lr_mult: 0.1
  }
  convolution_param {
    num_output: 96
    kernel_size: 1
    weight_filler {
      type: "xavier"
    }
    bias_filler {
      type: "constant"
      value: 0.2
    }
  }
}
layer {
  name: "inception_4a/relu_3x3_reduce"
  type: "ReLU"
  bottom: "inception_4a/3x3_reduce"
  top: "inception_4a/3x3_reduce"
}
layer {
  name: "inception_4a/3x3"
  type: "Convolution"
  bottom: "inception_4a/3x3_reduce"
  top: "inception_4a/3x3"
  param {
    lr_mult: 0.1
  }
  param {
    lr_mult: 0.1
  }
  convolution_param {
    num_output: 208
    pad: 1
    kernel_size: 3
    weight_filler {
      type: "xavier"
    }
    bias_filler {
      type: "constant"
      value: 0.2
    }
  }
}
layer {
  name: "inception_4a/relu_3x3"
  type: "ReLU"
  bottom: "inception_4a/3x3"
  top: "inception_4a/3x3"
}
layer {
  name: "inception_4a/5x5_reduce"
  type: "Convolution"
  bottom: "pool3/3x3_s2"
  top: "inception_4a/5x5_reduce"
  param {
    lr_mult: 0.1
  }
  param {
    lr_mult: 0.1
  }
  convolution_param {
    num_output: 16
    kernel_size: 1
    weight_filler {
      type: "xavier"
    }
    bias_filler {
      type: "constant"
      value: 0.2
    }
  }
}
layer {
  name: "inception_4a/relu_5x5_reduce"
  type: "ReLU"
  bottom: "inception_4a/5x5_reduce"
  top: "inception_4a/5x5_reduce"
}
layer {
  name: "inception_4a/5x5"
  type: "Convolution"
  bottom: "inception_4a/5x5_reduce"
  top: "inception_4a/5x5"
  param {
    lr_mult: 0.1
  }
  param {
    lr_mult: 0.1
  }
  convolution_param {
    num_output: 48
    pad: 2
    kernel_size: 5
    weight_filler {
      type: "xavier"
    }
    bias_filler {
      type: "constant"
      value: 0.2
    }
  }
}
layer {
  name: "inception_4a/relu_5x5"
  type: "ReLU"
  bottom: "inception_4a/5x5"
  top: "inception_4a/5x5"
}
layer {
  name: "inception_4a/pool"
  type: "Pooling"
  bottom: "pool3/3x3_s2"
  top: "inception_4a/pool"
  pooling_param {
    pool: MAX
    kernel_size: 3
    stride: 1
    pad: 1
  }
}
layer {
  name: "inception_4a/pool_proj"
  type: "Convolution"
  bottom: "inception_4a/pool"
  top: "inception_4a/pool_proj"
  param {
    lr_mult: 0.1
  }
  param {
    lr_mult: 0.1
  }
  convolution_param {
    num_output: 64
    kernel_size: 1
    weight_filler {
      type: "xavier"
    }
    bias_filler {
      type: "constant"
      value: 0.2
    }
  }
}
layer {
  name: "inception_4a/relu_pool_proj"
  type: "ReLU"
  bottom: "inception_4a/pool_proj"
  top: "inception_4a/pool_proj"
}
layer {
  name: "inception_4a/output"
  type: "Concat"
  bottom: "inception_4a/1x1"
  bottom: "inception_4a/3x3"
  bottom: "inception_4a/5x5"
  bottom: "inception_4a/pool_proj"
  top: "inception_4a/output"
}
layer {
  name: "loss1/ave_pool"
  type: "Pooling"
  bottom: "inception_4a/output"
  top: "loss1/ave_pool"
  pooling_param {
    pool: AVE
    kernel_size: 5
    stride: 3
  }
}
layer {
  name: "loss1/conv"
  type: "Convolution"
  bottom: "loss1/ave_pool"
  top: "loss1/conv"
  param {
    lr_mult: 1
  }
  param {
    lr_mult: 1
  }
  convolution_param {
    num_output: 128
    kernel_size: 1
    weight_filler {
      type: "xavier"
    }
    bias_filler {
      type: "constant"
      value: 0.2
    }
  }
}
layer {
  name: "loss1/relu_conv"
  type: "ReLU"
  bottom: "loss1/conv"
  top: "loss1/conv"
}
layer {
  name: "loss1/fc"
  type: "InnerProduct"
  bottom: "loss1/conv"
  top: "loss1/fc"
  param {
    lr_mult: 1
  }
  param {
    lr_mult: 1
  }
  inner_product_param {
    num_output: 1024
    weight_filler {
      type: "xavier"
    }
    bias_filler {
      type: "constant"
      value: 0.2
    }
  }
}
layer {
  name: "loss1/relu_fc"
  type: "ReLU"
  bottom: "loss1/fc"
  top: "loss1/fc"
}
layer {
  name: "loss1/drop_fc"
  type: "Dropout"
  bottom: "loss1/fc"
  top: "loss1/fc"
  dropout_param {
    dropout_ratio: 0.7
  }
}
layer {
  name: "ft_loss1/classifier"
  type: "InnerProduct"
  bottom: "loss1/fc"
  top: "ft_loss1/classifier"
  param {
    lr_mult: 1
  }
  param {
    lr_mult: 1
  }
  inner_product_param {
    num_output: 2
    weight_filler {
      type: "xavier"
    }
    bias_filler {
      type: "constant"
      value: 0
    }
  }
}
layer {
  name: "loss1/loss"
  type: "SoftmaxWithLoss"
  bottom: "ft_loss1/classifier"
  bottom: "label"
  top: "loss1/loss1"
  loss_weight: 0.3
}
layer {
  name: "loss1/top-1"
  type: "Accuracy"
  bottom: "ft_loss1/classifier"
  bottom: "label"
  top: "loss1/top-1"
  include {
    phase: TEST
  }
}
layer {
  name: "inception_4b/1x1"
  type: "Convolution"
  bottom: "inception_4a/output"
  top: "inception_4b/1x1"
  param {
    lr_mult: 0.1
  }
  param {
    lr_mult: 0.1
  }
  convolution_param {
    num_output: 160
    kernel_size: 1
    weight_filler {
      type: "xavier"
    }
    bias_filler {
      type: "constant"
      value: 0.2
    }
  }
}
layer {
  name: "inception_4b/relu_1x1"
  type: "ReLU"
  bottom: "inception_4b/1x1"
  top: "inception_4b/1x1"
}
layer {
  name: "inception_4b/3x3_reduce"
  type: "Convolution"
  bottom: "inception_4a/output"
  top: "inception_4b/3x3_reduce"
  param {
    lr_mult: 0.1
  }
  param {
    lr_mult: 0.1
  }
  convolution_param {
    num_output: 112
    kernel_size: 1
    weight_filler {
      type: "xavier"
    }
    bias_filler {
      type: "constant"
      value: 0.2
    }
  }
}
layer {
  name: "inception_4b/relu_3x3_reduce"
  type: "ReLU"
  bottom: "inception_4b/3x3_reduce"
  top: "inception_4b/3x3_reduce"
}
layer {
  name: "inception_4b/3x3"
  type: "Convolution"
  bottom: "inception_4b/3x3_reduce"
  top: "inception_4b/3x3"
  param {
    lr_mult: 0.1
  }
  param {
    lr_mult: 0.1
  }
  convolution_param {
    num_output: 224
    pad: 1
    kernel_size: 3
    weight_filler {
      type: "xavier"
    }
    bias_filler {
      type: "constant"
      value: 0.2
    }
  }
}
layer {
  name: "inception_4b/relu_3x3"
  type: "ReLU"
  bottom: "inception_4b/3x3"
  top: "inception_4b/3x3"
}
layer {
  name: "inception_4b/5x5_reduce"
  type: "Convolution"
  bottom: "inception_4a/output"
  top: "inception_4b/5x5_reduce"
  param {
    lr_mult: 0.1
  }
  param {
    lr_mult: 0.1
  }
  convolution_param {
    num_output: 24
    kernel_size: 1
    weight_filler {
      type: "xavier"
    }
    bias_filler {
      type: "constant"
      value: 0.2
    }
  }
}
layer {
  name: "inception_4b/relu_5x5_reduce"
  type: "ReLU"
  bottom: "inception_4b/5x5_reduce"
  top: "inception_4b/5x5_reduce"
}
layer {
  name: "inception_4b/5x5"
  type: "Convolution"
  bottom: "inception_4b/5x5_reduce"
  top: "inception_4b/5x5"
  param {
    lr_mult: 0.1
  }
  param {
    lr_mult: 0.1
  }
  convolution_param {
    num_output: 64
    pad: 2
    kernel_size: 5
    weight_filler {
      type: "xavier"
    }
    bias_filler {
      type: "constant"
      value: 0.2
    }
  }
}
layer {
  name: "inception_4b/relu_5x5"
  type: "ReLU"
  bottom: "inception_4b/5x5"
  top: "inception_4b/5x5"
}
layer {
  name: "inception_4b/pool"
  type: "Pooling"
  bottom: "inception_4a/output"
  top: "inception_4b/pool"
  pooling_param {
    pool: MAX
    kernel_size: 3
    stride: 1
    pad: 1
  }
}
layer {
  name: "inception_4b/pool_proj"
  type: "Convolution"
  bottom: "inception_4b/pool"
  top: "inception_4b/pool_proj"
  param {
    lr_mult: 0.1
  }
  param {
    lr_mult: 0.1
  }
  convolution_param {
    num_output: 64
    kernel_size: 1
    weight_filler {
      type: "xavier"
    }
    bias_filler {
      type: "constant"
      value: 0.2
    }
  }
}
layer {
  name: "inception_4b/relu_pool_proj"
  type: "ReLU"
  bottom: "inception_4b/pool_proj"
  top: "inception_4b/pool_proj"
}
layer {
  name: "inception_4b/output"
  type: "Concat"
  bottom: "inception_4b/1x1"
  bottom: "inception_4b/3x3"
  bottom: "inception_4b/5x5"
  bottom: "inception_4b/pool_proj"
  top: "inception_4b/output"
}
layer {
  name: "inception_4c/1x1"
  type: "Convolution"
  bottom: "inception_4b/output"
  top: "inception_4c/1x1"
  param {
    lr_mult: 0.1
  }
  param {
    lr_mult: 0.1
  }
  convolution_param {
    num_output: 128
    kernel_size: 1
    weight_filler {
      type: "xavier"
    }
    bias_filler {
      type: "constant"
      value: 0.2
    }
  }
}
layer {
  name: "inception_4c/relu_1x1"
  type: "ReLU"
  bottom: "inception_4c/1x1"
  top: "inception_4c/1x1"
}
layer {
  name: "inception_4c/3x3_reduce"
  type: "Convolution"
  bottom: "inception_4b/output"
  top: "inception_4c/3x3_reduce"
  param {
    lr_mult: 0.1
  }
  param {
    lr_mult: 0.1
  }
  convolution_param {
    num_output: 128
    kernel_size: 1
    weight_filler {
      type: "xavier"
    }
    bias_filler {
      type: "constant"
      value: 0.2
    }
  }
}
layer {
  name: "inception_4c/relu_3x3_reduce"
  type: "ReLU"
  bottom: "inception_4c/3x3_reduce"
  top: "inception_4c/3x3_reduce"
}
layer {
  name: "inception_4c/3x3"
  type: "Convolution"
  bottom: "inception_4c/3x3_reduce"
  top: "inception_4c/3x3"
  param {
    lr_mult: 0.1
  }
  param {
    lr_mult: 0.1
  }
  convolution_param {
    num_output: 256
    pad: 1
    kernel_size: 3
    weight_filler {
      type: "xavier"
    }
    bias_filler {
      type: "constant"
      value: 0.2
    }
  }
}
layer {
  name: "inception_4c/relu_3x3"
  type: "ReLU"
  bottom: "inception_4c/3x3"
  top: "inception_4c/3x3"
}
layer {
  name: "inception_4c/5x5_reduce"
  type: "Convolution"
  bottom: "inception_4b/output"
  top: "inception_4c/5x5_reduce"
  param {
    lr_mult: 0.1
  }
  param {
    lr_mult: 0.1
  }
  convolution_param {
    num_output: 24
    kernel_size: 1
    weight_filler {
      type: "xavier"
    }
    bias_filler {
      type: "constant"
      value: 0.2
    }
  }
}
layer {
  name: "inception_4c/relu_5x5_reduce"
  type: "ReLU"
  bottom: "inception_4c/5x5_reduce"
  top: "inception_4c/5x5_reduce"
}
layer {
  name: "inception_4c/5x5"
  type: "Convolution"
  bottom: "inception_4c/5x5_reduce"
  top: "inception_4c/5x5"
  param {
    lr_mult: 0.1
  }
  param {
    lr_mult: 0.1
  }
  convolution_param {
    num_output: 64
    pad: 2
    kernel_size: 5
    weight_filler {
      type: "xavier"
    }
    bias_filler {
      type: "constant"
      value: 0.2
    }
  }
}
layer {
  name: "inception_4c/relu_5x5"
  type: "ReLU"
  bottom: "inception_4c/5x5"
  top: "inception_4c/5x5"
}
layer {
  name: "inception_4c/pool"
  type: "Pooling"
  bottom: "inception_4b/output"
  top: "inception_4c/pool"
  pooling_param {
    pool: MAX
    kernel_size: 3
    stride: 1
    pad: 1
  }
}
layer {
  name: "inception_4c/pool_proj"
  type: "Convolution"
  bottom: "inception_4c/pool"
  top: "inception_4c/pool_proj"
  param {
    lr_mult: 0.1
  }
  param {
    lr_mult: 0.1
  }
  convolution_param {
    num_output: 64
    kernel_size: 1
    weight_filler {
      type: "xavier"
    }
    bias_filler {
      type: "constant"
      value: 0.2
    }
  }
}
layer {
  name: "inception_4c/relu_pool_proj"
  type: "ReLU"
  bottom: "inception_4c/pool_proj"
  top: "inception_4c/pool_proj"
}
layer {
  name: "inception_4c/output"
  type: "Concat"
  bottom: "inception_4c/1x1"
  bottom: "inception_4c/3x3"
  bottom: "inception_4c/5x5"
  bottom: "inception_4c/pool_proj"
  top: "inception_4c/output"
}
layer {
  name: "inception_4d/1x1"
  type: "Convolution"
  bottom: "inception_4c/output"
  top: "inception_4d/1x1"
  param {
    lr_mult: 0.1
  }
  param {
    lr_mult: 0.1
  }
  convolution_param {
    num_output: 112
    kernel_size: 1
    weight_filler {
      type: "xavier"
    }
    bias_filler {
      type: "constant"
      value: 0.2
    }
  }
}
layer {
  name: "inception_4d/relu_1x1"
  type: "ReLU"
  bottom: "inception_4d/1x1"
  top: "inception_4d/1x1"
}
layer {
  name: "inception_4d/3x3_reduce"
  type: "Convolution"
  bottom: "inception_4c/output"
  top: "inception_4d/3x3_reduce"
  param {
    lr_mult: 0.1
  }
  param {
    lr_mult: 0.1
  }
  convolution_param {
    num_output: 144
    kernel_size: 1
    weight_filler {
      type: "xavier"
    }
    bias_filler {
      type: "constant"
      value: 0.2
    }
  }
}
layer {
  name: "inception_4d/relu_3x3_reduce"
  type: "ReLU"
  bottom: "inception_4d/3x3_reduce"
  top: "inception_4d/3x3_reduce"
}
layer {
  name: "inception_4d/3x3"
  type: "Convolution"
  bottom: "inception_4d/3x3_reduce"
  top: "inception_4d/3x3"
  param {
    lr_mult: 0.1
  }
  param {
    lr_mult: 0.1
  }
  convolution_param {
    num_output: 288
    pad: 1
    kernel_size: 3
    weight_filler {
      type: "xavier"
    }
    bias_filler {
      type: "constant"
      value: 0.2
    }
  }
}
layer {
  name: "inception_4d/relu_3x3"
  type: "ReLU"
  bottom: "inception_4d/3x3"
  top: "inception_4d/3x3"
}
layer {
  name: "inception_4d/5x5_reduce"
  type: "Convolution"
  bottom: "inception_4c/output"
  top: "inception_4d/5x5_reduce"
  param {
    lr_mult: 0.1
  }
  param {
    lr_mult: 0.1
  }
  convolution_param {
    num_output: 32
    kernel_size: 1
    weight_filler {
      type: "xavier"
    }
    bias_filler {
      type: "constant"
      value: 0.2
    }
  }
}
layer {
  name: "inception_4d/relu_5x5_reduce"
  type: "ReLU"
  bottom: "inception_4d/5x5_reduce"
  top: "inception_4d/5x5_reduce"
}
layer {
  name: "inception_4d/5x5"
  type: "Convolution"
  bottom: "inception_4d/5x5_reduce"
  top: "inception_4d/5x5"
  param {
    lr_mult: 0.1
  }
  param {
    lr_mult: 0.1
  }
  convolution_param {
    num_output: 64
    pad: 2
    kernel_size: 5
    weight_filler {
      type: "xavier"
    }
    bias_filler {
      type: "constant"
      value: 0.2
    }
  }
}
layer {
  name: "inception_4d/relu_5x5"
  type: "ReLU"
  bottom: "inception_4d/5x5"
  top: "inception_4d/5x5"
}
layer {
  name: "inception_4d/pool"
  type: "Pooling"
  bottom: "inception_4c/output"
  top: "inception_4d/pool"
  pooling_param {
    pool: MAX
    kernel_size: 3
    stride: 1
    pad: 1
  }
}
layer {
  name: "inception_4d/pool_proj"
  type: "Convolution"
  bottom: "inception_4d/pool"
  top: "inception_4d/pool_proj"
  param {
    lr_mult: 0.1
  }
  param {
    lr_mult: 0.1
  }
  convolution_param {
    num_output: 64
    kernel_size: 1
    weight_filler {
      type: "xavier"
    }
    bias_filler {
      type: "constant"
      value: 0.2
    }
  }
}
layer {
  name: "inception_4d/relu_pool_proj"
  type: "ReLU"
  bottom: "inception_4d/pool_proj"
  top: "inception_4d/pool_proj"
}
layer {
  name: "inception_4d/output"
  type: "Concat"
  bottom: "inception_4d/1x1"
  bottom: "inception_4d/3x3"
  bottom: "inception_4d/5x5"
  bottom: "inception_4d/pool_proj"
  top: "inception_4d/output"
}
layer {
  name: "loss2/ave_pool"
  type: "Pooling"
  bottom: "inception_4d/output"
  top: "loss2/ave_pool"
  pooling_param {
    pool: AVE
    kernel_size: 5
    stride: 3
  }
}
layer {
  name: "loss2/conv"
  type: "Convolution"
  bottom: "loss2/ave_pool"
  top: "loss2/conv"
  param {
    lr_mult: 1
  }
  param {
    lr_mult: 1
  }
  convolution_param {
    num_output: 128
    kernel_size: 1
    weight_filler {
      type: "xavier"
    }
    bias_filler {
      type: "constant"
      value: 0.2
    }
  }
}
layer {
  name: "loss2/relu_conv"
  type: "ReLU"
  bottom: "loss2/conv"
  top: "loss2/conv"
}
layer {
  name: "loss2/fc"
  type: "InnerProduct"
  bottom: "loss2/conv"
  top: "loss2/fc"
  param {
    lr_mult: 1
  }
  param {
    lr_mult: 1
  }
  inner_product_param {
    num_output: 1024
    weight_filler {
      type: "xavier"
    }
    bias_filler {
      type: "constant"
      value: 0.2
    }
  }
}
layer {
  name: "loss2/relu_fc"
  type: "ReLU"
  bottom: "loss2/fc"
  top: "loss2/fc"
}
layer {
  name: "loss2/drop_fc"
  type: "Dropout"
  bottom: "loss2/fc"
  top: "loss2/fc"
  dropout_param {
    dropout_ratio: 0.7
  }
}
layer {
  name: "ft_loss2/classifier"
  type: "InnerProduct"
  bottom: "loss2/fc"
  top: "ft_loss2/classifier"
  param {
    lr_mult: 1
  }
  param {
    lr_mult: 1
  }
  inner_product_param {
    num_output: 2
    weight_filler {
      type: "xavier"
    }
    bias_filler {
      type: "constant"
      value: 0
    }
  }
}
layer {
  name: "loss2/loss"
  type: "SoftmaxWithLoss"
  bottom: "ft_loss2/classifier"
  bottom: "label"
  top: "loss2/loss1"
  loss_weight: 0.3
}
layer {
  name: "loss2/top-1"
  type: "Accuracy"
  bottom: "ft_loss2/classifier"
  bottom: "label"
  top: "loss2/top-1"
  include {
    phase: TEST
  }
}
layer {
  name: "inception_4e/1x1"
  type: "Convolution"
  bottom: "inception_4d/output"
  top: "inception_4e/1x1"
  param {
    lr_mult: 0.1
  }
  param {
    lr_mult: 0.1
  }
  convolution_param {
    num_output: 256
    kernel_size: 1
    weight_filler {
      type: "xavier"
    }
    bias_filler {
      type: "constant"
      value: 0.2
    }
  }
}
layer {
  name: "inception_4e/relu_1x1"
  type: "ReLU"
  bottom: "inception_4e/1x1"
  top: "inception_4e/1x1"
}
layer {
  name: "inception_4e/3x3_reduce"
  type: "Convolution"
  bottom: "inception_4d/output"
  top: "inception_4e/3x3_reduce"
  param {
    lr_mult: 0.1
  }
  param {
    lr_mult: 0.1
  }
  convolution_param {
    num_output: 160
    kernel_size: 1
    weight_filler {
      type: "xavier"
    }
    bias_filler {
      type: "constant"
      value: 0.2
    }
  }
}
layer {
  name: "inception_4e/relu_3x3_reduce"
  type: "ReLU"
  bottom: "inception_4e/3x3_reduce"
  top: "inception_4e/3x3_reduce"
}
layer {
  name: "inception_4e/3x3"
  type: "Convolution"
  bottom: "inception_4e/3x3_reduce"
  top: "inception_4e/3x3"
  param {
    lr_mult: 0.1
  }
  param {
    lr_mult: 0.1
  }
  convolution_param {
    num_output: 320
    pad: 1
    kernel_size: 3
…
I1010 02:22:10.537297 18017 net.cpp:90] Creating Layer inception_4b/output_inception_4b/output_0_split
I1010 02:22:10.537303 18017 net.cpp:410] inception_4b/output_inception_4b/output_0_split <- inception_4b/output
I1010 02:22:10.537310 18017 net.cpp:368] inception_4b/output_inception_4b/output_0_split -> inception_4b/output_inception_4b/output_0_split_0
I1010 02:22:10.537318 18017 net.cpp:368] inception_4b/output_inception_4b/output_0_split -> inception_4b/output_inception_4b/output_0_split_1
I1010 02:22:10.537328 18017 net.cpp:368] inception_4b/output_inception_4b/output_0_split -> inception_4b/output_inception_4b/output_0_split_2
I1010 02:22:10.537338 18017 net.cpp:368] inception_4b/output_inception_4b/output_0_split -> inception_4b/output_inception_4b/output_0_split_3
I1010 02:22:10.537345 18017 net.cpp:120] Setting up inception_4b/output_inception_4b/output_0_split
I1010 02:22:10.537353 18017 net.cpp:127] Top shape: 50 512 14 14 (5017600)
I1010 02:22:10.537360 18017 net.cpp:127] Top shape: 50 512 14 14 (5017600)
I1010 02:22:10.537366 18017 net.cpp:127] Top shape: 50 512 14 14 (5017600)
I1010 02:22:10.537372 18017 net.cpp:127] Top shape: 50 512 14 14 (5017600)
I1010 02:22:10.537377 18017 layer_factory.hpp:74] Creating layer inception_4c/1x1
I1010 02:22:10.537385 18017 net.cpp:90] Creating Layer inception_4c/1x1
I1010 02:22:10.537390 18017 net.cpp:410] inception_4c/1x1 <- inception_4b/output_inception_4b/output_0_split_0
I1010 02:22:10.537400 18017 net.cpp:368] inception_4c/1x1 -> inception_4c/1x1
I1010 02:22:10.537410 18017 net.cpp:120] Setting up inception_4c/1x1
I1010 02:22:10.538158 18017 net.cpp:127] Top shape: 50 128 14 14 (1254400)
I1010 02:22:10.538172 18017 layer_factory.hpp:74] Creating layer inception_4c/relu_1x1
I1010 02:22:10.538180 18017 net.cpp:90] Creating Layer inception_4c/relu_1x1
I1010 02:22:10.538187 18017 net.cpp:410] inception_4c/relu_1x1 <- inception_4c/1x1
I1010 02:22:10.538195 18017 net.cpp:357] inception_4c/relu_1x1 -> inception_4c/1x1 (in-place)
I1010 02:22:10.538203 18017 net.cpp:120] Setting up inception_4c/relu_1x1
I1010 02:22:10.538210 18017 net.cpp:127] Top shape: 50 128 14 14 (1254400)
I1010 02:22:10.538215 18017 layer_factory.hpp:74] Creating layer inception_4c/3x3_reduce
I1010 02:22:10.538228 18017 net.cpp:90] Creating Layer inception_4c/3x3_reduce
I1010 02:22:10.538233 18017 net.cpp:410] inception_4c/3x3_reduce <- inception_4b/output_inception_4b/output_0_split_1
I1010 02:22:10.538244 18017 net.cpp:368] inception_4c/3x3_reduce -> inception_4c/3x3_reduce
I1010 02:22:10.538252 18017 net.cpp:120] Setting up inception_4c/3x3_reduce
I1010 02:22:10.538969 18017 net.cpp:127] Top shape: 50 128 14 14 (1254400)
I1010 02:22:10.538985 18017 layer_factory.hpp:74] Creating layer inception_4c/relu_3x3_reduce
I1010 02:22:10.538993 18017 net.cpp:90] Creating Layer inception_4c/relu_3x3_reduce
I1010 02:22:10.538998 18017 net.cpp:410] inception_4c/relu_3x3_reduce <- inception_4c/3x3_reduce
I1010 02:22:10.539007 18017 net.cpp:357] inception_4c/relu_3x3_reduce -> inception_4c/3x3_reduce (in-place)
I1010 02:22:10.539014 18017 net.cpp:120] Setting up inception_4c/relu_3x3_reduce
I1010 02:22:10.539021 18017 net.cpp:127] Top shape: 50 128 14 14 (1254400)
I1010 02:22:10.539026 18017 layer_factory.hpp:74] Creating layer inception_4c/3x3
I1010 02:22:10.539034 18017 net.cpp:90] Creating Layer inception_4c/3x3
I1010 02:22:10.539039 18017 net.cpp:410] inception_4c/3x3 <- inception_4c/3x3_reduce
I1010 02:22:10.539049 18017 net.cpp:368] inception_4c/3x3 -> inception_4c/3x3
I1010 02:22:10.539057 18017 net.cpp:120] Setting up inception_4c/3x3
I1010 02:22:10.542413 18017 net.cpp:127] Top shape: 50 256 14 14 (2508800)
I1010 02:22:10.542454 18017 layer_factory.hpp:74] Creating layer inception_4c/relu_3x3
I1010 02:22:10.542464 18017 net.cpp:90] Creating Layer inception_4c/relu_3x3
I1010 02:22:10.542470 18017 net.cpp:410] inception_4c/relu_3x3 <- inception_4c/3x3
I1010 02:22:10.542477 18017 net.cpp:357] inception_4c/relu_3x3 -> inception_4c/3x3 (in-place)
I1010 02:22:10.542484 18017 net.cpp:120] Setting up inception_4c/relu_3x3
I1010 02:22:10.542491 18017 net.cpp:127] Top shape: 50 256 14 14 (2508800)
I1010 02:22:10.542496 18017 layer_factory.hpp:74] Creating layer inception_4c/5x5_reduce
I1010 02:22:10.542505 18017 net.cpp:90] Creating Layer inception_4c/5x5_reduce
I1010 02:22:10.542510 18017 net.cpp:410] inception_4c/5x5_reduce <- inception_4b/output_inception_4b/output_0_split_2
I1010 02:22:10.542520 18017 net.cpp:368] inception_4c/5x5_reduce -> inception_4c/5x5_reduce
I1010 02:22:10.542529 18017 net.cpp:120] Setting up inception_4c/5x5_reduce
I1010 02:22:10.542671 18017 net.cpp:127] Top shape: 50 24 14 14 (235200)
I1010 02:22:10.542682 18017 layer_factory.hpp:74] Creating layer inception_4c/relu_5x5_reduce
I1010 02:22:10.542690 18017 net.cpp:90] Creating Layer inception_4c/relu_5x5_reduce
I1010 02:22:10.542695 18017 net.cpp:410] inception_4c/relu_5x5_reduce <- inception_4c/5x5_reduce
I1010 02:22:10.542702 18017 net.cpp:357] inception_4c/relu_5x5_reduce -> inception_4c/5x5_reduce (in-place)
I1010 02:22:10.542709 18017 net.cpp:120] Setting up inception_4c/relu_5x5_reduce
I1010 02:22:10.542716 18017 net.cpp:127] Top shape: 50 24 14 14 (235200)
I1010 02:22:10.542721 18017 layer_factory.hpp:74] Creating layer inception_4c/5x5
I1010 02:22:10.542732 18017 net.cpp:90] Creating Layer inception_4c/5x5
I1010 02:22:10.542737 18017 net.cpp:410] inception_4c/5x5 <- inception_4c/5x5_reduce
I1010 02:22:10.542744 18017 net.cpp:368] inception_4c/5x5 -> inception_4c/5x5
I1010 02:22:10.542752 18017 net.cpp:120] Setting up inception_4c/5x5
I1010 02:22:10.543223 18017 net.cpp:127] Top shape: 50 64 14 14 (627200)
I1010 02:22:10.543251 18017 layer_factory.hpp:74] Creating layer inception_4c/relu_5x5
I1010 02:22:10.543258 18017 net.cpp:90] Creating Layer inception_4c/relu_5x5
I1010 02:22:10.543264 18017 net.cpp:410] inception_4c/relu_5x5 <- inception_4c/5x5
I1010 02:22:10.543272 18017 net.cpp:357] inception_4c/relu_5x5 -> inception_4c/5x5 (in-place)
I1010 02:22:10.543278 18017 net.cpp:120] Setting up inception_4c/relu_5x5
I1010 02:22:10.543285 18017 net.cpp:127] Top shape: 50 64 14 14 (627200)
I1010 02:22:10.543290 18017 layer_factory.hpp:74] Creating layer inception_4c/pool
I1010 02:22:10.543298 18017 net.cpp:90] Creating Layer inception_4c/pool
I1010 02:22:10.543303 18017 net.cpp:410] inception_4c/pool <- inception_4b/output_inception_4b/output_0_split_3
I1010 02:22:10.543314 18017 net.cpp:368] inception_4c/pool -> inception_4c/pool
I1010 02:22:10.543323 18017 net.cpp:120] Setting up inception_4c/pool
I1010 02:22:10.543333 18017 net.cpp:127] Top shape: 50 512 14 14 (5017600)
I1010 02:22:10.543344 18017 layer_factory.hpp:74] Creating layer inception_4c/pool_proj
I1010 02:22:10.543352 18017 net.cpp:90] Creating Layer inception_4c/pool_proj
I1010 02:22:10.543357 18017 net.cpp:410] inception_4c/pool_proj <- inception_4c/pool
I1010 02:22:10.543367 18017 net.cpp:368] inception_4c/pool_proj -> inception_4c/pool_proj
I1010 02:22:10.543377 18017 net.cpp:120] Setting up inception_4c/pool_proj
I1010 02:22:10.543742 18017 net.cpp:127] Top shape: 50 64 14 14 (627200)
I1010 02:22:10.543758 18017 layer_factory.hpp:74] Creating layer inception_4c/relu_pool_proj
I1010 02:22:10.543767 18017 net.cpp:90] Creating Layer inception_4c/relu_pool_proj
I1010 02:22:10.543774 18017 net.cpp:410] inception_4c/relu_pool_proj <- inception_4c/pool_proj
I1010 02:22:10.543783 18017 net.cpp:357] inception_4c/relu_pool_proj -> inception_4c/pool_proj (in-place)
I1010 02:22:10.543790 18017 net.cpp:120] Setting up inception_4c/relu_pool_proj
I1010 02:22:10.543797 18017 net.cpp:127] Top shape: 50 64 14 14 (627200)
I1010 02:22:10.543802 18017 layer_factory.hpp:74] Creating layer inception_4c/output
I1010 02:22:10.543809 18017 net.cpp:90] Creating Layer inception_4c/output
I1010 02:22:10.543815 18017 net.cpp:410] inception_4c/output <- inception_4c/1x1
I1010 02:22:10.543822 18017 net.cpp:410] inception_4c/output <- inception_4c/3x3
I1010 02:22:10.543826 18017 net.cpp:410] inception_4c/output <- inception_4c/5x5
I1010 02:22:10.543833 18017 net.cpp:410] inception_4c/output <- inception_4c/pool_proj
I1010 02:22:10.543839 18017 net.cpp:368] inception_4c/output -> inception_4c/output
I1010 02:22:10.543846 18017 net.cpp:120] Setting up inception_4c/output
I1010 02:22:10.543855 18017 net.cpp:127] Top shape: 50 512 14 14 (5017600)
I1010 02:22:10.543860 18017 layer_factory.hpp:74] Creating layer inception_4c/output_inception_4c/output_0_split
I1010 02:22:10.543867 18017 net.cpp:90] Creating Layer inception_4c/output_inception_4c/output_0_split
I1010 02:22:10.543872 18017 net.cpp:410] inception_4c/output_inception_4c/output_0_split <- inception_4c/output
I1010 02:22:10.543881 18017 net.cpp:368] inception_4c/output_inception_4c/output_0_split -> inception_4c/output_inception_4c/output_0_split_0
I1010 02:22:10.543890 18017 net.cpp:368] inception_4c/output_inception_4c/output_0_split -> inception_4c/output_inception_4c/output_0_split_1
I1010 02:22:10.543898 18017 net.cpp:368] inception_4c/output_inception_4c/output_0_split -> inception_4c/output_inception_4c/output_0_split_2
I1010 02:22:10.543907 18017 net.cpp:368] inception_4c/output_inception_4c/output_0_split -> inception_4c/output_inception_4c/output_0_split_3
I1010 02:22:10.543915 18017 net.cpp:120] Setting up inception_4c/output_inception_4c/output_0_split
I1010 02:22:10.543926 18017 net.cpp:127] Top shape: 50 512 14 14 (5017600)
I1010 02:22:10.543931 18017 net.cpp:127] Top shape: 50 512 14 14 (5017600)
I1010 02:22:10.543937 18017 net.cpp:127] Top shape: 50 512 14 14 (5017600)
I1010 02:22:10.543943 18017 net.cpp:127] Top shape: 50 512 14 14 (5017600)
I1010 02:22:10.543948 18017 layer_factory.hpp:74] Creating layer inception_4d/1x1
I1010 02:22:10.543967 18017 net.cpp:90] Creating Layer inception_4d/1x1
I1010 02:22:10.543973 18017 net.cpp:410] inception_4d/1x1 <- inception_4c/output_inception_4c/output_0_split_0
I1010 02:22:10.543984 18017 net.cpp:368] inception_4d/1x1 -> inception_4d/1x1
I1010 02:22:10.543992 18017 net.cpp:120] Setting up inception_4d/1x1
I1010 02:22:10.544621 18017 net.cpp:127] Top shape: 50 112 14 14 (1097600)
I1010 02:22:10.544636 18017 layer_factory.hpp:74] Creating layer inception_4d/relu_1x1
I1010 02:22:10.544643 18017 net.cpp:90] Creating Layer inception_4d/relu_1x1
I1010 02:22:10.544649 18017 net.cpp:410] inception_4d/relu_1x1 <- inception_4d/1x1
I1010 02:22:10.544656 18017 net.cpp:357] inception_4d/relu_1x1 -> inception_4d/1x1 (in-place)
I1010 02:22:10.544662 18017 net.cpp:120] Setting up inception_4d/relu_1x1
I1010 02:22:10.544669 18017 net.cpp:127] Top shape: 50 112 14 14 (1097600)
I1010 02:22:10.544674 18017 layer_factory.hpp:74] Creating layer inception_4d/3x3_reduce
I1010 02:22:10.544687 18017 net.cpp:90] Creating Layer inception_4d/3x3_reduce
I1010 02:22:10.544694 18017 net.cpp:410] inception_4d/3x3_reduce <- inception_4c/output_inception_4c/output_0_split_1
I1010 02:22:10.544703 18017 net.cpp:368] inception_4d/3x3_reduce -> inception_4d/3x3_reduce
I1010 02:22:10.544713 18017 net.cpp:120] Setting up inception_4d/3x3_reduce
I1010 02:22:10.545545 18017 net.cpp:127] Top shape: 50 144 14 14 (1411200)
I1010 02:22:10.545569 18017 layer_factory.hpp:74] Creating layer inception_4d/relu_3x3_reduce
I1010 02:22:10.545580 18017 net.cpp:90] Creating Layer inception_4d/relu_3x3_reduce
I1010 02:22:10.545588 18017 net.cpp:410] inception_4d/relu_3x3_reduce <- inception_4d/3x3_reduce
I1010 02:22:10.545595 18017 net.cpp:357] inception_4d/relu_3x3_reduce -> inception_4d/3x3_reduce (in-place)
I1010 02:22:10.545603 18017 net.cpp:120] Setting up inception_4d/relu_3x3_reduce
I1010 02:22:10.545609 18017 net.cpp:127] Top shape: 50 144 14 14 (1411200)
I1010 02:22:10.545614 18017 layer_factory.hpp:74] Creating layer inception_4d/3x3
I1010 02:22:10.545624 18017 net.cpp:90] Creating Layer inception_4d/3x3
I1010 02:22:10.545629 18017 net.cpp:410] inception_4d/3x3 <- inception_4d/3x3_reduce
I1010 02:22:10.545637 18017 net.cpp:368] inception_4d/3x3 -> inception_4d/3x3
I1010 02:22:10.545645 18017 net.cpp:120] Setting up inception_4d/3x3
I1010 02:22:10.550047 18017 net.cpp:127] Top shape: 50 288 14 14 (2822400)
I1010 02:22:10.550062 18017 layer_factory.hpp:74] Creating layer inception_4d/relu_3x3
I1010 02:22:10.550071 18017 net.cpp:90] Creating Layer inception_4d/relu_3x3
I1010 02:22:10.550076 18017 net.cpp:410] inception_4d/relu_3x3 <- inception_4d/3x3
I1010 02:22:10.550086 18017 net.cpp:357] inception_4d/relu_3x3 -> inception_4d/3x3 (in-place)
I1010 02:22:10.550096 18017 net.cpp:120] Setting up inception_4d/relu_3x3
I1010 02:22:10.550102 18017 net.cpp:127] Top shape: 50 288 14 14 (2822400)
I1010 02:22:10.550107 18017 layer_factory.hpp:74] Creating layer inception_4d/5x5_reduce
I1010 02:22:10.550117 18017 net.cpp:90] Creating Layer inception_4d/5x5_reduce
I1010 02:22:10.550123 18017 net.cpp:410] inception_4d/5x5_reduce <- inception_4c/output_inception_4c/output_0_split_2
I1010 02:22:10.550132 18017 net.cpp:368] inception_4d/5x5_reduce -> inception_4d/5x5_reduce
I1010 02:22:10.550139 18017 net.cpp:120] Setting up inception_4d/5x5_reduce
I1010 02:22:10.550328 18017 net.cpp:127] Top shape: 50 32 14 14 (313600)
I1010 02:22:10.550339 18017 layer_factory.hpp:74] Creating layer inception_4d/relu_5x5_reduce
I1010 02:22:10.550346 18017 net.cpp:90] Creating Layer inception_4d/relu_5x5_reduce
I1010 02:22:10.550353 18017 net.cpp:410] inception_4d/relu_5x5_reduce <- inception_4d/5x5_reduce
I1010 02:22:10.550361 18017 net.cpp:357] inception_4d/relu_5x5_reduce -> inception_4d/5x5_reduce (in-place)
I1010 02:22:10.550369 18017 net.cpp:120] Setting up inception_4d/relu_5x5_reduce
I1010 02:22:10.550375 18017 net.cpp:127] Top shape: 50 32 14 14 (313600)
I1010 02:22:10.550380 18017 layer_factory.hpp:74] Creating layer inception_4d/5x5
I1010 02:22:10.550397 18017 net.cpp:90] Creating Layer inception_4d/5x5
I1010 02:22:10.550403 18017 net.cpp:410] inception_4d/5x5 <- inception_4d/5x5_reduce
I1010 02:22:10.550415 18017 net.cpp:368] inception_4d/5x5 -> inception_4d/5x5
I1010 02:22:10.550423 18017 net.cpp:120] Setting up inception_4d/5x5
I1010 02:22:10.550999 18017 net.cpp:127] Top shape: 50 64 14 14 (627200)
I1010 02:22:10.551015 18017 layer_factory.hpp:74] Creating layer inception_4d/relu_5x5
I1010 02:22:10.551024 18017 net.cpp:90] Creating Layer inception_4d/relu_5x5
I1010 02:22:10.551029 18017 net.cpp:410] inception_4d/relu_5x5 <- inception_4d/5x5
I1010 02:22:10.551038 18017 net.cpp:357] inception_4d/relu_5x5 -> inception_4d/5x5 (in-place)
I1010 02:22:10.551046 18017 net.cpp:120] Setting up inception_4d/relu_5x5
I1010 02:22:10.551054 18017 net.cpp:127] Top shape: 50 64 14 14 (627200)
I1010 02:22:10.551059 18017 layer_factory.hpp:74] Creating layer inception_4d/pool
I1010 02:22:10.551066 18017 net.cpp:90] Creating Layer inception_4d/pool
I1010 02:22:10.551072 18017 net.cpp:410] inception_4d/pool <- inception_4c/output_inception_4c/output_0_split_3
I1010 02:22:10.551079 18017 net.cpp:368] inception_4d/pool -> inception_4d/pool
I1010 02:22:10.551091 18017 net.cpp:120] Setting up inception_4d/pool
I1010 02:22:10.551102 18017 net.cpp:127] Top shape: 50 512 14 14 (5017600)
I1010 02:22:10.551110 18017 layer_factory.hpp:74] Creating layer inception_4d/pool_proj
I1010 02:22:10.551120 18017 net.cpp:90] Creating Layer inception_4d/pool_proj
I1010 02:22:10.551126 18017 net.cpp:410] inception_4d/pool_proj <- inception_4d/pool
I1010 02:22:10.551136 18017 net.cpp:368] inception_4d/pool_proj -> inception_4d/pool_proj
I1010 02:22:10.551146 18017 net.cpp:120] Setting up inception_4d/pool_proj
I1010 02:22:10.551523 18017 net.cpp:127] Top shape: 50 64 14 14 (627200)
I1010 02:22:10.551537 18017 layer_factory.hpp:74] Creating layer inception_4d/relu_pool_proj
I1010 02:22:10.551547 18017 net.cpp:90] Creating Layer inception_4d/relu_pool_proj
I1010 02:22:10.551553 18017 net.cpp:410] inception_4d/relu_pool_proj <- inception_4d/pool_proj
I1010 02:22:10.551559 18017 net.cpp:357] inception_4d/relu_pool_proj -> inception_4d/pool_proj (in-place)
I1010 02:22:10.551566 18017 net.cpp:120] Setting up inception_4d/relu_pool_proj
I1010 02:22:10.551573 18017 net.cpp:127] Top shape: 50 64 14 14 (627200)
I1010 02:22:10.551578 18017 layer_factory.hpp:74] Creating layer inception_4d/output
I1010 02:22:10.551585 18017 net.cpp:90] Creating Layer inception_4d/output
I1010 02:22:10.551590 18017 net.cpp:410] inception_4d/output <- inception_4d/1x1
I1010 02:22:10.551596 18017 net.cpp:410] inception_4d/output <- inception_4d/3x3
I1010 02:22:10.551602 18017 net.cpp:410] inception_4d/output <- inception_4d/5x5
I1010 02:22:10.551609 18017 net.cpp:410] inception_4d/output <- inception_4d/pool_proj
I1010 02:22:10.551623 18017 net.cpp:368] inception_4d/output -> inception_4d/output
I1010 02:22:10.551631 18017 net.cpp:120] Setting up inception_4d/output
I1010 02:22:10.551640 18017 net.cpp:127] Top shape: 50 528 14 14 (5174400)
I1010 02:22:10.551646 18017 layer_factory.hpp:74] Creating layer inception_4d/output_inception_4d/output_0_split
I1010 02:22:10.551653 18017 net.cpp:90] Creating Layer inception_4d/output_inception_4d/output_0_split
I1010 02:22:10.551658 18017 net.cpp:410] inception_4d/output_inception_4d/output_0_split <- inception_4d/output
I1010 02:22:10.551666 18017 net.cpp:368] inception_4d/output_inception_4d/output_0_split -> inception_4d/output_inception_4d/output_0_split_0
I1010 02:22:10.551674 18017 net.cpp:368] inception_4d/output_inception_4d/output_0_split -> inception_4d/output_inception_4d/output_0_split_1
I1010 02:22:10.551684 18017 net.cpp:368] inception_4d/output_inception_4d/output_0_split -> inception_4d/output_inception_4d/output_0_split_2
I1010 02:22:10.551694 18017 net.cpp:368] inception_4d/output_inception_4d/output_0_split -> inception_4d/output_inception_4d/output_0_split_3
I1010 02:22:10.551702 18017 net.cpp:368] inception_4d/output_inception_4d/output_0_split -> inception_4d/output_inception_4d/output_0_split_4
I1010 02:22:10.551731 18017 net.cpp:120] Setting up inception_4d/output_inception_4d/output_0_split
I1010 02:22:10.551741 18017 net.cpp:127] Top shape: 50 528 14 14 (5174400)
I1010 02:22:10.551748 18017 net.cpp:127] Top shape: 50 528 14 14 (5174400)
I1010 02:22:10.551753 18017 net.cpp:127] Top shape: 50 528 14 14 (5174400)
I1010 02:22:10.551759 18017 net.cpp:127] Top shape: 50 528 14 14 (5174400)
I1010 02:22:10.551765 18017 net.cpp:127] Top shape: 50 528 14 14 (5174400)
I1010 02:22:10.551769 18017 layer_factory.hpp:74] Creating layer loss2/ave_pool
I1010 02:22:10.551779 18017 net.cpp:90] Creating Layer loss2/ave_pool
I1010 02:22:10.551784 18017 net.cpp:410] loss2/ave_pool <- inception_4d/output_inception_4d/output_0_split_0
I1010 02:22:10.551792 18017 net.cpp:368] loss2/ave_pool -> loss2/ave_pool
I1010 02:22:10.551811 18017 net.cpp:120] Setting up loss2/ave_pool
I1010 02:22:10.551820 18017 net.cpp:127] Top shape: 50 528 4 4 (422400)
I1010 02:22:10.551826 18017 layer_factory.hpp:74] Creating layer loss2/conv
I1010 02:22:10.551836 18017 net.cpp:90] Creating Layer loss2/conv
I1010 02:22:10.551841 18017 net.cpp:410] loss2/conv <- loss2/ave_pool
I1010 02:22:10.551849 18017 net.cpp:368] loss2/conv -> loss2/conv
I1010 02:22:10.551857 18017 net.cpp:120] Setting up loss2/conv
I1010 02:22:10.552606 18017 net.cpp:127] Top shape: 50 128 4 4 (102400)
I1010 02:22:10.552621 18017 layer_factory.hpp:74] Creating layer loss2/relu_conv
I1010 02:22:10.552629 18017 net.cpp:90] Creating Layer loss2/relu_conv
I1010 02:22:10.552634 18017 net.cpp:410] loss2/relu_conv <- loss2/conv
I1010 02:22:10.552641 18017 net.cpp:357] loss2/relu_conv -> loss2/conv (in-place)
I1010 02:22:10.552649 18017 net.cpp:120] Setting up loss2/relu_conv
I1010 02:22:10.552655 18017 net.cpp:127] Top shape: 50 128 4 4 (102400)
I1010 02:22:10.552660 18017 layer_factory.hpp:74] Creating layer loss2/fc
I1010 02:22:10.552671 18017 net.cpp:90] Creating Layer loss2/fc
I1010 02:22:10.552680 18017 net.cpp:410] loss2/fc <- loss2/conv
I1010 02:22:10.552690 18017 net.cpp:368] loss2/fc -> loss2/fc
I1010 02:22:10.552698 18017 net.cpp:120] Setting up loss2/fc
I1010 02:22:10.575193 18017 net.cpp:127] Top shape: 50 1024 (51200)
I1010 02:22:10.575211 18017 layer_factory.hpp:74] Creating layer loss2/relu_fc
I1010 02:22:10.575220 18017 net.cpp:90] Creating Layer loss2/relu_fc
I1010 02:22:10.575227 18017 net.cpp:410] loss2/relu_fc <- loss2/fc
I1010 02:22:10.575237 18017 net.cpp:357] loss2/relu_fc -> loss2/fc (in-place)
I1010 02:22:10.575247 18017 net.cpp:120] Setting up loss2/relu_fc
I1010 02:22:10.575253 18017 net.cpp:127] Top shape: 50 1024 (51200)
I1010 02:22:10.575258 18017 layer_factory.hpp:74] Creating layer loss2/drop_fc
I1010 02:22:10.575266 18017 net.cpp:90] Creating Layer loss2/drop_fc
I1010 02:22:10.575271 18017 net.cpp:410] loss2/drop_fc <- loss2/fc
I1010 02:22:10.575278 18017 net.cpp:357] loss2/drop_fc -> loss2/fc (in-place)
I1010 02:22:10.575284 18017 net.cpp:120] Setting up loss2/drop_fc
I1010 02:22:10.575294 18017 net.cpp:127] Top shape: 50 1024 (51200)
I1010 02:22:10.575299 18017 layer_factory.hpp:74] Creating layer ft_loss2/classifier
I1010 02:22:10.575309 18017 net.cpp:90] Creating Layer ft_loss2/classifier
I1010 02:22:10.575315 18017 net.cpp:410] ft_loss2/classifier <- loss2/fc
I1010 02:22:10.575325 18017 net.cpp:368] ft_loss2/classifier -> ft_loss2/classifier
I1010 02:22:10.575335 18017 net.cpp:120] Setting up ft_loss2/classifier
I1010 02:22:10.575371 18017 net.cpp:127] Top shape: 50 2 (100)
I1010 02:22:10.575381 18017 layer_factory.hpp:74] Creating layer ft_loss2/classifier_ft_loss2/classifier_0_split
I1010 02:22:10.575389 18017 net.cpp:90] Creating Layer ft_loss2/classifier_ft_loss2/classifier_0_split
I1010 02:22:10.575394 18017 net.cpp:410] ft_loss2/classifier_ft_loss2/classifier_0_split <- ft_loss2/classifier
I1010 02:22:10.575403 18017 net.cpp:368] ft_loss2/classifier_ft_loss2/classifier_0_split -> ft_loss2/classifier_ft_loss2/classifier_0_split_0
I1010 02:22:10.575412 18017 net.cpp:368] ft_loss2/classifier_ft_loss2/classifier_0_split -> ft_loss2/classifier_ft_loss2/classifier_0_split_1
I1010 02:22:10.575428 18017 net.cpp:120] Setting up ft_loss2/classifier_ft_loss2/classifier_0_split
I1010 02:22:10.575436 18017 net.cpp:127] Top shape: 50 2 (100)
I1010 02:22:10.575443 18017 net.cpp:127] Top shape: 50 2 (100)
I1010 02:22:10.575448 18017 layer_factory.hpp:74] Creating layer loss2/loss
I1010 02:22:10.575454 18017 net.cpp:90] Creating Layer loss2/loss
I1010 02:22:10.575460 18017 net.cpp:410] loss2/loss <- ft_loss2/classifier_ft_loss2/classifier_0_split_0
I1010 02:22:10.575466 18017 net.cpp:410] loss2/loss <- label_data_1_split_2
I1010 02:22:10.575474 18017 net.cpp:368] loss2/loss -> loss2/loss1
I1010 02:22:10.575480 18017 net.cpp:120] Setting up loss2/loss
…
I1010 02:22:10.575554 18017 net.cpp:368] loss2/top-1 -> loss2/top-1
I1010 02:22:10.575566 18017 net.cpp:120] Setting up loss2/top-1
I1010 02:22:10.575573 18017 net.cpp:127] Top shape: (1)
I1010 02:22:10.575578 18017 layer_factory.hpp:74] Creating layer inception_4e/1x1
I1010 02:22:10.575589 18017 net.cpp:90] Creating Layer inception_4e/1x1
I1010 02:22:10.575603 18017 net.cpp:410] inception_4e/1x1 <- inception_4d/output_inception_4d/output_0_split_1
I1010 02:22:10.575610 18017 net.cpp:368] inception_4e/1x1 -> inception_4e/1x1
I1010 02:22:10.575619 18017 net.cpp:120] Setting up inception_4e/1x1
I1010 02:22:10.577076 18017 net.cpp:127] Top shape: 50 256 14 14 (2508800)
I1010 02:22:10.577096 18017 layer_factory.hpp:74] Creating layer inception_4e/relu_1x1
I1010 02:22:10.577105 18017 net.cpp:90] Creating Layer inception_4e/relu_1x1
I1010 02:22:10.577111 18017 net.cpp:410] inception_4e/relu_1x1 <- inception_4e/1x1
I1010 02:22:10.577121 18017 net.cpp:357] inception_4e/relu_1x1 -> inception_4e/1x1 (in-place)
I1010 02:22:10.577127 18017 net.cpp:120] Setting up inception_4e/relu_1x1
I1010 02:22:10.577134 18017 net.cpp:127] Top shape: 50 256 14 14 (2508800)
I1010 02:22:10.577139 18017 layer_factory.hpp:74] Creating layer inception_4e/3x3_reduce
I1010 02:22:10.577147 18017 net.cpp:90] Creating Layer inception_4e/3x3_reduce
I1010 02:22:10.577152 18017 net.cpp:410] inception_4e/3x3_reduce <- inception_4d/output_inception_4d/output_0_split_2
I1010 02:22:10.577160 18017 net.cpp:368] inception_4e/3x3_reduce -> inception_4e/3x3_reduce
I1010 02:22:10.577168 18017 net.cpp:120] Setting up inception_4e/3x3_reduce
I1010 02:22:10.578078 18017 net.cpp:127] Top shape: 50 160 14 14 (1568000)
I1010 02:22:10.578099 18017 layer_factory.hpp:74] Creating layer inception_4e/relu_3x3_reduce
I1010 02:22:10.578107 18017 net.cpp:90] Creating Layer inception_4e/relu_3x3_reduce
I1010 02:22:10.578114 18017 net.cpp:410] inception_4e/relu_3x3_reduce <- inception_4e/3x3_reduce
I1010 02:22:10.578120 18017 net.cpp:357] inception_4e/relu_3x3_reduce -> inception_4e/3x3_reduce (in-place)
I1010 02:22:10.578127 18017 net.cpp:120] Setting up inception_4e/relu_3x3_reduce
I1010 02:22:10.578133 18017 net.cpp:127] Top shape: 50 160 14 14 (1568000)
I1010 02:22:10.578138 18017 layer_factory.hpp:74] Creating layer inception_4e/3x3
I1010 02:22:10.578166 18017 net.cpp:90] Creating Layer inception_4e/3x3
I1010 02:22:10.578174 18017 net.cpp:410] inception_4e/3x3 <- inception_4e/3x3_reduce
I1010 02:22:10.578182 18017 net.cpp:368] inception_4e/3x3 -> inception_4e/3x3
I1010 02:22:10.578191 18017 net.cpp:120] Setting up inception_4e/3x3
I1010 02:22:10.583544 18017 net.cpp:127] Top shape: 50 320 14 14 (3136000)
I1010 02:22:10.583560 18017 layer_factory.hpp:74] Creating layer inception_4e/relu_3x3
I1010 02:22:10.583569 18017 net.cpp:90] Creating Layer inception_4e/relu_3x3
I1010 02:22:10.583580 18017 net.cpp:410] inception_4e/relu_3x3 <- inception_4e/3x3
I1010 02:22:10.583587 18017 net.cpp:357] inception_4e/relu_3x3 -> inception_4e/3x3 (in-place)
I1010 02:22:10.583595 18017 net.cpp:120] Setting up inception_4e/relu_3x3
I1010 02:22:10.583601 18017 net.cpp:127] Top shape: 50 320 14 14 (3136000)
I1010 02:22:10.583606 18017 layer_factory.hpp:74] Creating layer inception_4e/5x5_reduce
I1010 02:22:10.583614 18017 net.cpp:90] Creating Layer inception_4e/5x5_reduce
I1010 02:22:10.583619 18017 net.cpp:410] inception_4e/5x5_reduce <- inception_4d/output_inception_4d/output_0_split_3
I1010 02:22:10.583629 18017 net.cpp:368] inception_4e/5x5_reduce -> inception_4e/5x5_reduce
I1010 02:22:10.583638 18017 net.cpp:120] Setting up inception_4e/5x5_reduce
I1010 02:22:10.583822 18017 net.cpp:127] Top shape: 50 32 14 14 (313600)
I1010 02:22:10.583833 18017 layer_factory.hpp:74] Creating layer inception_4e/relu_5x5_reduce
I1010 02:22:10.583842 18017 net.cpp:90] Creating Layer inception_4e/relu_5x5_reduce
I1010 02:22:10.583847 18017 net.cpp:410] inception_4e/relu_5x5_reduce <- inception_4e/5x5_reduce
I1010 02:22:10.583855 18017 net.cpp:357] inception_4e/relu_5x5_reduce -> inception_4e/5x5_reduce (in-place)
I1010 02:22:10.583863 18017 net.cpp:120] Setting up inception_4e/relu_5x5_reduce
I1010 02:22:10.583869 18017 net.cpp:127] Top shape: 50 32 14 14 (313600)
I1010 02:22:10.583874 18017 layer_factory.hpp:74] Creating layer inception_4e/5x5
I1010 02:22:10.583881 18017 net.cpp:90] Creating Layer inception_4e/5x5
I1010 02:22:10.583886 18017 net.cpp:410] inception_4e/5x5 <- inception_4e/5x5_reduce
I1010 02:22:10.583896 18017 net.cpp:368] inception_4e/5x5 -> inception_4e/5x5
I1010 02:22:10.583904 18017 net.cpp:120] Setting up inception_4e/5x5
I1010 02:22:10.584991 18017 net.cpp:127] Top shape: 50 128 14 14 (1254400)
I1010 02:22:10.585011 18017 layer_factory.hpp:74] Creating layer inception_4e/relu_5x5
I1010 02:22:10.585019 18017 net.cpp:90] Creating Layer inception_4e/relu_5x5
I1010 02:22:10.585026 18017 net.cpp:410] inception_4e/relu_5x5 <- inception_4e/5x5
I1010 02:22:10.585032 18017 net.cpp:357] inception_4e/relu_5x5 -> inception_4e/5x5 (in-place)
I1010 02:22:10.585039 18017 net.cpp:120] Setting up inception_4e/relu_5x5
I1010 02:22:10.585049 18017 net.cpp:127] Top shape: 50 128 14 14 (1254400)
I1010 02:22:10.585055 18017 layer_factory.hpp:74] Creating layer inception_4e/pool
I1010 02:22:10.585065 18017 net.cpp:90] Creating Layer inception_4e/pool
I1010 02:22:10.585072 18017 net.cpp:410] inception_4e/pool <- inception_4d/output_inception_4d/output_0_split_4
I1010 02:22:10.585079 18017 net.cpp:368] inception_4e/pool -> inception_4e/pool
I1010 02:22:10.585096 18017 net.cpp:120] Setting up inception_4e/pool
I1010 02:22:10.585109 18017 net.cpp:127] Top shape: 50 528 14 14 (5174400)
I1010 02:22:10.585115 18017 layer_factory.hpp:74] Creating layer inception_4e/pool_proj
I1010 02:22:10.585126 18017 net.cpp:90] Creating Layer inception_4e/pool_proj
I1010 02:22:10.585132 18017 net.cpp:410] inception_4e/pool_proj <- inception_4e/pool
I1010 02:22:10.585140 18017 net.cpp:368] inception_4e/pool_proj -> inception_4e/pool_proj
I1010 02:22:10.585150 18017 net.cpp:120] Setting up inception_4e/pool_proj
I1010 02:22:10.585911 18017 net.cpp:127] Top shape: 50 128 14 14 (1254400)
I1010 02:22:10.585924 18017 layer_factory.hpp:74] Creating layer inception_4e/relu_pool_proj
I1010 02:22:10.585933 18017 net.cpp:90] Creating Layer inception_4e/relu_pool_proj
I1010 02:22:10.585942 18017 net.cpp:410] inception_4e/relu_pool_proj <- inception_4e/pool_proj
I1010 02:22:10.585948 18017 net.cpp:357] inception_4e/relu_pool_proj -> inception_4e/pool_proj (in-place)
I1010 02:22:10.585957 18017 net.cpp:120] Setting up inception_4e/relu_pool_proj
I1010 02:22:10.585975 18017 net.cpp:127] Top shape: 50 128 14 14 (1254400)
I1010 02:22:10.585981 18017 layer_factory.hpp:74] Creating layer inception_4e/output
I1010 02:22:10.585988 18017 net.cpp:90] Creating Layer inception_4e/output
I1010 02:22:10.585994 18017 net.cpp:410] inception_4e/output <- inception_4e/1x1
I1010 02:22:10.586007 18017 net.cpp:410] inception_4e/output <- inception_4e/3x3
I1010 02:22:10.586014 18017 net.cpp:410] inception_4e/output <- inception_4e/5x5
I1010 02:22:10.586019 18017 net.cpp:410] inception_4e/output <- inception_4e/pool_proj
I1010 02:22:10.586041 18017 net.cpp:368] inception_4e/output -> inception_4e/output
I1010 02:22:10.586050 18017 net.cpp:120] Setting up inception_4e/output
I1010 02:22:10.586058 18017 net.cpp:127] Top shape: 50 832 14 14 (8153600)
I1010 02:22:10.586063 18017 layer_factory.hpp:74] Creating layer pool4/3x3_s2
I1010 02:22:10.586071 18017 net.cpp:90] Creating Layer pool4/3x3_s2
I1010 02:22:10.586076 18017 net.cpp:410] pool4/3x3_s2 <- inception_4e/output
I1010 02:22:10.586089 18017 net.cpp:368] pool4/3x3_s2 -> pool4/3x3_s2
I1010 02:22:10.586100 18017 net.cpp:120] Setting up pool4/3x3_s2
I1010 02:22:10.586110 18017 net.cpp:127] Top shape: 50 832 7 7 (2038400)
I1010 02:22:10.586115 18017 layer_factory.hpp:74] Creating layer pool4/3x3_s2_pool4/3x3_s2_0_split
I1010 02:22:10.586122 18017 net.cpp:90] Creating Layer pool4/3x3_s2_pool4/3x3_s2_0_split
I1010 02:22:10.586127 18017 net.cpp:410] pool4/3x3_s2_pool4/3x3_s2_0_split <- pool4/3x3_s2
I1010 02:22:10.586134 18017 net.cpp:368] pool4/3x3_s2_pool4/3x3_s2_0_split -> pool4/3x3_s2_pool4/3x3_s2_0_split_0
I1010 02:22:10.586143 18017 net.cpp:368] pool4/3x3_s2_pool4/3x3_s2_0_split -> pool4/3x3_s2_pool4/3x3_s2_0_split_1
I1010 02:22:10.586150 18017 net.cpp:368] pool4/3x3_s2_pool4/3x3_s2_0_split -> pool4/3x3_s2_pool4/3x3_s2_0_split_2
I1010 02:22:10.586161 18017 net.cpp:368] pool4/3x3_s2_pool4/3x3_s2_0_split -> pool4/3x3_s2_pool4/3x3_s2_0_split_3
I1010 02:22:10.586169 18017 net.cpp:120] Setting up pool4/3x3_s2_pool4/3x3_s2_0_split
I1010 02:22:10.586176 18017 net.cpp:127] Top shape: 50 832 7 7 (2038400)
I1010 02:22:10.586184 18017 net.cpp:127] Top shape: 50 832 7 7 (2038400)
I1010 02:22:10.586205 18017 net.cpp:127] Top shape: 50 832 7 7 (2038400)
I1010 02:22:10.586212 18017 net.cpp:127] Top shape: 50 832 7 7 (2038400)
I1010 02:22:10.586217 18017 layer_factory.hpp:74] Creating layer inception_5a/1x1
I1010 02:22:10.586227 18017 net.cpp:90] Creating Layer inception_5a/1x1
I1010 02:22:10.586236 18017 net.cpp:410] inception_5a/1x1 <- pool4/3x3_s2_pool4/3x3_s2_0_split_0
I1010 02:22:10.586246 18017 net.cpp:368] inception_5a/1x1 -> inception_5a/1x1
I1010 02:22:10.586254 18017 net.cpp:120] Setting up inception_5a/1x1
I1010 02:22:10.588559 18017 net.cpp:127] Top shape: 50 256 7 7 (627200)
I1010 02:22:10.588573 18017 layer_factory.hpp:74] Creating layer inception_5a/relu_1x1
I1010 02:22:10.588582 18017 net.cpp:90] Creating Layer inception_5a/relu_1x1
I1010 02:22:10.588589 18017 net.cpp:410] inception_5a/relu_1x1 <- inception_5a/1x1
I1010 02:22:10.588596 18017 net.cpp:357] inception_5a/relu_1x1 -> inception_5a/1x1 (in-place)
I1010 02:22:10.588603 18017 net.cpp:120] Setting up inception_5a/relu_1x1
I1010 02:22:10.588609 18017 net.cpp:127] Top shape: 50 256 7 7 (627200)
I1010 02:22:10.588614 18017 layer_factory.hpp:74] Creating layer inception_5a/3x3_reduce
I1010 02:22:10.588623 18017 net.cpp:90] Creating Layer inception_5a/3x3_reduce
I1010 02:22:10.588628 18017 net.cpp:410] inception_5a/3x3_reduce <- pool4/3x3_s2_pool4/3x3_s2_0_split_1
I1010 02:22:10.588636 18017 net.cpp:368] inception_5a/3x3_reduce -> inception_5a/3x3_reduce
I1010 02:22:10.588645 18017 net.cpp:120] Setting up inception_5a/3x3_reduce
I1010 02:22:10.590052 18017 net.cpp:127] Top shape: 50 160 7 7 (392000)
I1010 02:22:10.590066 18017 layer_factory.hpp:74] Creating layer inception_5a/relu_3x3_reduce
I1010 02:22:10.590075 18017 net.cpp:90] Creating Layer inception_5a/relu_3x3_reduce
I1010 02:22:10.590080 18017 net.cpp:410] inception_5a/relu_3x3_reduce <- inception_5a/3x3_reduce
I1010 02:22:10.590090 18017 net.cpp:357] inception_5a/relu_3x3_reduce -> inception_5a/3x3_reduce (in-place)
I1010 02:22:10.590100 18017 net.cpp:120] Setting up inception_5a/relu_3x3_reduce
I1010 02:22:10.590111 18017 net.cpp:127] Top shape: 50 160 7 7 (392000)
I1010 02:22:10.590116 18017 layer_factory.hpp:74] Creating layer inception_5a/3x3
I1010 02:22:10.590134 18017 net.cpp:90] Creating Layer inception_5a/3x3
I1010 02:22:10.590142 18017 net.cpp:410] inception_5a/3x3 <- inception_5a/3x3_reduce
I1010 02:22:10.590152 18017 net.cpp:368] inception_5a/3x3 -> inception_5a/3x3
I1010 02:22:10.590163 18017 net.cpp:120] Setting up inception_5a/3x3
I1010 02:22:10.595696 18017 net.cpp:127] Top shape: 50 320 7 7 (784000)
I1010 02:22:10.595711 18017 layer_factory.hpp:74] Creating layer inception_5a/relu_3x3
I1010 02:22:10.595726 18017 net.cpp:90] Creating Layer inception_5a/relu_3x3
I1010 02:22:10.595731 18017 net.cpp:410] inception_5a/relu_3x3 <- inception_5a/3x3
I1010 02:22:10.595738 18017 net.cpp:357] inception_5a/relu_3x3 -> inception_5a/3x3 (in-place)
I1010 02:22:10.595746 18017 net.cpp:120] Setting up inception_5a/relu_3x3
I1010 02:22:10.595753 18017 net.cpp:127] Top shape: 50 320 7 7 (784000)
I1010 02:22:10.595758 18017 layer_factory.hpp:74] Creating layer inception_5a/5x5_reduce
I1010 02:22:10.595767 18017 net.cpp:90] Creating Layer inception_5a/5x5_reduce
I1010 02:22:10.595774 18017 net.cpp:410] inception_5a/5x5_reduce <- pool4/3x3_s2_pool4/3x3_s2_0_split_2
I1010 02:22:10.595782 18017 net.cpp:368] inception_5a/5x5_reduce -> inception_5a/5x5_reduce
I1010 02:22:10.595790 18017 net.cpp:120] Setting up inception_5a/5x5_reduce
I1010 02:22:10.596112 18017 net.cpp:127] Top shape: 50 32 7 7 (78400)
I1010 02:22:10.596130 18017 layer_factory.hpp:74] Creating layer inception_5a/relu_5x5_reduce
I1010 02:22:10.596139 18017 net.cpp:90] Creating Layer inception_5a/relu_5x5_reduce
I1010 02:22:10.596145 18017 net.cpp:410] inception_5a/relu_5x5_reduce <- inception_5a/5x5_reduce
I1010 02:22:10.596166 18017 net.cpp:357] inception_5a/relu_5x5_reduce -> inception_5a/5x5_reduce (in-place)
I1010 02:22:10.596175 18017 net.cpp:120] Setting up inception_5a/relu_5x5_reduce
I1010 02:22:10.596182 18017 net.cpp:127] Top shape: 50 32 7 7 (78400)
I1010 02:22:10.596189 18017 layer_factory.hpp:74] Creating layer inception_5a/5x5
I1010 02:22:10.596197 18017 net.cpp:90] Creating Layer inception_5a/5x5
I1010 02:22:10.596204 18017 net.cpp:410] inception_5a/5x5 <- inception_5a/5x5_reduce
I1010 02:22:10.596213 18017 net.cpp:368] inception_5a/5x5 -> inception_5a/5x5
I1010 02:22:10.596223 18017 net.cpp:120] Setting up inception_5a/5x5
I1010 02:22:10.597374 18017 net.cpp:127] Top shape: 50 128 7 7 (313600)
I1010 02:22:10.597388 18017 layer_factory.hpp:74] Creating layer inception_5a/relu_5x5
I1010 02:22:10.597396 18017 net.cpp:90] Creating Layer inception_5a/relu_5x5
I1010 02:22:10.597403 18017 net.cpp:410] inception_5a/relu_5x5 <- inception_5a/5x5
I1010 02:22:10.597409 18017 net.cpp:357] inception_5a/relu_5x5 -> inception_5a/5x5 (in-place)
I1010 02:22:10.597416 18017 net.cpp:120] Setting up inception_5a/relu_5x5
I1010 02:22:10.597424 18017 net.cpp:127] Top shape: 50 128 7 7 (313600)
I1010 02:22:10.597427 18017 layer_factory.hpp:74] Creating layer inception_5a/pool
I1010 02:22:10.597435 18017 net.cpp:90] Creating Layer inception_5a/pool
I1010 02:22:10.597440 18017 net.cpp:410] inception_5a/pool <- pool4/3x3_s2_pool4/3x3_s2_0_split_3
I1010 02:22:10.597450 18017 net.cpp:368] inception_5a/pool -> inception_5a/pool
I1010 02:22:10.597475 18017 net.cpp:120] Setting up inception_5a/pool
I1010 02:22:10.597489 18017 net.cpp:127] Top shape: 50 832 7 7 (2038400)
I1010 02:22:10.597497 18017 layer_factory.hpp:74] Creating layer inception_5a/pool_proj
I1010 02:22:10.597508 18017 net.cpp:90] Creating Layer inception_5a/pool_proj
I1010 02:22:10.597514 18017 net.cpp:410] inception_5a/pool_proj <- inception_5a/pool
I1010 02:22:10.597523 18017 net.cpp:368] inception_5a/pool_proj -> inception_5a/pool_proj
I1010 02:22:10.597532 18017 net.cpp:120] Setting up inception_5a/pool_proj
I1010 02:22:10.598691 18017 net.cpp:127] Top shape: 50 128 7 7 (313600)
I1010 02:22:10.598706 18017 layer_factory.hpp:74] Creating layer inception_5a/relu_pool_proj
I1010 02:22:10.598716 18017 net.cpp:90] Creating Layer inception_5a/relu_pool_proj
I1010 02:22:10.598723 18017 net.cpp:410] inception_5a/relu_pool_proj <- inception_5a/pool_proj
I1010 02:22:10.598738 18017 net.cpp:357] inception_5a/relu_pool_proj -> inception_5a/pool_proj (in-place)
I1010 02:22:10.598747 18017 net.cpp:120] Setting up inception_5a/relu_pool_proj
I1010 02:22:10.598753 18017 net.cpp:127] Top shape: 50 128 7 7 (313600)
I1010 02:22:10.598759 18017 layer_factory.hpp:74] Creating layer inception_5a/output
I1010 02:22:10.598767 18017 net.cpp:90] Creating Layer inception_5a/output
I1010 02:22:10.598773 18017 net.cpp:410] inception_5a/output <- inception_5a/1x1
I1010 02:22:10.598780 18017 net.cpp:410] inception_5a/output <- inception_5a/3x3
I1010 02:22:10.598786 18017 net.cpp:410] inception_5a/output <- inception_5a/5x5
I1010 02:22:10.598796 18017 net.cpp:410] inception_5a/output <- inception_5a/pool_proj
I1010 02:22:10.598803 18017 net.cpp:368] inception_5a/output -> inception_5a/output
I1010 02:22:10.598811 18017 net.cpp:120] Setting up inception_5a/output
I1010 02:22:10.598820 18017 net.cpp:127] Top shape: 50 832 7 7 (2038400)
I1010 02:22:10.598825 18017 layer_factory.hpp:74] Creating layer inception_5a/output_inception_5a/output_0_split
I1010 02:22:10.598834 18017 net.cpp:90] Creating Layer inception_5a/output_inception_5a/output_0_split
I1010 02:22:10.598840 18017 net.cpp:410] inception_5a/output_inception_5a/output_0_split <- inception_5a/output
I1010 02:22:10.598861 18017 net.cpp:368] inception_5a/output_inception_5a/output_0_split -> inception_5a/output_inception_5a/output_0_split_0
I1010 02:22:10.598873 18017 net.cpp:368] inception_5a/output_inception_5a/output_0_split -> inception_5a/output_inception_5a/output_0_split_1
I1010 02:22:10.598884 18017 net.cpp:368] inception_5a/output_inception_5a/output_0_split -> inception_5a/output_inception_5a/output_0_split_2
I1010 02:22:10.598893 18017 net.cpp:368] inception_5a/output_inception_5a/output_0_split -> inception_5a/output_inception_5a/output_0_split_3
I1010 02:22:10.598901 18017 net.cpp:120] Setting up inception_5a/output_inception_5a/output_0_split
I1010 02:22:10.598909 18017 net.cpp:127] Top shape: 50 832 7 7 (2038400)
I1010 02:22:10.598916 18017 net.cpp:127] Top shape: 50 832 7 7 (2038400)
I1010 02:22:10.598922 18017 net.cpp:127] Top shape: 50 832 7 7 (2038400)
I1010 02:22:10.598927 18017 net.cpp:127] Top shape: 50 832 7 7 (2038400)
I1010 02:22:10.598932 18017 layer_factory.hpp:74] Creating layer inception_5b/1x1
I1010 02:22:10.598942 18017 net.cpp:90] Creating Layer inception_5b/1x1
I1010 02:22:10.598948 18017 net.cpp:410] inception_5b/1x1 <- inception_5a/output_inception_5a/output_0_split_0
I1010 02:22:10.598956 18017 net.cpp:368] inception_5b/1x1 -> inception_5b/1x1
I1010 02:22:10.598964 18017 net.cpp:120] Setting up inception_5b/1x1
I1010 02:22:10.602599 18017 net.cpp:127] Top shape: 50 384 7 7 (940800)
I1010 02:22:10.602615 18017 layer_factory.hpp:74] Creating layer inception_5b/relu_1x1
I1010 02:22:10.602623 18017 net.cpp:90] Creating Layer inception_5b/relu_1x1
I1010 02:22:10.602629 18017 net.cpp:410] inception_5b/relu_1x1 <- inception_5b/1x1
I1010 02:22:10.602637 18017 net.cpp:357] inception_5b/relu_1x1 -> inception_5b/1x1 (in-place)
I1010 02:22:10.602643 18017 net.cpp:120] Setting up inception_5b/relu_1x1
I1010 02:22:10.602650 18017 net.cpp:127] Top shape: 50 384 7 7 (940800)
I1010 02:22:10.602655 18017 layer_factory.hpp:74] Creating layer inception_5b/3x3_reduce
I1010 02:22:10.602665 18017 net.cpp:90] Creating Layer inception_5b/3x3_reduce
I1010 02:22:10.602671 18017 net.cpp:410] inception_5b/3x3_reduce <- inception_5a/output_inception_5a/output_0_split_1
I1010 02:22:10.602679 18017 net.cpp:368] inception_5b/3x3_reduce -> inception_5b/3x3_reduce
I1010 02:22:10.602689 18017 net.cpp:120] Setting up inception_5b/3x3_reduce
I1010 02:22:10.604430 18017 net.cpp:127] Top shape: 50 192 7 7 (470400)
I1010 02:22:10.604444 18017 layer_factory.hpp:74] Creating layer inception_5b/relu_3x3_reduce
I1010 02:22:10.604452 18017 net.cpp:90] Creating Layer inception_5b/relu_3x3_reduce
I1010 02:22:10.604459 18017 net.cpp:410] inception_5b/relu_3x3_reduce <- inception_5b/3x3_reduce
I1010 02:22:10.604475 18017 net.cpp:357] inception_5b/relu_3x3_reduce -> inception_5b/3x3_reduce (in-place)
I1010 02:22:10.604482 18017 net.cpp:120] Setting up inception_5b/relu_3x3_reduce
I1010 02:22:10.604490 18017 net.cpp:127] Top shape: 50 192 7 7 (470400)
I1010 02:22:10.604495 18017 layer_factory.hpp:74] Creating layer inception_5b/3x3
I1010 02:22:10.604508 18017 net.cpp:90] Creating Layer inception_5b/3x3
I1010 02:22:10.604514 18017 net.cpp:410] inception_5b/3x3 <- inception_5b/3x3_reduce
I1010 02:22:10.604524 18017 net.cpp:368] inception_5b/3x3 -> inception_5b/3x3
I1010 02:22:10.604534 18017 net.cpp:120] Setting up inception_5b/3x3
I1010 02:22:10.611835 18017 net.cpp:127] Top shape: 50 384 7 7 (940800)
I1010 02:22:10.611850 18017 layer_factory.hpp:74] Creating layer inception_5b/relu_3x3
I1010 02:22:10.611860 18017 net.cpp:90] Creating Layer inception_5b/relu_3x3
I1010 02:22:10.611867 18017 net.cpp:410] inception_5b/relu_3x3 <- inception_5b/3x3
I1010 02:22:10.611874 18017 net.cpp:357] inception_5b/relu_3x3 -> inception_5b/3x3 (in-place)
I1010 02:22:10.611886 18017 net.cpp:120] Setting up inception_5b/relu_3x3
I1010 02:22:10.611893 18017 net.cpp:127] Top shape: 50 384 7 7 (940800)
I1010 02:22:10.611898 18017 layer_factory.hpp:74] Creating layer inception_5b/5x5_reduce
I1010 02:22:10.611907 18017 net.cpp:90] Creating Layer inception_5b/5x5_reduce
I1010 02:22:10.611912 18017 net.cpp:410] inception_5b/5x5_reduce <- inception_5a/output_inception_5a/output_0_split_2
I1010 02:22:10.611922 18017 net.cpp:368] inception_5b/5x5_reduce -> inception_5b/5x5_reduce
I1010 02:22:10.611932 18017 net.cpp:120] Setting up inception_5b/5x5_reduce
I1010 02:22:10.612483 18017 net.cpp:127] Top shape: 50 48 7 7 (117600)
I1010 02:22:10.612498 18017 layer_factory.hpp:74] Creating layer inception_5b/relu_5x5_reduce
I1010 02:22:10.612505 18017 net.cpp:90] Creating Layer inception_5b/relu_5x5_reduce
I1010 02:22:10.612511 18017 net.cpp:410] inception_5b/relu_5x5_reduce <- inception_5b/5x5_reduce
I1010 02:22:10.612519 18017 net.cpp:357] inception_5b/relu_5x5_reduce -> inception_5b/5x5_reduce (in-place)
I1010 02:22:10.612525 18017 net.cpp:120] Setting up inception_5b/relu_5x5_reduce
I1010 02:22:10.612532 18017 net.cpp:127] Top shape: 50 48 7 7 (117600)
I1010 02:22:10.612537 18017 layer_factory.hpp:74] Creating layer inception_5b/5x5
I1010 02:22:10.612548 18017 net.cpp:90] Creating Layer inception_5b/5x5
I1010 02:22:10.612555 18017 net.cpp:410] inception_5b/5x5 <- inception_5b/5x5_reduce
I1010 02:22:10.612561 18017 net.cpp:368] inception_5b/5x5 -> inception_5b/5x5
I1010 02:22:10.612571 18017 net.cpp:120] Setting up inception_5b/5x5
I1010 02:22:10.614234 18017 net.cpp:127] Top shape: 50 128 7 7 (313600)
I1010 02:22:10.614250 18017 layer_factory.hpp:74] Creating layer inception_5b/relu_5x5
I1010 02:22:10.614259 18017 net.cpp:90] Creating Layer inception_5b/relu_5x5
I1010 02:22:10.614266 18017 net.cpp:410] inception_5b/relu_5x5 <- inception_5b/5x5
I1010 02:22:10.614275 18017 net.cpp:357] inception_5b/relu_5x5 -> inception_5b/5x5 (in-place)
I1010 02:22:10.614284 18017 net.cpp:120] Setting up inception_5b/relu_5x5
I1010 02:22:10.614290 18017 net.cpp:127] Top shape: 50 128 7 7 (313600)
I1010 02:22:10.614295 18017 layer_factory.hpp:74] Creating layer inception_5b/pool
I1010 02:22:10.614302 18017 net.cpp:90] Creating Layer inception_5b/pool
I1010 02:22:10.614308 18017 net.cpp:410] inception_5b/pool <- inception_5a/output_inception_5a/output_0_split_3
I1010 02:22:10.614315 18017 net.cpp:368] inception_5b/pool -> inception_5b/pool
I1010 02:22:10.614326 18017 net.cpp:120] Setting up inception_5b/pool
I1010 02:22:10.614336 18017 net.cpp:127] Top shape: 50 832 7 7 (2038400)
I1010 02:22:10.614342 18017 layer_factory.hpp:74] Creating layer inception_5b/pool_proj
I1010 02:22:10.614351 18017 net.cpp:90] Creating Layer inception_5b/pool_proj
I1010 02:22:10.614356 18017 net.cpp:410] inception_5b/pool_proj <- inception_5b/pool
I1010 02:22:10.614367 18017 net.cpp:368] inception_5b/pool_proj -> inception_5b/pool_proj
I1010 02:22:10.614375 18017 net.cpp:120] Setting up inception_5b/pool_proj
I1010 02:22:10.615588 18017 net.cpp:127] Top shape: 50 128 7 7 (313600)
I1010 02:22:10.615602 18017 layer_factory.hpp:74] Creating layer inception_5b/relu_pool_proj
I1010 02:22:10.615610 18017 net.cpp:90] Creating Layer inception_5b/relu_pool_proj
I1010 02:22:10.615617 18017 net.cpp:410] inception_5b/relu_pool_proj <- inception_5b/pool_proj
I1010 02:22:10.615622 18017 net.cpp:357] inception_5b/relu_pool_proj -> inception_5b/pool_proj (in-place)
I1010 02:22:10.615630 18017 net.cpp:120] Setting up inception_5b/relu_pool_proj
I1010 02:22:10.615636 18017 net.cpp:127] Top shape: 50 128 7 7 (313600)
I1010 02:22:10.615641 18017 layer_factory.hpp:74] Creating layer inception_5b/output
I1010 02:22:10.615651 18017 net.cpp:90] Creating Layer inception_5b/output
I1010 02:22:10.615670 18017 net.cpp:410] inception_5b/output <- inception_5b/1x1
I1010 02:22:10.615677 18017 net.cpp:410] inception_5b/output <- inception_5b/3x3
I1010 02:22:10.615684 18017 net.cpp:410] inception_5b/output <- inception_5b/5x5
I1010 02:22:10.615689 18017 net.cpp:410] inception_5b/output <- inception_5b/pool_proj
I1010 02:22:10.615700 18017 net.cpp:368] inception_5b/output -> inception_5b/output
I1010 02:22:10.615707 18017 net.cpp:120] Setting up inception_5b/output
I1010 02:22:10.615716 18017 net.cpp:127] Top shape: 50 1024 7 7 (2508800)
I1010 02:22:10.615734 18017 layer_factory.hpp:74] Creating layer pool5/7x7_s1
I1010 02:22:10.615741 18017 net.cpp:90] Creating Layer pool5/7x7_s1
I1010 02:22:10.615747 18017 net.cpp:410] pool5/7x7_s1 <- inception_5b/output
I1010 02:22:10.615758 18017 net.cpp:368] pool5/7x7_s1 -> pool5/7x7_s1
I1010 02:22:10.615767 18017 net.cpp:120] Setting up pool5/7x7_s1
I1010 02:22:10.615775 18017 net.cpp:127] Top shape: 50 1024 1 1 (51200)
I1010 02:22:10.615782 18017 layer_factory.hpp:74] Creating layer pool5/drop_7x7_s1
I1010 02:22:10.615789 18017 net.cpp:90] Creating Layer pool5/drop_7x7_s1
I1010 02:22:10.615794 18017 net.cpp:410] pool5/drop_7x7_s1 <- pool5/7x7_s1
I1010 02:22:10.615800 18017 net.cpp:357] pool5/drop_7x7_s1 -> pool5/7x7_s1 (in-place)
I1010 02:22:10.615808 18017 net.cpp:120] Setting up pool5/drop_7x7_s1
I1010 02:22:10.615816 18017 net.cpp:127] Top shape: 50 1024 1 1 (51200)
I1010 02:22:10.615821 18017 layer_factory.hpp:74] Creating layer ft_loss3/classifier
I1010 02:22:10.615833 18017 net.cpp:90] Creating Layer ft_loss3/classifier
I1010 02:22:10.615839 18017 net.cpp:410] ft_loss3/classifier <- pool5/7x7_s1
I1010 02:22:10.615846 18017 net.cpp:368] ft_loss3/classifier -> ft_loss3/classifier
I1010 02:22:10.615854 18017 net.cpp:120] Setting up ft_loss3/classifier
I1010 02:22:10.615893 18017 net.cpp:127] Top shape: 50 2 (100)
I1010 02:22:10.615907 18017 layer_factory.hpp:74] Creating layer ft_loss3/classifier_ft_loss3/classifier_0_split
I1010 02:22:10.615919 18017 net.cpp:90] Creating Layer ft_loss3/classifier_ft_loss3/classifier_0_split
I1010 02:22:10.615939 18017 net.cpp:410] ft_loss3/classifier_ft_loss3/classifier_0_split <- ft_loss3/classifier
I1010 02:22:10.615947 18017 net.cpp:368] ft_loss3/classifier_ft_loss3/classifier_0_split -> ft_loss3/classifier_ft_loss3/classifier_0_split_0
I1010 02:22:10.615957 18017 net.cpp:368] ft_loss3/classifier_ft_loss3/classifier_0_split -> ft_loss3/classifier_ft_loss3/classifier_0_split_1
I1010 02:22:10.615967 18017 net.cpp:120] Setting up ft_loss3/classifier_ft_loss3/classifier_0_split
I1010 02:22:10.615974 18017 net.cpp:127] Top shape: 50 2 (100)
I1010 02:22:10.615981 18017 net.cpp:127] Top shape: 50 2 (100)
I1010 02:22:10.615986 18017 layer_factory.hpp:74] Creating layer loss3/loss3
I1010 02:22:10.616006 18017 net.cpp:90] Creating Layer loss3/loss3
I1010 02:22:10.616011 18017 net.cpp:410] loss3/loss3 <- ft_loss3/classifier_ft_loss3/classifier_0_split_0
I1010 02:22:10.616019 18017 net.cpp:410] loss3/loss3 <- label_data_1_split_4
I1010 02:22:10.616025 18017 net.cpp:368] loss3/loss3 -> loss3/loss3
…
