…
I1011 16:54:59.521796  2180 net.cpp:287] The NetState phase (0) differed from the phase (1) specified by a rule in layer data
I1011 16:54:59.521869  2180 net.cpp:287] The NetState phase (0) differed from the phase (1) specified by a rule in layer accuracy
I1011 16:54:59.522171  2180 net.cpp:42] Initializing net from parameters: 
name: "CaffeNet"
state {
  phase: TRAIN
}
layer {
  name: "data"
  type: "ImageData"
  top: "data"
  top: "label"
  include {
    phase: TRAIN
  }
  image_data_param {
    source: "/home/kruchinin_d/Projects/data/KITTI/prepared_data/train.txt"
    batch_size: 32
  }
}
layer {
  name: "conv1"
  type: "Convolution"
  bottom: "data"
  top: "conv1"
  param {
    lr_mult: 0.1
  }
  param {
    lr_mult: 0.1
  }
  convolution_param {
    num_output: 96
    kernel_size: 11
    stride: 4
    weight_filler {
      type: "gaussian"
      std: 0.01
    }
    bias_filler {
      type: "constant"
      value: 0
    }
  }
}
layer {
  name: "relu1"
  type: "ReLU"
  bottom: "conv1"
  top: "conv1"
}
layer {
  name: "pool1"
  type: "Pooling"
  bottom: "conv1"
  top: "pool1"
  pooling_param {
    pool: MAX
    kernel_size: 3
    stride: 2
  }
}
layer {
  name: "norm1"
  type: "LRN"
  bottom: "pool1"
  top: "norm1"
  lrn_param {
    local_size: 5
    alpha: 0.0001
    beta: 0.75
  }
}
layer {
  name: "conv2"
  type: "Convolution"
  bottom: "norm1"
  top: "conv2"
  param {
    lr_mult: 0.1
  }
  param {
    lr_mult: 0.1
  }
  convolution_param {
    num_output: 256
    pad: 2
    kernel_size: 5
    group: 2
    weight_filler {
      type: "gaussian"
      std: 0.01
    }
    bias_filler {
      type: "constant"
      value: 1
    }
  }
}
layer {
  name: "relu2"
  type: "ReLU"
  bottom: "conv2"
  top: "conv2"
}
layer {
  name: "pool2"
  type: "Pooling"
  bottom: "conv2"
  top: "pool2"
  pooling_param {
    pool: MAX
    kernel_size: 3
    stride: 2
  }
}
layer {
  name: "norm2"
  type: "LRN"
  bottom: "pool2"
  top: "norm2"
  lrn_param {
    local_size: 5
    alpha: 0.0001
    beta: 0.75
  }
}
layer {
  name: "conv3"
  type: "Convolution"
  bottom: "norm2"
  top: "conv3"
  param {
    lr_mult: 0.1
  }
  param {
    lr_mult: 0.1
  }
  convolution_param {
    num_output: 384
    pad: 1
    kernel_size: 3
    weight_filler {
      type: "gaussian"
      std: 0.01
    }
    bias_filler {
      type: "constant"
      value: 0
    }
  }
}
layer {
  name: "relu3"
  type: "ReLU"
  bottom: "conv3"
  top: "conv3"
}
layer {
  name: "conv4"
  type: "Convolution"
  bottom: "conv3"
  top: "conv4"
  param {
    lr_mult: 0.1
  }
  param {
    lr_mult: 0.1
  }
  convolution_param {
    num_output: 384
    pad: 1
    kernel_size: 3
    group: 2
    weight_filler {
      type: "gaussian"
      std: 0.01
    }
    bias_filler {
      type: "constant"
      value: 1
    }
  }
}
layer {
  name: "relu4"
  type: "ReLU"
  bottom: "conv4"
  top: "conv4"
}
layer {
  name: "conv5"
  type: "Convolution"
  bottom: "conv4"
  top: "conv5"
  param {
    lr_mult: 0.1
  }
  param {
    lr_mult: 0.1
  }
  convolution_param {
    num_output: 256
    pad: 1
    kernel_size: 3
    group: 2
    weight_filler {
      type: "gaussian"
      std: 0.01
    }
    bias_filler {
      type: "constant"
      value: 1
    }
  }
}
layer {
  name: "relu5"
  type: "ReLU"
  bottom: "conv5"
  top: "conv5"
}
layer {
  name: "pool5"
  type: "Pooling"
  bottom: "conv5"
  top: "pool5"
  pooling_param {
    pool: MAX
    kernel_size: 3
    stride: 2
  }
}
layer {
  name: "fc6"
  type: "InnerProduct"
  bottom: "pool5"
  top: "fc6"
  param {
    lr_mult: 1
  }
  param {
    lr_mult: 1
  }
  inner_product_param {
    num_output: 4096
    weight_filler {
      type: "gaussian"
      std: 0.005
    }
    bias_filler {
      type: "constant"
      value: 1
    }
  }
}
layer {
  name: "relu6"
  type: "ReLU"
  bottom: "fc6"
  top: "fc6"
}
layer {
  name: "drop6"
  type: "Dropout"
  bottom: "fc6"
  top: "fc6"
  dropout_param {
    dropout_ratio: 0.5
  }
}
layer {
  name: "fc7"
  type: "InnerProduct"
  bottom: "fc6"
  top: "fc7"
  param {
    lr_mult: 1
  }
  param {
    lr_mult: 1
  }
  inner_product_param {
    num_output: 4096
    weight_filler {
      type: "gaussian"
      std: 0.005
    }
    bias_filler {
      type: "constant"
      value: 1
    }
  }
}
layer {
  name: "relu7"
  type: "ReLU"
  bottom: "fc7"
  top: "fc7"
}
layer {
  name: "drop7"
  type: "Dropout"
  bottom: "fc7"
  top: "fc7"
  dropout_param {
    dropout_ratio: 0.5
  }
}
layer {
  name: "fc8_ft"
  type: "InnerProduct"
  bottom: "fc7"
  top: "fc8_ft"
  param {
    lr_mult: 1
  }
  param {
    lr_mult: 1
  }
  inner_product_param {
    num_output: 2
    weight_filler {
      type: "gaussian"
      std: 0.01
    }
    bias_filler {
      type: "constant"
      value: 0
    }
  }
}
layer {
  name: "loss"
  type: "SoftmaxWithLoss"
  bottom: "fc8_ft"
  bottom: "label"
  top: "loss"
}
I1011 16:54:59.522554  2180 layer_factory.hpp:74] Creating layer data
I1011 16:54:59.522644  2180 net.cpp:90] Creating Layer data
I1011 16:54:59.522696  2180 net.cpp:368] data -> data
I1011 16:54:59.522869  2180 net.cpp:368] data -> label
I1011 16:54:59.522888  2180 net.cpp:120] Setting up data
I1011 16:54:59.522991  2180 image_data_layer.cpp:36] Opening file /home/kruchinin_d/Projects/data/KITTI/prepared_data/train.txt
I1011 16:54:59.591657  2180 image_data_layer.cpp:51] A total of 82274 images.
I1011 16:54:59.599032  2180 image_data_layer.cpp:74] output data size: 32,3,227,227
I1011 16:54:59.607203  2180 net.cpp:127] Top shape: 32 3 227 227 (4946784)
I1011 16:54:59.607223  2180 net.cpp:127] Top shape: 32 (32)
I1011 16:54:59.607297  2180 layer_factory.hpp:74] Creating layer conv1
I1011 16:54:59.607401  2180 net.cpp:90] Creating Layer conv1
I1011 16:54:59.607416  2180 net.cpp:410] conv1 <- data
I1011 16:54:59.607444  2180 net.cpp:368] conv1 -> conv1
I1011 16:54:59.607470  2180 net.cpp:120] Setting up conv1
I1011 16:54:59.610844  2180 net.cpp:127] Top shape: 32 96 55 55 (9292800)
I1011 16:54:59.610875  2180 layer_factory.hpp:74] Creating layer relu1
I1011 16:54:59.610934  2180 net.cpp:90] Creating Layer relu1
I1011 16:54:59.610947  2180 net.cpp:410] relu1 <- conv1
I1011 16:54:59.610960  2180 net.cpp:357] relu1 -> conv1 (in-place)
I1011 16:54:59.610981  2180 net.cpp:120] Setting up relu1
I1011 16:54:59.611644  2180 net.cpp:127] Top shape: 32 96 55 55 (9292800)
I1011 16:54:59.611659  2180 layer_factory.hpp:74] Creating layer pool1
I1011 16:54:59.611673  2180 net.cpp:90] Creating Layer pool1
I1011 16:54:59.611683  2180 net.cpp:410] pool1 <- conv1
I1011 16:54:59.611696  2180 net.cpp:368] pool1 -> pool1
I1011 16:54:59.611716  2180 net.cpp:120] Setting up pool1
I1011 16:54:59.611800  2180 net.cpp:127] Top shape: 32 96 27 27 (2239488)
I1011 16:54:59.611814  2180 layer_factory.hpp:74] Creating layer norm1
I1011 16:54:59.611867  2180 net.cpp:90] Creating Layer norm1
I1011 16:54:59.611881  2180 net.cpp:410] norm1 <- pool1
I1011 16:54:59.611893  2180 net.cpp:368] norm1 -> norm1
I1011 16:54:59.611910  2180 net.cpp:120] Setting up norm1
I1011 16:54:59.611992  2180 net.cpp:127] Top shape: 32 96 27 27 (2239488)
I1011 16:54:59.612005  2180 layer_factory.hpp:74] Creating layer conv2
I1011 16:54:59.612020  2180 net.cpp:90] Creating Layer conv2
I1011 16:54:59.612030  2180 net.cpp:410] conv2 <- norm1
I1011 16:54:59.612045  2180 net.cpp:368] conv2 -> conv2
I1011 16:54:59.612061  2180 net.cpp:120] Setting up conv2
I1011 16:54:59.617980  2180 net.cpp:127] Top shape: 32 256 27 27 (5971968)
I1011 16:54:59.618000  2180 layer_factory.hpp:74] Creating layer relu2
I1011 16:54:59.618036  2180 net.cpp:90] Creating Layer relu2
I1011 16:54:59.618047  2180 net.cpp:410] relu2 <- conv2
I1011 16:54:59.618059  2180 net.cpp:357] relu2 -> conv2 (in-place)
I1011 16:54:59.618073  2180 net.cpp:120] Setting up relu2
I1011 16:54:59.618088  2180 net.cpp:127] Top shape: 32 256 27 27 (5971968)
I1011 16:54:59.618098  2180 layer_factory.hpp:74] Creating layer pool2
I1011 16:54:59.618111  2180 net.cpp:90] Creating Layer pool2
I1011 16:54:59.618120  2180 net.cpp:410] pool2 <- conv2
I1011 16:54:59.618134  2180 net.cpp:368] pool2 -> pool2
I1011 16:54:59.618147  2180 net.cpp:120] Setting up pool2
I1011 16:54:59.618166  2180 net.cpp:127] Top shape: 32 256 13 13 (1384448)
I1011 16:54:59.618178  2180 layer_factory.hpp:74] Creating layer norm2
I1011 16:54:59.618193  2180 net.cpp:90] Creating Layer norm2
I1011 16:54:59.618203  2180 net.cpp:410] norm2 <- pool2
I1011 16:54:59.618216  2180 net.cpp:368] norm2 -> norm2
I1011 16:54:59.618228  2180 net.cpp:120] Setting up norm2
I1011 16:54:59.618245  2180 net.cpp:127] Top shape: 32 256 13 13 (1384448)
I1011 16:54:59.618255  2180 layer_factory.hpp:74] Creating layer conv3
I1011 16:54:59.618269  2180 net.cpp:90] Creating Layer conv3
I1011 16:54:59.618301  2180 net.cpp:410] conv3 <- norm2
I1011 16:54:59.618317  2180 net.cpp:368] conv3 -> conv3
I1011 16:54:59.618340  2180 net.cpp:120] Setting up conv3
I1011 16:54:59.635702  2180 net.cpp:127] Top shape: 32 384 13 13 (2076672)
I1011 16:54:59.635725  2180 layer_factory.hpp:74] Creating layer relu3
I1011 16:54:59.635741  2180 net.cpp:90] Creating Layer relu3
I1011 16:54:59.635751  2180 net.cpp:410] relu3 <- conv3
I1011 16:54:59.635764  2180 net.cpp:357] relu3 -> conv3 (in-place)
I1011 16:54:59.635779  2180 net.cpp:120] Setting up relu3
I1011 16:54:59.635793  2180 net.cpp:127] Top shape: 32 384 13 13 (2076672)
I1011 16:54:59.635804  2180 layer_factory.hpp:74] Creating layer conv4
I1011 16:54:59.635819  2180 net.cpp:90] Creating Layer conv4
I1011 16:54:59.635830  2180 net.cpp:410] conv4 <- conv3
I1011 16:54:59.635844  2180 net.cpp:368] conv4 -> conv4
I1011 16:54:59.635860  2180 net.cpp:120] Setting up conv4
I1011 16:54:59.650809  2180 net.cpp:127] Top shape: 32 384 13 13 (2076672)
I1011 16:54:59.650828  2180 layer_factory.hpp:74] Creating layer relu4
I1011 16:54:59.650842  2180 net.cpp:90] Creating Layer relu4
I1011 16:54:59.650852  2180 net.cpp:410] relu4 <- conv4
I1011 16:54:59.650868  2180 net.cpp:357] relu4 -> conv4 (in-place)
I1011 16:54:59.650882  2180 net.cpp:120] Setting up relu4
I1011 16:54:59.650897  2180 net.cpp:127] Top shape: 32 384 13 13 (2076672)
I1011 16:54:59.650908  2180 layer_factory.hpp:74] Creating layer conv5
I1011 16:54:59.650923  2180 net.cpp:90] Creating Layer conv5
I1011 16:54:59.650933  2180 net.cpp:410] conv5 <- conv4
I1011 16:54:59.650945  2180 net.cpp:368] conv5 -> conv5
I1011 16:54:59.650962  2180 net.cpp:120] Setting up conv5
I1011 16:54:59.659736  2180 net.cpp:127] Top shape: 32 256 13 13 (1384448)
I1011 16:54:59.659759  2180 layer_factory.hpp:74] Creating layer relu5
I1011 16:54:59.659772  2180 net.cpp:90] Creating Layer relu5
I1011 16:54:59.659782  2180 net.cpp:410] relu5 <- conv5
I1011 16:54:59.659795  2180 net.cpp:357] relu5 -> conv5 (in-place)
I1011 16:54:59.659807  2180 net.cpp:120] Setting up relu5
I1011 16:54:59.659821  2180 net.cpp:127] Top shape: 32 256 13 13 (1384448)
I1011 16:54:59.659832  2180 layer_factory.hpp:74] Creating layer pool5
I1011 16:54:59.659844  2180 net.cpp:90] Creating Layer pool5
I1011 16:54:59.659854  2180 net.cpp:410] pool5 <- conv5
I1011 16:54:59.659867  2180 net.cpp:368] pool5 -> pool5
I1011 16:54:59.659888  2180 net.cpp:120] Setting up pool5
I1011 16:54:59.659906  2180 net.cpp:127] Top shape: 32 256 6 6 (294912)
I1011 16:54:59.659919  2180 layer_factory.hpp:74] Creating layer fc6
I1011 16:54:59.659940  2180 net.cpp:90] Creating Layer fc6
I1011 16:54:59.659953  2180 net.cpp:410] fc6 <- pool5
I1011 16:54:59.659967  2180 net.cpp:368] fc6 -> fc6
I1011 16:54:59.660011  2180 net.cpp:120] Setting up fc6
I1011 16:55:00.312995  2180 net.cpp:127] Top shape: 32 4096 (131072)
I1011 16:55:00.313053  2180 layer_factory.hpp:74] Creating layer relu6
I1011 16:55:00.313071  2180 net.cpp:90] Creating Layer relu6
I1011 16:55:00.313081  2180 net.cpp:410] relu6 <- fc6
I1011 16:55:00.313098  2180 net.cpp:357] relu6 -> fc6 (in-place)
I1011 16:55:00.313114  2180 net.cpp:120] Setting up relu6
I1011 16:55:00.313138  2180 net.cpp:127] Top shape: 32 4096 (131072)
I1011 16:55:00.313149  2180 layer_factory.hpp:74] Creating layer drop6
I1011 16:55:00.313168  2180 net.cpp:90] Creating Layer drop6
I1011 16:55:00.313176  2180 net.cpp:410] drop6 <- fc6
I1011 16:55:00.313189  2180 net.cpp:357] drop6 -> fc6 (in-place)
I1011 16:55:00.313205  2180 net.cpp:120] Setting up drop6
I1011 16:55:00.313287  2180 net.cpp:127] Top shape: 32 4096 (131072)
I1011 16:55:00.313298  2180 layer_factory.hpp:74] Creating layer fc7
I1011 16:55:00.313316  2180 net.cpp:90] Creating Layer fc7
I1011 16:55:00.313326  2180 net.cpp:410] fc7 <- fc6
I1011 16:55:00.313351  2180 net.cpp:368] fc7 -> fc7
I1011 16:55:00.313367  2180 net.cpp:120] Setting up fc7
I1011 16:55:00.597707  2180 net.cpp:127] Top shape: 32 4096 (131072)
I1011 16:55:00.597745  2180 layer_factory.hpp:74] Creating layer relu7
I1011 16:55:00.597762  2180 net.cpp:90] Creating Layer relu7
I1011 16:55:00.597771  2180 net.cpp:410] relu7 <- fc7
I1011 16:55:00.597787  2180 net.cpp:357] relu7 -> fc7 (in-place)
I1011 16:55:00.597802  2180 net.cpp:120] Setting up relu7
I1011 16:55:00.597815  2180 net.cpp:127] Top shape: 32 4096 (131072)
I1011 16:55:00.597825  2180 layer_factory.hpp:74] Creating layer drop7
I1011 16:55:00.597837  2180 net.cpp:90] Creating Layer drop7
I1011 16:55:00.597846  2180 net.cpp:410] drop7 <- fc7
I1011 16:55:00.597858  2180 net.cpp:357] drop7 -> fc7 (in-place)
I1011 16:55:00.597870  2180 net.cpp:120] Setting up drop7
I1011 16:55:00.597884  2180 net.cpp:127] Top shape: 32 4096 (131072)
I1011 16:55:00.597895  2180 layer_factory.hpp:74] Creating layer fc8_ft
I1011 16:55:00.597913  2180 net.cpp:90] Creating Layer fc8_ft
I1011 16:55:00.597924  2180 net.cpp:410] fc8_ft <- fc7
I1011 16:55:00.597939  2180 net.cpp:368] fc8_ft -> fc8_ft
I1011 16:55:00.597954  2180 net.cpp:120] Setting up fc8_ft
I1011 16:55:00.598126  2180 net.cpp:127] Top shape: 32 2 (64)
I1011 16:55:00.598142  2180 layer_factory.hpp:74] Creating layer loss
I1011 16:55:00.598261  2180 net.cpp:90] Creating Layer loss
I1011 16:55:00.598274  2180 net.cpp:410] loss <- fc8_ft
I1011 16:55:00.598285  2180 net.cpp:410] loss <- label
I1011 16:55:00.598299  2180 net.cpp:368] loss -> loss
I1011 16:55:00.598314  2180 net.cpp:120] Setting up loss
I1011 16:55:00.598327  2180 layer_factory.hpp:74] Creating layer loss
…
I1011 16:55:00.600303  2180 solver.cpp:154] Creating test net (#0) specified by net file: /home/kruchinin_d/Projects/scaling-archer/nn/caffenet_parttune/train_val.prototxt
I1011 16:55:00.600365  2180 net.cpp:287] The NetState phase (1) differed from the phase (0) specified by a rule in layer data
I1011 16:55:00.600559  2180 net.cpp:42] Initializing net from parameters: 
name: "CaffeNet"
state {
  phase: TEST
}
layer {
  name: "data"
  type: "ImageData"
  top: "data"
  top: "label"
  include {
    phase: TEST
  }
  image_data_param {
    source: "/home/kruchinin_d/Projects/data/KITTI/prepared_data/test.txt"
    batch_size: 50
  }
}
layer {
  name: "conv1"
  type: "Convolution"
  bottom: "data"
  top: "conv1"
  param {
    lr_mult: 0.1
  }
  param {
    lr_mult: 0.1
  }
  convolution_param {
    num_output: 96
    kernel_size: 11
    stride: 4
    weight_filler {
      type: "gaussian"
      std: 0.01
    }
    bias_filler {
      type: "constant"
      value: 0
    }
  }
}
layer {
  name: "relu1"
  type: "ReLU"
  bottom: "conv1"
  top: "conv1"
}
layer {
  name: "pool1"
  type: "Pooling"
  bottom: "conv1"
  top: "pool1"
  pooling_param {
    pool: MAX
    kernel_size: 3
    stride: 2
  }
}
layer {
  name: "norm1"
  type: "LRN"
  bottom: "pool1"
  top: "norm1"
  lrn_param {
    local_size: 5
    alpha: 0.0001
    beta: 0.75
  }
}
layer {
  name: "conv2"
  type: "Convolution"
  bottom: "norm1"
  top: "conv2"
  param {
    lr_mult: 0.1
  }
  param {
    lr_mult: 0.1
  }
  convolution_param {
    num_output: 256
    pad: 2
    kernel_size: 5
    group: 2
    weight_filler {
      type: "gaussian"
      std: 0.01
    }
    bias_filler {
      type: "constant"
      value: 1
    }
  }
}
layer {
  name: "relu2"
  type: "ReLU"
  bottom: "conv2"
  top: "conv2"
}
layer {
  name: "pool2"
  type: "Pooling"
  bottom: "conv2"
  top: "pool2"
  pooling_param {
    pool: MAX
    kernel_size: 3
    stride: 2
  }
}
layer {
  name: "norm2"
  type: "LRN"
  bottom: "pool2"
  top: "norm2"
  lrn_param {
    local_size: 5
    alpha: 0.0001
    beta: 0.75
  }
}
layer {
  name: "conv3"
  type: "Convolution"
  bottom: "norm2"
  top: "conv3"
  param {
    lr_mult: 0.1
  }
  param {
    lr_mult: 0.1
  }
  convolution_param {
    num_output: 384
    pad: 1
    kernel_size: 3
    weight_filler {
      type: "gaussian"
      std: 0.01
    }
    bias_filler {
      type: "constant"
      value: 0
    }
  }
}
layer {
  name: "relu3"
  type: "ReLU"
  bottom: "conv3"
  top: "conv3"
}
layer {
  name: "conv4"
  type: "Convolution"
  bottom: "conv3"
  top: "conv4"
  param {
    lr_mult: 0.1
  }
  param {
    lr_mult: 0.1
  }
  convolution_param {
    num_output: 384
    pad: 1
    kernel_size: 3
    group: 2
    weight_filler {
      type: "gaussian"
      std: 0.01
    }
    bias_filler {
      type: "constant"
      value: 1
    }
  }
}
layer {
  name: "relu4"
  type: "ReLU"
  bottom: "conv4"
  top: "conv4"
}
layer {
  name: "conv5"
  type: "Convolution"
  bottom: "conv4"
  top: "conv5"
  param {
    lr_mult: 0.1
  }
  param {
    lr_mult: 0.1
  }
  convolution_param {
    num_output: 256
    pad: 1
    kernel_size: 3
    group: 2
    weight_filler {
      type: "gaussian"
      std: 0.01
    }
    bias_filler {
      type: "constant"
      value: 1
    }
  }
}
layer {
  name: "relu5"
  type: "ReLU"
  bottom: "conv5"
  top: "conv5"
}
layer {
  name: "pool5"
  type: "Pooling"
  bottom: "conv5"
  top: "pool5"
  pooling_param {
    pool: MAX
    kernel_size: 3
    stride: 2
  }
}
layer {
  name: "fc6"
  type: "InnerProduct"
  bottom: "pool5"
  top: "fc6"
  param {
    lr_mult: 1
  }
  param {
    lr_mult: 1
  }
  inner_product_param {
    num_output: 4096
    weight_filler {
      type: "gaussian"
      std: 0.005
    }
    bias_filler {
      type: "constant"
      value: 1
    }
  }
}
layer {
  name: "relu6"
  type: "ReLU"
  bottom: "fc6"
  top: "fc6"
}
layer {
  name: "drop6"
  type: "Dropout"
  bottom: "fc6"
  top: "fc6"
  dropout_param {
    dropout_ratio: 0.5
  }
}
layer {
  name: "fc7"
  type: "InnerProduct"
  bottom: "fc6"
  top: "fc7"
  param {
    lr_mult: 1
  }
  param {
    lr_mult: 1
  }
  inner_product_param {
    num_output: 4096
    weight_filler {
      type: "gaussian"
      std: 0.005
    }
    bias_filler {
      type: "constant"
      value: 1
    }
  }
}
layer {
  name: "relu7"
  type: "ReLU"
  bottom: "fc7"
  top: "fc7"
}
layer {
  name: "drop7"
  type: "Dropout"
  bottom: "fc7"
  top: "fc7"
  dropout_param {
    dropout_ratio: 0.5
  }
}
layer {
  name: "fc8_ft"
  type: "InnerProduct"
  bottom: "fc7"
  top: "fc8_ft"
  param {
    lr_mult: 1
  }
  param {
    lr_mult: 1
  }
  inner_product_param {
    num_output: 2
    weight_filler {
      type: "gaussian"
      std: 0.01
    }
    bias_filler {
      type: "constant"
      value: 0
    }
  }
}
layer {
  name: "accuracy"
  type: "Accuracy"
  bottom: "fc8_ft"
  bottom: "label"
  top: "accuracy"
  include {
    phase: TEST
  }
}
layer {
  name: "loss"
  type: "SoftmaxWithLoss"
  bottom: "fc8_ft"
  bottom: "label"
  top: "loss"
}
I1011 16:55:00.600739  2180 layer_factory.hpp:74] Creating layer data
I1011 16:55:00.600759  2180 net.cpp:90] Creating Layer data
I1011 16:55:00.600771  2180 net.cpp:368] data -> data
I1011 16:55:00.600788  2180 net.cpp:368] data -> label
I1011 16:55:00.600805  2180 net.cpp:120] Setting up data
I1011 16:55:00.600816  2180 image_data_layer.cpp:36] Opening file /home/kruchinin_d/Projects/data/KITTI/prepared_data/test.txt
I1011 16:55:00.619814  2180 image_data_layer.cpp:51] A total of 20567 images.
I1011 16:55:00.625247  2180 image_data_layer.cpp:74] output data size: 50,3,227,227
I1011 16:55:00.635639  2180 net.cpp:127] Top shape: 50 3 227 227 (7729350)
I1011 16:55:00.635655  2180 net.cpp:127] Top shape: 50 (50)
I1011 16:55:00.635666  2180 layer_factory.hpp:74] Creating layer label_data_1_split
I1011 16:55:00.635682  2180 net.cpp:90] Creating Layer label_data_1_split
I1011 16:55:00.635692  2180 net.cpp:410] label_data_1_split <- label
I1011 16:55:00.635704  2180 net.cpp:368] label_data_1_split -> label_data_1_split_0
I1011 16:55:00.635720  2180 net.cpp:368] label_data_1_split -> label_data_1_split_1
I1011 16:55:00.635735  2180 net.cpp:120] Setting up label_data_1_split
I1011 16:55:00.635771  2180 net.cpp:127] Top shape: 50 (50)
I1011 16:55:00.635783  2180 net.cpp:127] Top shape: 50 (50)
I1011 16:55:00.635793  2180 layer_factory.hpp:74] Creating layer conv1
I1011 16:55:00.635808  2180 net.cpp:90] Creating Layer conv1
I1011 16:55:00.635819  2180 net.cpp:410] conv1 <- data
I1011 16:55:00.635833  2180 net.cpp:368] conv1 -> conv1
I1011 16:55:00.635848  2180 net.cpp:120] Setting up conv1
I1011 16:55:00.636456  2180 net.cpp:127] Top shape: 50 96 55 55 (14520000)
I1011 16:55:00.636476  2180 layer_factory.hpp:74] Creating layer relu1
I1011 16:55:00.636488  2180 net.cpp:90] Creating Layer relu1
I1011 16:55:00.636497  2180 net.cpp:410] relu1 <- conv1
I1011 16:55:00.636509  2180 net.cpp:357] relu1 -> conv1 (in-place)
I1011 16:55:00.636520  2180 net.cpp:120] Setting up relu1
I1011 16:55:00.636533  2180 net.cpp:127] Top shape: 50 96 55 55 (14520000)
I1011 16:55:00.636543  2180 layer_factory.hpp:74] Creating layer pool1
I1011 16:55:00.636555  2180 net.cpp:90] Creating Layer pool1
I1011 16:55:00.636564  2180 net.cpp:410] pool1 <- conv1
I1011 16:55:00.636575  2180 net.cpp:368] pool1 -> pool1
I1011 16:55:00.636602  2180 net.cpp:120] Setting up pool1
I1011 16:55:00.636622  2180 net.cpp:127] Top shape: 50 96 27 27 (3499200)
I1011 16:55:00.636633  2180 layer_factory.hpp:74] Creating layer norm1
I1011 16:55:00.636646  2180 net.cpp:90] Creating Layer norm1
I1011 16:55:00.636656  2180 net.cpp:410] norm1 <- pool1
I1011 16:55:00.636667  2180 net.cpp:368] norm1 -> norm1
I1011 16:55:00.636679  2180 net.cpp:120] Setting up norm1
I1011 16:55:00.636693  2180 net.cpp:127] Top shape: 50 96 27 27 (3499200)
I1011 16:55:00.636705  2180 layer_factory.hpp:74] Creating layer conv2
I1011 16:55:00.636718  2180 net.cpp:90] Creating Layer conv2
I1011 16:55:00.636728  2180 net.cpp:410] conv2 <- norm1
I1011 16:55:00.636739  2180 net.cpp:368] conv2 -> conv2
I1011 16:55:00.636754  2180 net.cpp:120] Setting up conv2
I1011 16:55:00.642127  2180 net.cpp:127] Top shape: 50 256 27 27 (9331200)
I1011 16:55:00.642146  2180 layer_factory.hpp:74] Creating layer relu2
I1011 16:55:00.642159  2180 net.cpp:90] Creating Layer relu2
I1011 16:55:00.642168  2180 net.cpp:410] relu2 <- conv2
I1011 16:55:00.642179  2180 net.cpp:357] relu2 -> conv2 (in-place)
I1011 16:55:00.642191  2180 net.cpp:120] Setting up relu2
I1011 16:55:00.642204  2180 net.cpp:127] Top shape: 50 256 27 27 (9331200)
I1011 16:55:00.642212  2180 layer_factory.hpp:74] Creating layer pool2
I1011 16:55:00.642225  2180 net.cpp:90] Creating Layer pool2
I1011 16:55:00.642235  2180 net.cpp:410] pool2 <- conv2
I1011 16:55:00.642246  2180 net.cpp:368] pool2 -> pool2
I1011 16:55:00.642261  2180 net.cpp:120] Setting up pool2
I1011 16:55:00.642277  2180 net.cpp:127] Top shape: 50 256 13 13 (2163200)
I1011 16:55:00.642307  2180 layer_factory.hpp:74] Creating layer norm2
I1011 16:55:00.642320  2180 net.cpp:90] Creating Layer norm2
I1011 16:55:00.642328  2180 net.cpp:410] norm2 <- pool2
I1011 16:55:00.642356  2180 net.cpp:368] norm2 -> norm2
I1011 16:55:00.642369  2180 net.cpp:120] Setting up norm2
I1011 16:55:00.642385  2180 net.cpp:127] Top shape: 50 256 13 13 (2163200)
I1011 16:55:00.642395  2180 layer_factory.hpp:74] Creating layer conv3
I1011 16:55:00.642420  2180 net.cpp:90] Creating Layer conv3
I1011 16:55:00.642428  2180 net.cpp:410] conv3 <- norm2
I1011 16:55:00.642441  2180 net.cpp:368] conv3 -> conv3
I1011 16:55:00.642453  2180 net.cpp:120] Setting up conv3
I1011 16:55:00.658624  2180 net.cpp:127] Top shape: 50 384 13 13 (3244800)
I1011 16:55:00.658645  2180 layer_factory.hpp:74] Creating layer relu3
I1011 16:55:00.658658  2180 net.cpp:90] Creating Layer relu3
I1011 16:55:00.658668  2180 net.cpp:410] relu3 <- conv3
I1011 16:55:00.658679  2180 net.cpp:357] relu3 -> conv3 (in-place)
I1011 16:55:00.658691  2180 net.cpp:120] Setting up relu3
I1011 16:55:00.658704  2180 net.cpp:127] Top shape: 50 384 13 13 (3244800)
I1011 16:55:00.658713  2180 layer_factory.hpp:74] Creating layer conv4
I1011 16:55:00.658726  2180 net.cpp:90] Creating Layer conv4
I1011 16:55:00.658735  2180 net.cpp:410] conv4 <- conv3
I1011 16:55:00.658747  2180 net.cpp:368] conv4 -> conv4
I1011 16:55:00.658761  2180 net.cpp:120] Setting up conv4
I1011 16:55:00.671104  2180 net.cpp:127] Top shape: 50 384 13 13 (3244800)
I1011 16:55:00.671123  2180 layer_factory.hpp:74] Creating layer relu4
I1011 16:55:00.671136  2180 net.cpp:90] Creating Layer relu4
I1011 16:55:00.671146  2180 net.cpp:410] relu4 <- conv4
I1011 16:55:00.671169  2180 net.cpp:357] relu4 -> conv4 (in-place)
I1011 16:55:00.671181  2180 net.cpp:120] Setting up relu4
I1011 16:55:00.671193  2180 net.cpp:127] Top shape: 50 384 13 13 (3244800)
I1011 16:55:00.671202  2180 layer_factory.hpp:74] Creating layer conv5
I1011 16:55:00.671226  2180 net.cpp:90] Creating Layer conv5
I1011 16:55:00.671236  2180 net.cpp:410] conv5 <- conv4
I1011 16:55:00.671249  2180 net.cpp:368] conv5 -> conv5
I1011 16:55:00.671262  2180 net.cpp:120] Setting up conv5
I1011 16:55:00.679442  2180 net.cpp:127] Top shape: 50 256 13 13 (2163200)
I1011 16:55:00.679463  2180 layer_factory.hpp:74] Creating layer relu5
I1011 16:55:00.679476  2180 net.cpp:90] Creating Layer relu5
I1011 16:55:00.679497  2180 net.cpp:410] relu5 <- conv5
I1011 16:55:00.679520  2180 net.cpp:357] relu5 -> conv5 (in-place)
I1011 16:55:00.679535  2180 net.cpp:120] Setting up relu5
I1011 16:55:00.679560  2180 net.cpp:127] Top shape: 50 256 13 13 (2163200)
I1011 16:55:00.679570  2180 layer_factory.hpp:74] Creating layer pool5
I1011 16:55:00.679589  2180 net.cpp:90] Creating Layer pool5
I1011 16:55:00.679600  2180 net.cpp:410] pool5 <- conv5
I1011 16:55:00.679623  2180 net.cpp:368] pool5 -> pool5
I1011 16:55:00.679637  2180 net.cpp:120] Setting up pool5
I1011 16:55:00.679653  2180 net.cpp:127] Top shape: 50 256 6 6 (460800)
I1011 16:55:00.679666  2180 layer_factory.hpp:74] Creating layer fc6
I1011 16:55:00.679680  2180 net.cpp:90] Creating Layer fc6
I1011 16:55:00.679689  2180 net.cpp:410] fc6 <- pool5
I1011 16:55:00.679702  2180 net.cpp:368] fc6 -> fc6
I1011 16:55:00.679716  2180 net.cpp:120] Setting up fc6
I1011 16:55:01.338995  2180 net.cpp:127] Top shape: 50 4096 (204800)
I1011 16:55:01.339035  2180 layer_factory.hpp:74] Creating layer relu6
I1011 16:55:01.339052  2180 net.cpp:90] Creating Layer relu6
I1011 16:55:01.339062  2180 net.cpp:410] relu6 <- fc6
I1011 16:55:01.339076  2180 net.cpp:357] relu6 -> fc6 (in-place)
I1011 16:55:01.339092  2180 net.cpp:120] Setting up relu6
I1011 16:55:01.339105  2180 net.cpp:127] Top shape: 50 4096 (204800)
I1011 16:55:01.339113  2180 layer_factory.hpp:74] Creating layer drop6
I1011 16:55:01.339128  2180 net.cpp:90] Creating Layer drop6
I1011 16:55:01.339136  2180 net.cpp:410] drop6 <- fc6
I1011 16:55:01.339148  2180 net.cpp:357] drop6 -> fc6 (in-place)
I1011 16:55:01.339160  2180 net.cpp:120] Setting up drop6
I1011 16:55:01.339175  2180 net.cpp:127] Top shape: 50 4096 (204800)
I1011 16:55:01.339186  2180 layer_factory.hpp:74] Creating layer fc7
I1011 16:55:01.339206  2180 net.cpp:90] Creating Layer fc7
I1011 16:55:01.339216  2180 net.cpp:410] fc7 <- fc6
I1011 16:55:01.339231  2180 net.cpp:368] fc7 -> fc7
I1011 16:55:01.339247  2180 net.cpp:120] Setting up fc7
I1011 16:55:01.623448  2180 net.cpp:127] Top shape: 50 4096 (204800)
I1011 16:55:01.623486  2180 layer_factory.hpp:74] Creating layer relu7
I1011 16:55:01.623502  2180 net.cpp:90] Creating Layer relu7
I1011 16:55:01.623512  2180 net.cpp:410] relu7 <- fc7
I1011 16:55:01.623525  2180 net.cpp:357] relu7 -> fc7 (in-place)
I1011 16:55:01.623539  2180 net.cpp:120] Setting up relu7
I1011 16:55:01.623553  2180 net.cpp:127] Top shape: 50 4096 (204800)
I1011 16:55:01.623561  2180 layer_factory.hpp:74] Creating layer drop7
I1011 16:55:01.623574  2180 net.cpp:90] Creating Layer drop7
I1011 16:55:01.623584  2180 net.cpp:410] drop7 <- fc7
I1011 16:55:01.623599  2180 net.cpp:357] drop7 -> fc7 (in-place)
I1011 16:55:01.623611  2180 net.cpp:120] Setting up drop7
I1011 16:55:01.623625  2180 net.cpp:127] Top shape: 50 4096 (204800)
I1011 16:55:01.623637  2180 layer_factory.hpp:74] Creating layer fc8_ft
I1011 16:55:01.623653  2180 net.cpp:90] Creating Layer fc8_ft
I1011 16:55:01.623662  2180 net.cpp:410] fc8_ft <- fc7
I1011 16:55:01.623677  2180 net.cpp:368] fc8_ft -> fc8_ft
I1011 16:55:01.623697  2180 net.cpp:120] Setting up fc8_ft
I1011 16:55:01.623862  2180 net.cpp:127] Top shape: 50 2 (100)
I1011 16:55:01.623878  2180 layer_factory.hpp:74] Creating layer fc8_ft_fc8_ft_0_split
I1011 16:55:01.623893  2180 net.cpp:90] Creating Layer fc8_ft_fc8_ft_0_split
I1011 16:55:01.623903  2180 net.cpp:410] fc8_ft_fc8_ft_0_split <- fc8_ft
I1011 16:55:01.623914  2180 net.cpp:368] fc8_ft_fc8_ft_0_split -> fc8_ft_fc8_ft_0_split_0
I1011 16:55:01.623929  2180 net.cpp:368] fc8_ft_fc8_ft_0_split -> fc8_ft_fc8_ft_0_split_1
I1011 16:55:01.623947  2180 net.cpp:120] Setting up fc8_ft_fc8_ft_0_split
I1011 16:55:01.623963  2180 net.cpp:127] Top shape: 50 2 (100)
I1011 16:55:01.623978  2180 net.cpp:127] Top shape: 50 2 (100)
I1011 16:55:01.623988  2180 layer_factory.hpp:74] Creating layer accuracy
I1011 16:55:01.624130  2180 net.cpp:90] Creating Layer accuracy
I1011 16:55:01.624142  2180 net.cpp:410] accuracy <- fc8_ft_fc8_ft_0_split_0
I1011 16:55:01.624153  2180 net.cpp:410] accuracy <- label_data_1_split_0
I1011 16:55:01.624189  2180 net.cpp:368] accuracy -> accuracy
I1011 16:55:01.624207  2180 net.cpp:120] Setting up accuracy
…
