…
I1011 16:50:08.250655 14993 net.cpp:287] The NetState phase (0) differed from the phase (1) specified by a rule in layer data
I1011 16:50:08.250721 14993 net.cpp:287] The NetState phase (0) differed from the phase (1) specified by a rule in layer accuracy
I1011 16:50:08.250977 14993 net.cpp:42] Initializing net from parameters: 
name: "CaffeNet"
state {
  phase: TRAIN
}
layer {
  name: "data"
  type: "ImageData"
  top: "data"
  top: "label"
  include {
    phase: TRAIN
  }
  image_data_param {
    source: "/home/kruchinin_d/Projects/data/KITTI/prepared_data/train.txt"
    batch_size: 32
  }
}
layer {
  name: "conv1"
  type: "Convolution"
  bottom: "data"
  top: "conv1"
  param {
    lr_mult: 0.1
  }
  param {
    lr_mult: 0.1
  }
  convolution_param {
    num_output: 96
    kernel_size: 11
    stride: 4
    weight_filler {
      type: "gaussian"
      std: 0.01
    }
    bias_filler {
      type: "constant"
      value: 0
    }
  }
}
layer {
  name: "relu1"
  type: "ReLU"
  bottom: "conv1"
  top: "conv1"
}
layer {
  name: "pool1"
  type: "Pooling"
  bottom: "conv1"
  top: "pool1"
  pooling_param {
    pool: MAX
    kernel_size: 3
    stride: 2
  }
}
layer {
  name: "norm1"
  type: "LRN"
  bottom: "pool1"
  top: "norm1"
  lrn_param {
    local_size: 5
    alpha: 0.0001
    beta: 0.75
  }
}
layer {
  name: "conv2"
  type: "Convolution"
  bottom: "norm1"
  top: "conv2"
  param {
    lr_mult: 0.1
  }
  param {
    lr_mult: 0.1
  }
  convolution_param {
    num_output: 256
    pad: 2
    kernel_size: 5
    group: 2
    weight_filler {
      type: "gaussian"
      std: 0.01
    }
    bias_filler {
      type: "constant"
      value: 1
    }
  }
}
layer {
  name: "relu2"
  type: "ReLU"
  bottom: "conv2"
  top: "conv2"
}
layer {
  name: "pool2"
  type: "Pooling"
  bottom: "conv2"
  top: "pool2"
  pooling_param {
    pool: MAX
    kernel_size: 3
    stride: 2
  }
}
layer {
  name: "norm2"
  type: "LRN"
  bottom: "pool2"
  top: "norm2"
  lrn_param {
    local_size: 5
    alpha: 0.0001
    beta: 0.75
  }
}
layer {
  name: "conv3"
  type: "Convolution"
  bottom: "norm2"
  top: "conv3"
  param {
    lr_mult: 0.1
  }
  param {
    lr_mult: 0.1
  }
  convolution_param {
    num_output: 384
    pad: 1
    kernel_size: 3
    weight_filler {
      type: "gaussian"
      std: 0.01
    }
    bias_filler {
      type: "constant"
      value: 0
    }
  }
}
layer {
  name: "relu3"
  type: "ReLU"
  bottom: "conv3"
  top: "conv3"
}
layer {
  name: "conv4"
  type: "Convolution"
  bottom: "conv3"
  top: "conv4"
  param {
    lr_mult: 0.1
  }
  param {
    lr_mult: 0.1
  }
  convolution_param {
    num_output: 384
    pad: 1
    kernel_size: 3
    group: 2
    weight_filler {
      type: "gaussian"
      std: 0.01
    }
    bias_filler {
      type: "constant"
      value: 1
    }
  }
}
layer {
  name: "relu4"
  type: "ReLU"
  bottom: "conv4"
  top: "conv4"
}
layer {
  name: "conv5"
  type: "Convolution"
  bottom: "conv4"
  top: "conv5"
  param {
    lr_mult: 0.1
  }
  param {
    lr_mult: 0.1
  }
  convolution_param {
    num_output: 256
    pad: 1
    kernel_size: 3
    group: 2
    weight_filler {
      type: "gaussian"
      std: 0.01
    }
    bias_filler {
      type: "constant"
      value: 1
    }
  }
}
layer {
  name: "relu5"
  type: "ReLU"
  bottom: "conv5"
  top: "conv5"
}
layer {
  name: "pool5"
  type: "Pooling"
  bottom: "conv5"
  top: "pool5"
  pooling_param {
    pool: MAX
    kernel_size: 3
    stride: 2
  }
}
layer {
  name: "fc6"
  type: "InnerProduct"
  bottom: "pool5"
  top: "fc6"
  param {
    lr_mult: 0.1
  }
  param {
    lr_mult: 0.1
  }
  inner_product_param {
    num_output: 4096
    weight_filler {
      type: "gaussian"
      std: 0.005
    }
    bias_filler {
      type: "constant"
      value: 1
    }
  }
}
layer {
  name: "relu6"
  type: "ReLU"
  bottom: "fc6"
  top: "fc6"
}
layer {
  name: "drop6"
  type: "Dropout"
  bottom: "fc6"
  top: "fc6"
  dropout_param {
    dropout_ratio: 0.5
  }
}
layer {
  name: "fc7"
  type: "InnerProduct"
  bottom: "fc6"
  top: "fc7"
  param {
    lr_mult: 0.1
  }
  param {
    lr_mult: 0.1
  }
  inner_product_param {
    num_output: 4096
    weight_filler {
      type: "gaussian"
      std: 0.005
    }
    bias_filler {
      type: "constant"
      value: 1
    }
  }
}
layer {
  name: "relu7"
  type: "ReLU"
  bottom: "fc7"
  top: "fc7"
}
layer {
  name: "drop7"
  type: "Dropout"
  bottom: "fc7"
  top: "fc7"
  dropout_param {
    dropout_ratio: 0.5
  }
}
layer {
  name: "fc8_ft"
  type: "InnerProduct"
  bottom: "fc7"
  top: "fc8_ft"
  param {
    lr_mult: 1
  }
  param {
    lr_mult: 1
  }
  inner_product_param {
    num_output: 2
    weight_filler {
      type: "gaussian"
      std: 0.01
    }
    bias_filler {
      type: "constant"
      value: 0
    }
  }
}
layer {
  name: "loss"
  type: "SoftmaxWithLoss"
  bottom: "fc8_ft"
  bottom: "label"
  top: "loss"
}
I1011 16:50:08.251338 14993 layer_factory.hpp:74] Creating layer data
I1011 16:50:08.251421 14993 net.cpp:90] Creating Layer data
I1011 16:50:08.251471 14993 net.cpp:368] data -> data
I1011 16:50:08.251658 14993 net.cpp:368] data -> label
I1011 16:50:08.251677 14993 net.cpp:120] Setting up data
I1011 16:50:08.251772 14993 image_data_layer.cpp:36] Opening file /home/kruchinin_d/Projects/data/KITTI/prepared_data/train.txt
I1011 16:50:08.317400 14993 image_data_layer.cpp:51] A total of 82274 images.
I1011 16:50:08.325367 14993 image_data_layer.cpp:74] output data size: 32,3,227,227
I1011 16:50:08.333168 14993 net.cpp:127] Top shape: 32 3 227 227 (4946784)
I1011 16:50:08.333186 14993 net.cpp:127] Top shape: 32 (32)
I1011 16:50:08.333243 14993 layer_factory.hpp:74] Creating layer conv1
I1011 16:50:08.333330 14993 net.cpp:90] Creating Layer conv1
I1011 16:50:08.333348 14993 net.cpp:410] conv1 <- data
I1011 16:50:08.333374 14993 net.cpp:368] conv1 -> conv1
I1011 16:50:08.333400 14993 net.cpp:120] Setting up conv1
I1011 16:50:08.337009 14993 net.cpp:127] Top shape: 32 96 55 55 (9292800)
I1011 16:50:08.337044 14993 layer_factory.hpp:74] Creating layer relu1
I1011 16:50:08.337108 14993 net.cpp:90] Creating Layer relu1
I1011 16:50:08.337121 14993 net.cpp:410] relu1 <- conv1
I1011 16:50:08.337133 14993 net.cpp:357] relu1 -> conv1 (in-place)
I1011 16:50:08.337146 14993 net.cpp:120] Setting up relu1
I1011 16:50:08.337806 14993 net.cpp:127] Top shape: 32 96 55 55 (9292800)
I1011 16:50:08.337822 14993 layer_factory.hpp:74] Creating layer pool1
I1011 16:50:08.337838 14993 net.cpp:90] Creating Layer pool1
I1011 16:50:08.337852 14993 net.cpp:410] pool1 <- conv1
I1011 16:50:08.337867 14993 net.cpp:368] pool1 -> pool1
I1011 16:50:08.337889 14993 net.cpp:120] Setting up pool1
I1011 16:50:08.337993 14993 net.cpp:127] Top shape: 32 96 27 27 (2239488)
I1011 16:50:08.338006 14993 layer_factory.hpp:74] Creating layer norm1
I1011 16:50:08.338071 14993 net.cpp:90] Creating Layer norm1
I1011 16:50:08.338084 14993 net.cpp:410] norm1 <- pool1
I1011 16:50:08.338098 14993 net.cpp:368] norm1 -> norm1
I1011 16:50:08.338119 14993 net.cpp:120] Setting up norm1
I1011 16:50:08.338352 14993 net.cpp:127] Top shape: 32 96 27 27 (2239488)
I1011 16:50:08.338366 14993 layer_factory.hpp:74] Creating layer conv2
I1011 16:50:08.338381 14993 net.cpp:90] Creating Layer conv2
I1011 16:50:08.338389 14993 net.cpp:410] conv2 <- norm1
I1011 16:50:08.338405 14993 net.cpp:368] conv2 -> conv2
I1011 16:50:08.338426 14993 net.cpp:120] Setting up conv2
I1011 16:50:08.344130 14993 net.cpp:127] Top shape: 32 256 27 27 (5971968)
I1011 16:50:08.344166 14993 layer_factory.hpp:74] Creating layer relu2
I1011 16:50:08.344180 14993 net.cpp:90] Creating Layer relu2
I1011 16:50:08.344190 14993 net.cpp:410] relu2 <- conv2
I1011 16:50:08.344202 14993 net.cpp:357] relu2 -> conv2 (in-place)
I1011 16:50:08.344214 14993 net.cpp:120] Setting up relu2
I1011 16:50:08.344228 14993 net.cpp:127] Top shape: 32 256 27 27 (5971968)
I1011 16:50:08.344244 14993 layer_factory.hpp:74] Creating layer pool2
I1011 16:50:08.344256 14993 net.cpp:90] Creating Layer pool2
I1011 16:50:08.344264 14993 net.cpp:410] pool2 <- conv2
I1011 16:50:08.344277 14993 net.cpp:368] pool2 -> pool2
I1011 16:50:08.344290 14993 net.cpp:120] Setting up pool2
I1011 16:50:08.344310 14993 net.cpp:127] Top shape: 32 256 13 13 (1384448)
I1011 16:50:08.344321 14993 layer_factory.hpp:74] Creating layer norm2
I1011 16:50:08.344336 14993 net.cpp:90] Creating Layer norm2
I1011 16:50:08.344346 14993 net.cpp:410] norm2 <- pool2
I1011 16:50:08.344357 14993 net.cpp:368] norm2 -> norm2
I1011 16:50:08.344369 14993 net.cpp:120] Setting up norm2
I1011 16:50:08.344384 14993 net.cpp:127] Top shape: 32 256 13 13 (1384448)
I1011 16:50:08.344394 14993 layer_factory.hpp:74] Creating layer conv3
I1011 16:50:08.344408 14993 net.cpp:90] Creating Layer conv3
I1011 16:50:08.344416 14993 net.cpp:410] conv3 <- norm2
I1011 16:50:08.344429 14993 net.cpp:368] conv3 -> conv3
I1011 16:50:08.344444 14993 net.cpp:120] Setting up conv3
I1011 16:50:08.362087 14993 net.cpp:127] Top shape: 32 384 13 13 (2076672)
I1011 16:50:08.362109 14993 layer_factory.hpp:74] Creating layer relu3
I1011 16:50:08.362123 14993 net.cpp:90] Creating Layer relu3
I1011 16:50:08.362133 14993 net.cpp:410] relu3 <- conv3
I1011 16:50:08.362144 14993 net.cpp:357] relu3 -> conv3 (in-place)
I1011 16:50:08.362157 14993 net.cpp:120] Setting up relu3
I1011 16:50:08.362170 14993 net.cpp:127] Top shape: 32 384 13 13 (2076672)
I1011 16:50:08.362184 14993 layer_factory.hpp:74] Creating layer conv4
I1011 16:50:08.362200 14993 net.cpp:90] Creating Layer conv4
I1011 16:50:08.362210 14993 net.cpp:410] conv4 <- conv3
I1011 16:50:08.362226 14993 net.cpp:368] conv4 -> conv4
I1011 16:50:08.362246 14993 net.cpp:120] Setting up conv4
I1011 16:50:08.376030 14993 net.cpp:127] Top shape: 32 384 13 13 (2076672)
I1011 16:50:08.376050 14993 layer_factory.hpp:74] Creating layer relu4
I1011 16:50:08.376065 14993 net.cpp:90] Creating Layer relu4
I1011 16:50:08.376075 14993 net.cpp:410] relu4 <- conv4
I1011 16:50:08.376086 14993 net.cpp:357] relu4 -> conv4 (in-place)
I1011 16:50:08.376099 14993 net.cpp:120] Setting up relu4
I1011 16:50:08.376112 14993 net.cpp:127] Top shape: 32 384 13 13 (2076672)
I1011 16:50:08.376122 14993 layer_factory.hpp:74] Creating layer conv5
I1011 16:50:08.376140 14993 net.cpp:90] Creating Layer conv5
I1011 16:50:08.376153 14993 net.cpp:410] conv5 <- conv4
I1011 16:50:08.376168 14993 net.cpp:368] conv5 -> conv5
I1011 16:50:08.376184 14993 net.cpp:120] Setting up conv5
I1011 16:50:08.384878 14993 net.cpp:127] Top shape: 32 256 13 13 (1384448)
I1011 16:50:08.384901 14993 layer_factory.hpp:74] Creating layer relu5
I1011 16:50:08.384914 14993 net.cpp:90] Creating Layer relu5
I1011 16:50:08.384924 14993 net.cpp:410] relu5 <- conv5
I1011 16:50:08.384937 14993 net.cpp:357] relu5 -> conv5 (in-place)
I1011 16:50:08.384948 14993 net.cpp:120] Setting up relu5
I1011 16:50:08.384960 14993 net.cpp:127] Top shape: 32 256 13 13 (1384448)
I1011 16:50:08.384971 14993 layer_factory.hpp:74] Creating layer pool5
I1011 16:50:08.384984 14993 net.cpp:90] Creating Layer pool5
I1011 16:50:08.384994 14993 net.cpp:410] pool5 <- conv5
I1011 16:50:08.385006 14993 net.cpp:368] pool5 -> pool5
I1011 16:50:08.385020 14993 net.cpp:120] Setting up pool5
I1011 16:50:08.385043 14993 net.cpp:127] Top shape: 32 256 6 6 (294912)
I1011 16:50:08.385053 14993 layer_factory.hpp:74] Creating layer fc6
I1011 16:50:08.385076 14993 net.cpp:90] Creating Layer fc6
I1011 16:50:08.385085 14993 net.cpp:410] fc6 <- pool5
I1011 16:50:08.385100 14993 net.cpp:368] fc6 -> fc6
I1011 16:50:08.385118 14993 net.cpp:120] Setting up fc6
I1011 16:50:09.037138 14993 net.cpp:127] Top shape: 32 4096 (131072)
I1011 16:50:09.037179 14993 layer_factory.hpp:74] Creating layer relu6
I1011 16:50:09.037196 14993 net.cpp:90] Creating Layer relu6
I1011 16:50:09.037206 14993 net.cpp:410] relu6 <- fc6
I1011 16:50:09.037223 14993 net.cpp:357] relu6 -> fc6 (in-place)
I1011 16:50:09.037240 14993 net.cpp:120] Setting up relu6
I1011 16:50:09.037252 14993 net.cpp:127] Top shape: 32 4096 (131072)
I1011 16:50:09.037264 14993 layer_factory.hpp:74] Creating layer drop6
I1011 16:50:09.037281 14993 net.cpp:90] Creating Layer drop6
I1011 16:50:09.037292 14993 net.cpp:410] drop6 <- fc6
I1011 16:50:09.037303 14993 net.cpp:357] drop6 -> fc6 (in-place)
I1011 16:50:09.037318 14993 net.cpp:120] Setting up drop6
I1011 16:50:09.037382 14993 net.cpp:127] Top shape: 32 4096 (131072)
I1011 16:50:09.037396 14993 layer_factory.hpp:74] Creating layer fc7
I1011 16:50:09.037413 14993 net.cpp:90] Creating Layer fc7
I1011 16:50:09.037422 14993 net.cpp:410] fc7 <- fc6
I1011 16:50:09.037436 14993 net.cpp:368] fc7 -> fc7
I1011 16:50:09.037451 14993 net.cpp:120] Setting up fc7
I1011 16:50:09.321591 14993 net.cpp:127] Top shape: 32 4096 (131072)
I1011 16:50:09.321631 14993 layer_factory.hpp:74] Creating layer relu7
I1011 16:50:09.321648 14993 net.cpp:90] Creating Layer relu7
I1011 16:50:09.321658 14993 net.cpp:410] relu7 <- fc7
I1011 16:50:09.321674 14993 net.cpp:357] relu7 -> fc7 (in-place)
I1011 16:50:09.321689 14993 net.cpp:120] Setting up relu7
I1011 16:50:09.321702 14993 net.cpp:127] Top shape: 32 4096 (131072)
I1011 16:50:09.321712 14993 layer_factory.hpp:74] Creating layer drop7
I1011 16:50:09.321724 14993 net.cpp:90] Creating Layer drop7
I1011 16:50:09.321733 14993 net.cpp:410] drop7 <- fc7
I1011 16:50:09.321744 14993 net.cpp:357] drop7 -> fc7 (in-place)
I1011 16:50:09.321755 14993 net.cpp:120] Setting up drop7
I1011 16:50:09.321770 14993 net.cpp:127] Top shape: 32 4096 (131072)
I1011 16:50:09.321780 14993 layer_factory.hpp:74] Creating layer fc8_ft
I1011 16:50:09.321799 14993 net.cpp:90] Creating Layer fc8_ft
I1011 16:50:09.321810 14993 net.cpp:410] fc8_ft <- fc7
I1011 16:50:09.321823 14993 net.cpp:368] fc8_ft -> fc8_ft
I1011 16:50:09.321840 14993 net.cpp:120] Setting up fc8_ft
I1011 16:50:09.322013 14993 net.cpp:127] Top shape: 32 2 (64)
I1011 16:50:09.322029 14993 layer_factory.hpp:74] Creating layer loss
I1011 16:50:09.322152 14993 net.cpp:90] Creating Layer loss
I1011 16:50:09.322165 14993 net.cpp:410] loss <- fc8_ft
I1011 16:50:09.322176 14993 net.cpp:410] loss <- label
I1011 16:50:09.322190 14993 net.cpp:368] loss -> loss
I1011 16:50:09.322202 14993 net.cpp:120] Setting up loss
I1011 16:50:09.322216 14993 layer_factory.hpp:74] Creating layer loss
…
I1011 16:50:09.324201 14993 solver.cpp:154] Creating test net (#0) specified by net file: /home/kruchinin_d/Projects/scaling-archer/nn/caffenet_finetuned/train_val.prototxt
I1011 16:50:09.324264 14993 net.cpp:287] The NetState phase (1) differed from the phase (0) specified by a rule in layer data
I1011 16:50:09.324470 14993 net.cpp:42] Initializing net from parameters: 
name: "CaffeNet"
state {
  phase: TEST
}
layer {
  name: "data"
  type: "ImageData"
  top: "data"
  top: "label"
  include {
    phase: TEST
  }
  image_data_param {
    source: "/home/kruchinin_d/Projects/data/KITTI/prepared_data/test.txt"
    batch_size: 50
  }
}
layer {
  name: "conv1"
  type: "Convolution"
  bottom: "data"
  top: "conv1"
  param {
    lr_mult: 0.1
  }
  param {
    lr_mult: 0.1
  }
  convolution_param {
    num_output: 96
    kernel_size: 11
    stride: 4
    weight_filler {
      type: "gaussian"
      std: 0.01
    }
    bias_filler {
      type: "constant"
      value: 0
    }
  }
}
layer {
  name: "relu1"
  type: "ReLU"
  bottom: "conv1"
  top: "conv1"
}
layer {
  name: "pool1"
  type: "Pooling"
  bottom: "conv1"
  top: "pool1"
  pooling_param {
    pool: MAX
    kernel_size: 3
    stride: 2
  }
}
layer {
  name: "norm1"
  type: "LRN"
  bottom: "pool1"
  top: "norm1"
  lrn_param {
    local_size: 5
    alpha: 0.0001
    beta: 0.75
  }
}
layer {
  name: "conv2"
  type: "Convolution"
  bottom: "norm1"
  top: "conv2"
  param {
    lr_mult: 0.1
  }
  param {
    lr_mult: 0.1
  }
  convolution_param {
    num_output: 256
    pad: 2
    kernel_size: 5
    group: 2
    weight_filler {
      type: "gaussian"
      std: 0.01
    }
    bias_filler {
      type: "constant"
      value: 1
    }
  }
}
layer {
  name: "relu2"
  type: "ReLU"
  bottom: "conv2"
  top: "conv2"
}
layer {
  name: "pool2"
  type: "Pooling"
  bottom: "conv2"
  top: "pool2"
  pooling_param {
    pool: MAX
    kernel_size: 3
    stride: 2
  }
}
layer {
  name: "norm2"
  type: "LRN"
  bottom: "pool2"
  top: "norm2"
  lrn_param {
    local_size: 5
    alpha: 0.0001
    beta: 0.75
  }
}
layer {
  name: "conv3"
  type: "Convolution"
  bottom: "norm2"
  top: "conv3"
  param {
    lr_mult: 0.1
  }
  param {
    lr_mult: 0.1
  }
  convolution_param {
    num_output: 384
    pad: 1
    kernel_size: 3
    weight_filler {
      type: "gaussian"
      std: 0.01
    }
    bias_filler {
      type: "constant"
      value: 0
    }
  }
}
layer {
  name: "relu3"
  type: "ReLU"
  bottom: "conv3"
  top: "conv3"
}
layer {
  name: "conv4"
  type: "Convolution"
  bottom: "conv3"
  top: "conv4"
  param {
    lr_mult: 0.1
  }
  param {
    lr_mult: 0.1
  }
  convolution_param {
    num_output: 384
    pad: 1
    kernel_size: 3
    group: 2
    weight_filler {
      type: "gaussian"
      std: 0.01
    }
    bias_filler {
      type: "constant"
      value: 1
    }
  }
}
layer {
  name: "relu4"
  type: "ReLU"
  bottom: "conv4"
  top: "conv4"
}
layer {
  name: "conv5"
  type: "Convolution"
  bottom: "conv4"
  top: "conv5"
  param {
    lr_mult: 0.1
  }
  param {
    lr_mult: 0.1
  }
  convolution_param {
    num_output: 256
    pad: 1
    kernel_size: 3
    group: 2
    weight_filler {
      type: "gaussian"
      std: 0.01
    }
    bias_filler {
      type: "constant"
      value: 1
    }
  }
}
layer {
  name: "relu5"
  type: "ReLU"
  bottom: "conv5"
  top: "conv5"
}
layer {
  name: "pool5"
  type: "Pooling"
  bottom: "conv5"
  top: "pool5"
  pooling_param {
    pool: MAX
    kernel_size: 3
    stride: 2
  }
}
layer {
  name: "fc6"
  type: "InnerProduct"
  bottom: "pool5"
  top: "fc6"
  param {
    lr_mult: 0.1
  }
  param {
    lr_mult: 0.1
  }
  inner_product_param {
    num_output: 4096
    weight_filler {
      type: "gaussian"
      std: 0.005
    }
    bias_filler {
      type: "constant"
      value: 1
    }
  }
}
layer {
  name: "relu6"
  type: "ReLU"
  bottom: "fc6"
  top: "fc6"
}
layer {
  name: "drop6"
  type: "Dropout"
  bottom: "fc6"
  top: "fc6"
  dropout_param {
    dropout_ratio: 0.5
  }
}
layer {
  name: "fc7"
  type: "InnerProduct"
  bottom: "fc6"
  top: "fc7"
  param {
    lr_mult: 0.1
  }
  param {
    lr_mult: 0.1
  }
  inner_product_param {
    num_output: 4096
    weight_filler {
      type: "gaussian"
      std: 0.005
    }
    bias_filler {
      type: "constant"
      value: 1
    }
  }
}
layer {
  name: "relu7"
  type: "ReLU"
  bottom: "fc7"
  top: "fc7"
}
layer {
  name: "drop7"
  type: "Dropout"
  bottom: "fc7"
  top: "fc7"
  dropout_param {
    dropout_ratio: 0.5
  }
}
layer {
  name: "fc8_ft"
  type: "InnerProduct"
  bottom: "fc7"
  top: "fc8_ft"
  param {
    lr_mult: 1
  }
  param {
    lr_mult: 1
  }
  inner_product_param {
    num_output: 2
    weight_filler {
      type: "gaussian"
      std: 0.01
    }
    bias_filler {
      type: "constant"
      value: 0
    }
  }
}
layer {
  name: "accuracy"
  type: "Accuracy"
  bottom: "fc8_ft"
  bottom: "label"
  top: "accuracy"
  include {
    phase: TEST
  }
}
layer {
  name: "loss"
  type: "SoftmaxWithLoss"
  bottom: "fc8_ft"
  bottom: "label"
  top: "loss"
}
I1011 16:50:09.324661 14993 layer_factory.hpp:74] Creating layer data
I1011 16:50:09.324679 14993 net.cpp:90] Creating Layer data
I1011 16:50:09.324692 14993 net.cpp:368] data -> data
I1011 16:50:09.324710 14993 net.cpp:368] data -> label
I1011 16:50:09.324724 14993 net.cpp:120] Setting up data
I1011 16:50:09.324738 14993 image_data_layer.cpp:36] Opening file /home/kruchinin_d/Projects/data/KITTI/prepared_data/test.txt
I1011 16:50:09.342931 14993 image_data_layer.cpp:51] A total of 20567 images.
I1011 16:50:09.348789 14993 image_data_layer.cpp:74] output data size: 50,3,227,227
I1011 16:50:09.359297 14993 net.cpp:127] Top shape: 50 3 227 227 (7729350)
I1011 16:50:09.359313 14993 net.cpp:127] Top shape: 50 (50)
I1011 16:50:09.359324 14993 layer_factory.hpp:74] Creating layer label_data_1_split
I1011 16:50:09.359340 14993 net.cpp:90] Creating Layer label_data_1_split
I1011 16:50:09.359349 14993 net.cpp:410] label_data_1_split <- label
I1011 16:50:09.359362 14993 net.cpp:368] label_data_1_split -> label_data_1_split_0
I1011 16:50:09.359379 14993 net.cpp:368] label_data_1_split -> label_data_1_split_1
I1011 16:50:09.359395 14993 net.cpp:120] Setting up label_data_1_split
I1011 16:50:09.359434 14993 net.cpp:127] Top shape: 50 (50)
I1011 16:50:09.359447 14993 net.cpp:127] Top shape: 50 (50)
I1011 16:50:09.359455 14993 layer_factory.hpp:74] Creating layer conv1
I1011 16:50:09.359470 14993 net.cpp:90] Creating Layer conv1
I1011 16:50:09.359483 14993 net.cpp:410] conv1 <- data
I1011 16:50:09.359495 14993 net.cpp:368] conv1 -> conv1
I1011 16:50:09.359509 14993 net.cpp:120] Setting up conv1
I1011 16:50:09.360092 14993 net.cpp:127] Top shape: 50 96 55 55 (14520000)
I1011 16:50:09.360112 14993 layer_factory.hpp:74] Creating layer relu1
I1011 16:50:09.360124 14993 net.cpp:90] Creating Layer relu1
I1011 16:50:09.360133 14993 net.cpp:410] relu1 <- conv1
I1011 16:50:09.360146 14993 net.cpp:357] relu1 -> conv1 (in-place)
I1011 16:50:09.360157 14993 net.cpp:120] Setting up relu1
I1011 16:50:09.360168 14993 net.cpp:127] Top shape: 50 96 55 55 (14520000)
I1011 16:50:09.360177 14993 layer_factory.hpp:74] Creating layer pool1
I1011 16:50:09.360190 14993 net.cpp:90] Creating Layer pool1
I1011 16:50:09.360198 14993 net.cpp:410] pool1 <- conv1
I1011 16:50:09.360209 14993 net.cpp:368] pool1 -> pool1
I1011 16:50:09.360235 14993 net.cpp:120] Setting up pool1
I1011 16:50:09.360255 14993 net.cpp:127] Top shape: 50 96 27 27 (3499200)
I1011 16:50:09.360265 14993 layer_factory.hpp:74] Creating layer norm1
I1011 16:50:09.360278 14993 net.cpp:90] Creating Layer norm1
I1011 16:50:09.360287 14993 net.cpp:410] norm1 <- pool1
I1011 16:50:09.360298 14993 net.cpp:368] norm1 -> norm1
I1011 16:50:09.360311 14993 net.cpp:120] Setting up norm1
I1011 16:50:09.360324 14993 net.cpp:127] Top shape: 50 96 27 27 (3499200)
I1011 16:50:09.360334 14993 layer_factory.hpp:74] Creating layer conv2
I1011 16:50:09.360347 14993 net.cpp:90] Creating Layer conv2
I1011 16:50:09.360354 14993 net.cpp:410] conv2 <- norm1
I1011 16:50:09.360368 14993 net.cpp:368] conv2 -> conv2
I1011 16:50:09.360380 14993 net.cpp:120] Setting up conv2
I1011 16:50:09.365722 14993 net.cpp:127] Top shape: 50 256 27 27 (9331200)
I1011 16:50:09.365742 14993 layer_factory.hpp:74] Creating layer relu2
I1011 16:50:09.365754 14993 net.cpp:90] Creating Layer relu2
I1011 16:50:09.365763 14993 net.cpp:410] relu2 <- conv2
I1011 16:50:09.365774 14993 net.cpp:357] relu2 -> conv2 (in-place)
I1011 16:50:09.365785 14993 net.cpp:120] Setting up relu2
I1011 16:50:09.365798 14993 net.cpp:127] Top shape: 50 256 27 27 (9331200)
I1011 16:50:09.365808 14993 layer_factory.hpp:74] Creating layer pool2
I1011 16:50:09.365819 14993 net.cpp:90] Creating Layer pool2
I1011 16:50:09.365828 14993 net.cpp:410] pool2 <- conv2
I1011 16:50:09.365839 14993 net.cpp:368] pool2 -> pool2
I1011 16:50:09.365852 14993 net.cpp:120] Setting up pool2
I1011 16:50:09.365869 14993 net.cpp:127] Top shape: 50 256 13 13 (2163200)
I1011 16:50:09.365880 14993 layer_factory.hpp:74] Creating layer norm2
I1011 16:50:09.365890 14993 net.cpp:90] Creating Layer norm2
I1011 16:50:09.365900 14993 net.cpp:410] norm2 <- pool2
I1011 16:50:09.365911 14993 net.cpp:368] norm2 -> norm2
I1011 16:50:09.365923 14993 net.cpp:120] Setting up norm2
I1011 16:50:09.365938 14993 net.cpp:127] Top shape: 50 256 13 13 (2163200)
I1011 16:50:09.365948 14993 layer_factory.hpp:74] Creating layer conv3
I1011 16:50:09.365962 14993 net.cpp:90] Creating Layer conv3
I1011 16:50:09.365970 14993 net.cpp:410] conv3 <- norm2
I1011 16:50:09.365983 14993 net.cpp:368] conv3 -> conv3
I1011 16:50:09.365994 14993 net.cpp:120] Setting up conv3
I1011 16:50:09.382473 14993 net.cpp:127] Top shape: 50 384 13 13 (3244800)
I1011 16:50:09.382495 14993 layer_factory.hpp:74] Creating layer relu3
I1011 16:50:09.382508 14993 net.cpp:90] Creating Layer relu3
I1011 16:50:09.382518 14993 net.cpp:410] relu3 <- conv3
I1011 16:50:09.382529 14993 net.cpp:357] relu3 -> conv3 (in-place)
I1011 16:50:09.382541 14993 net.cpp:120] Setting up relu3
I1011 16:50:09.382553 14993 net.cpp:127] Top shape: 50 384 13 13 (3244800)
I1011 16:50:09.382562 14993 layer_factory.hpp:74] Creating layer conv4
I1011 16:50:09.382582 14993 net.cpp:90] Creating Layer conv4
I1011 16:50:09.382592 14993 net.cpp:410] conv4 <- conv3
I1011 16:50:09.382606 14993 net.cpp:368] conv4 -> conv4
I1011 16:50:09.382627 14993 net.cpp:120] Setting up conv4
I1011 16:50:09.395329 14993 net.cpp:127] Top shape: 50 384 13 13 (3244800)
I1011 16:50:09.395349 14993 layer_factory.hpp:74] Creating layer relu4
I1011 16:50:09.395367 14993 net.cpp:90] Creating Layer relu4
I1011 16:50:09.395377 14993 net.cpp:410] relu4 <- conv4
I1011 16:50:09.395390 14993 net.cpp:357] relu4 -> conv4 (in-place)
I1011 16:50:09.395402 14993 net.cpp:120] Setting up relu4
I1011 16:50:09.395416 14993 net.cpp:127] Top shape: 50 384 13 13 (3244800)
I1011 16:50:09.395424 14993 layer_factory.hpp:74] Creating layer conv5
I1011 16:50:09.395442 14993 net.cpp:90] Creating Layer conv5
I1011 16:50:09.395452 14993 net.cpp:410] conv5 <- conv4
I1011 16:50:09.395464 14993 net.cpp:368] conv5 -> conv5
I1011 16:50:09.395478 14993 net.cpp:120] Setting up conv5
I1011 16:50:09.404326 14993 net.cpp:127] Top shape: 50 256 13 13 (2163200)
I1011 16:50:09.404381 14993 layer_factory.hpp:74] Creating layer relu5
I1011 16:50:09.404417 14993 net.cpp:90] Creating Layer relu5
I1011 16:50:09.404455 14993 net.cpp:410] relu5 <- conv5
I1011 16:50:09.404484 14993 net.cpp:357] relu5 -> conv5 (in-place)
I1011 16:50:09.404513 14993 net.cpp:120] Setting up relu5
I1011 16:50:09.404543 14993 net.cpp:127] Top shape: 50 256 13 13 (2163200)
I1011 16:50:09.404579 14993 layer_factory.hpp:74] Creating layer pool5
I1011 16:50:09.404616 14993 net.cpp:90] Creating Layer pool5
I1011 16:50:09.404644 14993 net.cpp:410] pool5 <- conv5
I1011 16:50:09.404681 14993 net.cpp:368] pool5 -> pool5
I1011 16:50:09.404711 14993 net.cpp:120] Setting up pool5
I1011 16:50:09.404745 14993 net.cpp:127] Top shape: 50 256 6 6 (460800)
I1011 16:50:09.404780 14993 layer_factory.hpp:74] Creating layer fc6
I1011 16:50:09.404813 14993 net.cpp:90] Creating Layer fc6
I1011 16:50:09.404825 14993 net.cpp:410] fc6 <- pool5
I1011 16:50:09.404839 14993 net.cpp:368] fc6 -> fc6
I1011 16:50:09.404855 14993 net.cpp:120] Setting up fc6
I1011 16:50:10.068167 14993 net.cpp:127] Top shape: 50 4096 (204800)
I1011 16:50:10.068210 14993 layer_factory.hpp:74] Creating layer relu6
I1011 16:50:10.068228 14993 net.cpp:90] Creating Layer relu6
I1011 16:50:10.068238 14993 net.cpp:410] relu6 <- fc6
I1011 16:50:10.068253 14993 net.cpp:357] relu6 -> fc6 (in-place)
I1011 16:50:10.068267 14993 net.cpp:120] Setting up relu6
I1011 16:50:10.068280 14993 net.cpp:127] Top shape: 50 4096 (204800)
I1011 16:50:10.068289 14993 layer_factory.hpp:74] Creating layer drop6
I1011 16:50:10.068305 14993 net.cpp:90] Creating Layer drop6
I1011 16:50:10.068313 14993 net.cpp:410] drop6 <- fc6
I1011 16:50:10.068325 14993 net.cpp:357] drop6 -> fc6 (in-place)
I1011 16:50:10.068337 14993 net.cpp:120] Setting up drop6
I1011 16:50:10.068352 14993 net.cpp:127] Top shape: 50 4096 (204800)
I1011 16:50:10.068362 14993 layer_factory.hpp:74] Creating layer fc7
I1011 16:50:10.068377 14993 net.cpp:90] Creating Layer fc7
I1011 16:50:10.068387 14993 net.cpp:410] fc7 <- fc6
I1011 16:50:10.068403 14993 net.cpp:368] fc7 -> fc7
I1011 16:50:10.068420 14993 net.cpp:120] Setting up fc7
I1011 16:50:10.356014 14993 net.cpp:127] Top shape: 50 4096 (204800)
I1011 16:50:10.356052 14993 layer_factory.hpp:74] Creating layer relu7
I1011 16:50:10.356070 14993 net.cpp:90] Creating Layer relu7
I1011 16:50:10.356079 14993 net.cpp:410] relu7 <- fc7
I1011 16:50:10.356093 14993 net.cpp:357] relu7 -> fc7 (in-place)
I1011 16:50:10.356106 14993 net.cpp:120] Setting up relu7
I1011 16:50:10.356118 14993 net.cpp:127] Top shape: 50 4096 (204800)
I1011 16:50:10.356128 14993 layer_factory.hpp:74] Creating layer drop7
I1011 16:50:10.356142 14993 net.cpp:90] Creating Layer drop7
I1011 16:50:10.356153 14993 net.cpp:410] drop7 <- fc7
I1011 16:50:10.356168 14993 net.cpp:357] drop7 -> fc7 (in-place)
I1011 16:50:10.356183 14993 net.cpp:120] Setting up drop7
I1011 16:50:10.356199 14993 net.cpp:127] Top shape: 50 4096 (204800)
I1011 16:50:10.356209 14993 layer_factory.hpp:74] Creating layer fc8_ft
I1011 16:50:10.356225 14993 net.cpp:90] Creating Layer fc8_ft
I1011 16:50:10.356235 14993 net.cpp:410] fc8_ft <- fc7
I1011 16:50:10.356245 14993 net.cpp:368] fc8_ft -> fc8_ft
I1011 16:50:10.356266 14993 net.cpp:120] Setting up fc8_ft
I1011 16:50:10.356439 14993 net.cpp:127] Top shape: 50 2 (100)
I1011 16:50:10.356456 14993 layer_factory.hpp:74] Creating layer fc8_ft_fc8_ft_0_split
I1011 16:50:10.356478 14993 net.cpp:90] Creating Layer fc8_ft_fc8_ft_0_split
I1011 16:50:10.356488 14993 net.cpp:410] fc8_ft_fc8_ft_0_split <- fc8_ft
I1011 16:50:10.356500 14993 net.cpp:368] fc8_ft_fc8_ft_0_split -> fc8_ft_fc8_ft_0_split_0
I1011 16:50:10.356514 14993 net.cpp:368] fc8_ft_fc8_ft_0_split -> fc8_ft_fc8_ft_0_split_1
I1011 16:50:10.356528 14993 net.cpp:120] Setting up fc8_ft_fc8_ft_0_split
I1011 16:50:10.356544 14993 net.cpp:127] Top shape: 50 2 (100)
I1011 16:50:10.356556 14993 net.cpp:127] Top shape: 50 2 (100)
I1011 16:50:10.356570 14993 layer_factory.hpp:74] Creating layer accuracy
I1011 16:50:10.356722 14993 net.cpp:90] Creating Layer accuracy
I1011 16:50:10.356735 14993 net.cpp:410] accuracy <- fc8_ft_fc8_ft_0_split_0
I1011 16:50:10.356746 14993 net.cpp:410] accuracy <- label_data_1_split_0
I1011 16:50:10.356782 14993 net.cpp:368] accuracy -> accuracy
I1011 16:50:10.356801 14993 net.cpp:120] Setting up accuracy
…
