…
I1011 16:50:38.449574 21700 net.cpp:287] The NetState phase (0) differed from the phase (1) specified by a rule in layer data
I1011 16:50:38.449724 21700 net.cpp:287] The NetState phase (0) differed from the phase (1) specified by a rule in layer accuracy
I1011 16:50:38.450306 21700 net.cpp:42] Initializing net from parameters: 
name: "CaffeNet"
state {
  phase: TRAIN
}
layer {
  name: "data"
  type: "ImageData"
  top: "data"
  top: "label"
  include {
    phase: TRAIN
  }
  image_data_param {
    source: "/home/kruchinin_d/Projects/data/KITTI/prepared_data/train.txt"
    batch_size: 32
  }
}
layer {
  name: "conv1"
  type: "Convolution"
  bottom: "data"
  top: "conv1"
  param {
    lr_mult: 1
  }
  param {
    lr_mult: 1
  }
  convolution_param {
    num_output: 96
    kernel_size: 11
    stride: 4
    weight_filler {
      type: "gaussian"
      std: 0.01
    }
    bias_filler {
      type: "constant"
      value: 0
    }
  }
}
layer {
  name: "relu1"
  type: "ReLU"
  bottom: "conv1"
  top: "conv1"
}
layer {
  name: "pool1"
  type: "Pooling"
  bottom: "conv1"
  top: "pool1"
  pooling_param {
    pool: MAX
    kernel_size: 3
    stride: 2
  }
}
layer {
  name: "norm1"
  type: "LRN"
  bottom: "pool1"
  top: "norm1"
  lrn_param {
    local_size: 5
    alpha: 0.0001
    beta: 0.75
  }
}
layer {
  name: "conv2"
  type: "Convolution"
  bottom: "norm1"
  top: "conv2"
  param {
    lr_mult: 1
  }
  param {
    lr_mult: 1
  }
  convolution_param {
    num_output: 256
    pad: 2
    kernel_size: 5
    group: 2
    weight_filler {
      type: "gaussian"
      std: 0.01
    }
    bias_filler {
      type: "constant"
      value: 1
    }
  }
}
layer {
  name: "relu2"
  type: "ReLU"
  bottom: "conv2"
  top: "conv2"
}
layer {
  name: "pool2"
  type: "Pooling"
  bottom: "conv2"
  top: "pool2"
  pooling_param {
    pool: MAX
    kernel_size: 3
    stride: 2
  }
}
layer {
  name: "norm2"
  type: "LRN"
  bottom: "pool2"
  top: "norm2"
  lrn_param {
    local_size: 5
    alpha: 0.0001
    beta: 0.75
  }
}
layer {
  name: "conv3"
  type: "Convolution"
  bottom: "norm2"
  top: "conv3"
  param {
    lr_mult: 1
  }
  param {
    lr_mult: 1
  }
  convolution_param {
    num_output: 384
    pad: 1
    kernel_size: 3
    weight_filler {
      type: "gaussian"
      std: 0.01
    }
    bias_filler {
      type: "constant"
      value: 0
    }
  }
}
layer {
  name: "relu3"
  type: "ReLU"
  bottom: "conv3"
  top: "conv3"
}
layer {
  name: "conv4"
  type: "Convolution"
  bottom: "conv3"
  top: "conv4"
  param {
    lr_mult: 1
  }
  param {
    lr_mult: 1
  }
  convolution_param {
    num_output: 384
    pad: 1
    kernel_size: 3
    group: 2
    weight_filler {
      type: "gaussian"
      std: 0.01
    }
    bias_filler {
      type: "constant"
      value: 1
    }
  }
}
layer {
  name: "relu4"
  type: "ReLU"
  bottom: "conv4"
  top: "conv4"
}
layer {
  name: "conv5"
  type: "Convolution"
  bottom: "conv4"
  top: "conv5"
  param {
    lr_mult: 1
  }
  param {
    lr_mult: 1
  }
  convolution_param {
    num_output: 256
    pad: 1
    kernel_size: 3
    group: 2
    weight_filler {
      type: "gaussian"
      std: 0.01
    }
    bias_filler {
      type: "constant"
      value: 1
    }
  }
}
layer {
  name: "relu5"
  type: "ReLU"
  bottom: "conv5"
  top: "conv5"
}
layer {
  name: "pool5"
  type: "Pooling"
  bottom: "conv5"
  top: "pool5"
  pooling_param {
    pool: MAX
    kernel_size: 3
    stride: 2
  }
}
layer {
  name: "fc6"
  type: "InnerProduct"
  bottom: "pool5"
  top: "fc6"
  param {
    lr_mult: 1
  }
  param {
    lr_mult: 1
  }
  inner_product_param {
    num_output: 4096
    weight_filler {
      type: "gaussian"
      std: 0.005
    }
    bias_filler {
      type: "constant"
      value: 1
    }
  }
}
layer {
  name: "relu6"
  type: "ReLU"
  bottom: "fc6"
  top: "fc6"
}
layer {
  name: "drop6"
  type: "Dropout"
  bottom: "fc6"
  top: "fc6"
  dropout_param {
    dropout_ratio: 0.5
  }
}
layer {
  name: "fc7"
  type: "InnerProduct"
  bottom: "fc6"
  top: "fc7"
  param {
    lr_mult: 1
  }
  param {
    lr_mult: 1
  }
  inner_product_param {
    num_output: 4096
    weight_filler {
      type: "gaussian"
      std: 0.005
    }
    bias_filler {
      type: "constant"
      value: 1
    }
  }
}
layer {
  name: "relu7"
  type: "ReLU"
  bottom: "fc7"
  top: "fc7"
}
layer {
  name: "drop7"
  type: "Dropout"
  bottom: "fc7"
  top: "fc7"
  dropout_param {
    dropout_ratio: 0.5
  }
}
layer {
  name: "fc8_ft"
  type: "InnerProduct"
  bottom: "fc7"
  top: "fc8_ft"
  param {
    lr_mult: 1
  }
  param {
    lr_mult: 1
  }
  inner_product_param {
    num_output: 2
    weight_filler {
      type: "gaussian"
      std: 0.01
    }
    bias_filler {
      type: "constant"
      value: 0
    }
  }
}
layer {
  name: "loss"
  type: "SoftmaxWithLoss"
  bottom: "fc8_ft"
  bottom: "label"
  top: "loss"
}
I1011 16:50:38.450994 21700 layer_factory.hpp:74] Creating layer data
I1011 16:50:38.451190 21700 net.cpp:90] Creating Layer data
I1011 16:50:38.451289 21700 net.cpp:368] data -> data
I1011 16:50:38.451614 21700 net.cpp:368] data -> label
I1011 16:50:38.451659 21700 net.cpp:120] Setting up data
I1011 16:50:38.451869 21700 image_data_layer.cpp:36] Opening file /home/kruchinin_d/Projects/data/KITTI/prepared_data/train.txt
I1011 16:50:38.518532 21700 image_data_layer.cpp:51] A total of 82274 images.
I1011 16:50:38.526079 21700 image_data_layer.cpp:74] output data size: 32,3,227,227
I1011 16:50:38.533951 21700 net.cpp:127] Top shape: 32 3 227 227 (4946784)
I1011 16:50:38.533969 21700 net.cpp:127] Top shape: 32 (32)
I1011 16:50:38.534034 21700 layer_factory.hpp:74] Creating layer conv1
I1011 16:50:38.534116 21700 net.cpp:90] Creating Layer conv1
I1011 16:50:38.534132 21700 net.cpp:410] conv1 <- data
I1011 16:50:38.534179 21700 net.cpp:368] conv1 -> conv1
I1011 16:50:38.534219 21700 net.cpp:120] Setting up conv1
I1011 16:50:38.537446 21700 net.cpp:127] Top shape: 32 96 55 55 (9292800)
I1011 16:50:38.537479 21700 layer_factory.hpp:74] Creating layer relu1
I1011 16:50:38.537546 21700 net.cpp:90] Creating Layer relu1
I1011 16:50:38.537582 21700 net.cpp:410] relu1 <- conv1
I1011 16:50:38.537603 21700 net.cpp:357] relu1 -> conv1 (in-place)
I1011 16:50:38.537618 21700 net.cpp:120] Setting up relu1
I1011 16:50:38.538118 21700 net.cpp:127] Top shape: 32 96 55 55 (9292800)
I1011 16:50:38.538132 21700 layer_factory.hpp:74] Creating layer pool1
I1011 16:50:38.538148 21700 net.cpp:90] Creating Layer pool1
I1011 16:50:38.538158 21700 net.cpp:410] pool1 <- conv1
I1011 16:50:38.538175 21700 net.cpp:368] pool1 -> pool1
I1011 16:50:38.538193 21700 net.cpp:120] Setting up pool1
I1011 16:50:38.538298 21700 net.cpp:127] Top shape: 32 96 27 27 (2239488)
I1011 16:50:38.538321 21700 layer_factory.hpp:74] Creating layer norm1
I1011 16:50:38.538380 21700 net.cpp:90] Creating Layer norm1
I1011 16:50:38.538395 21700 net.cpp:410] norm1 <- pool1
I1011 16:50:38.538408 21700 net.cpp:368] norm1 -> norm1
I1011 16:50:38.538425 21700 net.cpp:120] Setting up norm1
I1011 16:50:38.538508 21700 net.cpp:127] Top shape: 32 96 27 27 (2239488)
I1011 16:50:38.538522 21700 layer_factory.hpp:74] Creating layer conv2
I1011 16:50:38.538537 21700 net.cpp:90] Creating Layer conv2
I1011 16:50:38.538545 21700 net.cpp:410] conv2 <- norm1
I1011 16:50:38.538559 21700 net.cpp:368] conv2 -> conv2
I1011 16:50:38.538575 21700 net.cpp:120] Setting up conv2
I1011 16:50:38.544281 21700 net.cpp:127] Top shape: 32 256 27 27 (5971968)
I1011 16:50:38.544301 21700 layer_factory.hpp:74] Creating layer relu2
I1011 16:50:38.544337 21700 net.cpp:90] Creating Layer relu2
I1011 16:50:38.544348 21700 net.cpp:410] relu2 <- conv2
I1011 16:50:38.544361 21700 net.cpp:357] relu2 -> conv2 (in-place)
I1011 16:50:38.544373 21700 net.cpp:120] Setting up relu2
I1011 16:50:38.544394 21700 net.cpp:127] Top shape: 32 256 27 27 (5971968)
I1011 16:50:38.544404 21700 layer_factory.hpp:74] Creating layer pool2
I1011 16:50:38.544416 21700 net.cpp:90] Creating Layer pool2
I1011 16:50:38.544426 21700 net.cpp:410] pool2 <- conv2
I1011 16:50:38.544438 21700 net.cpp:368] pool2 -> pool2
I1011 16:50:38.544451 21700 net.cpp:120] Setting up pool2
I1011 16:50:38.544471 21700 net.cpp:127] Top shape: 32 256 13 13 (1384448)
I1011 16:50:38.544481 21700 layer_factory.hpp:74] Creating layer norm2
I1011 16:50:38.544512 21700 net.cpp:90] Creating Layer norm2
I1011 16:50:38.544524 21700 net.cpp:410] norm2 <- pool2
I1011 16:50:38.544538 21700 net.cpp:368] norm2 -> norm2
I1011 16:50:38.544554 21700 net.cpp:120] Setting up norm2
I1011 16:50:38.544577 21700 net.cpp:127] Top shape: 32 256 13 13 (1384448)
I1011 16:50:38.544590 21700 layer_factory.hpp:74] Creating layer conv3
I1011 16:50:38.544607 21700 net.cpp:90] Creating Layer conv3
I1011 16:50:38.544620 21700 net.cpp:410] conv3 <- norm2
I1011 16:50:38.544633 21700 net.cpp:368] conv3 -> conv3
I1011 16:50:38.544663 21700 net.cpp:120] Setting up conv3
I1011 16:50:38.560607 21700 net.cpp:127] Top shape: 32 384 13 13 (2076672)
I1011 16:50:38.560627 21700 layer_factory.hpp:74] Creating layer relu3
I1011 16:50:38.560655 21700 net.cpp:90] Creating Layer relu3
I1011 16:50:38.560669 21700 net.cpp:410] relu3 <- conv3
I1011 16:50:38.560680 21700 net.cpp:357] relu3 -> conv3 (in-place)
I1011 16:50:38.560693 21700 net.cpp:120] Setting up relu3
I1011 16:50:38.560717 21700 net.cpp:127] Top shape: 32 384 13 13 (2076672)
I1011 16:50:38.560729 21700 layer_factory.hpp:74] Creating layer conv4
I1011 16:50:38.560742 21700 net.cpp:90] Creating Layer conv4
I1011 16:50:38.560751 21700 net.cpp:410] conv4 <- conv3
I1011 16:50:38.560775 21700 net.cpp:368] conv4 -> conv4
I1011 16:50:38.560787 21700 net.cpp:120] Setting up conv4
I1011 16:50:38.574347 21700 net.cpp:127] Top shape: 32 384 13 13 (2076672)
I1011 16:50:38.574367 21700 layer_factory.hpp:74] Creating layer relu4
I1011 16:50:38.574379 21700 net.cpp:90] Creating Layer relu4
I1011 16:50:38.574393 21700 net.cpp:410] relu4 <- conv4
I1011 16:50:38.574410 21700 net.cpp:357] relu4 -> conv4 (in-place)
I1011 16:50:38.574425 21700 net.cpp:120] Setting up relu4
I1011 16:50:38.574441 21700 net.cpp:127] Top shape: 32 384 13 13 (2076672)
I1011 16:50:38.574453 21700 layer_factory.hpp:74] Creating layer conv5
I1011 16:50:38.574470 21700 net.cpp:90] Creating Layer conv5
I1011 16:50:38.574481 21700 net.cpp:410] conv5 <- conv4
I1011 16:50:38.574496 21700 net.cpp:368] conv5 -> conv5
I1011 16:50:38.574511 21700 net.cpp:120] Setting up conv5
I1011 16:50:38.583591 21700 net.cpp:127] Top shape: 32 256 13 13 (1384448)
I1011 16:50:38.583613 21700 layer_factory.hpp:74] Creating layer relu5
I1011 16:50:38.583627 21700 net.cpp:90] Creating Layer relu5
I1011 16:50:38.583642 21700 net.cpp:410] relu5 <- conv5
I1011 16:50:38.583653 21700 net.cpp:357] relu5 -> conv5 (in-place)
I1011 16:50:38.583667 21700 net.cpp:120] Setting up relu5
I1011 16:50:38.583679 21700 net.cpp:127] Top shape: 32 256 13 13 (1384448)
I1011 16:50:38.583689 21700 layer_factory.hpp:74] Creating layer pool5
I1011 16:50:38.583701 21700 net.cpp:90] Creating Layer pool5
I1011 16:50:38.583715 21700 net.cpp:410] pool5 <- conv5
I1011 16:50:38.583732 21700 net.cpp:368] pool5 -> pool5
I1011 16:50:38.583748 21700 net.cpp:120] Setting up pool5
I1011 16:50:38.583768 21700 net.cpp:127] Top shape: 32 256 6 6 (294912)
I1011 16:50:38.583781 21700 layer_factory.hpp:74] Creating layer fc6
I1011 16:50:38.583798 21700 net.cpp:90] Creating Layer fc6
I1011 16:50:38.583811 21700 net.cpp:410] fc6 <- pool5
I1011 16:50:38.583843 21700 net.cpp:368] fc6 -> fc6
I1011 16:50:38.583871 21700 net.cpp:120] Setting up fc6
I1011 16:50:39.240308 21700 net.cpp:127] Top shape: 32 4096 (131072)
I1011 16:50:39.240365 21700 layer_factory.hpp:74] Creating layer relu6
I1011 16:50:39.240391 21700 net.cpp:90] Creating Layer relu6
I1011 16:50:39.240401 21700 net.cpp:410] relu6 <- fc6
I1011 16:50:39.240416 21700 net.cpp:357] relu6 -> fc6 (in-place)
I1011 16:50:39.240434 21700 net.cpp:120] Setting up relu6
I1011 16:50:39.240458 21700 net.cpp:127] Top shape: 32 4096 (131072)
I1011 16:50:39.240466 21700 layer_factory.hpp:74] Creating layer drop6
I1011 16:50:39.240483 21700 net.cpp:90] Creating Layer drop6
I1011 16:50:39.240492 21700 net.cpp:410] drop6 <- fc6
I1011 16:50:39.240505 21700 net.cpp:357] drop6 -> fc6 (in-place)
I1011 16:50:39.240530 21700 net.cpp:120] Setting up drop6
I1011 16:50:39.240593 21700 net.cpp:127] Top shape: 32 4096 (131072)
I1011 16:50:39.240607 21700 layer_factory.hpp:74] Creating layer fc7
I1011 16:50:39.240623 21700 net.cpp:90] Creating Layer fc7
I1011 16:50:39.240633 21700 net.cpp:410] fc7 <- fc6
I1011 16:50:39.240651 21700 net.cpp:368] fc7 -> fc7
I1011 16:50:39.240669 21700 net.cpp:120] Setting up fc7
I1011 16:50:39.527097 21700 net.cpp:127] Top shape: 32 4096 (131072)
I1011 16:50:39.527137 21700 layer_factory.hpp:74] Creating layer relu7
I1011 16:50:39.527155 21700 net.cpp:90] Creating Layer relu7
I1011 16:50:39.527166 21700 net.cpp:410] relu7 <- fc7
I1011 16:50:39.527179 21700 net.cpp:357] relu7 -> fc7 (in-place)
I1011 16:50:39.527194 21700 net.cpp:120] Setting up relu7
I1011 16:50:39.527205 21700 net.cpp:127] Top shape: 32 4096 (131072)
I1011 16:50:39.527215 21700 layer_factory.hpp:74] Creating layer drop7
I1011 16:50:39.527227 21700 net.cpp:90] Creating Layer drop7
I1011 16:50:39.527236 21700 net.cpp:410] drop7 <- fc7
I1011 16:50:39.527247 21700 net.cpp:357] drop7 -> fc7 (in-place)
I1011 16:50:39.527264 21700 net.cpp:120] Setting up drop7
I1011 16:50:39.527281 21700 net.cpp:127] Top shape: 32 4096 (131072)
I1011 16:50:39.527292 21700 layer_factory.hpp:74] Creating layer fc8_ft
I1011 16:50:39.527314 21700 net.cpp:90] Creating Layer fc8_ft
I1011 16:50:39.527325 21700 net.cpp:410] fc8_ft <- fc7
I1011 16:50:39.527338 21700 net.cpp:368] fc8_ft -> fc8_ft
I1011 16:50:39.527353 21700 net.cpp:120] Setting up fc8_ft
I1011 16:50:39.527529 21700 net.cpp:127] Top shape: 32 2 (64)
I1011 16:50:39.527546 21700 layer_factory.hpp:74] Creating layer loss
I1011 16:50:39.527668 21700 net.cpp:90] Creating Layer loss
I1011 16:50:39.527680 21700 net.cpp:410] loss <- fc8_ft
I1011 16:50:39.527691 21700 net.cpp:410] loss <- label
I1011 16:50:39.527709 21700 net.cpp:368] loss -> loss
I1011 16:50:39.527724 21700 net.cpp:120] Setting up loss
I1011 16:50:39.527739 21700 layer_factory.hpp:74] Creating layer loss
…
I1011 16:50:39.529600 21700 solver.cpp:154] Creating test net (#0) specified by net file: /home/kruchinin_d/Projects/scaling-archer/nn/caffenet_fulltrain/train_val.prototxt
I1011 16:50:39.529664 21700 net.cpp:287] The NetState phase (1) differed from the phase (0) specified by a rule in layer data
I1011 16:50:39.529868 21700 net.cpp:42] Initializing net from parameters: 
name: "CaffeNet"
state {
  phase: TEST
}
layer {
  name: "data"
  type: "ImageData"
  top: "data"
  top: "label"
  include {
    phase: TEST
  }
  image_data_param {
    source: "/home/kruchinin_d/Projects/data/KITTI/prepared_data/test.txt"
    batch_size: 50
  }
}
layer {
  name: "conv1"
  type: "Convolution"
  bottom: "data"
  top: "conv1"
  param {
    lr_mult: 1
  }
  param {
    lr_mult: 1
  }
  convolution_param {
    num_output: 96
    kernel_size: 11
    stride: 4
    weight_filler {
      type: "gaussian"
      std: 0.01
    }
    bias_filler {
      type: "constant"
      value: 0
    }
  }
}
layer {
  name: "relu1"
  type: "ReLU"
  bottom: "conv1"
  top: "conv1"
}
layer {
  name: "pool1"
  type: "Pooling"
  bottom: "conv1"
  top: "pool1"
  pooling_param {
    pool: MAX
    kernel_size: 3
    stride: 2
  }
}
layer {
  name: "norm1"
  type: "LRN"
  bottom: "pool1"
  top: "norm1"
  lrn_param {
    local_size: 5
    alpha: 0.0001
    beta: 0.75
  }
}
layer {
  name: "conv2"
  type: "Convolution"
  bottom: "norm1"
  top: "conv2"
  param {
    lr_mult: 1
  }
  param {
    lr_mult: 1
  }
  convolution_param {
    num_output: 256
    pad: 2
    kernel_size: 5
    group: 2
    weight_filler {
      type: "gaussian"
      std: 0.01
    }
    bias_filler {
      type: "constant"
      value: 1
    }
  }
}
layer {
  name: "relu2"
  type: "ReLU"
  bottom: "conv2"
  top: "conv2"
}
layer {
  name: "pool2"
  type: "Pooling"
  bottom: "conv2"
  top: "pool2"
  pooling_param {
    pool: MAX
    kernel_size: 3
    stride: 2
  }
}
layer {
  name: "norm2"
  type: "LRN"
  bottom: "pool2"
  top: "norm2"
  lrn_param {
    local_size: 5
    alpha: 0.0001
    beta: 0.75
  }
}
layer {
  name: "conv3"
  type: "Convolution"
  bottom: "norm2"
  top: "conv3"
  param {
    lr_mult: 1
  }
  param {
    lr_mult: 1
  }
  convolution_param {
    num_output: 384
    pad: 1
    kernel_size: 3
    weight_filler {
      type: "gaussian"
      std: 0.01
    }
    bias_filler {
      type: "constant"
      value: 0
    }
  }
}
layer {
  name: "relu3"
  type: "ReLU"
  bottom: "conv3"
  top: "conv3"
}
layer {
  name: "conv4"
  type: "Convolution"
  bottom: "conv3"
  top: "conv4"
  param {
    lr_mult: 1
  }
  param {
    lr_mult: 1
  }
  convolution_param {
    num_output: 384
    pad: 1
    kernel_size: 3
    group: 2
    weight_filler {
      type: "gaussian"
      std: 0.01
    }
    bias_filler {
      type: "constant"
      value: 1
    }
  }
}
layer {
  name: "relu4"
  type: "ReLU"
  bottom: "conv4"
  top: "conv4"
}
layer {
  name: "conv5"
  type: "Convolution"
  bottom: "conv4"
  top: "conv5"
  param {
    lr_mult: 1
  }
  param {
    lr_mult: 1
  }
  convolution_param {
    num_output: 256
    pad: 1
    kernel_size: 3
    group: 2
    weight_filler {
      type: "gaussian"
      std: 0.01
    }
    bias_filler {
      type: "constant"
      value: 1
    }
  }
}
layer {
  name: "relu5"
  type: "ReLU"
  bottom: "conv5"
  top: "conv5"
}
layer {
  name: "pool5"
  type: "Pooling"
  bottom: "conv5"
  top: "pool5"
  pooling_param {
    pool: MAX
    kernel_size: 3
    stride: 2
  }
}
layer {
  name: "fc6"
  type: "InnerProduct"
  bottom: "pool5"
  top: "fc6"
  param {
    lr_mult: 1
  }
  param {
    lr_mult: 1
  }
  inner_product_param {
    num_output: 4096
    weight_filler {
      type: "gaussian"
      std: 0.005
    }
    bias_filler {
      type: "constant"
      value: 1
    }
  }
}
layer {
  name: "relu6"
  type: "ReLU"
  bottom: "fc6"
  top: "fc6"
}
layer {
  name: "drop6"
  type: "Dropout"
  bottom: "fc6"
  top: "fc6"
  dropout_param {
    dropout_ratio: 0.5
  }
}
layer {
  name: "fc7"
  type: "InnerProduct"
  bottom: "fc6"
  top: "fc7"
  param {
    lr_mult: 1
  }
  param {
    lr_mult: 1
  }
  inner_product_param {
    num_output: 4096
    weight_filler {
      type: "gaussian"
      std: 0.005
    }
    bias_filler {
      type: "constant"
      value: 1
    }
  }
}
layer {
  name: "relu7"
  type: "ReLU"
  bottom: "fc7"
  top: "fc7"
}
layer {
  name: "drop7"
  type: "Dropout"
  bottom: "fc7"
  top: "fc7"
  dropout_param {
    dropout_ratio: 0.5
  }
}
layer {
  name: "fc8_ft"
  type: "InnerProduct"
  bottom: "fc7"
  top: "fc8_ft"
  param {
    lr_mult: 1
  }
  param {
    lr_mult: 1
  }
  inner_product_param {
    num_output: 2
    weight_filler {
      type: "gaussian"
      std: 0.01
    }
    bias_filler {
      type: "constant"
      value: 0
    }
  }
}
layer {
  name: "accuracy"
  type: "Accuracy"
  bottom: "fc8_ft"
  bottom: "label"
  top: "accuracy"
  include {
    phase: TEST
  }
}
layer {
  name: "loss"
  type: "SoftmaxWithLoss"
  bottom: "fc8_ft"
  bottom: "label"
  top: "loss"
}
I1011 16:50:39.530055 21700 layer_factory.hpp:74] Creating layer data
I1011 16:50:39.530073 21700 net.cpp:90] Creating Layer data
I1011 16:50:39.530086 21700 net.cpp:368] data -> data
I1011 16:50:39.530102 21700 net.cpp:368] data -> label
I1011 16:50:39.530117 21700 net.cpp:120] Setting up data
I1011 16:50:39.530130 21700 image_data_layer.cpp:36] Opening file /home/kruchinin_d/Projects/data/KITTI/prepared_data/test.txt
I1011 16:50:39.548902 21700 image_data_layer.cpp:51] A total of 20567 images.
I1011 16:50:39.554534 21700 image_data_layer.cpp:74] output data size: 50,3,227,227
I1011 16:50:39.565153 21700 net.cpp:127] Top shape: 50 3 227 227 (7729350)
I1011 16:50:39.565170 21700 net.cpp:127] Top shape: 50 (50)
I1011 16:50:39.565181 21700 layer_factory.hpp:74] Creating layer label_data_1_split
I1011 16:50:39.565197 21700 net.cpp:90] Creating Layer label_data_1_split
I1011 16:50:39.565207 21700 net.cpp:410] label_data_1_split <- label
I1011 16:50:39.565220 21700 net.cpp:368] label_data_1_split -> label_data_1_split_0
I1011 16:50:39.565237 21700 net.cpp:368] label_data_1_split -> label_data_1_split_1
I1011 16:50:39.565335 21700 net.cpp:120] Setting up label_data_1_split
I1011 16:50:39.565349 21700 net.cpp:127] Top shape: 50 (50)
I1011 16:50:39.565361 21700 net.cpp:127] Top shape: 50 (50)
I1011 16:50:39.565371 21700 layer_factory.hpp:74] Creating layer conv1
I1011 16:50:39.565387 21700 net.cpp:90] Creating Layer conv1
I1011 16:50:39.565397 21700 net.cpp:410] conv1 <- data
I1011 16:50:39.565420 21700 net.cpp:368] conv1 -> conv1
I1011 16:50:39.565434 21700 net.cpp:120] Setting up conv1
I1011 16:50:39.566104 21700 net.cpp:127] Top shape: 50 96 55 55 (14520000)
I1011 16:50:39.566124 21700 layer_factory.hpp:74] Creating layer relu1
I1011 16:50:39.566136 21700 net.cpp:90] Creating Layer relu1
I1011 16:50:39.566145 21700 net.cpp:410] relu1 <- conv1
I1011 16:50:39.566156 21700 net.cpp:357] relu1 -> conv1 (in-place)
I1011 16:50:39.566169 21700 net.cpp:120] Setting up relu1
I1011 16:50:39.566179 21700 net.cpp:127] Top shape: 50 96 55 55 (14520000)
I1011 16:50:39.566189 21700 layer_factory.hpp:74] Creating layer pool1
I1011 16:50:39.566201 21700 net.cpp:90] Creating Layer pool1
I1011 16:50:39.566210 21700 net.cpp:410] pool1 <- conv1
I1011 16:50:39.566223 21700 net.cpp:368] pool1 -> pool1
I1011 16:50:39.566236 21700 net.cpp:120] Setting up pool1
I1011 16:50:39.566272 21700 net.cpp:127] Top shape: 50 96 27 27 (3499200)
I1011 16:50:39.566282 21700 layer_factory.hpp:74] Creating layer norm1
I1011 16:50:39.566294 21700 net.cpp:90] Creating Layer norm1
I1011 16:50:39.566303 21700 net.cpp:410] norm1 <- pool1
I1011 16:50:39.566313 21700 net.cpp:368] norm1 -> norm1
I1011 16:50:39.566325 21700 net.cpp:120] Setting up norm1
I1011 16:50:39.566350 21700 net.cpp:127] Top shape: 50 96 27 27 (3499200)
I1011 16:50:39.566361 21700 layer_factory.hpp:74] Creating layer conv2
I1011 16:50:39.566375 21700 net.cpp:90] Creating Layer conv2
I1011 16:50:39.566382 21700 net.cpp:410] conv2 <- norm1
I1011 16:50:39.566407 21700 net.cpp:368] conv2 -> conv2
I1011 16:50:39.566421 21700 net.cpp:120] Setting up conv2
I1011 16:50:39.571785 21700 net.cpp:127] Top shape: 50 256 27 27 (9331200)
I1011 16:50:39.571805 21700 layer_factory.hpp:74] Creating layer relu2
I1011 16:50:39.571818 21700 net.cpp:90] Creating Layer relu2
I1011 16:50:39.571827 21700 net.cpp:410] relu2 <- conv2
I1011 16:50:39.571838 21700 net.cpp:357] relu2 -> conv2 (in-place)
I1011 16:50:39.571861 21700 net.cpp:120] Setting up relu2
I1011 16:50:39.571873 21700 net.cpp:127] Top shape: 50 256 27 27 (9331200)
I1011 16:50:39.571882 21700 layer_factory.hpp:74] Creating layer pool2
I1011 16:50:39.571895 21700 net.cpp:90] Creating Layer pool2
I1011 16:50:39.571914 21700 net.cpp:410] pool2 <- conv2
I1011 16:50:39.571925 21700 net.cpp:368] pool2 -> pool2
I1011 16:50:39.571938 21700 net.cpp:120] Setting up pool2
I1011 16:50:39.571955 21700 net.cpp:127] Top shape: 50 256 13 13 (2163200)
I1011 16:50:39.571967 21700 layer_factory.hpp:74] Creating layer norm2
I1011 16:50:39.571979 21700 net.cpp:90] Creating Layer norm2
I1011 16:50:39.571988 21700 net.cpp:410] norm2 <- pool2
I1011 16:50:39.572001 21700 net.cpp:368] norm2 -> norm2
I1011 16:50:39.572015 21700 net.cpp:120] Setting up norm2
I1011 16:50:39.572031 21700 net.cpp:127] Top shape: 50 256 13 13 (2163200)
I1011 16:50:39.572039 21700 layer_factory.hpp:74] Creating layer conv3
I1011 16:50:39.572052 21700 net.cpp:90] Creating Layer conv3
I1011 16:50:39.572060 21700 net.cpp:410] conv3 <- norm2
I1011 16:50:39.572072 21700 net.cpp:368] conv3 -> conv3
I1011 16:50:39.572085 21700 net.cpp:120] Setting up conv3
I1011 16:50:39.588357 21700 net.cpp:127] Top shape: 50 384 13 13 (3244800)
I1011 16:50:39.588381 21700 layer_factory.hpp:74] Creating layer relu3
I1011 16:50:39.588393 21700 net.cpp:90] Creating Layer relu3
I1011 16:50:39.588402 21700 net.cpp:410] relu3 <- conv3
I1011 16:50:39.588414 21700 net.cpp:357] relu3 -> conv3 (in-place)
I1011 16:50:39.588428 21700 net.cpp:120] Setting up relu3
I1011 16:50:39.588440 21700 net.cpp:127] Top shape: 50 384 13 13 (3244800)
I1011 16:50:39.588449 21700 layer_factory.hpp:74] Creating layer conv4
I1011 16:50:39.588461 21700 net.cpp:90] Creating Layer conv4
I1011 16:50:39.588470 21700 net.cpp:410] conv4 <- conv3
I1011 16:50:39.588484 21700 net.cpp:368] conv4 -> conv4
I1011 16:50:39.588496 21700 net.cpp:120] Setting up conv4
I1011 16:50:39.601038 21700 net.cpp:127] Top shape: 50 384 13 13 (3244800)
I1011 16:50:39.601059 21700 layer_factory.hpp:74] Creating layer relu4
I1011 16:50:39.601083 21700 net.cpp:90] Creating Layer relu4
I1011 16:50:39.601094 21700 net.cpp:410] relu4 <- conv4
I1011 16:50:39.601104 21700 net.cpp:357] relu4 -> conv4 (in-place)
I1011 16:50:39.601116 21700 net.cpp:120] Setting up relu4
I1011 16:50:39.601128 21700 net.cpp:127] Top shape: 50 384 13 13 (3244800)
I1011 16:50:39.601148 21700 layer_factory.hpp:74] Creating layer conv5
I1011 16:50:39.601161 21700 net.cpp:90] Creating Layer conv5
I1011 16:50:39.601169 21700 net.cpp:410] conv5 <- conv4
I1011 16:50:39.601186 21700 net.cpp:368] conv5 -> conv5
I1011 16:50:39.601212 21700 net.cpp:120] Setting up conv5
I1011 16:50:39.609596 21700 net.cpp:127] Top shape: 50 256 13 13 (2163200)
I1011 16:50:39.609616 21700 layer_factory.hpp:74] Creating layer relu5
I1011 16:50:39.609628 21700 net.cpp:90] Creating Layer relu5
I1011 16:50:39.609637 21700 net.cpp:410] relu5 <- conv5
I1011 16:50:39.609663 21700 net.cpp:357] relu5 -> conv5 (in-place)
I1011 16:50:39.609678 21700 net.cpp:120] Setting up relu5
I1011 16:50:39.609693 21700 net.cpp:127] Top shape: 50 256 13 13 (2163200)
I1011 16:50:39.609701 21700 layer_factory.hpp:74] Creating layer pool5
I1011 16:50:39.609714 21700 net.cpp:90] Creating Layer pool5
I1011 16:50:39.609724 21700 net.cpp:410] pool5 <- conv5
I1011 16:50:39.609735 21700 net.cpp:368] pool5 -> pool5
I1011 16:50:39.609747 21700 net.cpp:120] Setting up pool5
I1011 16:50:39.609763 21700 net.cpp:127] Top shape: 50 256 6 6 (460800)
I1011 16:50:39.609774 21700 layer_factory.hpp:74] Creating layer fc6
I1011 16:50:39.609788 21700 net.cpp:90] Creating Layer fc6
I1011 16:50:39.609798 21700 net.cpp:410] fc6 <- pool5
I1011 16:50:39.609815 21700 net.cpp:368] fc6 -> fc6
I1011 16:50:39.609833 21700 net.cpp:120] Setting up fc6
I1011 16:50:40.267127 21700 net.cpp:127] Top shape: 50 4096 (204800)
I1011 16:50:40.267169 21700 layer_factory.hpp:74] Creating layer relu6
I1011 16:50:40.267186 21700 net.cpp:90] Creating Layer relu6
I1011 16:50:40.267196 21700 net.cpp:410] relu6 <- fc6
I1011 16:50:40.267210 21700 net.cpp:357] relu6 -> fc6 (in-place)
I1011 16:50:40.267225 21700 net.cpp:120] Setting up relu6
I1011 16:50:40.267237 21700 net.cpp:127] Top shape: 50 4096 (204800)
I1011 16:50:40.267246 21700 layer_factory.hpp:74] Creating layer drop6
I1011 16:50:40.267264 21700 net.cpp:90] Creating Layer drop6
I1011 16:50:40.267277 21700 net.cpp:410] drop6 <- fc6
I1011 16:50:40.267288 21700 net.cpp:357] drop6 -> fc6 (in-place)
I1011 16:50:40.267302 21700 net.cpp:120] Setting up drop6
I1011 16:50:40.267315 21700 net.cpp:127] Top shape: 50 4096 (204800)
I1011 16:50:40.267325 21700 layer_factory.hpp:74] Creating layer fc7
I1011 16:50:40.267345 21700 net.cpp:90] Creating Layer fc7
I1011 16:50:40.267356 21700 net.cpp:410] fc7 <- fc6
I1011 16:50:40.267369 21700 net.cpp:368] fc7 -> fc7
I1011 16:50:40.267385 21700 net.cpp:120] Setting up fc7
I1011 16:50:40.553011 21700 net.cpp:127] Top shape: 50 4096 (204800)
I1011 16:50:40.553052 21700 layer_factory.hpp:74] Creating layer relu7
I1011 16:50:40.553069 21700 net.cpp:90] Creating Layer relu7
I1011 16:50:40.553079 21700 net.cpp:410] relu7 <- fc7
I1011 16:50:40.553093 21700 net.cpp:357] relu7 -> fc7 (in-place)
I1011 16:50:40.553108 21700 net.cpp:120] Setting up relu7
I1011 16:50:40.553122 21700 net.cpp:127] Top shape: 50 4096 (204800)
I1011 16:50:40.553130 21700 layer_factory.hpp:74] Creating layer drop7
I1011 16:50:40.553148 21700 net.cpp:90] Creating Layer drop7
I1011 16:50:40.553159 21700 net.cpp:410] drop7 <- fc7
I1011 16:50:40.553171 21700 net.cpp:357] drop7 -> fc7 (in-place)
I1011 16:50:40.553184 21700 net.cpp:120] Setting up drop7
I1011 16:50:40.553197 21700 net.cpp:127] Top shape: 50 4096 (204800)
I1011 16:50:40.553206 21700 layer_factory.hpp:74] Creating layer fc8_ft
I1011 16:50:40.553225 21700 net.cpp:90] Creating Layer fc8_ft
I1011 16:50:40.553236 21700 net.cpp:410] fc8_ft <- fc7
I1011 16:50:40.553247 21700 net.cpp:368] fc8_ft -> fc8_ft
I1011 16:50:40.553272 21700 net.cpp:120] Setting up fc8_ft
I1011 16:50:40.553452 21700 net.cpp:127] Top shape: 50 2 (100)
I1011 16:50:40.553467 21700 layer_factory.hpp:74] Creating layer fc8_ft_fc8_ft_0_split
I1011 16:50:40.553481 21700 net.cpp:90] Creating Layer fc8_ft_fc8_ft_0_split
I1011 16:50:40.553490 21700 net.cpp:410] fc8_ft_fc8_ft_0_split <- fc8_ft
I1011 16:50:40.553506 21700 net.cpp:368] fc8_ft_fc8_ft_0_split -> fc8_ft_fc8_ft_0_split_0
I1011 16:50:40.553520 21700 net.cpp:368] fc8_ft_fc8_ft_0_split -> fc8_ft_fc8_ft_0_split_1
I1011 16:50:40.553532 21700 net.cpp:120] Setting up fc8_ft_fc8_ft_0_split
I1011 16:50:40.553547 21700 net.cpp:127] Top shape: 50 2 (100)
I1011 16:50:40.553558 21700 net.cpp:127] Top shape: 50 2 (100)
I1011 16:50:40.553567 21700 layer_factory.hpp:74] Creating layer accuracy
I1011 16:50:40.553719 21700 net.cpp:90] Creating Layer accuracy
I1011 16:50:40.553732 21700 net.cpp:410] accuracy <- fc8_ft_fc8_ft_0_split_0
I1011 16:50:40.553743 21700 net.cpp:410] accuracy <- label_data_1_split_0
I1011 16:50:40.553779 21700 net.cpp:368] accuracy -> accuracy
I1011 16:50:40.553797 21700 net.cpp:120] Setting up accuracy
…
