…
I0817 17:43:41.807044 24758 net.cpp:287] The NetState phase (0) differed from the phase (1) specified by a rule in layer loss2/top-1
I0817 17:43:41.807088 24758 net.cpp:287] The NetState phase (0) differed from the phase (1) specified by a rule in layer loss3/top-1
I0817 17:43:41.808068 24758 net.cpp:42] Initializing net from parameters: 
name: "FullTrain_GoogleNet"
state {
  phase: TRAIN
}
layer {
  name: "data"
  type: "ImageData"
  top: "data"
  top: "label"
  include {
    phase: TRAIN
  }
  image_data_param {
    source: "/home/kruchinin_d/Projects/data/KITTI/prepared_data/train.txt"
    batch_size: 32
  }
}
layer {
  name: "conv1/7x7_s2"
  type: "Convolution"
  bottom: "data"
  top: "conv1/7x7_s2"
  param {
    lr_mult: 1
    decay_mult: 1
  }
  param {
    lr_mult: 2
    decay_mult: 0
  }
  convolution_param {
    num_output: 64
    pad: 3
    kernel_size: 7
    stride: 2
    weight_filler {
      type: "xavier"
    }
    bias_filler {
      type: "constant"
      value: 0.2
    }
  }
}
layer {
  name: "conv1/relu_7x7"
  type: "ReLU"
  bottom: "conv1/7x7_s2"
  top: "conv1/7x7_s2"
}
layer {
  name: "pool1/3x3_s2"
  type: "Pooling"
  bottom: "conv1/7x7_s2"
  top: "pool1/3x3_s2"
  pooling_param {
    pool: MAX
    kernel_size: 3
    stride: 2
  }
}
layer {
  name: "pool1/norm1"
  type: "LRN"
  bottom: "pool1/3x3_s2"
  top: "pool1/norm1"
  lrn_param {
    local_size: 5
    alpha: 0.0001
    beta: 0.75
  }
}
layer {
  name: "conv2/3x3_reduce"
  type: "Convolution"
  bottom: "pool1/norm1"
  top: "conv2/3x3_reduce"
  param {
    lr_mult: 1
    decay_mult: 1
  }
  param {
    lr_mult: 2
    decay_mult: 0
  }
  convolution_param {
    num_output: 64
    kernel_size: 1
    weight_filler {
      type: "xavier"
    }
    bias_filler {
      type: "constant"
      value: 0.2
    }
  }
}
layer {
  name: "conv2/relu_3x3_reduce"
  type: "ReLU"
  bottom: "conv2/3x3_reduce"
  top: "conv2/3x3_reduce"
}
layer {
  name: "conv2/3x3"
  type: "Convolution"
  bottom: "conv2/3x3_reduce"
  top: "conv2/3x3"
  param {
    lr_mult: 1
    decay_mult: 1
  }
  param {
    lr_mult: 2
    decay_mult: 0
  }
  convolution_param {
    num_output: 192
    pad: 1
    kernel_size: 3
    weight_filler {
      type: "xavier"
    }
    bias_filler {
      type: "constant"
      value: 0.2
    }
  }
}
layer {
  name: "conv2/relu_3x3"
  type: "ReLU"
  bottom: "conv2/3x3"
  top: "conv2/3x3"
}
layer {
  name: "conv2/norm2"
  type: "LRN"
  bottom: "conv2/3x3"
  top: "conv2/norm2"
  lrn_param {
    local_size: 5
    alpha: 0.0001
    beta: 0.75
  }
}
layer {
  name: "pool2/3x3_s2"
  type: "Pooling"
  bottom: "conv2/norm2"
  top: "pool2/3x3_s2"
  pooling_param {
    pool: MAX
    kernel_size: 3
    stride: 2
  }
}
layer {
  name: "inception_3a/1x1"
  type: "Convolution"
  bottom: "pool2/3x3_s2"
  top: "inception_3a/1x1"
  param {
    lr_mult: 1
    decay_mult: 1
  }
  param {
    lr_mult: 2
    decay_mult: 0
  }
  convolution_param {
    num_output: 64
    kernel_size: 1
    weight_filler {
      type: "xavier"
    }
    bias_filler {
      type: "constant"
      value: 0.2
    }
  }
}
layer {
  name: "inception_3a/relu_1x1"
  type: "ReLU"
  bottom: "inception_3a/1x1"
  top: "inception_3a/1x1"
}
layer {
  name: "inception_3a/3x3_reduce"
  type: "Convolution"
  bottom: "pool2/3x3_s2"
  top: "inception_3a/3x3_reduce"
  param {
    lr_mult: 1
    decay_mult: 1
  }
  param {
    lr_mult: 2
    decay_mult: 0
  }
  convolution_param {
    num_output: 96
    kernel_size: 1
    weight_filler {
      type: "xavier"
    }
    bias_filler {
      type: "constant"
      value: 0.2
    }
  }
}
layer {
  name: "inception_3a/relu_3x3_reduce"
  type: "ReLU"
  bottom: "inception_3a/3x3_reduce"
  top: "inception_3a/3x3_reduce"
}
layer {
  name: "inception_3a/3x3"
  type: "Convolution"
  bottom: "inception_3a/3x3_reduce"
  top: "inception_3a/3x3"
  param {
    lr_mult: 1
    decay_mult: 1
  }
  param {
    lr_mult: 2
    decay_mult: 0
  }
  convolution_param {
    num_output: 128
    pad: 1
    kernel_size: 3
    weight_filler {
      type: "xavier"
    }
    bias_filler {
      type: "constant"
      value: 0.2
    }
  }
}
layer {
  name: "inception_3a/relu_3x3"
  type: "ReLU"
  bottom: "inception_3a/3x3"
  top: "inception_3a/3x3"
}
layer {
  name: "inception_3a/5x5_reduce"
  type: "Convolution"
  bottom: "pool2/3x3_s2"
  top: "inception_3a/5x5_reduce"
  param {
    lr_mult: 1
    decay_mult: 1
  }
  param {
    lr_mult: 2
    decay_mult: 0
  }
  convolution_param {
    num_output: 16
    kernel_size: 1
    weight_filler {
      type: "xavier"
    }
    bias_filler {
      type: "constant"
      value: 0.2
    }
  }
}
layer {
  name: "inception_3a/relu_5x5_reduce"
  type: "ReLU"
  bottom: "inception_3a/5x5_reduce"
  top: "inception_3a/5x5_reduce"
}
layer {
  name: "inception_3a/5x5"
  type: "Convolution"
  bottom: "inception_3a/5x5_reduce"
  top: "inception_3a/5x5"
  param {
    lr_mult: 1
    decay_mult: 1
  }
  param {
    lr_mult: 2
    decay_mult: 0
  }
  convolution_param {
    num_output: 32
    pad: 2
    kernel_size: 5
    weight_filler {
      type: "xavier"
    }
    bias_filler {
      type: "constant"
      value: 0.2
    }
  }
}
layer {
  name: "inception_3a/relu_5x5"
  type: "ReLU"
  bottom: "inception_3a/5x5"
  top: "inception_3a/5x5"
}
layer {
  name: "inception_3a/pool"
  type: "Pooling"
  bottom: "pool2/3x3_s2"
  top: "inception_3a/pool"
  pooling_param {
    pool: MAX
    kernel_size: 3
    stride: 1
    pad: 1
  }
}
layer {
  name: "inception_3a/pool_proj"
  type: "Convolution"
  bottom: "inception_3a/pool"
  top: "inception_3a/pool_proj"
  param {
    lr_mult: 1
    decay_mult: 1
  }
  param {
    lr_mult: 2
    decay_mult: 0
  }
  convolution_param {
    num_output: 32
    kernel_size: 1
    weight_filler {
      type: "xavier"
    }
    bias_filler {
      type: "constant"
      value: 0.2
    }
  }
}
layer {
  name: "inception_3a/relu_pool_proj"
  type: "ReLU"
  bottom: "inception_3a/pool_proj"
  top: "inception_3a/pool_proj"
}
layer {
  name: "inception_3a/output"
  type: "Concat"
  bottom: "inception_3a/1x1"
  bottom: "inception_3a/3x3"
  bottom: "inception_3a/5x5"
  bottom: "inception_3a/pool_proj"
  top: "inception_3a/output"
}
layer {
  name: "inception_3b/1x1"
  type: "Convolution"
  bottom: "inception_3a/output"
  top: "inception_3b/1x1"
  param {
    lr_mult: 1
    decay_mult: 1
  }
  param {
    lr_mult: 2
    decay_mult: 0
  }
  convolution_param {
    num_output: 128
    kernel_size: 1
    weight_filler {
      type: "xavier"
    }
    bias_filler {
      type: "constant"
      value: 0.2
    }
  }
}
layer {
  name: "inception_3b/relu_1x1"
  type: "ReLU"
  bottom: "inception_3b/1x1"
  top: "inception_3b/1x1"
}
layer {
  name: "inception_3b/3x3_reduce"
  type: "Convolution"
  bottom: "inception_3a/output"
  top: "inception_3b/3x3_reduce"
  param {
    lr_mult: 1
    decay_mult: 1
  }
  param {
    lr_mult: 2
    decay_mult: 0
  }
  convolution_param {
    num_output: 128
    kernel_size: 1
    weight_filler {
      type: "xavier"
    }
    bias_filler {
      type: "constant"
      value: 0.2
    }
  }
}
layer {
  name: "inception_3b/relu_3x3_reduce"
  type: "ReLU"
  bottom: "inception_3b/3x3_reduce"
  top: "inception_3b/3x3_reduce"
}
layer {
  name: "inception_3b/3x3"
  type: "Convolution"
  bottom: "inception_3b/3x3_reduce"
  top: "inception_3b/3x3"
  param {
    lr_mult: 1
    decay_mult: 1
  }
  param {
    lr_mult: 2
    decay_mult: 0
  }
  convolution_param {
    num_output: 192
    pad: 1
    kernel_size: 3
    weight_filler {
      type: "xavier"
    }
    bias_filler {
      type: "constant"
      value: 0.2
    }
  }
}
layer {
  name: "inception_3b/relu_3x3"
  type: "ReLU"
  bottom: "inception_3b/3x3"
  top: "inception_3b/3x3"
}
layer {
  name: "inception_3b/5x5_reduce"
  type: "Convolution"
  bottom: "inception_3a/output"
  top: "inception_3b/5x5_reduce"
  param {
    lr_mult: 1
    decay_mult: 1
  }
  param {
    lr_mult: 2
    decay_mult: 0
  }
  convolution_param {
    num_output: 32
    kernel_size: 1
    weight_filler {
      type: "xavier"
    }
    bias_filler {
      type: "constant"
      value: 0.2
    }
  }
}
layer {
  name: "inception_3b/relu_5x5_reduce"
  type: "ReLU"
  bottom: "inception_3b/5x5_reduce"
  top: "inception_3b/5x5_reduce"
}
layer {
  name: "inception_3b/5x5"
  type: "Convolution"
  bottom: "inception_3b/5x5_reduce"
  top: "inception_3b/5x5"
  param {
    lr_mult: 1
    decay_mult: 1
  }
  param {
    lr_mult: 2
    decay_mult: 0
  }
  convolution_param {
    num_output: 96
    pad: 2
    kernel_size: 5
    weight_filler {
      type: "xavier"
    }
    bias_filler {
      type: "constant"
      value: 0.2
    }
  }
}
layer {
  name: "inception_3b/relu_5x5"
  type: "ReLU"
  bottom: "inception_3b/5x5"
  top: "inception_3b/5x5"
}
layer {
  name: "inception_3b/pool"
  type: "Pooling"
  bottom: "inception_3a/output"
  top: "inception_3b/pool"
  pooling_param {
    pool: MAX
    kernel_size: 3
    stride: 1
    pad: 1
  }
}
layer {
  name: "inception_3b/pool_proj"
  type: "Convolution"
  bottom: "inception_3b/pool"
  top: "inception_3b/pool_proj"
  param {
    lr_mult: 1
    decay_mult: 1
  }
  param {
    lr_mult: 2
    decay_mult: 0
  }
  convolution_param {
    num_output: 64
    kernel_size: 1
    weight_filler {
      type: "xavier"
    }
    bias_filler {
      type: "constant"
      value: 0.2
    }
  }
}
layer {
  name: "inception_3b/relu_pool_proj"
  type: "ReLU"
  bottom: "inception_3b/pool_proj"
  top: "inception_3b/pool_proj"
}
layer {
  name: "inception_3b/output"
  type: "Concat"
  bottom: "inception_3b/1x1"
  bottom: "inception_3b/3x3"
  bottom: "inception_3b/5x5"
  bottom: "inception_3b/pool_proj"
  top: "inception_3b/output"
}
layer {
  name: "pool3/3x3_s2"
  type: "Pooling"
  bottom: "inception_3b/output"
  top: "pool3/3x3_s2"
  pooling_param {
    pool: MAX
    kernel_size: 3
    stride: 2
  }
}
layer {
  name: "inception_4a/1x1"
  type: "Convolution"
  bottom: "pool3/3x3_s2"
  top: "inception_4a/1x1"
  param {
    lr_mult: 1
    decay_mult: 1
  }
  param {
    lr_mult: 2
    decay_mult: 0
  }
  convolution_param {
    num_output: 192
    kernel_size: 1
    weight_filler {
      type: "xavier"
    }
    bias_filler {
      type: "constant"
      value: 0.2
    }
  }
}
layer {
  name: "inception_4a/relu_1x1"
  type: "ReLU"
  bottom: "inception_4a/1x1"
  top: "inception_4a/1x1"
}
layer {
  name: "inception_4a/3x3_reduce"
  type: "Convolution"
  bottom: "pool3/3x3_s2"
  top: "inception_4a/3x3_reduce"
  param {
    lr_mult: 1
    decay_mult: 1
  }
  param {
    lr_mult: 2
    decay_mult: 0
  }
  convolution_param {
    num_output: 96
    kernel_size: 1
    weight_filler {
      type: "xavier"
    }
    bias_filler {
      type: "constant"
      value: 0.2
    }
  }
}
layer {
  name: "inception_4a/relu_3x3_reduce"
  type: "ReLU"
  bottom: "inception_4a/3x3_reduce"
  top: "inception_4a/3x3_reduce"
}
layer {
  name: "inception_4a/3x3"
  type: "Convolution"
  bottom: "inception_4a/3x3_reduce"
  top: "inception_4a/3x3"
  param {
    lr_mult: 1
    decay_mult: 1
  }
  param {
    lr_mult: 2
    decay_mult: 0
  }
  convolution_param {
    num_output: 208
    pad: 1
    kernel_size: 3
    weight_filler {
      type: "xavier"
    }
    bias_filler {
      type: "constant"
      value: 0.2
    }
  }
}
layer {
  name: "inception_4a/relu_3x3"
  type: "ReLU"
  bottom: "inception_4a/3x3"
  top: "inception_4a/3x3"
}
layer {
  name: "inception_4a/5x5_reduce"
  type: "Convolution"
  bottom: "pool3/3x3_s2"
  top: "inception_4a/5x5_reduce"
  param {
    lr_mult: 1
    decay_mult: 1
  }
  param {
    lr_mult: 2
    decay_mult: 0
  }
  convolution_param {
    num_output: 16
    kernel_size: 1
    weight_filler {
      type: "xavier"
    }
    bias_filler {
      type: "constant"
      value: 0.2
    }
  }
}
layer {
  name: "inception_4a/relu_5x5_reduce"
  type: "ReLU"
  bottom: "inception_4a/5x5_reduce"
  top: "inception_4a/5x5_reduce"
}
layer {
  name: "inception_4a/5x5"
  type: "Convolution"
  bottom: "inception_4a/5x5_reduce"
  top: "inception_4a/5x5"
  param {
    lr_mult: 1
    decay_mult: 1
  }
  param {
    lr_mult: 2
    decay_mult: 0
  }
  convolution_param {
    num_output: 48
    pad: 2
    kernel_size: 5
    weight_filler {
      type: "xavier"
    }
    bias_filler {
      type: "constant"
      value: 0.2
    }
  }
}
layer {
  name: "inception_4a/relu_5x5"
  type: "ReLU"
  bottom: "inception_4a/5x5"
  top: "inception_4a/5x5"
}
layer {
  name: "inception_4a/pool"
  type: "Pooling"
  bottom: "pool3/3x3_s2"
  top: "inception_4a/pool"
  pooling_param {
    pool: MAX
    kernel_size: 3
    stride: 1
    pad: 1
  }
}
layer {
  name: "inception_4a/pool_proj"
  type: "Convolution"
  bottom: "inception_4a/pool"
  top: "inception_4a/pool_proj"
  param {
    lr_mult: 1
    decay_mult: 1
  }
  param {
    lr_mult: 2
    decay_mult: 0
  }
  convolution_param {
    num_output: 64
    kernel_size: 1
    weight_filler {
      type: "xavier"
    }
    bias_filler {
      type: "constant"
      value: 0.2
    }
  }
}
layer {
  name: "inception_4a/relu_pool_proj"
  type: "ReLU"
  bottom: "inception_4a/pool_proj"
  top: "inception_4a/pool_proj"
}
layer {
  name: "inception_4a/output"
  type: "Concat"
  bottom: "inception_4a/1x1"
  bottom: "inception_4a/3x3"
  bottom: "inception_4a/5x5"
  bottom: "inception_4a/pool_proj"
  top: "inception_4a/output"
}
layer {
  name: "loss1/ave_pool"
  type: "Pooling"
  bottom: "inception_4a/output"
  top: "loss1/ave_pool"
  pooling_param {
    pool: AVE
    kernel_size: 5
    stride: 3
  }
}
layer {
  name: "loss1/conv"
  type: "Convolution"
  bottom: "loss1/ave_pool"
  top: "loss1/conv"
  param {
    lr_mult: 1
    decay_mult: 1
  }
  param {
    lr_mult: 2
    decay_mult: 0
  }
  convolution_param {
    num_output: 128
    kernel_size: 1
    weight_filler {
      type: "xavier"
    }
    bias_filler {
      type: "constant"
      value: 0.2
    }
  }
}
layer {
  name: "loss1/relu_conv"
  type: "ReLU"
  bottom: "loss1/conv"
  top: "loss1/conv"
}
layer {
  name: "loss1/fc"
  type: "InnerProduct"
  bottom: "loss1/conv"
  top: "loss1/fc"
  param {
    lr_mult: 1
    decay_mult: 1
  }
  param {
    lr_mult: 2
    decay_mult: 0
  }
  inner_product_param {
    num_output: 1024
    weight_filler {
      type: "xavier"
    }
    bias_filler {
      type: "constant"
      value: 0.2
    }
  }
}
layer {
  name: "loss1/relu_fc"
  type: "ReLU"
  bottom: "loss1/fc"
  top: "loss1/fc"
}
layer {
  name: "loss1/drop_fc"
  type: "Dropout"
  bottom: "loss1/fc"
  top: "loss1/fc"
  dropout_param {
    dropout_ratio: 0.7
  }
}
layer {
  name: "ft_loss1/classifier"
  type: "InnerProduct"
  bottom: "loss1/fc"
  top: "ft_loss1/classifier"
  param {
    lr_mult: 1
    decay_mult: 1
  }
  param {
    lr_mult: 2
    decay_mult: 0
  }
  inner_product_param {
    num_output: 2
    weight_filler {
      type: "xavier"
    }
    bias_filler {
      type: "constant"
      value: 0
    }
  }
}
layer {
  name: "loss1/loss"
  type: "SoftmaxWithLoss"
  bottom: "ft_loss1/classifier"
  bottom: "label"
  top: "loss1/loss1"
  loss_weight: 0.3
}
layer {
  name: "inception_4b/1x1"
  type: "Convolution"
  bottom: "inception_4a/output"
  top: "inception_4b/1x1"
  param {
    lr_mult: 1
    decay_mult: 1
  }
  param {
    lr_mult: 2
    decay_mult: 0
  }
  convolution_param {
    num_output: 160
    kernel_size: 1
    weight_filler {
      type: "xavier"
    }
    bias_filler {
      type: "constant"
      value: 0.2
    }
  }
}
layer {
  name: "inception_4b/relu_1x1"
  type: "ReLU"
  bottom: "inception_4b/1x1"
  top: "inception_4b/1x1"
}
layer {
  name: "inception_4b/3x3_reduce"
  type: "Convolution"
  bottom: "inception_4a/output"
  top: "inception_4b/3x3_reduce"
  param {
    lr_mult: 1
    decay_mult: 1
  }
  param {
    lr_mult: 2
    decay_mult: 0
  }
  convolution_param {
    num_output: 112
    kernel_size: 1
    weight_filler {
      type: "xavier"
    }
    bias_filler {
      type: "constant"
      value: 0.2
    }
  }
}
layer {
  name: "inception_4b/relu_3x3_reduce"
  type: "ReLU"
  bottom: "inception_4b/3x3_reduce"
  top: "inception_4b/3x3_reduce"
}
layer {
  name: "inception_4b/3x3"
  type: "Convolution"
  bottom: "inception_4b/3x3_reduce"
  top: "inception_4b/3x3"
  param {
    lr_mult: 1
    decay_mult: 1
  }
  param {
    lr_mult: 2
    decay_mult: 0
  }
  convolution_param {
    num_output: 224
    pad: 1
    kernel_size: 3
    weight_filler {
      type: "xavier"
    }
    bias_filler {
      type: "constant"
      value: 0.2
    }
  }
}
layer {
  name: "inception_4b/relu_3x3"
  type: "ReLU"
  bottom: "inception_4b/3x3"
  top: "inception_4b/3x3"
}
layer {
  name: "inception_4b/5x5_reduce"
  type: "Convolution"
  bottom: "inception_4a/output"
  top: "inception_4b/5x5_reduce"
  param {
    lr_mult: 1
    decay_mult: 1
  }
  param {
    lr_mult: 2
    decay_mult: 0
  }
  convolution_param {
    num_output: 24
    kernel_size: 1
    weight_filler {
      type: "xavier"
    }
    bias_filler {
      type: "constant"
      value: 0.2
    }
  }
}
layer {
  name: "inception_4b/relu_5x5_reduce"
  type: "ReLU"
  bottom: "inception_4b/5x5_reduce"
  top: "inception_4b/5x5_reduce"
}
layer {
  name: "inception_4b/5x5"
  type: "Convolution"
  bottom: "inception_4b/5x5_reduce"
  top: "inception_4b/5x5"
  param {
    lr_mult: 1
    decay_mult: 1
  }
  param {
    lr_mult: 2
    decay_mult: 0
  }
  convolution_param {
    num_output: 64
    pad: 2
    kernel_size: 5
    weight_filler {
      type: "xavier"
    }
    bias_filler {
      type: "constant"
      value: 0.2
    }
  }
}
layer {
  name: "inception_4b/relu_5x5"
  type: "ReLU"
  bottom: "inception_4b/5x5"
  top: "inception_4b/5x5"
}
layer {
  name: "inception_4b/pool"
  type: "Pooling"
  bottom: "inception_4a/output"
  top: "inception_4b/pool"
  pooling_param {
    pool: MAX
    kernel_size: 3
    stride: 1
    pad: 1
  }
}
layer {
  name: "inception_4b/pool_proj"
  type: "Convolution"
  bottom: "inception_4b/pool"
  top: "inception_4b/pool_proj"
  param {
    lr_mult: 1
    decay_mult: 1
  }
  param {
    lr_mult: 2
    decay_mult: 0
  }
  convolution_param {
    num_output: 64
    kernel_size: 1
    weight_filler {
      type: "xavier"
    }
    bias_filler {
      type: "constant"
      value: 0.2
    }
  }
}
layer {
  name: "inception_4b/relu_pool_proj"
  type: "ReLU"
  bottom: "inception_4b/pool_proj"
  top: "inception_4b/pool_proj"
}
layer {
  name: "inception_4b/output"
  type: "Concat"
  bottom: "inception_4b/1x1"
  bottom: "inception_4b/3x3"
  bottom: "inception_4b/5x5"
  bottom: "inception_4b/pool_proj"
  top: "inception_4b/output"
}
layer {
  name: "inception_4c/1x1"
  type: "Convolution"
  bottom: "inception_4b/output"
  top: "inception_4c/1x1"
  param {
    lr_mult: 1
    decay_mult: 1
  }
  param {
    lr_mult: 2
    decay_mult: 0
  }
  convolution_param {
    num_output: 128
    kernel_size: 1
    weight_filler {
      type: "xavier"
    }
    bias_filler {
      type: "constant"
      value: 0.2
    }
  }
}
layer {
  name: "inception_4c/relu_1x1"
  type: "ReLU"
  bottom: "inception_4c/1x1"
  top: "inception_4c/1x1"
}
layer {
  name: "inception_4c/3x3_reduce"
  type: "Convolution"
  bottom: "inception_4b/output"
  top: "inception_4c/3x3_reduce"
  param {
    lr_mult: 1
    decay_mult: 1
  }
  param {
    lr_mult: 2
    decay_mult: 0
  }
  convolution_param {
    num_output: 128
    kernel_size: 1
    weight_filler {
      type: "xavier"
    }
    bias_filler {
      type: "constant"
      value: 0.2
    }
  }
}
layer {
  name: "inception_4c/relu_3x3_reduce"
  type: "ReLU"
  bottom: "inception_4c/3x3_reduce"
  top: "inception_4c/3x3_reduce"
}
layer {
  name: "inception_4c/3x3"
  type: "Convolution"
  bottom: "inception_4c/3x3_reduce"
  top: "inception_4c/3x3"
  param {
    lr_mult: 1
    decay_mult: 1
  }
  param {
    lr_mult: 2
    decay_mult: 0
  }
  convolution_param {
    num_output: 256
    pad: 1
    kernel_size: 3
    weight_filler {
      type: "xavier"
    }
    bias_filler {
      type: "constant"
      value: 0.2
    }
  }
}
layer {
  name: "inception_4c/relu_3x3"
  type: "ReLU"
  bottom: "inception_4c/3x3"
  top: "inception_4c/3x3"
}
layer {
  name: "inception_4c/5x5_reduce"
  type: "Convolution"
  bottom: "inception_4b/output"
  top: "inception_4c/5x5_reduce"
  param {
    lr_mult: 1
    decay_mult: 1
  }
  param {
    lr_mult: 2
    decay_mult: 0
  }
  convolution_param {
    num_output: 24
    kernel_size: 1
    weight_filler {
      type: "xavier"
    }
    bias_filler {
      type: "constant"
      value: 0.2
    }
  }
}
layer {
  name: "inception_4c/relu_5x5_reduce"
  type: "ReLU"
  bottom: "inception_4c/5x5_reduce"
  top: "inception_4c/5x5_reduce"
}
layer {
  name: "inception_4c/5x5"
  type: "Convolution"
  bottom: "inception_4c/5x5_reduce"
  top: "inception_4c/5x5"
  param {
    lr_mult: 1
    decay_mult: 1
  }
  param {
    lr_mult: 2
    decay_mult: 0
  }
  convolution_param {
    num_output: 64
    pad: 2
    kernel_size: 5
    weight_filler {
      type: "xavier"
    }
    bias_filler {
      type: "constant"
      value: 0.2
    }
  }
}
layer {
  name: "inception_4c/relu_5x5"
  type: "ReLU"
  bottom: "inception_4c/5x5"
  top: "inception_4c/5x5"
}
layer {
  name: "inception_4c/pool"
  type: "Pooling"
  bottom: "inception_4b/output"
  top: "inception_4c/pool"
  pooling_param {
    pool: MAX
    kernel_size: 3
    stride: 1
    pad: 1
  }
}
layer {
  name: "inception_4c/pool_proj"
  type: "Convolution"
  bottom: "inception_4c/pool"
  top: "inception_4c/pool_proj"
  param {
    lr_mult: 1
    decay_mult: 1
  }
  param {
    lr_mult: 2
    decay_mult: 0
  }
  convolution_param {
    num_output: 64
    kernel_size: 1
    weight_filler {
      type: "xavier"
    }
    bias_filler {
      type: "constant"
      value: 0.2
    }
  }
}
layer {
  name: "inception_4c/relu_pool_proj"
  type: "ReLU"
  bottom: "inception_4c/pool_proj"
  top: "inception_4c/pool_proj"
}
layer {
  name: "inception_4c/output"
  type: "Concat"
  bottom: "inception_4c/1x1"
  bottom: "inception_4c/3x3"
  bottom: "inception_4c/5x5"
  bottom: "inception_4c/pool_proj"
  top: "inception_4c/output"
}
layer {
  name: "inception_4d/1x1"
  type: "Convolution"
  bottom: "inception_4c/output"
  top: "inception_4d/1x1"
  param {
    lr_mult: 1
    decay_mult: 1
  }
  param {
    lr_mult: 2
    decay_mult: 0
  }
  convolution_param {
    num_output: 112
    kernel_size: 1
    weight_filler {
      type: "xavier"
    }
    bias_filler {
      type: "constant"
      value: 0.2
    }
  }
}
layer {
  name: "inception_4d/relu_1x1"
  type: "ReLU"
  bottom: "inception_4d/1x1"
  top: "inception_4d/1x1"
}
layer {
  name: "inception_4d/3x3_reduce"
  type: "Convolution"
  bottom: "inception_4c/output"
  top: "inception_4d/3x3_reduce"
  param {
    lr_mult: 1
    decay_mult: 1
  }
  param {
    lr_mult: 2
    decay_mult: 0
  }
  convolution_param {
    num_output: 144
    kernel_size: 1
    weight_filler {
      type: "xavier"
    }
    bias_filler {
      type: "constant"
      value: 0.2
    }
  }
}
layer {
  name: "inception_4d/relu_3x3_reduce"
  type: "ReLU"
  bottom: "inception_4d/3x3_reduce"
  top: "inception_4d/3x3_reduce"
}
layer {
  name: "inception_4d/3x3"
  type: "Convolution"
  bottom: "inception_4d/3x3_reduce"
  top: "inception_4d/3x3"
  param {
    lr_mult: 1
    decay_mult: 1
  }
  param {
    lr_mult: 2
    decay_mult: 0
  }
  convolution_param {
    num_output: 288
    pad: 1
    kernel_size: 3
    weight_filler {
      type: "xavier"
    }
    bias_filler {
      type: "constant"
      value: 0.2
    }
  }
}
layer {
  name: "inception_4d/relu_3x3"
  type: "ReLU"
  bottom: "inception_4d/3x3"
  top: "inception_4d/3x3"
}
layer {
  name: "inception_4d/5x5_reduce"
  type: "Convolution"
  bottom: "inception_4c/output"
  top: "inception_4d/5x5_reduce"
  param {
    lr_mult: 1
    decay_mult: 1
  }
  param {
    lr_mult: 2
    decay_mult: 0
  }
  convolution_param {
    num_output: 32
    kernel_size: 1
    weight_filler {
      type: "xavier"
    }
    bias_filler {
      type: "constant"
      value: 0.2
    }
  }
}
layer {
  name: "inception_4d/relu_5x5_reduce"
  type: "ReLU"
  bottom: "inception_4d/5x5_reduce"
  top: "inception_4d/5x5_reduce"
}
layer {
  name: "inception_4d/5x5"
  type: "Convolution"
  bottom: "inception_4d/5x5_reduce"
  top: "inception_4d/5x5"
  param {
    lr_mult: 1
    decay_mult: 1
  }
  param {
    lr_mult: 2
    decay_mult: 0
  }
  convolution_param {
    num_output: 64
    pad: 2
    kernel_size: 5
    weight_filler {
      type: "xavier"
    }
    bias_filler {
      type: "constant"
      value: 0.2
    }
  }
}
layer {
  name: "inception_4d/relu_5x5"
  type: "ReLU"
  bottom: "inception_4d/5x5"
  top: "inception_4d/5x5"
}
layer {
  name: "inception_4d/pool"
  type: "Pooling"
  bottom: "inception_4c/output"
  top: "inception_4d/pool"
  pooling_param {
    pool: MAX
    kernel_size: 3
    stride: 1
    pad: 1
  }
}
layer {
  name: "inception_4d/pool_proj"
  type: "Convolution"
  bottom: "inception_4d/pool"
  top: "inception_4d/pool_proj"
  param {
    lr_mult: 1
    decay_mult: 1
  }
  param {
    lr_mult: 2
    decay_mult: 0
  }
  convolution_param {
    num_output: 64
    kernel_size: 1
    weight_filler {
      type: "xavier"
    }
    bias_filler {
      type: "constant"
      value: 0.2
    }
  }
}
layer {
  name: "inception_4d/relu_pool_proj"
  type: "ReLU"
  bottom: "inception_4d/pool_proj"
  top: "inception_4d/pool_proj"
}
layer {
  name: "inception_4d/output"
  type: "Concat"
  bottom: "inception_4d/1x1"
  bottom: "inception_4d/3x3"
  bottom: "inception_4d/5x5"
  bottom: "inception_4d/pool_proj"
  top: "inception_4d/output"
}
layer {
  name: "loss2/ave_pool"
  type: "Pooling"
  bottom: "inception_4d/output"
  top: "loss2/ave_pool"
  pooling_param {
    pool: AVE
    kernel_size: 5
    stride: 3
  }
}
layer {
  name: "loss2/conv"
  type: "Convolution"
  bottom: "loss2/ave_pool"
  top: "loss2/conv"
  param {
    lr_mult: 1
    decay_mult: 1
  }
  param {
    lr_mult: 2
    decay_mult: 0
  }
  convolution_param {
    num_output: 128
    kernel_size: 1
    weight_filler {
      type: "xavier"
    }
    bias_filler {
      type: "constant"
      value: 0.2
    }
  }
}
layer {
  name: "loss2/relu_conv"
  type: "ReLU"
  bottom: "loss2/conv"
  top: "loss2/conv"
}
layer {
  name: "loss2/fc"
  type: "InnerProduct"
  bottom: "loss2/conv"
  top: "loss2/fc"
  param {
    lr_mult: 1
    decay_mult: 1
  }
  param {
    lr_mult: 2
    decay_mult: 0
  }
  inner_product_param {
    num_output: 1024
    weight_filler {
      type: "xavier"
    }
    bias_filler {
      type: "constant"
      value: 0.2
    }
  }
}
layer {
  name: "loss2/relu_fc"
  type: "ReLU"
  bottom: "loss2/fc"
  top: "loss2/fc"
}
layer {
  name: "loss2/drop_fc"
  type: "Dropout"
  bottom: "loss2/fc"
  top: "loss2/fc"
  dropout_param {
    dropout_ratio: 0.7
  }
}
layer {
  name: "ft_loss2/classifier"
  type: "InnerProduct"
  bottom: "loss2/fc"
  top: "ft_loss2/classifier"
  param {
    lr_mult: 1
    decay_mult: 1
  }
  param {
    lr_mult: 2
    decay_mult: 0
  }
  inner_product_param {
    num_output: 2
    weight_filler {
      type: "xavier"
    }
    bias_filler {
      type: "constant"
      value: 0
    }
  }
}
layer {
  name: "loss2/loss"
  type: "SoftmaxWithLoss"
  bottom: "ft_loss2/classifier"
  bottom: "label"
  top: "loss2/loss1"
  loss_weight: 0.3
}
layer {
  name: "inception_4e/1x1"
  type: "Convolution"
  bottom: "inception_4d/output"
  top: "inception_4e/1x1"
  param {
    lr_mult: 1
    decay_mult: 1
  }
  param {
    lr_mult: 2
    decay_mult: 0
  }
  convolution_param {
    num_output: 256
    kernel_size: 1
    weight_filler {
      type: "xavier"
    }
    bias_filler {
      type: "constant"
      value: 0.2
    }
  }
}
layer {
  name: "inception_4e/relu_1x1"
  type: "ReLU"
  bottom: "inception_4e/1x1"
  top: "inception_4e/1x1"
}
layer {
  name: "inception_4e/3x3_reduce"
  type: "Convolution"
  bottom: "inception_4d/output"
  top: "inception_4e/3x3_reduce"
  param {
    lr_mult: 1
    decay_mult: 1
  }
  param {
    lr_mult: 2
    decay_mult: 0
  }
  convolution_param {
    num_output: 160
    kernel_size: 1
    weight_filler {
      type: "xavier"
    }
    bias_filler {
      type: "constant"
      value: 0.2
    }
  }
}
layer {
  name: "inception_4e/relu_3x3_reduce"
  type: "ReLU"
  bottom: "inception_4e/3x3_reduce"
  top: "inception_4e/3x3_reduce"
}
layer {
  name: "inception_4e/3x3"
  type: "Convolution"
  bottom: "inception_4e/3x3_reduce"
  top: "inception_4e/3x3"
  param {
    lr_mult: 1
    decay_mult: 1
  }
  param {
    lr_mult: 2
    decay_mult: 0
  }
  convolution_param {
    num_output: 320
    pad: 1
    kernel_size: 3
    weight_filler {
      type: "xavier"
    }
    bias_filler {
      type: "constant"
      value: 0.2
    }
  }
}
layer {
  name: "inception_4e/relu_3x3"
  type: "ReLU"
  bottom: "inception_4e/3x3"
  top: "inception_4e/3x3"
}
layer {
  name: "inception_4e/5x5_reduce"
  type: "Convolution"
  bottom: "inception_4d/output"
  top: "inception_4e/5x5_reduce"
  param {
    lr_mult: 1
    decay_mult: 1
  }
  param {
    lr_mult: 2
    decay_mult: 0
  }
  convolution_param {
    num_output: 32
    kernel_size: 1
    weight_filler {
      type: "xavier"
    }
    bias_filler {
      type: "constant"
      value: 0.2
    }
  }
}
layer {
  name: "inception_4e/relu_5x5_reduce"
  type: "ReLU"
  bottom: "inception_4e/5x5_reduce"
  top: "inception_4e/5x5_reduce"
}
layer {
  name: "inception_4e/5x5"
  type: "Convolution"
  bottom: "inception_4e/5x5_reduce"
  top: "inception_4e/5x5"
  param {
    lr_mult: 1
    decay_mult: 1
  }
  param {
    lr_mult: 2
    decay_mult: 0
  }
  convolution_param {
    num_output: 128
    pad: 2
    kernel_size: 5
    weight_filler {
      type: "xavier"
    }
    bias_filler {
      type: "constant"
      value: 0.2
    }
  }
}
layer {
  name: "inception_4e/relu_5x5"
  type: "ReLU"
  bottom: "inception_4e/5x5"
  top: "inception_4e/5x5"
}
layer {
  name: "inception_4e/pool"
  type: "Pooling"
  bottom: "inception_4d/output"
  top: "inception_4e/pool"
  pooling_param {
    pool: MAX
    kernel_size: 3
    stride: 1
    pad: 1
  }
}
layer {
  name: "inception_4e/pool_proj"
  type: "Convolution"
 
I0817 17:43:41.809264 24758 layer_factory.hpp:74] Creating layer data
I0817 17:43:41.809350 24758 net.cpp:90] Creating Layer data
I0817 17:43:41.809401 24758 net.cpp:368] data -> data
I0817 17:43:41.809561 24758 net.cpp:368] data -> label
I0817 17:43:41.809579 24758 net.cpp:120] Setting up data
I0817 17:43:41.809665 24758 image_data_layer.cpp:36] Opening file /home/kruchinin_d/Projects/data/KITTI/prepared_data/train.txt
I0817 17:43:41.913501 24758 image_data_layer.cpp:51] A total of 82274 images.
I0817 17:43:41.952172 24758 image_data_layer.cpp:74] output data size: 32,3,227,227
I0817 17:43:41.962821 24758 net.cpp:127] Top shape: 32 3 227 227 (4946784)
I0817 17:43:41.962839 24758 net.cpp:127] Top shape: 32 (32)
I0817 17:43:41.962915 24758 layer_factory.hpp:74] Creating layer label_data_1_split
I0817 17:43:41.962939 24758 net.cpp:90] Creating Layer label_data_1_split
I0817 17:43:41.962954 24758 net.cpp:410] label_data_1_split <- label
I0817 17:43:41.962977 24758 net.cpp:368] label_data_1_split -> label_data_1_split_0
I0817 17:43:41.963001 24758 net.cpp:368] label_data_1_split -> label_data_1_split_1
I0817 17:43:41.963018 24758 net.cpp:368] label_data_1_split -> label_data_1_split_2
I0817 17:43:41.963035 24758 net.cpp:120] Setting up label_data_1_split
I0817 17:43:41.963099 24758 net.cpp:127] Top shape: 32 (32)
I0817 17:43:41.963125 24758 net.cpp:127] Top shape: 32 (32)
I0817 17:43:41.963136 24758 net.cpp:127] Top shape: 32 (32)
I0817 17:43:41.963145 24758 layer_factory.hpp:74] Creating layer conv1/7x7_s2
I0817 17:43:41.963196 24758 net.cpp:90] Creating Layer conv1/7x7_s2
I0817 17:43:41.963207 24758 net.cpp:410] conv1/7x7_s2 <- data
I0817 17:43:41.963222 24758 net.cpp:368] conv1/7x7_s2 -> conv1/7x7_s2
I0817 17:43:41.963243 24758 net.cpp:120] Setting up conv1/7x7_s2
I0817 17:43:41.966238 24758 net.cpp:127] Top shape: 32 64 114 114 (26615808)
I0817 17:43:41.966269 24758 layer_factory.hpp:74] Creating layer conv1/relu_7x7
I0817 17:43:41.966322 24758 net.cpp:90] Creating Layer conv1/relu_7x7
I0817 17:43:41.966334 24758 net.cpp:410] conv1/relu_7x7 <- conv1/7x7_s2
I0817 17:43:41.966346 24758 net.cpp:357] conv1/relu_7x7 -> conv1/7x7_s2 (in-place)
I0817 17:43:41.966359 24758 net.cpp:120] Setting up conv1/relu_7x7
I0817 17:43:41.967263 24758 net.cpp:127] Top shape: 32 64 114 114 (26615808)
I0817 17:43:41.967277 24758 layer_factory.hpp:74] Creating layer pool1/3x3_s2
I0817 17:43:41.967293 24758 net.cpp:90] Creating Layer pool1/3x3_s2
I0817 17:43:41.967303 24758 net.cpp:410] pool1/3x3_s2 <- conv1/7x7_s2
I0817 17:43:41.967314 24758 net.cpp:368] pool1/3x3_s2 -> pool1/3x3_s2
I0817 17:43:41.967331 24758 net.cpp:120] Setting up pool1/3x3_s2
I0817 17:43:41.967417 24758 net.cpp:127] Top shape: 32 64 57 57 (6653952)
I0817 17:43:41.967429 24758 layer_factory.hpp:74] Creating layer pool1/norm1
I0817 17:43:41.967480 24758 net.cpp:90] Creating Layer pool1/norm1
I0817 17:43:41.967491 24758 net.cpp:410] pool1/norm1 <- pool1/3x3_s2
I0817 17:43:41.967504 24758 net.cpp:368] pool1/norm1 -> pool1/norm1
I0817 17:43:41.967520 24758 net.cpp:120] Setting up pool1/norm1
I0817 17:43:41.967592 24758 net.cpp:127] Top shape: 32 64 57 57 (6653952)
I0817 17:43:41.967602 24758 layer_factory.hpp:74] Creating layer conv2/3x3_reduce
I0817 17:43:41.967617 24758 net.cpp:90] Creating Layer conv2/3x3_reduce
I0817 17:43:41.967625 24758 net.cpp:410] conv2/3x3_reduce <- pool1/norm1
I0817 17:43:41.967638 24758 net.cpp:368] conv2/3x3_reduce -> conv2/3x3_reduce
I0817 17:43:41.967655 24758 net.cpp:120] Setting up conv2/3x3_reduce
I0817 17:43:41.967718 24758 net.cpp:127] Top shape: 32 64 57 57 (6653952)
I0817 17:43:41.967736 24758 layer_factory.hpp:74] Creating layer conv2/relu_3x3_reduce
I0817 17:43:41.967748 24758 net.cpp:90] Creating Layer conv2/relu_3x3_reduce
I0817 17:43:41.967757 24758 net.cpp:410] conv2/relu_3x3_reduce <- conv2/3x3_reduce
I0817 17:43:41.967769 24758 net.cpp:357] conv2/relu_3x3_reduce -> conv2/3x3_reduce (in-place)
I0817 17:43:41.967780 24758 net.cpp:120] Setting up conv2/relu_3x3_reduce
I0817 17:43:41.967792 24758 net.cpp:127] Top shape: 32 64 57 57 (6653952)
I0817 17:43:41.967802 24758 layer_factory.hpp:74] Creating layer conv2/3x3
I0817 17:43:41.967815 24758 net.cpp:90] Creating Layer conv2/3x3
I0817 17:43:41.967826 24758 net.cpp:410] conv2/3x3 <- conv2/3x3_reduce
I0817 17:43:41.967839 24758 net.cpp:368] conv2/3x3 -> conv2/3x3
I0817 17:43:41.967854 24758 net.cpp:120] Setting up conv2/3x3
I0817 17:43:41.968937 24758 net.cpp:127] Top shape: 32 192 57 57 (19961856)
I0817 17:43:41.968956 24758 layer_factory.hpp:74] Creating layer conv2/relu_3x3
I0817 17:43:41.968969 24758 net.cpp:90] Creating Layer conv2/relu_3x3
I0817 17:43:41.968978 24758 net.cpp:410] conv2/relu_3x3 <- conv2/3x3
I0817 17:43:41.968989 24758 net.cpp:357] conv2/relu_3x3 -> conv2/3x3 (in-place)
I0817 17:43:41.969002 24758 net.cpp:120] Setting up conv2/relu_3x3
I0817 17:43:41.969013 24758 net.cpp:127] Top shape: 32 192 57 57 (19961856)
I0817 17:43:41.969024 24758 layer_factory.hpp:74] Creating layer conv2/norm2
I0817 17:43:41.969038 24758 net.cpp:90] Creating Layer conv2/norm2
I0817 17:43:41.969048 24758 net.cpp:410] conv2/norm2 <- conv2/3x3
I0817 17:43:41.969060 24758 net.cpp:368] conv2/norm2 -> conv2/norm2
I0817 17:43:41.969072 24758 net.cpp:120] Setting up conv2/norm2
I0817 17:43:41.969089 24758 net.cpp:127] Top shape: 32 192 57 57 (19961856)
I0817 17:43:41.969099 24758 layer_factory.hpp:74] Creating layer pool2/3x3_s2
I0817 17:43:41.969110 24758 net.cpp:90] Creating Layer pool2/3x3_s2
I0817 17:43:41.969120 24758 net.cpp:410] pool2/3x3_s2 <- conv2/norm2
I0817 17:43:41.969131 24758 net.cpp:368] pool2/3x3_s2 -> pool2/3x3_s2
I0817 17:43:41.969154 24758 net.cpp:120] Setting up pool2/3x3_s2
I0817 17:43:41.969173 24758 net.cpp:127] Top shape: 32 192 28 28 (4816896)
I0817 17:43:41.969184 24758 layer_factory.hpp:74] Creating layer pool2/3x3_s2_pool2/3x3_s2_0_split
I0817 17:43:41.969198 24758 net.cpp:90] Creating Layer pool2/3x3_s2_pool2/3x3_s2_0_split
I0817 17:43:41.969208 24758 net.cpp:410] pool2/3x3_s2_pool2/3x3_s2_0_split <- pool2/3x3_s2
I0817 17:43:41.969219 24758 net.cpp:368] pool2/3x3_s2_pool2/3x3_s2_0_split -> pool2/3x3_s2_pool2/3x3_s2_0_split_0
I0817 17:43:41.969233 24758 net.cpp:368] pool2/3x3_s2_pool2/3x3_s2_0_split -> pool2/3x3_s2_pool2/3x3_s2_0_split_1
I0817 17:43:41.969246 24758 net.cpp:368] pool2/3x3_s2_pool2/3x3_s2_0_split -> pool2/3x3_s2_pool2/3x3_s2_0_split_2
I0817 17:43:41.969264 24758 net.cpp:368] pool2/3x3_s2_pool2/3x3_s2_0_split -> pool2/3x3_s2_pool2/3x3_s2_0_split_3
I0817 17:43:41.969280 24758 net.cpp:120] Setting up pool2/3x3_s2_pool2/3x3_s2_0_split
I0817 17:43:41.969295 24758 net.cpp:127] Top shape: 32 192 28 28 (4816896)
I0817 17:43:41.969306 24758 net.cpp:127] Top shape: 32 192 28 28 (4816896)
I0817 17:43:41.969316 24758 net.cpp:127] Top shape: 32 192 28 28 (4816896)
I0817 17:43:41.969326 24758 net.cpp:127] Top shape: 32 192 28 28 (4816896)
I0817 17:43:41.969336 24758 layer_factory.hpp:74] Creating layer inception_3a/1x1
I0817 17:43:41.969348 24758 net.cpp:90] Creating Layer inception_3a/1x1
I0817 17:43:41.969357 24758 net.cpp:410] inception_3a/1x1 <- pool2/3x3_s2_pool2/3x3_s2_0_split_0
I0817 17:43:41.969372 24758 net.cpp:368] inception_3a/1x1 -> inception_3a/1x1
I0817 17:43:41.969389 24758 net.cpp:120] Setting up inception_3a/1x1
I0817 17:43:41.969538 24758 net.cpp:127] Top shape: 32 64 28 28 (1605632)
I0817 17:43:41.969554 24758 layer_factory.hpp:74] Creating layer inception_3a/relu_1x1
I0817 17:43:41.969569 24758 net.cpp:90] Creating Layer inception_3a/relu_1x1
I0817 17:43:41.969578 24758 net.cpp:410] inception_3a/relu_1x1 <- inception_3a/1x1
I0817 17:43:41.969589 24758 net.cpp:357] inception_3a/relu_1x1 -> inception_3a/1x1 (in-place)
I0817 17:43:41.969600 24758 net.cpp:120] Setting up inception_3a/relu_1x1
I0817 17:43:41.969612 24758 net.cpp:127] Top shape: 32 64 28 28 (1605632)
I0817 17:43:41.969621 24758 layer_factory.hpp:74] Creating layer inception_3a/3x3_reduce
I0817 17:43:41.969633 24758 net.cpp:90] Creating Layer inception_3a/3x3_reduce
I0817 17:43:41.969642 24758 net.cpp:410] inception_3a/3x3_reduce <- pool2/3x3_s2_pool2/3x3_s2_0_split_1
I0817 17:43:41.969658 24758 net.cpp:368] inception_3a/3x3_reduce -> inception_3a/3x3_reduce
I0817 17:43:41.969692 24758 net.cpp:120] Setting up inception_3a/3x3_reduce
I0817 17:43:41.969910 24758 net.cpp:127] Top shape: 32 96 28 28 (2408448)
I0817 17:43:41.969929 24758 layer_factory.hpp:74] Creating layer inception_3a/relu_3x3_reduce
I0817 17:43:41.969946 24758 net.cpp:90] Creating Layer inception_3a/relu_3x3_reduce
I0817 17:43:41.969957 24758 net.cpp:410] inception_3a/relu_3x3_reduce <- inception_3a/3x3_reduce
I0817 17:43:41.969969 24758 net.cpp:357] inception_3a/relu_3x3_reduce -> inception_3a/3x3_reduce (in-place)
I0817 17:43:41.969982 24758 net.cpp:120] Setting up inception_3a/relu_3x3_reduce
I0817 17:43:41.969995 24758 net.cpp:127] Top shape: 32 96 28 28 (2408448)
I0817 17:43:41.970003 24758 layer_factory.hpp:74] Creating layer inception_3a/3x3
I0817 17:43:41.970016 24758 net.cpp:90] Creating Layer inception_3a/3x3
I0817 17:43:41.970024 24758 net.cpp:410] inception_3a/3x3 <- inception_3a/3x3_reduce
I0817 17:43:41.970041 24758 net.cpp:368] inception_3a/3x3 -> inception_3a/3x3
I0817 17:43:41.970055 24758 net.cpp:120] Setting up inception_3a/3x3
I0817 17:43:41.971158 24758 net.cpp:127] Top shape: 32 128 28 28 (3211264)
I0817 17:43:41.971174 24758 layer_factory.hpp:74] Creating layer inception_3a/relu_3x3
I0817 17:43:41.971186 24758 net.cpp:90] Creating Layer inception_3a/relu_3x3
I0817 17:43:41.971195 24758 net.cpp:410] inception_3a/relu_3x3 <- inception_3a/3x3
I0817 17:43:41.971206 24758 net.cpp:357] inception_3a/relu_3x3 -> inception_3a/3x3 (in-place)
I0817 17:43:41.971230 24758 net.cpp:120] Setting up inception_3a/relu_3x3
I0817 17:43:41.971242 24758 net.cpp:127] Top shape: 32 128 28 28 (3211264)
I0817 17:43:41.971251 24758 layer_factory.hpp:74] Creating layer inception_3a/5x5_reduce
I0817 17:43:41.971264 24758 net.cpp:90] Creating Layer inception_3a/5x5_reduce
I0817 17:43:41.971273 24758 net.cpp:410] inception_3a/5x5_reduce <- pool2/3x3_s2_pool2/3x3_s2_0_split_2
I0817 17:43:41.971288 24758 net.cpp:368] inception_3a/5x5_reduce -> inception_3a/5x5_reduce
I0817 17:43:41.971304 24758 net.cpp:120] Setting up inception_3a/5x5_reduce
I0817 17:43:41.971362 24758 net.cpp:127] Top shape: 32 16 28 28 (401408)
I0817 17:43:41.971377 24758 layer_factory.hpp:74] Creating layer inception_3a/relu_5x5_reduce
I0817 17:43:41.971390 24758 net.cpp:90] Creating Layer inception_3a/relu_5x5_reduce
I0817 17:43:41.971397 24758 net.cpp:410] inception_3a/relu_5x5_reduce <- inception_3a/5x5_reduce
I0817 17:43:41.971411 24758 net.cpp:357] inception_3a/relu_5x5_reduce -> inception_3a/5x5_reduce (in-place)
I0817 17:43:41.971424 24758 net.cpp:120] Setting up inception_3a/relu_5x5_reduce
I0817 17:43:41.971436 24758 net.cpp:127] Top shape: 32 16 28 28 (401408)
I0817 17:43:41.971444 24758 layer_factory.hpp:74] Creating layer inception_3a/5x5
I0817 17:43:41.971457 24758 net.cpp:90] Creating Layer inception_3a/5x5
I0817 17:43:41.971465 24758 net.cpp:410] inception_3a/5x5 <- inception_3a/5x5_reduce
I0817 17:43:41.971480 24758 net.cpp:368] inception_3a/5x5 -> inception_3a/5x5
I0817 17:43:41.971494 24758 net.cpp:120] Setting up inception_3a/5x5
I0817 17:43:41.971642 24758 net.cpp:127] Top shape: 32 32 28 28 (802816)
I0817 17:43:41.971657 24758 layer_factory.hpp:74] Creating layer inception_3a/relu_5x5
I0817 17:43:41.971669 24758 net.cpp:90] Creating Layer inception_3a/relu_5x5
I0817 17:43:41.971678 24758 net.cpp:410] inception_3a/relu_5x5 <- inception_3a/5x5
I0817 17:43:41.971688 24758 net.cpp:357] inception_3a/relu_5x5 -> inception_3a/5x5 (in-place)
I0817 17:43:41.971700 24758 net.cpp:120] Setting up inception_3a/relu_5x5
I0817 17:43:41.971712 24758 net.cpp:127] Top shape: 32 32 28 28 (802816)
I0817 17:43:41.971721 24758 layer_factory.hpp:74] Creating layer inception_3a/pool
I0817 17:43:41.971735 24758 net.cpp:90] Creating Layer inception_3a/pool
I0817 17:43:41.971745 24758 net.cpp:410] inception_3a/pool <- pool2/3x3_s2_pool2/3x3_s2_0_split_3
I0817 17:43:41.971757 24758 net.cpp:368] inception_3a/pool -> inception_3a/pool
I0817 17:43:41.971770 24758 net.cpp:120] Setting up inception_3a/pool
I0817 17:43:41.971793 24758 net.cpp:127] Top shape: 32 192 28 28 (4816896)
I0817 17:43:41.971803 24758 layer_factory.hpp:74] Creating layer inception_3a/pool_proj
I0817 17:43:41.971817 24758 net.cpp:90] Creating Layer inception_3a/pool_proj
I0817 17:43:41.971825 24758 net.cpp:410] inception_3a/pool_proj <- inception_3a/pool
I0817 17:43:41.971838 24758 net.cpp:368] inception_3a/pool_proj -> inception_3a/pool_proj
I0817 17:43:41.971850 24758 net.cpp:120] Setting up inception_3a/pool_proj
I0817 17:43:41.971946 24758 net.cpp:127] Top shape: 32 32 28 28 (802816)
I0817 17:43:41.971966 24758 layer_factory.hpp:74] Creating layer inception_3a/relu_pool_proj
I0817 17:43:41.971982 24758 net.cpp:90] Creating Layer inception_3a/relu_pool_proj
I0817 17:43:41.971992 24758 net.cpp:410] inception_3a/relu_pool_proj <- inception_3a/pool_proj
I0817 17:43:41.972005 24758 net.cpp:357] inception_3a/relu_pool_proj -> inception_3a/pool_proj (in-place)
I0817 17:43:41.972020 24758 net.cpp:120] Setting up inception_3a/relu_pool_proj
I0817 17:43:41.972033 24758 net.cpp:127] Top shape: 32 32 28 28 (802816)
I0817 17:43:41.972043 24758 layer_factory.hpp:74] Creating layer inception_3a/output
I0817 17:43:41.972097 24758 net.cpp:90] Creating Layer inception_3a/output
I0817 17:43:41.972110 24758 net.cpp:410] inception_3a/output <- inception_3a/1x1
I0817 17:43:41.972121 24758 net.cpp:410] inception_3a/output <- inception_3a/3x3
I0817 17:43:41.972131 24758 net.cpp:410] inception_3a/output <- inception_3a/5x5
I0817 17:43:41.972141 24758 net.cpp:410] inception_3a/output <- inception_3a/pool_proj
I0817 17:43:41.972162 24758 net.cpp:368] inception_3a/output -> inception_3a/output
I0817 17:43:41.972178 24758 net.cpp:120] Setting up inception_3a/output
I0817 17:43:41.972199 24758 net.cpp:127] Top shape: 32 256 28 28 (6422528)
I0817 17:43:41.972210 24758 layer_factory.hpp:74] Creating layer inception_3a/output_inception_3a/output_0_split
I0817 17:43:41.972223 24758 net.cpp:90] Creating Layer inception_3a/output_inception_3a/output_0_split
I0817 17:43:41.972231 24758 net.cpp:410] inception_3a/output_inception_3a/output_0_split <- inception_3a/output
I0817 17:43:41.972246 24758 net.cpp:368] inception_3a/output_inception_3a/output_0_split -> inception_3a/output_inception_3a/output_0_split_0
I0817 17:43:41.972260 24758 net.cpp:368] inception_3a/output_inception_3a/output_0_split -> inception_3a/output_inception_3a/output_0_split_1
I0817 17:43:41.972277 24758 net.cpp:368] inception_3a/output_inception_3a/output_0_split -> inception_3a/output_inception_3a/output_0_split_2
I0817 17:43:41.972293 24758 net.cpp:368] inception_3a/output_inception_3a/output_0_split -> inception_3a/output_inception_3a/output_0_split_3
I0817 17:43:41.972307 24758 net.cpp:120] Setting up inception_3a/output_inception_3a/output_0_split
I0817 17:43:41.972323 24758 net.cpp:127] Top shape: 32 256 28 28 (6422528)
I0817 17:43:41.972336 24758 net.cpp:127] Top shape: 32 256 28 28 (6422528)
I0817 17:43:41.972347 24758 net.cpp:127] Top shape: 32 256 28 28 (6422528)
I0817 17:43:41.972357 24758 net.cpp:127] Top shape: 32 256 28 28 (6422528)
I0817 17:43:41.972365 24758 layer_factory.hpp:74] Creating layer inception_3b/1x1
I0817 17:43:41.972380 24758 net.cpp:90] Creating Layer inception_3b/1x1
I0817 17:43:41.972393 24758 net.cpp:410] inception_3b/1x1 <- inception_3a/output_inception_3a/output_0_split_0
I0817 17:43:41.972409 24758 net.cpp:368] inception_3b/1x1 -> inception_3b/1x1
I0817 17:43:41.972424 24758 net.cpp:120] Setting up inception_3b/1x1
I0817 17:43:41.972769 24758 net.cpp:127] Top shape: 32 128 28 28 (3211264)
I0817 17:43:41.972785 24758 layer_factory.hpp:74] Creating layer inception_3b/relu_1x1
I0817 17:43:41.972797 24758 net.cpp:90] Creating Layer inception_3b/relu_1x1
I0817 17:43:41.972806 24758 net.cpp:410] inception_3b/relu_1x1 <- inception_3b/1x1
I0817 17:43:41.972820 24758 net.cpp:357] inception_3b/relu_1x1 -> inception_3b/1x1 (in-place)
I0817 17:43:41.972831 24758 net.cpp:120] Setting up inception_3b/relu_1x1
I0817 17:43:41.972843 24758 net.cpp:127] Top shape: 32 128 28 28 (3211264)
I0817 17:43:41.972852 24758 layer_factory.hpp:74] Creating layer inception_3b/3x3_reduce
I0817 17:43:41.972865 24758 net.cpp:90] Creating Layer inception_3b/3x3_reduce
I0817 17:43:41.972874 24758 net.cpp:410] inception_3b/3x3_reduce <- inception_3a/output_inception_3a/output_0_split_1
I0817 17:43:41.972887 24758 net.cpp:368] inception_3b/3x3_reduce -> inception_3b/3x3_reduce
I0817 17:43:41.972908 24758 net.cpp:120] Setting up inception_3b/3x3_reduce
I0817 17:43:41.973258 24758 net.cpp:127] Top shape: 32 128 28 28 (3211264)
I0817 17:43:41.973273 24758 layer_factory.hpp:74] Creating layer inception_3b/relu_3x3_reduce
I0817 17:43:41.973285 24758 net.cpp:90] Creating Layer inception_3b/relu_3x3_reduce
I0817 17:43:41.973294 24758 net.cpp:410] inception_3b/relu_3x3_reduce <- inception_3b/3x3_reduce
I0817 17:43:41.973305 24758 net.cpp:357] inception_3b/relu_3x3_reduce -> inception_3b/3x3_reduce (in-place)
I0817 17:43:41.973317 24758 net.cpp:120] Setting up inception_3b/relu_3x3_reduce
I0817 17:43:41.973330 24758 net.cpp:127] Top shape: 32 128 28 28 (3211264)
I0817 17:43:41.973338 24758 layer_factory.hpp:74] Creating layer inception_3b/3x3
I0817 17:43:41.973356 24758 net.cpp:90] Creating Layer inception_3b/3x3
I0817 17:43:41.973368 24758 net.cpp:410] inception_3b/3x3 <- inception_3b/3x3_reduce
I0817 17:43:41.973386 24758 net.cpp:368] inception_3b/3x3 -> inception_3b/3x3
I0817 17:43:41.973402 24758 net.cpp:120] Setting up inception_3b/3x3
I0817 17:43:41.975567 24758 net.cpp:127] Top shape: 32 192 28 28 (4816896)
I0817 17:43:41.975590 24758 layer_factory.hpp:74] Creating layer inception_3b/relu_3x3
I0817 17:43:41.975603 24758 net.cpp:90] Creating Layer inception_3b/relu_3x3
I0817 17:43:41.975615 24758 net.cpp:410] inception_3b/relu_3x3 <- inception_3b/3x3
I0817 17:43:41.975626 24758 net.cpp:357] inception_3b/relu_3x3 -> inception_3b/3x3 (in-place)
I0817 17:43:41.975638 24758 net.cpp:120] Setting up inception_3b/relu_3x3
I0817 17:43:41.975651 24758 net.cpp:127] Top shape: 32 192 28 28 (4816896)
I0817 17:43:41.975659 24758 layer_factory.hpp:74] Creating layer inception_3b/5x5_reduce
I0817 17:43:41.975672 24758 net.cpp:90] Creating Layer inception_3b/5x5_reduce
I0817 17:43:41.975680 24758 net.cpp:410] inception_3b/5x5_reduce <- inception_3a/output_inception_3a/output_0_split_2
I0817 17:43:41.975697 24758 net.cpp:368] inception_3b/5x5_reduce -> inception_3b/5x5_reduce
I0817 17:43:41.975711 24758 net.cpp:120] Setting up inception_3b/5x5_reduce
I0817 17:43:41.975818 24758 net.cpp:127] Top shape: 32 32 28 28 (802816)
I0817 17:43:41.975833 24758 layer_factory.hpp:74] Creating layer inception_3b/relu_5x5_reduce
I0817 17:43:41.975846 24758 net.cpp:90] Creating Layer inception_3b/relu_5x5_reduce
I0817 17:43:41.975854 24758 net.cpp:410] inception_3b/relu_5x5_reduce <- inception_3b/5x5_reduce
I0817 17:43:41.975868 24758 net.cpp:357] inception_3b/relu_5x5_reduce -> inception_3b/5x5_reduce (in-place)
I0817 17:43:41.975882 24758 net.cpp:120] Setting up inception_3b/relu_5x5_reduce
I0817 17:43:41.975898 24758 net.cpp:127] Top shape: 32 32 28 28 (802816)
I0817 17:43:41.975909 24758 layer_factory.hpp:74] Creating layer inception_3b/5x5
I0817 17:43:41.975922 24758 net.cpp:90] Creating Layer inception_3b/5x5
I0817 17:43:41.975930 24758 net.cpp:410] inception_3b/5x5 <- inception_3b/5x5_reduce
I0817 17:43:41.975946 24758 net.cpp:368] inception_3b/5x5 -> inception_3b/5x5
I0817 17:43:41.975965 24758 net.cpp:120] Setting up inception_3b/5x5
I0817 17:43:41.976737 24758 net.cpp:127] Top shape: 32 96 28 28 (2408448)
I0817 17:43:41.976754 24758 layer_factory.hpp:74] Creating layer inception_3b/relu_5x5
I0817 17:43:41.976769 24758 net.cpp:90] Creating Layer inception_3b/relu_5x5
I0817 17:43:41.976779 24758 net.cpp:410] inception_3b/relu_5x5 <- inception_3b/5x5
I0817 17:43:41.976790 24758 net.cpp:357] inception_3b/relu_5x5 -> inception_3b/5x5 (in-place)
I0817 17:43:41.976802 24758 net.cpp:120] Setting up inception_3b/relu_5x5
I0817 17:43:41.976814 24758 net.cpp:127] Top shape: 32 96 28 28 (2408448)
I0817 17:43:41.976824 24758 layer_factory.hpp:74] Creating layer inception_3b/pool
I0817 17:43:41.976835 24758 net.cpp:90] Creating Layer inception_3b/pool
I0817 17:43:41.976843 24758 net.cpp:410] inception_3b/pool <- inception_3a/output_inception_3a/output_0_split_3
I0817 17:43:41.976855 24758 net.cpp:368] inception_3b/pool -> inception_3b/pool
I0817 17:43:41.976871 24758 net.cpp:120] Setting up inception_3b/pool
I0817 17:43:41.976889 24758 net.cpp:127] Top shape: 32 256 28 28 (6422528)
I0817 17:43:41.976904 24758 layer_factory.hpp:74] Creating layer inception_3b/pool_proj
I0817 17:43:41.976917 24758 net.cpp:90] Creating Layer inception_3b/pool_proj
I0817 17:43:41.976927 24758 net.cpp:410] inception_3b/pool_proj <- inception_3b/pool
I0817 17:43:41.976944 24758 net.cpp:368] inception_3b/pool_proj -> inception_3b/pool_proj
I0817 17:43:41.976961 24758 net.cpp:120] Setting up inception_3b/pool_proj
I0817 17:43:41.977145 24758 net.cpp:127] Top shape: 32 64 28 28 (1605632)
I0817 17:43:41.977160 24758 layer_factory.hpp:74] Creating layer inception_3b/relu_pool_proj
I0817 17:43:41.977172 24758 net.cpp:90] Creating Layer inception_3b/relu_pool_proj
I0817 17:43:41.977181 24758 net.cpp:410] inception_3b/relu_pool_proj <- inception_3b/pool_proj
I0817 17:43:41.977195 24758 net.cpp:357] inception_3b/relu_pool_proj -> inception_3b/pool_proj (in-place)
I0817 17:43:41.977208 24758 net.cpp:120] Setting up inception_3b/relu_pool_proj
I0817 17:43:41.977221 24758 net.cpp:127] Top shape: 32 64 28 28 (1605632)
I0817 17:43:41.977231 24758 layer_factory.hpp:74] Creating layer inception_3b/output
I0817 17:43:41.977255 24758 net.cpp:90] Creating Layer inception_3b/output
I0817 17:43:41.977265 24758 net.cpp:410] inception_3b/output <- inception_3b/1x1
I0817 17:43:41.977275 24758 net.cpp:410] inception_3b/output <- inception_3b/3x3
I0817 17:43:41.977285 24758 net.cpp:410] inception_3b/output <- inception_3b/5x5
I0817 17:43:41.977295 24758 net.cpp:410] inception_3b/output <- inception_3b/pool_proj
I0817 17:43:41.977306 24758 net.cpp:368] inception_3b/output -> inception_3b/output
I0817 17:43:41.977319 24758 net.cpp:120] Setting up inception_3b/output
I0817 17:43:41.977332 24758 net.cpp:127] Top shape: 32 480 28 28 (12042240)
I0817 17:43:41.977344 24758 layer_factory.hpp:74] Creating layer pool3/3x3_s2
I0817 17:43:41.977360 24758 net.cpp:90] Creating Layer pool3/3x3_s2
I0817 17:43:41.977368 24758 net.cpp:410] pool3/3x3_s2 <- inception_3b/output
I0817 17:43:41.977380 24758 net.cpp:368] pool3/3x3_s2 -> pool3/3x3_s2
I0817 17:43:41.977393 24758 net.cpp:120] Setting up pool3/3x3_s2
I0817 17:43:41.977409 24758 net.cpp:127] Top shape: 32 480 14 14 (3010560)
I0817 17:43:41.977421 24758 layer_factory.hpp:74] Creating layer pool3/3x3_s2_pool3/3x3_s2_0_split
I0817 17:43:41.977432 24758 net.cpp:90] Creating Layer pool3/3x3_s2_pool3/3x3_s2_0_split
I0817 17:43:41.977442 24758 net.cpp:410] pool3/3x3_s2_pool3/3x3_s2_0_split <- pool3/3x3_s2
I0817 17:43:41.977455 24758 net.cpp:368] pool3/3x3_s2_pool3/3x3_s2_0_split -> pool3/3x3_s2_pool3/3x3_s2_0_split_0
I0817 17:43:41.977469 24758 net.cpp:368] pool3/3x3_s2_pool3/3x3_s2_0_split -> pool3/3x3_s2_pool3/3x3_s2_0_split_1
I0817 17:43:41.977483 24758 net.cpp:368] pool3/3x3_s2_pool3/3x3_s2_0_split -> pool3/3x3_s2_pool3/3x3_s2_0_split_2
I0817 17:43:41.977496 24758 net.cpp:368] pool3/3x3_s2_pool3/3x3_s2_0_split -> pool3/3x3_s2_pool3/3x3_s2_0_split_3
I0817 17:43:41.977510 24758 net.cpp:120] Setting up pool3/3x3_s2_pool3/3x3_s2_0_split
I0817 17:43:41.977529 24758 net.cpp:127] Top shape: 32 480 14 14 (3010560)
I0817 17:43:41.977541 24758 net.cpp:127] Top shape: 32 480 14 14 (3010560)
I0817 17:43:41.977552 24758 net.cpp:127] Top shape: 32 480 14 14 (3010560)
I0817 17:43:41.977563 24758 net.cpp:127] Top shape: 32 480 14 14 (3010560)
I0817 17:43:41.977572 24758 layer_factory.hpp:74] Creating layer inception_4a/1x1
I0817 17:43:41.977586 24758 net.cpp:90] Creating Layer inception_4a/1x1
I0817 17:43:41.977594 24758 net.cpp:410] inception_4a/1x1 <- pool3/3x3_s2_pool3/3x3_s2_0_split_0
I0817 17:43:41.977609 24758 net.cpp:368] inception_4a/1x1 -> inception_4a/1x1
I0817 17:43:41.977623 24758 net.cpp:120] Setting up inception_4a/1x1
I0817 17:43:41.978538 24758 net.cpp:127] Top shape: 32 192 14 14 (1204224)
I0817 17:43:41.978555 24758 layer_factory.hpp:74] Creating layer inception_4a/relu_1x1
I0817 17:43:41.978567 24758 net.cpp:90] Creating Layer inception_4a/relu_1x1
I0817 17:43:41.978576 24758 net.cpp:410] inception_4a/relu_1x1 <- inception_4a/1x1
I0817 17:43:41.978587 24758 net.cpp:357] inception_4a/relu_1x1 -> inception_4a/1x1 (in-place)
I0817 17:43:41.978600 24758 net.cpp:120] Setting up inception_4a/relu_1x1
I0817 17:43:41.978611 24758 net.cpp:127] Top shape: 32 192 14 14 (1204224)
I0817 17:43:41.978621 24758 layer_factory.hpp:74] Creating layer inception_4a/3x3_reduce
I0817 17:43:41.978641 24758 net.cpp:90] Creating Layer inception_4a/3x3_reduce
I0817 17:43:41.978652 24758 net.cpp:410] inception_4a/3x3_reduce <- pool3/3x3_s2_pool3/3x3_s2_0_split_1
I0817 17:43:41.978668 24758 net.cpp:368] inception_4a/3x3_reduce -> inception_4a/3x3_reduce
I0817 17:43:41.978684 24758 net.cpp:120] Setting up inception_4a/3x3_reduce
I0817 17:43:41.979159 24758 net.cpp:127] Top shape: 32 96 14 14 (602112)
I0817 17:43:41.979185 24758 layer_factory.hpp:74] Creating layer inception_4a/relu_3x3_reduce
I0817 17:43:41.979199 24758 net.cpp:90] Creating Layer inception_4a/relu_3x3_reduce
I0817 17:43:41.979208 24758 net.cpp:410] inception_4a/relu_3x3_reduce <- inception_4a/3x3_reduce
I0817 17:43:41.979220 24758 net.cpp:357] inception_4a/relu_3x3_reduce -> inception_4a/3x3_reduce (in-place)
I0817 17:43:41.979233 24758 net.cpp:120] Setting up inception_4a/relu_3x3_reduce
I0817 17:43:41.979255 24758 net.cpp:127] Top shape: 32 96 14 14 (602112)
I0817 17:43:41.979266 24758 layer_factory.hpp:74] Creating layer inception_4a/3x3
I0817 17:43:41.979279 24758 net.cpp:90] Creating Layer inception_4a/3x3
I0817 17:43:41.979288 24758 net.cpp:410] inception_4a/3x3 <- inception_4a/3x3_reduce
I0817 17:43:41.979305 24758 net.cpp:368] inception_4a/3x3 -> inception_4a/3x3
I0817 17:43:41.979317 24758 net.cpp:120] Setting up inception_4a/3x3
I0817 17:43:41.981086 24758 net.cpp:127] Top shape: 32 208 14 14 (1304576)
I0817 17:43:41.981102 24758 layer_factory.hpp:74] Creating layer inception_4a/relu_3x3
I0817 17:43:41.981114 24758 net.cpp:90] Creating Layer inception_4a/relu_3x3
I0817 17:43:41.981123 24758 net.cpp:410] inception_4a/relu_3x3 <- inception_4a/3x3
I0817 17:43:41.981137 24758 net.cpp:357] inception_4a/relu_3x3 -> inception_4a/3x3 (in-place)
I0817 17:43:41.981153 24758 net.cpp:120] Setting up inception_4a/relu_3x3
I0817 17:43:41.981164 24758 net.cpp:127] Top shape: 32 208 14 14 (1304576)
I0817 17:43:41.981173 24758 layer_factory.hpp:74] Creating layer inception_4a/5x5_reduce
I0817 17:43:41.981185 24758 net.cpp:90] Creating Layer inception_4a/5x5_reduce
I0817 17:43:41.981194 24758 net.cpp:410] inception_4a/5x5_reduce <- pool3/3x3_s2_pool3/3x3_s2_0_split_2
I0817 17:43:41.981210 24758 net.cpp:368] inception_4a/5x5_reduce -> inception_4a/5x5_reduce
I0817 17:43:41.981225 24758 net.cpp:120] Setting up inception_4a/5x5_reduce
I0817 17:43:41.981328 24758 net.cpp:127] Top shape: 32 16 14 14 (100352)
I0817 17:43:41.981345 24758 layer_factory.hpp:74] Creating layer inception_4a/relu_5x5_reduce
I0817 17:43:41.981358 24758 net.cpp:90] Creating Layer inception_4a/relu_5x5_reduce
I0817 17:43:41.981366 24758 net.cpp:410] inception_4a/relu_5x5_reduce <- inception_4a/5x5_reduce
I0817 17:43:41.981377 24758 net.cpp:357] inception_4a/relu_5x5_reduce -> inception_4a/5x5_reduce (in-place)
I0817 17:43:41.981389 24758 net.cpp:120] Setting up inception_4a/relu_5x5_reduce
I0817 17:43:41.981401 24758 net.cpp:127] Top shape: 32 16 14 14 (100352)
I0817 17:43:41.981410 24758 layer_factory.hpp:74] Creating layer inception_4a/5x5
I0817 17:43:41.981426 24758 net.cpp:90] Creating Layer inception_4a/5x5
I0817 17:43:41.981436 24758 net.cpp:410] inception_4a/5x5 <- inception_4a/5x5_reduce
I0817 17:43:41.981449 24758 net.cpp:368] inception_4a/5x5 -> inception_4a/5x5
I0817 17:43:41.981462 24758 net.cpp:120] Setting up inception_4a/5x5
I0817 17:43:41.981676 24758 net.cpp:127] Top shape: 32 48 14 14 (301056)
I0817 17:43:41.981694 24758 layer_factory.hpp:74] Creating layer inception_4a/relu_5x5
I0817 17:43:41.981706 24758 net.cpp:90] Creating Layer inception_4a/relu_5x5
I0817 17:43:41.981715 24758 net.cpp:410] inception_4a/relu_5x5 <- inception_4a/5x5
I0817 17:43:41.981726 24758 net.cpp:357] inception_4a/relu_5x5 -> inception_4a/5x5 (in-place)
I0817 17:43:41.981741 24758 net.cpp:120] Setting up inception_4a/relu_5x5
I0817 17:43:41.981753 24758 net.cpp:127] Top shape: 32 48 14 14 (301056)
I0817 17:43:41.981762 24758 layer_factory.hpp:74] Creating layer inception_4a/pool
I0817 17:43:41.981773 24758 net.cpp:90] Creating Layer inception_4a/pool
I0817 17:43:41.981782 24758 net.cpp:410] inception_4a/pool <- pool3/3x3_s2_pool3/3x3_s2_0_split_3
I0817 17:43:41.981793 24758 net.cpp:368] inception_4a/pool -> inception_4a/pool
I0817 17:43:41.981806 24758 net.cpp:120] Setting up inception_4a/pool
I0817 17:43:41.981822 24758 net.cpp:127] Top shape: 32 480 14 14 (3010560)
I0817 17:43:41.981833 24758 layer_factory.hpp:74] Creating layer inception_4a/pool_proj
I0817 17:43:41.981851 24758 net.cpp:90] Creating Layer inception_4a/pool_proj
I0817 17:43:41.981863 24758 net.cpp:410] inception_4a/pool_proj <- inception_4a/pool
I0817 17:43:41.981878 24758 net.cpp:368] inception_4a/pool_proj -> inception_4a/pool_proj
I0817 17:43:41.981897 24758 net.cpp:120] Setting up inception_4a/pool_proj
I0817 17:43:41.982219 24758 net.cpp:127] Top shape: 32 64 14 14 (401408)
I0817 17:43:41.982235 24758 layer_factory.hpp:74] Creating layer inception_4a/relu_pool_proj
I0817 17:43:41.982259 24758 net.cpp:90] Creating Layer inception_4a/relu_pool_proj
I0817 17:43:41.982272 24758 net.cpp:410] inception_4a/relu_pool_proj <- inception_4a/pool_proj
I0817 17:43:41.982285 24758 net.cpp:357] inception_4a/relu_pool_proj -> inception_4a/pool_proj (in-place)
I0817 17:43:41.982297 24758 net.cpp:120] Setting up inception_4a/relu_pool_proj
I0817 17:43:41.982309 24758 net.cpp:127] Top shape: 32 64 14 14 (401408)
I0817 17:43:41.982318 24758 layer_factory.hpp:74] Creating layer inception_4a/output
I0817 17:43:41.982329 24758 net.cpp:90] Creating Layer inception_4a/output
I0817 17:43:41.982337 24758 net.cpp:410] inception_4a/output <- inception_4a/1x1
I0817 17:43:41.982347 24758 net.cpp:410] inception_4a/output <- inception_4a/3x3
I0817 17:43:41.982357 24758 net.cpp:410] inception_4a/output <- inception_4a/5x5
I0817 17:43:41.982367 24758 net.cpp:410] inception_4a/output <- inception_4a/pool_proj
I0817 17:43:41.982380 24758 net.cpp:368] inception_4a/output -> inception_4a/output
I0817 17:43:41.982393 24758 net.cpp:120] Setting up inception_4a/output
I0817 17:43:41.982409 24758 net.cpp:127] Top shape: 32 512 14 14 (3211264)
I0817 17:43:41.982419 24758 layer_factory.hpp:74] Creating layer inception_4a/output_inception_4a/output_0_split
I0817 17:43:41.982432 24758 net.cpp:90] Creating Layer inception_4a/output_inception_4a/output_0_split
I0817 17:43:41.982441 24758 net.cpp:410] inception_4a/output_inception_4a/output_0_split <- inception_4a/output
I0817 17:43:41.982452 24758 net.cpp:368] inception_4a/output_inception_4a/output_0_split -> inception_4a/output_inception_4a/output_0_split_0
I0817 17:43:41.982466 24758 net.cpp:368] inception_4a/output_inception_4a/output_0_split -> inception_4a/output_inception_4a/output_0_split_1
I0817 17:43:41.982486 24758 net.cpp:368] inception_4a/output_inception_4a/output_0_split -> inception_4a/output_inception_4a/output_0_split_2
I0817 17:43:41.982503 24758 net.cpp:368] inception_4a/output_inception_4a/output_0_split -> inception_4a/output_inception_4a/output_0_split_3
I0817 17:43:41.982517 24758 net.cpp:368] inception_4a/output_inception_4a/output_0_split -> inception_4a/output_inception_4a/output_0_split_4
I0817 17:43:41.982530 24758 net.cpp:120] Setting up inception_4a/output_inception_4a/output_0_split
I0817 17:43:41.982545 24758 net.cpp:127] Top shape: 32 512 14 14 (3211264)
I0817 17:43:41.982556 24758 net.cpp:127] Top shape: 32 512 14 14 (3211264)
I0817 17:43:41.982566 24758 net.cpp:127] Top shape: 32 512 14 14 (3211264)
I0817 17:43:41.982576 24758 net.cpp:127] Top shape: 32 512 14 14 (3211264)
I0817 17:43:41.982588 24758 net.cpp:127] Top shape: 32 512 14 14 (3211264)
I0817 17:43:41.982596 24758 layer_factory.hpp:74] Creating layer loss1/ave_pool
I0817 17:43:41.982610 24758 net.cpp:90] Creating Layer loss1/ave_pool
I0817 17:43:41.982620 24758 net.cpp:410] loss1/ave_pool <- inception_4a/output_inception_4a/output_0_split_0
I0817 17:43:41.982631 24758 net.cpp:368] loss1/ave_pool -> loss1/ave_pool
I0817 17:43:41.982643 24758 net.cpp:120] Setting up loss1/ave_pool
I0817 17:43:41.982658 24758 net.cpp:127] Top shape: 32 512 4 4 (262144)
I0817 17:43:41.982667 24758 layer_factory.hpp:74] Creating layer loss1/conv
I0817 17:43:41.982681 24758 net.cpp:90] Creating Layer loss1/conv
I0817 17:43:41.982689 24758 net.cpp:410] loss1/conv <- loss1/ave_pool
I0817 17:43:41.982705 24758 net.cpp:368] loss1/conv -> loss1/conv
I0817 17:43:41.982718 24758 net.cpp:120] Setting up loss1/conv
I0817 17:43:41.983383 24758 net.cpp:127] Top shape: 32 128 4 4 (65536)
I0817 17:43:41.983400 24758 layer_factory.hpp:74] Creating layer loss1/relu_conv
I0817 17:43:41.983412 24758 net.cpp:90] Creating Layer loss1/relu_conv
I0817 17:43:41.983422 24758 net.cpp:410] loss1/relu_conv <- loss1/conv
I0817 17:43:41.983433 24758 net.cpp:357] loss1/relu_conv -> loss1/conv (in-place)
I0817 17:43:41.983444 24758 net.cpp:120] Setting up loss1/relu_conv
I0817 17:43:41.983456 24758 net.cpp:127] Top shape: 32 128 4 4 (65536)
I0817 17:43:41.983465 24758 layer_factory.hpp:74] Creating layer loss1/fc
I0817 17:43:41.983492 24758 net.cpp:90] Creating Layer loss1/fc
I0817 17:43:41.983505 24758 net.cpp:410] loss1/fc <- loss1/conv
I0817 17:43:41.983522 24758 net.cpp:368] loss1/fc -> loss1/fc
I0817 17:43:41.983541 24758 net.cpp:120] Setting up loss1/fc
I0817 17:43:42.003810 24758 net.cpp:127] Top shape: 32 1024 (32768)
I0817 17:43:42.003832 24758 layer_factory.hpp:74] Creating layer loss1/relu_fc
I0817 17:43:42.003845 24758 net.cpp:90] Creating Layer loss1/relu_fc
I0817 17:43:42.003855 24758 net.cpp:410] loss1/relu_fc <- loss1/fc
I0817 17:43:42.003870 24758 net.cpp:357] loss1/relu_fc -> loss1/fc (in-place)
I0817 17:43:42.003885 24758 net.cpp:120] Setting up loss1/relu_fc
I0817 17:43:42.003906 24758 net.cpp:127] Top shape: 32 1024 (32768)
I0817 17:43:42.003916 24758 layer_factory.hpp:74] Creating layer loss1/drop_fc
I0817 17:43:42.003938 24758 net.cpp:90] Creating Layer loss1/drop_fc
I0817 17:43:42.003949 24758 net.cpp:410] loss1/drop_fc <- loss1/fc
I0817 17:43:42.003962 24758 net.cpp:357] loss1/drop_fc -> loss1/fc (in-place)
I0817 17:43:42.003978 24758 net.cpp:120] Setting up loss1/drop_fc
I0817 17:43:42.004031 24758 net.cpp:127] Top shape: 32 1024 (32768)
I0817 17:43:42.004045 24758 layer_factory.hpp:74] Creating layer ft_loss1/classifier
I0817 17:43:42.004057 24758 net.cpp:90] Creating Layer ft_loss1/classifier
I0817 17:43:42.004067 24758 net.cpp:410] ft_loss1/classifier <- loss1/fc
I0817 17:43:42.004082 24758 net.cpp:368] ft_loss1/classifier -> ft_loss1/classifier
I0817 17:43:42.004099 24758 net.cpp:120] Setting up ft_loss1/classifier
I0817 17:43:42.004149 24758 net.cpp:127] Top shape: 32 2 (64)
I0817 17:43:42.004164 24758 layer_factory.hpp:74] Creating layer loss1/loss
I0817 17:43:42.004215 24758 net.cpp:90] Creating Layer loss1/loss
I0817 17:43:42.004227 24758 net.cpp:410] loss1/loss <- ft_loss1/classifier
I0817 17:43:42.004238 24758 net.cpp:410] loss1/loss <- label_data_1_split_0
I0817 17:43:42.004251 24758 net.cpp:368] loss1/loss -> loss1/loss1
I0817 17:43:42.004264 24758 net.cpp:120] Setting up loss1/loss
I0817 17:43:42.004281 24758 layer_factory.hpp:74] Creating layer loss1/loss
I0817 17:43:42.004339 24758 net.cpp:127] Top shape: (1)
I0817 17:43:42.004350 24758 net.cpp:129]     with loss weight 0.3
I0817 17:43:42.004423 24758 layer_factory.hpp:74] Creating layer inception_4b/1x1
I0817 17:43:42.004439 24758 net.cpp:90] Creating Layer inception_4b/1x1
I0817 17:43:42.004449 24758 net.cpp:410] inception_4b/1x1 <- inception_4a/output_inception_4a/output_0_split_1
I0817 17:43:42.004462 24758 net.cpp:368] inception_4b/1x1 -> inception_4b/1x1
I0817 17:43:42.004477 24758 net.cpp:120] Setting up inception_4b/1x1
I0817 17:43:42.005298 24758 net.cpp:127] Top shape: 32 160 14 14 (1003520)
I0817 17:43:42.005316 24758 layer_factory.hpp:74] Creating layer inception_4b/relu_1x1
I0817 17:43:42.005327 24758 net.cpp:90] Creating Layer inception_4b/relu_1x1
I0817 17:43:42.005336 24758 net.cpp:410] inception_4b/relu_1x1 <- inception_4b/1x1
I0817 17:43:42.005347 24758 net.cpp:357] inception_4b/relu_1x1 -> inception_4b/1x1 (in-place)
I0817 17:43:42.005360 24758 net.cpp:120] Setting up inception_4b/relu_1x1
I0817 17:43:42.005373 24758 net.cpp:127] Top shape: 32 160 14 14 (1003520)
I0817 17:43:42.005381 24758 layer_factory.hpp:74] Creating layer inception_4b/3x3_reduce
I0817 17:43:42.005398 24758 net.cpp:90] Creating Layer inception_4b/3x3_reduce
I0817 17:43:42.005409 24758 net.cpp:410] inception_4b/3x3_reduce <- inception_4a/output_inception_4a/output_0_split_2
I0817 17:43:42.005424 24758 net.cpp:368] inception_4b/3x3_reduce -> inception_4b/3x3_reduce
I0817 17:43:42.005437 24758 net.cpp:120] Setting up inception_4b/3x3_reduce
I0817 17:43:42.006024 24758 net.cpp:127] Top shape: 32 112 14 14 (702464)
I0817 17:43:42.006042 24758 layer_factory.hpp:74] Creating layer inception_4b/relu_3x3_reduce
I0817 17:43:42.006052 24758 net.cpp:90] Creating Layer inception_4b/relu_3x3_reduce
I0817 17:43:42.006062 24758 net.cpp:410] inception_4b/relu_3x3_reduce <- inception_4b/3x3_reduce
I0817 17:43:42.006077 24758 net.cpp:357] inception_4b/relu_3x3_reduce -> inception_4b/3x3_reduce (in-place)
I0817 17:43:42.006101 24758 net.cpp:120] Setting up inception_4b/relu_3x3_reduce
I0817 17:43:42.006114 24758 net.cpp:127] Top shape: 32 112 14 14 (702464)
I0817 17:43:42.006124 24758 layer_factory.hpp:74] Creating layer inception_4b/3x3
I0817 17:43:42.006135 24758 net.cpp:90] Creating Layer inception_4b/3x3
I0817 17:43:42.006150 24758 net.cpp:410] inception_4b/3x3 <- inception_4b/3x3_reduce
I0817 17:43:42.006163 24758 net.cpp:368] inception_4b/3x3 -> inception_4b/3x3
I0817 17:43:42.006177 24758 net.cpp:120] Setting up inception_4b/3x3
I0817 17:43:42.008390 24758 net.cpp:127] Top shape: 32 224 14 14 (1404928)
I0817 17:43:42.008407 24758 layer_factory.hpp:74] Creating layer inception_4b/relu_3x3
I0817 17:43:42.008419 24758 net.cpp:90] Creating Layer inception_4b/relu_3x3
I0817 17:43:42.008430 24758 net.cpp:410] inception_4b/relu_3x3 <- inception_4b/3x3
I0817 17:43:42.008445 24758 net.cpp:357] inception_4b/relu_3x3 -> inception_4b/3x3 (in-place)
I0817 17:43:42.008458 24758 net.cpp:120] Setting up inception_4b/relu_3x3
I0817 17:43:42.008471 24758 net.cpp:127] Top shape: 32 224 14 14 (1404928)
I0817 17:43:42.008479 24758 layer_factory.hpp:74] Creating layer inception_4b/5x5_reduce
I0817 17:43:42.008492 24758 net.cpp:90] Creating Layer inception_4b/5x5_reduce
I0817 17:43:42.008502 24758 net.cpp:410] inception_4b/5x5_reduce <- inception_4a/output_inception_4a/output_0_split_3
I0817 17:43:42.008517 24758 net.cpp:368] inception_4b/5x5_reduce -> inception_4b/5x5_reduce
I0817 17:43:42.008532 24758 net.cpp:120] Setting up inception_4b/5x5_reduce
I0817 17:43:42.008677 24758 net.cpp:127] Top shape: 32 24 14 14 (150528)
I0817 17:43:42.008694 24758 layer_factory.hpp:74] Creating layer inception_4b/relu_5x5_reduce
I0817 17:43:42.008707 24758 net.cpp:90] Creating Layer inception_4b/relu_5x5_reduce
I0817 17:43:42.008715 24758 net.cpp:410] inception_4b/relu_5x5_reduce <- inception_4b/5x5_reduce
I0817 17:43:42.008730 24758 net.cpp:357] inception_4b/relu_5x5_reduce -> inception_4b/5x5_reduce (in-place)
I0817 17:43:42.008745 24758 net.cpp:120] Setting up inception_4b/relu_5x5_reduce
I0817 17:43:42.008757 24758 net.cpp:127] Top shape: 32 24 14 14 (150528)
I0817 17:43:42.008766 24758 layer_factory.hpp:74] Creating layer inception_4b/5x5
I0817 17:43:42.008780 24758 net.cpp:90] Creating Layer inception_4b/5x5
I0817 17:43:42.008787 24758 net.cpp:410] inception_4b/5x5 <- inception_4b/5x5_reduce
I0817 17:43:42.008803 24758 net.cpp:368] inception_4b/5x5 -> inception_4b/5x5
I0817 17:43:42.008819 24758 net.cpp:120] Setting up inception_4b/5x5
I0817 17:43:42.009218 24758 net.cpp:127] Top shape: 32 64 14 14 (401408)
I0817 17:43:42.009234 24758 layer_factory.hpp:74] Creating layer inception_4b/relu_5x5
I0817 17:43:42.009249 24758 net.cpp:90] Creating Layer inception_4b/relu_5x5
I0817 17:43:42.009259 24758 net.cpp:410] inception_4b/relu_5x5 <- inception_4b/5x5
I0817 17:43:42.009270 24758 net.cpp:357] inception_4b/relu_5x5 -> inception_4b/5x5 (in-place)
I0817 17:43:42.009282 24758 net.cpp:120] Setting up inception_4b/relu_5x5
I0817 17:43:42.009294 24758 net.cpp:127] Top shape: 32 64 14 14 (401408)
I0817 17:43:42.009302 24758 layer_factory.hpp:74] Creating layer inception_4b/pool
I0817 17:43:42.009317 24758 net.cpp:90] Creating Layer inception_4b/pool
I0817 17:43:42.009327 24758 net.cpp:410] inception_4b/pool <- inception_4a/output_inception_4a/output_0_split_4
I0817 17:43:42.009340 24758 net.cpp:368] inception_4b/pool -> inception_4b/pool
I0817 17:43:42.009361 24758 net.cpp:120] Setting up inception_4b/pool
I0817 17:43:42.009380 24758 net.cpp:127] Top shape: 32 512 14 14 (3211264)
I0817 17:43:42.009392 24758 layer_factory.hpp:74] Creating layer inception_4b/pool_proj
I0817 17:43:42.009405 24758 net.cpp:90] Creating Layer inception_4b/pool_proj
I0817 17:43:42.009418 24758 net.cpp:410] inception_4b/pool_proj <- inception_4b/pool
I0817 17:43:42.009431 24758 net.cpp:368] inception_4b/pool_proj -> inception_4b/pool_proj
I0817 17:43:42.009445 24758 net.cpp:120] Setting up inception_4b/pool_proj
I0817 17:43:42.009790 24758 net.cpp:127] Top shape: 32 64 14 14 (401408)
I0817 17:43:42.009812 24758 layer_factory.hpp:74] Creating layer inception_4b/relu_pool_proj
I0817 17:43:42.009824 24758 net.cpp:90] Creating Layer inception_4b/relu_pool_proj
I0817 17:43:42.009835 24758 net.cpp:410] inception_4b/relu_pool_proj <- inception_4b/pool_proj
I0817 17:43:42.009848 24758 net.cpp:357] inception_4b/relu_pool_proj -> inception_4b/pool_proj (in-place)
I0817 17:43:42.009860 24758 net.cpp:120] Setting up inception_4b/relu_pool_proj
I0817 17:43:42.009873 24758 net.cpp:127] Top shape: 32 64 14 14 (401408)
I0817 17:43:42.009883 24758 layer_factory.hpp:74] Creating layer inception_4b/output
I0817 17:43:42.009907 24758 net.cpp:90] Creating Layer inception_4b/output
I0817 17:43:42.009917 24758 net.cpp:410] inception_4b/output <- inception_4b/1x1
I0817 17:43:42.009927 24758 net.cpp:410] inception_4b/output <- inception_4b/3x3
I0817 17:43:42.009938 24758 net.cpp:410] inception_4b/output <- inception_4b/5x5
I0817 17:43:42.009948 24758 net.cpp:410] inception_4b/output <- inception_4b/pool_proj
I0817 17:43:42.009959 24758 net.cpp:368] inception_4b/output -> inception_4b/output
I0817 17:43:42.009973 24758 net.cpp:120] Setting up inception_4b/output
I0817 17:43:42.009986 24758 net.cpp:127] Top shape: 32 512 14 14 (3211264)
I0817 17:43:42.009999 24758 layer_factory.hpp:74] Creating layer inception_4b/output_inception_4b/output_0_split
I0817 17:43:42.010010 24758 net.cpp:90] Creating Layer inception_4b/output_inception_4b/output_0_split
I0817 17:43:42.010020 24758 net.cpp:410] inception_4b/output_inception_4b/output_0_split <- inception_4b/output
I0817 17:43:42.010035 24758 net.cpp:368] inception_4b/output_inception_4b/output_0_split -> inception_4b/output_inception_4b/output_0_split_0
I0817 17:43:42.010049 24758 net.cpp:368] inception_4b/output_inception_4b/output_0_split -> inception_4b/output_inception_4b/output_0_split_1
I0817 17:43:42.010063 24758 net.cpp:368] inception_4b/output_inception_4b/output_0_split -> inception_4b/output_inception_4b/output_0_split_2
I0817 17:43:42.010078 24758 net.cpp:368] inception_4b/output_inception_4b/output_0_split -> inception_4b/output_inception_4b/output_0_split_3
I0817 17:43:42.010092 24758 net.cpp:120] Setting up inception_4b/output_inception_4b/output_0_split
I0817 17:43:42.010109 24758 net.cpp:127] Top shape: 32 512 14 14 (3211264)
I0817 17:43:42.010123 24758 net.cpp:127] Top shape: 32 512 14 14 (3211264)
I0817 17:43:42.010133 24758 net.cpp:127] Top shape: 32 512 14 14 (3211264)
I0817 17:43:42.010144 24758 net.cpp:127] Top shape: 32 512 14 14 (3211264)
I0817 17:43:42.010152 24758 layer_factory.hpp:74] Creating layer inception_4c/1x1
I0817 17:43:42.010165 24758 net.cpp:90] Creating Layer inception_4c/1x1
I0817 17:43:42.010174 24758 net.cpp:410] inception_4c/1x1 <- inception_4b/output_inception_4b/output_0_split_0
I0817 17:43:42.010190 24758 net.cpp:368] inception_4c/1x1 -> inception_4c/1x1
I0817 17:43:42.010207 24758 net.cpp:120] Setting up inception_4c/1x1
I0817 17:43:42.010866 24758 net.cpp:127] Top shape: 32 128 14 14 (802816)
I0817 17:43:42.010884 24758 layer_factory.hpp:74] Creating layer inception_4c/relu_1x1
I0817 17:43:42.010900 24758 net.cpp:90] Creating Layer inception_4c/relu_1x1
I0817 17:43:42.010911 24758 net.cpp:410] inception_4c/relu_1x1 <- inception_4c/1x1
I0817 17:43:42.010923 24758 net.cpp:357] inception_4c/relu_1x1 -> inception_4c/1x1 (in-place)
I0817 17:43:42.010936 24758 net.cpp:120] Setting up inception_4c/relu_1x1
I0817 17:43:42.010947 24758 net.cpp:127] Top shape: 32 128 14 14 (802816)
I0817 17:43:42.010957 24758 layer_factory.hpp:74] Creating layer inception_4c/3x3_reduce
I0817 17:43:42.010972 24758 net.cpp:90] Creating Layer inception_4c/3x3_reduce
I0817 17:43:42.010984 24758 net.cpp:410] inception_4c/3x3_reduce <- inception_4b/output_inception_4b/output_0_split_1
I0817 17:43:42.011003 24758 net.cpp:368] inception_4c/3x3_reduce -> inception_4c/3x3_reduce
I0817 17:43:42.011019 24758 net.cpp:120] Setting up inception_4c/3x3_reduce
I0817 17:43:42.011678 24758 net.cpp:127] Top shape: 32 128 14 14 (802816)
I0817 17:43:42.011701 24758 layer_factory.hpp:74] Creating layer inception_4c/relu_3x3_reduce
I0817 17:43:42.011716 24758 net.cpp:90] Creating Layer inception_4c/relu_3x3_reduce
I0817 17:43:42.011726 24758 net.cpp:410] inception_4c/relu_3x3_reduce <- inception_4c/3x3_reduce
I0817 17:43:42.011737 24758 net.cpp:357] inception_4c/relu_3x3_reduce -> inception_4c/3x3_reduce (in-place)
I0817 17:43:42.011749 24758 net.cpp:120] Setting up inception_4c/relu_3x3_reduce
I0817 17:43:42.011761 24758 net.cpp:127] Top shape: 32 128 14 14 (802816)
I0817 17:43:42.011770 24758 layer_factory.hpp:74] Creating layer inception_4c/3x3
I0817 17:43:42.011785 24758 net.cpp:90] Creating Layer inception_4c/3x3
I0817 17:43:42.011796 24758 net.cpp:410] inception_4c/3x3 <- inception_4c/3x3_reduce
I0817 17:43:42.011809 24758 net.cpp:368] inception_4c/3x3 -> inception_4c/3x3
I0817 17:43:42.011823 24758 net.cpp:120] Setting up inception_4c/3x3
I0817 17:43:42.014714 24758 net.cpp:127] Top shape: 32 256 14 14 (1605632)
I0817 17:43:42.014744 24758 layer_factory.hpp:74] Creating layer inception_4c/relu_3x3
I0817 17:43:42.014762 24758 net.cpp:90] Creating Layer inception_4c/relu_3x3
I0817 17:43:42.014772 24758 net.cpp:410] inception_4c/relu_3x3 <- inception_4c/3x3
I0817 17:43:42.014785 24758 net.cpp:357] inception_4c/relu_3x3 -> inception_4c/3x3 (in-place)
I0817 17:43:42.014797 24758 net.cpp:120] Setting up inception_4c/relu_3x3
I0817 17:43:42.014809 24758 net.cpp:127] Top shape: 32 256 14 14 (1605632)
I0817 17:43:42.014818 24758 layer_factory.hpp:74] Creating layer inception_4c/5x5_reduce
I0817 17:43:42.014830 24758 net.cpp:90] Creating Layer inception_4c/5x5_reduce
I0817 17:43:42.014839 24758 net.cpp:410] inception_4c/5x5_reduce <- inception_4b/output_inception_4b/output_0_split_2
I0817 17:43:42.014853 24758 net.cpp:368] inception_4c/5x5_reduce -> inception_4c/5x5_reduce
I0817 17:43:42.014866 24758 net.cpp:120] Setting up inception_4c/5x5_reduce
I0817 17:43:42.015012 24758 net.cpp:127] Top shape: 32 24 14 14 (150528)
I0817 17:43:42.015028 24758 layer_factory.hpp:74] Creating layer inception_4c/relu_5x5_reduce
I0817 17:43:42.015039 24758 net.cpp:90] Creating Layer inception_4c/relu_5x5_reduce
I0817 17:43:42.015049 24758 net.cpp:410] inception_4c/relu_5x5_reduce <- inception_4c/5x5_reduce
I0817 17:43:42.015060 24758 net.cpp:357] inception_4c/relu_5x5_reduce -> inception_4c/5x5_reduce (in-place)
I0817 17:43:42.015074 24758 net.cpp:120] Setting up inception_4c/relu_5x5_reduce
I0817 17:43:42.015085 24758 net.cpp:127] Top shape: 32 24 14 14 (150528)
I0817 17:43:42.015094 24758 layer_factory.hpp:74] Creating layer inception_4c/5x5
I0817 17:43:42.015107 24758 net.cpp:90] Creating Layer inception_4c/5x5
I0817 17:43:42.015116 24758 net.cpp:410] inception_4c/5x5 <- inception_4c/5x5_reduce
I0817 17:43:42.015131 24758 net.cpp:368] inception_4c/5x5 -> inception_4c/5x5
I0817 17:43:42.015147 24758 net.cpp:120] Setting up inception_4c/5x5
I0817 17:43:42.015547 24758 net.cpp:127] Top shape: 32 64 14 14 (401408)
I0817 17:43:42.015563 24758 layer_factory.hpp:74] Creating layer inception_4c/relu_5x5
I0817 17:43:42.015574 24758 net.cpp:90] Creating Layer inception_4c/relu_5x5
I0817 17:43:42.015583 24758 net.cpp:410] inception_4c/relu_5x5 <- inception_4c/5x5
I0817 17:43:42.015600 24758 net.cpp:357] inception_4c/relu_5x5 -> inception_4c/5x5 (in-place)
I0817 17:43:42.015615 24758 net.cpp:120] Setting up inception_4c/relu_5x5
I0817 17:43:42.015627 24758 net.cpp:127] Top shape: 32 64 14 14 (401408)
I0817 17:43:42.015636 24758 layer_factory.hpp:74] Creating layer inception_4c/pool
I0817 17:43:42.015647 24758 net.cpp:90] Creating Layer inception_4c/pool
I0817 17:43:42.015657 24758 net.cpp:410] inception_4c/pool <- inception_4b/output_inception_4b/output_0_split_3
I0817 17:43:42.015669 24758 net.cpp:368] inception_4c/pool -> inception_4c/pool
I0817 17:43:42.015683 24758 net.cpp:120] Setting up inception_4c/pool
I0817 17:43:42.015699 24758 net.cpp:127] Top shape: 32 512 14 14 (3211264)
I0817 17:43:42.015712 24758 layer_factory.hpp:74] Creating layer inception_4c/pool_proj
I0817 17:43:42.015727 24758 net.cpp:90] Creating Layer inception_4c/pool_proj
I0817 17:43:42.015748 24758 net.cpp:410] inception_4c/pool_proj <- inception_4c/pool
I0817 17:43:42.015764 24758 net.cpp:368] inception_4c/pool_proj -> inception_4c/pool_proj
I0817 17:43:42.015780 24758 net.cpp:120] Setting up inception_4c/pool_proj
I0817 17:43:42.016127 24758 net.cpp:127] Top shape: 32 64 14 14 (401408)
I0817 17:43:42.016144 24758 layer_factory.hpp:74] Creating layer inception_4c/relu_pool_proj
I0817 17:43:42.016158 24758 net.cpp:90] Creating Layer inception_4c/relu_pool_proj
I0817 17:43:42.016168 24758 net.cpp:410] inception_4c/relu_pool_proj <- inception_4c/pool_proj
I0817 17:43:42.016180 24758 net.cpp:357] inception_4c/relu_pool_proj -> inception_4c/pool_proj (in-place)
I0817 17:43:42.016193 24758 net.cpp:120] Setting up inception_4c/relu_pool_proj
I0817 17:43:42.016206 24758 net.cpp:127] Top shape: 32 64 14 14 (401408)
I0817 17:43:42.016214 24758 layer_factory.hpp:74] Creating layer inception_4c/output
I0817 17:43:42.016226 24758 net.cpp:90] Creating Layer inception_4c/output
I0817 17:43:42.016233 24758 net.cpp:410] inception_4c/output <- inception_4c/1x1
I0817 17:43:42.016243 24758 net.cpp:410] inception_4c/output <- inception_4c/3x3
I0817 17:43:42.016257 24758 net.cpp:410] inception_4c/output <- inception_4c/5x5
I0817 17:43:42.016266 24758 net.cpp:410] inception_4c/output <- inception_4c/pool_proj
I0817 17:43:42.016278 24758 net.cpp:368] inception_4c/output -> inception_4c/output
I0817 17:43:42.016289 24758 net.cpp:120] Setting up inception_4c/output
I0817 17:43:42.016304 24758 net.cpp:127] Top shape: 32 512 14 14 (3211264)
I0817 17:43:42.016314 24758 layer_factory.hpp:74] Creating layer inception_4c/output_inception_4c/output_0_split
I0817 17:43:42.016326 24758 net.cpp:90] Creating Layer inception_4c/output_inception_4c/output_0_split
I0817 17:43:42.016335 24758 net.cpp:410] inception_4c/output_inception_4c/output_0_split <- inception_4c/output
I0817 17:43:42.016347 24758 net.cpp:368] inception_4c/output_inception_4c/output_0_split -> inception_4c/output_inception_4c/output_0_split_0
I0817 17:43:42.016365 24758 net.cpp:368] inception_4c/output_inception_4c/output_0_split -> inception_4c/output_inception_4c/output_0_split_1
I0817 17:43:42.016379 24758 net.cpp:368] inception_4c/output_inception_4c/output_0_split -> inception_4c/output_inception_4c/output_0_split_2
I0817 17:43:42.016396 24758 net.cpp:368] inception_4c/output_inception_4c/output_0_split -> inception_4c/output_inception_4c/output_0_split_3
I0817 17:43:42.016408 24758 net.cpp:120] Setting up inception_4c/output_inception_4c/output_0_split
I0817 17:43:42.016422 24758 net.cpp:127] Top shape: 32 512 14 14 (3211264)
I0817 17:43:42.016433 24758 net.cpp:127] Top shape: 32 512 14 14 (3211264)
I0817 17:43:42.016444 24758 net.cpp:127] Top shape: 32 512 14 14 (3211264)
I0817 17:43:42.016455 24758 net.cpp:127] Top shape: 32 512 14 14 (3211264)
I0817 17:43:42.016463 24758 layer_factory.hpp:74] Creating layer inception_4d/1x1
I0817 17:43:42.016479 24758 net.cpp:90] Creating Layer inception_4d/1x1
I0817 17:43:42.016490 24758 net.cpp:410] inception_4d/1x1 <- inception_4c/output_inception_4c/output_0_split_0
I0817 17:43:42.016505 24758 net.cpp:368] inception_4d/1x1 -> inception_4d/1x1
I0817 17:43:42.016518 24758 net.cpp:120] Setting up inception_4d/1x1
I0817 17:43:42.017102 24758 net.cpp:127] Top shape: 32 112 14 14 (702464)
I0817 17:43:42.017117 24758 layer_factory.hpp:74] Creating layer inception_4d/relu_1x1
I0817 17:43:42.017129 24758 net.cpp:90] Creating Layer inception_4d/relu_1x1
I0817 17:43:42.017138 24758 net.cpp:410] inception_4d/relu_1x1 <- inception_4d/1x1
I0817 17:43:42.017149 24758 net.cpp:357] inception_4d/relu_1x1 -> inception_4d/1x1 (in-place)
I0817 17:43:42.017161 24758 net.cpp:120] Setting up inception_4d/relu_1x1
I0817 17:43:42.017174 24758 net.cpp:127] Top shape: 32 112 14 14 (702464)
I0817 17:43:42.017182 24758 layer_factory.hpp:74] Creating layer inception_4d/3x3_reduce
I0817 17:43:42.017195 24758 net.cpp:90] Creating Layer inception_4d/3x3_reduce
I0817 17:43:42.017204 24758 net.cpp:410] inception_4d/3x3_reduce <- inception_4c/output_inception_4c/output_0_split_1
I0817 17:43:42.017231 24758 net.cpp:368] inception_4d/3x3_reduce -> inception_4d/3x3_reduce
I0817 17:43:42.017249 24758 net.cpp:120] Setting up inception_4d/3x3_reduce
I0817 17:43:42.017990 24758 net.cpp:127] Top shape: 32 144 14 14 (903168)
I0817 17:43:42.018007 24758 layer_factory.hpp:74] Creating layer inception_4d/relu_3x3_reduce
I0817 17:43:42.018019 24758 net.cpp:90] Creating Layer inception_4d/relu_3x3_reduce
I0817 17:43:42.018028 24758 net.cpp:410] inception_4d/relu_3x3_reduce <- inception_4d/3x3_reduce
I0817 17:43:42.018043 24758 net.cpp:357] inception_4d/relu_3x3_reduce -> inception_4d/3x3_reduce (in-place)
I0817 17:43:42.018055 24758 net.cpp:120] Setting up inception_4d/relu_3x3_reduce
I0817 17:43:42.018067 24758 net.cpp:127] Top shape: 32 144 14 14 (903168)
I0817 17:43:42.018076 24758 layer_factory.hpp:74] Creating layer inception_4d/3x3
I0817 17:43:42.018090 24758 net.cpp:90] Creating Layer inception_4d/3x3
I0817 17:43:42.018098 24758 net.cpp:410] inception_4d/3x3 <- inception_4d/3x3_reduce
I0817 17:43:42.018115 24758 net.cpp:368] inception_4d/3x3 -> inception_4d/3x3
I0817 17:43:42.018131 24758 net.cpp:120] Setting up inception_4d/3x3
I0817 17:43:42.022019 24758 net.cpp:127] Top shape: 32 288 14 14 (1806336)
I0817 17:43:42.022037 24758 layer_factory.hpp:74] Creating layer inception_4d/relu_3x3
I0817 17:43:42.022049 24758 net.cpp:90] Creating Layer inception_4d/relu_3x3
I0817 17:43:42.022059 24758 net.cpp:410] inception_4d/relu_3x3 <- inception_4d/3x3
I0817 17:43:42.022070 24758 net.cpp:357] inception_4d/relu_3x3 -> inception_4d/3x3 (in-place)
I0817 17:43:42.022083 24758 net.cpp:120] Setting up inception_4d/relu_3x3
I0817 17:43:42.022095 24758 net.cpp:127] Top shape: 32 288 14 14 (1806336)
I0817 17:43:42.022104 24758 layer_factory.hpp:74] Creating layer inception_4d/5x5_reduce
I0817 17:43:42.022116 24758 net.cpp:90] Creating Layer inception_4d/5x5_reduce
I0817 17:43:42.022125 24758 net.cpp:410] inception_4d/5x5_reduce <- inception_4c/output_inception_4c/output_0_split_2
I0817 17:43:42.022141 24758 net.cpp:368] inception_4d/5x5_reduce -> inception_4d/5x5_reduce
I0817 17:43:42.022155 24758 net.cpp:120] Setting up inception_4d/5x5_reduce
I0817 17:43:42.022336 24758 net.cpp:127] Top shape: 32 32 14 14 (200704)
I0817 17:43:42.022351 24758 layer_factory.hpp:74] Creating layer inception_4d/relu_5x5_reduce
I0817 17:43:42.022364 24758 net.cpp:90] Creating Layer inception_4d/relu_5x5_reduce
I0817 17:43:42.022373 24758 net.cpp:410] inception_4d/relu_5x5_reduce <- inception_4d/5x5_reduce
I0817 17:43:42.022384 24758 net.cpp:357] inception_4d/relu_5x5_reduce -> inception_4d/5x5_reduce (in-place)
I0817 17:43:42.022397 24758 net.cpp:120] Setting up inception_4d/relu_5x5_reduce
I0817 17:43:42.022408 24758 net.cpp:127] Top shape: 32 32 14 14 (200704)
I0817 17:43:42.022416 24758 layer_factory.hpp:74] Creating layer inception_4d/5x5
I0817 17:43:42.022433 24758 net.cpp:90] Creating Layer inception_4d/5x5
I0817 17:43:42.022442 24758 net.cpp:410] inception_4d/5x5 <- inception_4d/5x5_reduce
I0817 17:43:42.022459 24758 net.cpp:368] inception_4d/5x5 -> inception_4d/5x5
I0817 17:43:42.022474 24758 net.cpp:120] Setting up inception_4d/5x5
I0817 17:43:42.022999 24758 net.cpp:127] Top shape: 32 64 14 14 (401408)
I0817 17:43:42.023015 24758 layer_factory.hpp:74] Creating layer inception_4d/relu_5x5
I0817 17:43:42.023030 24758 net.cpp:90] Creating Layer inception_4d/relu_5x5
I0817 17:43:42.023041 24758 net.cpp:410] inception_4d/relu_5x5 <- inception_4d/5x5
I0817 17:43:42.023051 24758 net.cpp:357] inception_4d/relu_5x5 -> inception_4d/5x5 (in-place)
I0817 17:43:42.023063 24758 net.cpp:120] Setting up inception_4d/relu_5x5
I0817 17:43:42.023077 24758 net.cpp:127] Top shape: 32 64 14 14 (401408)
I0817 17:43:42.023085 24758 layer_factory.hpp:74] Creating layer inception_4d/pool
I0817 17:43:42.023098 24758 net.cpp:90] Creating Layer inception_4d/pool
I0817 17:43:42.023111 24758 net.cpp:410] inception_4d/pool <- inception_4c/output_inception_4c/output_0_split_3
I0817 17:43:42.023138 24758 net.cpp:368] inception_4d/pool -> inception_4d/pool
I0817 17:43:42.023151 24758 net.cpp:120] Setting up inception_4d/pool
I0817 17:43:42.023169 24758 net.cpp:127] Top shape: 32 512 14 14 (3211264)
I0817 17:43:42.023181 24758 layer_factory.hpp:74] Creating layer inception_4d/pool_proj
I0817 17:43:42.023195 24758 net.cpp:90] Creating Layer inception_4d/pool_proj
I0817 17:43:42.023205 24758 net.cpp:410] inception_4d/pool_proj <- inception_4d/pool
I0817 17:43:42.023219 24758 net.cpp:368] inception_4d/pool_proj -> inception_4d/pool_proj
I0817 17:43:42.023233 24758 net.cpp:120] Setting up inception_4d/pool_proj
I0817 17:43:42.023577 24758 net.cpp:127] Top shape: 32 64 14 14 (401408)
I0817 17:43:42.023593 24758 layer_factory.hpp:74] Creating layer inception_4d/relu_pool_proj
I0817 17:43:42.023605 24758 net.cpp:90] Creating Layer inception_4d/relu_pool_proj
I0817 17:43:42.023614 24758 net.cpp:410] inception_4d/relu_pool_proj <- inception_4d/pool_proj
I0817 17:43:42.023628 24758 net.cpp:357] inception_4d/relu_pool_proj -> inception_4d/pool_proj (in-place)
I0817 17:43:42.023641 24758 net.cpp:120] Setting up inception_4d/relu_pool_proj
I0817 17:43:42.023653 24758 net.cpp:127] Top shape: 32 64 14 14 (401408)
I0817 17:43:42.023663 24758 layer_factory.hpp:74] Creating layer inception_4d/output
I0817 17:43:42.023674 24758 net.cpp:90] Creating Layer inception_4d/output
I0817 17:43:42.023682 24758 net.cpp:410] inception_4d/output <- inception_4d/1x1
I0817 17:43:42.023692 24758 net.cpp:410] inception_4d/output <- inception_4d/3x3
I0817 17:43:42.023702 24758 net.cpp:410] inception_4d/output <- inception_4d/5x5
I0817 17:43:42.023711 24758 net.cpp:410] inception_4d/output <- inception_4d/pool_proj
I0817 17:43:42.023722 24758 net.cpp:368] inception_4d/output -> inception_4d/output
I0817 17:43:42.023736 24758 net.cpp:120] Setting up inception_4d/output
I0817 17:43:42.023748 24758 net.cpp:127] Top shape: 32 528 14 14 (3311616)
I0817 17:43:42.023757 24758 layer_factory.hpp:74] Creating layer inception_4d/output_inception_4d/output_0_split
I0817 17:43:42.023772 24758 net.cpp:90] Creating Layer inception_4d/output_inception_4d/output_0_split
I0817 17:43:42.023782 24758 net.cpp:410] inception_4d/output_inception_4d/output_0_split <- inception_4d/output
I0817 17:43:42.023792 24758 net.cpp:368] inception_4d/output_inception_4d/output_0_split -> inception_4d/output_inception_4d/output_0_split_0
I0817 17:43:42.023807 24758 net.cpp:368] inception_4d/output_inception_4d/output_0_split -> inception_4d/output_inception_4d/output_0_split_1
I0817 17:43:42.023821 24758 net.cpp:368] inception_4d/output_inception_4d/output_0_split -> inception_4d/output_inception_4d/output_0_split_2
I0817 17:43:42.023838 24758 net.cpp:368] inception_4d/output_inception_4d/output_0_split -> inception_4d/output_inception_4d/output_0_split_3
I0817 17:43:42.023852 24758 net.cpp:368] inception_4d/output_inception_4d/output_0_split -> inception_4d/output_inception_4d/output_0_split_4
I0817 17:43:42.023865 24758 net.cpp:120] Setting up inception_4d/output_inception_4d/output_0_split
I0817 17:43:42.023885 24758 net.cpp:127] Top shape: 32 528 14 14 (3311616)
I0817 17:43:42.023903 24758 net.cpp:127] Top shape: 32 528 14 14 (3311616)
I0817 17:43:42.023915 24758 net.cpp:127] Top shape: 32 528 14 14 (3311616)
I0817 17:43:42.023924 24758 net.cpp:127] Top shape: 32 528 14 14 (3311616)
I0817 17:43:42.023934 24758 net.cpp:127] Top shape: 32 528 14 14 (3311616)
I0817 17:43:42.023943 24758 layer_factory.hpp:74] Creating layer loss2/ave_pool
I0817 17:43:42.023955 24758 net.cpp:90] Creating Layer loss2/ave_pool
I0817 17:43:42.023964 24758 net.cpp:410] loss2/ave_pool <- inception_4d/output_inception_4d/output_0_split_0
I0817 17:43:42.023979 24758 net.cpp:368] loss2/ave_pool -> loss2/ave_pool
I0817 17:43:42.023995 24758 net.cpp:120] Setting up loss2/ave_pool
I0817 17:43:42.024010 24758 net.cpp:127] Top shape: 32 528 4 4 (270336)
I0817 17:43:42.024021 24758 layer_factory.hpp:74] Creating layer loss2/conv
I0817 17:43:42.024034 24758 net.cpp:90] Creating Layer loss2/conv
I0817 17:43:42.024055 24758 net.cpp:410] loss2/conv <- loss2/ave_pool
I0817 17:43:42.024072 24758 net.cpp:368] loss2/conv -> loss2/conv
I0817 17:43:42.024087 24758 net.cpp:120] Setting up loss2/conv
I0817 17:43:42.024766 24758 net.cpp:127] Top shape: 32 128 4 4 (65536)
I0817 17:43:42.024783 24758 layer_factory.hpp:74] Creating layer loss2/relu_conv
I0817 17:43:42.024796 24758 net.cpp:90] Creating Layer loss2/relu_conv
I0817 17:43:42.024806 24758 net.cpp:410] loss2/relu_conv <- loss2/conv
I0817 17:43:42.024816 24758 net.cpp:357] loss2/relu_conv -> loss2/conv (in-place)
I0817 17:43:42.024827 24758 net.cpp:120] Setting up loss2/relu_conv
I0817 17:43:42.024839 24758 net.cpp:127] Top shape: 32 128 4 4 (65536)
I0817 17:43:42.024848 24758 layer_factory.hpp:74] Creating layer loss2/fc
I0817 17:43:42.024863 24758 net.cpp:90] Creating Layer loss2/fc
I0817 17:43:42.024875 24758 net.cpp:410] loss2/fc <- loss2/conv
I0817 17:43:42.024889 24758 net.cpp:368] loss2/fc -> loss2/fc
I0817 17:43:42.024909 24758 net.cpp:120] Setting up loss2/fc
I0817 17:43:42.045248 24758 net.cpp:127] Top shape: 32 1024 (32768)
I0817 17:43:42.045269 24758 layer_factory.hpp:74] Creating layer loss2/relu_fc
I0817 17:43:42.045282 24758 net.cpp:90] Creating Layer loss2/relu_fc
I0817 17:43:42.045294 24758 net.cpp:410] loss2/relu_fc <- loss2/fc
I0817 17:43:42.045305 24758 net.cpp:357] loss2/relu_fc -> loss2/fc (in-place)
I0817 17:43:42.045318 24758 net.cpp:120] Setting up loss2/relu_fc
I0817 17:43:42.045331 24758 net.cpp:127] Top shape: 32 1024 (32768)
I0817 17:43:42.045339 24758 layer_factory.hpp:74] Creating layer loss2/drop_fc
I0817 17:43:42.045351 24758 net.cpp:90] Creating Layer loss2/drop_fc
I0817 17:43:42.045359 24758 net.cpp:410] loss2/drop_fc <- loss2/fc
I0817 17:43:42.045373 24758 net.cpp:357] loss2/drop_fc -> loss2/fc (in-place)
I0817 17:43:42.045387 24758 net.cpp:120] Setting up loss2/drop_fc
I0817 17:43:42.045400 24758 net.cpp:127] Top shape: 32 1024 (32768)
I0817 17:43:42.045410 24758 layer_factory.hpp:74] Creating layer ft_loss2/classifier
I0817 17:43:42.045423 24758 net.cpp:90] Creating Layer ft_loss2/classifier
I0817 17:43:42.045433 24758 net.cpp:410] ft_loss2/classifier <- loss2/fc
I0817 17:43:42.045449 24758 net.cpp:368] ft_loss2/classifier -> ft_loss2/classifier
I0817 17:43:42.045465 24758 net.cpp:120] Setting up ft_loss2/classifier
I0817 17:43:42.045514 24758 net.cpp:127] Top shape: 32 2 (64)
I0817 17:43:42.045529 24758 layer_factory.hpp:74] Creating layer loss2/loss
I0817 17:43:42.045545 24758 net.cpp:90] Creating Layer loss2/loss
I0817 17:43:42.045554 24758 net.cpp:410] loss2/loss <- ft_loss2/classifier
I0817 17:43:42.045565 24758 net.cpp:410] loss2/loss <- label_data_1_split_1
I0817 17:43:42.045578 24758 net.cpp:368] loss2/loss -> loss2/loss1
I0817 17:43:42.045590 24758 net.cpp:120] Setting up loss2/loss
I0817 17:43:42.045601 24758 layer_factory.hpp:74] Creating layer loss2/loss
I0817 17:43:42.045626 24758 net.cpp:127] Top shape: (1)
I0817 17:43:42.045634 24758 net.cpp:129]     with loss weight 0.3
I0817 17:43:42.045651 24758 layer_factory.hpp:74] Creating layer inception_4e/1x1
I0817 17:43:42.045670 24758 net.cpp:90] Creating Layer inception_4e/1x1
I0817 17:43:42.045680 24758 net.cpp:410] inception_4e/1x1 <- inception_4d/output_inception_4d/output_0_split_1
I0817 17:43:42.045693 24758 net.cpp:368] inception_4e/1x1 -> inception_4e/1x1
I0817 17:43:42.045707 24758 net.cpp:120] Setting up inception_4e/1x1
I0817 17:43:42.047036 24758 net.cpp:127] Top shape: 32 256 14 14 (1605632)
I0817 17:43:42.047055 24758 layer_factory.hpp:74] Creating layer inception_4e/relu_1x1
I0817 17:43:42.047067 24758 net.cpp:90] Creating Layer inception_4e/relu_1x1
I0817 17:43:42.047077 24758 net.cpp:410] inception_4e/relu_1x1 <- inception_4e/1x1
I0817 17:43:42.047088 24758 net.cpp:357] inception_4e/relu_1x1 -> inception_4e/1x1 (in-place)
I0817 17:43:42.047101 24758 net.cpp:120] Setting up inception_4e/relu_1x1
I0817 17:43:42.047113 24758 net.cpp:127] Top shape: 32 256 14 14 (1605632)
I0817 17:43:42.047122 24758 layer_factory.hpp:74] Creating layer inception_4e/3x3_reduce
I0817 17:43:42.047150 24758 net.cpp:90] Creating Layer inception_4e/3x3_reduce
I0817 17:43:42.047163 24758 net.cpp:410] inception_4e/3x3_reduce <- inception_4d/output_inception_4d/output_0_split_2
I0817 17:43:42.047178 24758 net.cpp:368] inception_4e/3x3_reduce -> inception_4e/3x3_reduce
I0817 17:43:42.047191 24758 net.cpp:120] Setting up inception_4e/3x3_reduce
I0817 17:43:42.048039 24758 net.cpp:127] Top shape: 32 160 14 14 (1003520)
I0817 17:43:42.048055 24758 layer_factory.hpp:74] Creating layer inception_4e/relu_3x3_reduce
I0817 17:43:42.048071 24758 net.cpp:90] Creating Layer inception_4e/relu_3x3_reduce
I0817 17:43:42.048081 24758 net.cpp:410] inception_4e/relu_3x3_reduce <- inception_4e/3x3_reduce
I0817 17:43:42.048092 24758 net.cpp:357] inception_4e/relu_3x3_reduce -> inception_4e/3x3_reduce (in-place)
I0817 17:43:42.048105 24758 net.cpp:120] Setting up inception_4e/relu_3x3_reduce
I0817 17:43:42.048116 24758 net.cpp:127] Top shape: 32 160 14 14 (1003520)
I0817 17:43:42.048125 24758 layer_factory.hpp:74] Creating layer inception_4e/3x3
I0817 17:43:42.048141 24758 net.cpp:90] Creating Layer inception_4e/3x3
I0817 17:43:42.048149 24758 net.cpp:410] inception_4e/3x3 <- inception_4e/3x3_reduce
I0817 17:43:42.048162 24758 net.cpp:368] inception_4e/3x3 -> inception_4e/3x3
I0817 17:43:42.048176 24758 net.cpp:120] Setting up inception_4e/3x3
I0817 17:43:42.052975 24758 net.cpp:127] Top shape: 32 320 14 14 (2007040)
I0817 17:43:42.052992 24758 layer_factory.hpp:74] Creating layer inception_4e/relu_3x3
I0817 17:43:42.053004 24758 net.cpp:90] Creating Layer inception_4e/relu_3x3
I0817 17:43:42.053014 24758 net.cpp:410] inception_4e/relu_3x3 <- inception_4e/3x3
I0817 17:43:42.053025 24758 net.cpp:357] inception_4e/relu_3x3 -> inception_4e/3x3 (in-place)
I0817 17:43:42.053038 24758 net.cpp:120] Setting up inception_4e/relu_3x3
I0817 17:43:42.053050 24758 net.cpp:127] Top shape: 32 320 14 14 (2007040)
I0817 17:43:42.053059 24758 layer_factory.hpp:74] Creating layer inception_4e/5x5_reduce
I0817 17:43:42.053076 24758 net.cpp:90] Creating Layer inception_4e/5x5_reduce
I0817 17:43:42.053087 24758 net.cpp:410] inception_4e/5x5_reduce <- inception_4d/output_inception_4d/output_0_split_3
I0817 17:43:42.053103 24758 net.cpp:368] inception_4e/5x5_reduce -> inception_4e/5x5_reduce
I0817 17:43:42.053120 24758 net.cpp:120] Setting up inception_4e/5x5_reduce
I0817 17:43:42.053306 24758 net.cpp:127] Top shape: 32 32 14 14 (200704)
I0817 17:43:42.053321 24758 layer_factory.hpp:74] Creating layer inception_4e/relu_5x5_reduce
I0817 17:43:42.053333 24758 net.cpp:90] Creating Layer inception_4e/relu_5x5_reduce
I0817 17:43:42.053344 24758 net.cpp:410] inception_4e/relu_5x5_reduce <- inception_4e/5x5_reduce
I0817 17:43:42.053354 24758 net.cpp:357] inception_4e/relu_5x5_reduce -> inception_4e/5x5_reduce (in-place)
I0817 17:43:42.053367 24758 net.cpp:120] Setting up inception_4e/relu_5x5_reduce
I0817 17:43:42.053378 24758 net.cpp:127] Top shape: 32 32 14 14 (200704)
I0817 17:43:42.053388 24758 layer_factory.hpp:74] Creating layer inception_4e/5x5
I0817 17:43:42.053418 24758 net.cpp:90] Creating Layer inception_4e/5x5
I0817 17:43:42.053429 24758 net.cpp:410] inception_4e/5x5 <- inception_4e/5x5_reduce
I0817 17:43:42.053445 24758 net.cpp:368] inception_4e/5x5 -> inception_4e/5x5
I0817 17:43:42.053462 24758 net.cpp:120] Setting up inception_4e/5x5
I0817 17:43:42.054481 24758 net.cpp:127] Top shape: 32 128 14 14 (802816)
I0817 17:43:42.054498 24758 layer_factory.hpp:74] Creating layer inception_4e/relu_5x5
I0817 17:43:42.054510 24758 net.cpp:90] Creating Layer inception_4e/relu_5x5
I0817 17:43:42.054520 24758 net.cpp:410] inception_4e/relu_5x5 <- inception_4e/5x5
I0817 17:43:42.054532 24758 net.cpp:357] inception_4e/relu_5x5 -> inception_4e/5x5 (in-place)
I0817 17:43:42.054543 24758 net.cpp:120] Setting up inception_4e/relu_5x5
I0817 17:43:42.054555 24758 net.cpp:127] Top shape: 32 128 14 14 (802816)
I0817 17:43:42.054564 24758 layer_factory.hpp:74] Creating layer inception_4e/pool
I0817 17:43:42.054579 24758 net.cpp:90] Creating Layer inception_4e/pool
I0817 17:43:42.054600 24758 net.cpp:410] inception_4e/pool <- inception_4d/output_inception_4d/output_0_split_4
I0817 17:43:42.054615 24758 net.cpp:368] inception_4e/pool -> inception_4e/pool
I0817 17:43:42.054628 24758 net.cpp:120] Setting up inception_4e/pool
I0817 17:43:42.054643 24758 net.cpp:127] Top shape: 32 528 14 14 (3311616)
I0817 17:43:42.054653 24758 layer_factory.hpp:74] Creating layer inception_4e/pool_proj
I0817 17:43:42.054671 24758 net.cpp:90] Creating Layer inception_4e/pool_proj
I0817 17:43:42.054680 24758 net.cpp:410] inception_4e/pool_proj <- inception_4e/pool
I0817 17:43:42.054693 24758 net.cpp:368] inception_4e/pool_proj -> inception_4e/pool_proj
I0817 17:43:42.054707 24758 net.cpp:120] Setting up inception_4e/pool_proj
I0817 17:43:42.055389 24758 net.cpp:127] Top shape: 32 128 14 14 (802816)
I0817 17:43:42.055405 24758 layer_factory.hpp:74] Creating layer inception_4e/relu_pool_proj
I0817 17:43:42.055418 24758 net.cpp:90] Creating Layer inception_4e/relu_pool_proj
I0817 17:43:42.055426 24758 net.cpp:410] inception_4e/relu_pool_proj <- inception_4e/pool_proj
I0817 17:43:42.055438 24758 net.cpp:357] inception_4e/relu_pool_proj -> inception_4e/pool_proj (in-place)
I0817 17:43:42.055450 24758 net.cpp:120] Setting up inception_4e/relu_pool_proj
I0817 17:43:42.055462 24758 net.cpp:127] Top shape: 32 128 14 14 (802816)
I0817 17:43:42.055471 24758 layer_factory.hpp:74] Creating layer inception_4e/output
I0817 17:43:42.055483 24758 net.cpp:90] Creating Layer inception_4e/output
I0817 17:43:42.055491 24758 net.cpp:410] inception_4e/output <- inception_4e/1x1
I0817 17:43:42.055501 24758 net.cpp:410] inception_4e/output <- inception_4e/3x3
I0817 17:43:42.055510 24758 net.cpp:410] inception_4e/output <- inception_4e/5x5
I0817 17:43:42.055521 24758 net.cpp:410] inception_4e/output <- inception_4e/pool_proj
I0817 17:43:42.055532 24758 net.cpp:368] inception_4e/output -> inception_4e/output
I0817 17:43:42.055544 24758 net.cpp:120] Setting up inception_4e/output
I0817 17:43:42.055558 24758 net.cpp:127] Top shape: 32 832 14 14 (5218304)
I0817 17:43:42.055567 24758 layer_factory.hpp:74] Creating layer pool4/3x3_s2
I0817 17:43:42.055582 24758 net.cpp:90] Creating Layer pool4/3x3_s2
I0817 17:43:42.055590 24758 net.cpp:410] pool4/3x3_s2 <- inception_4e/output
I0817 17:43:42.055603 24758 net.cpp:368] pool4/3x3_s2 -> pool4/3x3_s2
I0817 17:43:42.055615 24758 net.cpp:120] Setting up pool4/3x3_s2
I0817 17:43:42.055662 24758 net.cpp:127] Top shape: 32 832 7 7 (1304576)
I0817 17:43:42.055675 24758 layer_factory.hpp:74] Creating layer pool4/3x3_s2_pool4/3x3_s2_0_split
I0817 17:43:42.055687 24758 net.cpp:90] Creating Layer pool4/3x3_s2_pool4/3x3_s2_0_split
I0817 17:43:42.055696 24758 net.cpp:410] pool4/3x3_s2_pool4/3x3_s2_0_split <- pool4/3x3_s2
I0817 17:43:42.055707 24758 net.cpp:368] pool4/3x3_s2_pool4/3x3_s2_0_split -> pool4/3x3_s2_pool4/3x3_s2_0_split_0
I0817 17:43:42.055721 24758 net.cpp:368] pool4/3x3_s2_pool4/3x3_s2_0_split -> pool4/3x3_s2_pool4/3x3_s2_0_split_1
I0817 17:43:42.055734 24758 net.cpp:368] pool4/3x3_s2_pool4/3x3_s2_0_split -> pool4/3x3_s2_pool4/3x3_s2_0_split_2
I0817 17:43:42.055748 24758 net.cpp:368] pool4/3x3_s2_pool4/3x3_s2_0_split -> pool4/3x3_s2_pool4/3x3_s2_0_split_3
I0817 17:43:42.055762 24758 net.cpp:120] Setting up pool4/3x3_s2_pool4/3x3_s2_0_split
I0817 17:43:42.055778 24758 net.cpp:127] Top shape: 32 832 7 7 (1304576)
I0817 17:43:42.055791 24758 net.cpp:127] Top shape: 32 832 7 7 (1304576)
I0817 17:43:42.055802 24758 net.cpp:127] Top shape: 32 832 7 7 (1304576)
I0817 17:43:42.055812 24758 net.cpp:127] Top shape: 32 832 7 7 (1304576)
I0817 17:43:42.055821 24758 layer_factory.hpp:74] Creating layer inception_5a/1x1
I0817 17:43:42.055835 24758 net.cpp:90] Creating Layer inception_5a/1x1
I0817 17:43:42.055845 24758 net.cpp:410] inception_5a/1x1 <- pool4/3x3_s2_pool4/3x3_s2_0_split_0
I0817 17:43:42.055860 24758 net.cpp:368] inception_5a/1x1 -> inception_5a/1x1
I0817 17:43:42.055872 24758 net.cpp:120] Setting up inception_5a/1x1
I0817 17:43:42.057960 24758 net.cpp:127] Top shape: 32 256 7 7 (401408)
I0817 17:43:42.057984 24758 layer_factory.hpp:74] Creating layer inception_5a/relu_1x1
I0817 17:43:42.057997 24758 net.cpp:90] Creating Layer inception_5a/relu_1x1
I0817 17:43:42.058007 24758 net.cpp:410] inception_5a/relu_1x1 <- inception_5a/1x1
I0817 17:43:42.058022 24758 net.cpp:357] inception_5a/relu_1x1 -> inception_5a/1x1 (in-place)
I0817 17:43:42.058035 24758 net.cpp:120] Setting up inception_5a/relu_1x1
I0817 17:43:42.058048 24758 net.cpp:127] Top shape: 32 256 7 7 (401408)
I0817 17:43:42.058055 24758 layer_factory.hpp:74] Creating layer inception_5a/3x3_reduce
I0817 17:43:42.058068 24758 net.cpp:90] Creating Layer inception_5a/3x3_reduce
I0817 17:43:42.058076 24758 net.cpp:410] inception_5a/3x3_reduce <- pool4/3x3_s2_pool4/3x3_s2_0_split_1
I0817 17:43:42.058094 24758 net.cpp:368] inception_5a/3x3_reduce -> inception_5a/3x3_reduce
I0817 17:43:42.058110 24758 net.cpp:120] Setting up inception_5a/3x3_reduce
I0817 17:43:42.059424 24758 net.cpp:127] Top shape: 32 160 7 7 (250880)
I0817 17:43:42.059440 24758 layer_factory.hpp:74] Creating layer inception_5a/relu_3x3_reduce
I0817 17:43:42.059453 24758 net.cpp:90] Creating Layer inception_5a/relu_3x3_reduce
I0817 17:43:42.059463 24758 net.cpp:410] inception_5a/relu_3x3_reduce <- inception_5a/3x3_reduce
I0817 17:43:42.059474 24758 net.cpp:357] inception_5a/relu_3x3_reduce -> inception_5a/3x3_reduce (in-place)
I0817 17:43:42.059486 24758 net.cpp:120] Setting up inception_5a/relu_3x3_reduce
I0817 17:43:42.059499 24758 net.cpp:127] Top shape: 32 160 7 7 (250880)
I0817 17:43:42.059507 24758 layer_factory.hpp:74] Creating layer inception_5a/3x3
I0817 17:43:42.059523 24758 net.cpp:90] Creating Layer inception_5a/3x3
I0817 17:43:42.059535 24758 net.cpp:410] inception_5a/3x3 <- inception_5a/3x3_reduce
I0817 17:43:42.059548 24758 net.cpp:368] inception_5a/3x3 -> inception_5a/3x3
I0817 17:43:42.059562 24758 net.cpp:120] Setting up inception_5a/3x3
I0817 17:43:42.064368 24758 net.cpp:127] Top shape: 32 320 7 7 (501760)
I0817 17:43:42.064385 24758 layer_factory.hpp:74] Creating layer inception_5a/relu_3x3
I0817 17:43:42.064405 24758 net.cpp:90] Creating Layer inception_5a/relu_3x3
I0817 17:43:42.064419 24758 net.cpp:410] inception_5a/relu_3x3 <- inception_5a/3x3
I0817 17:43:42.064429 24758 net.cpp:357] inception_5a/relu_3x3 -> inception_5a/3x3 (in-place)
I0817 17:43:42.064442 24758 net.cpp:120] Setting up inception_5a/relu_3x3
I0817 17:43:42.064455 24758 net.cpp:127] Top shape: 32 320 7 7 (501760)
I0817 17:43:42.064463 24758 layer_factory.hpp:74] Creating layer inception_5a/5x5_reduce
I0817 17:43:42.064478 24758 net.cpp:90] Creating Layer inception_5a/5x5_reduce
I0817 17:43:42.064488 24758 net.cpp:410] inception_5a/5x5_reduce <- pool4/3x3_s2_pool4/3x3_s2_0_split_2
I0817 17:43:42.064502 24758 net.cpp:368] inception_5a/5x5_reduce -> inception_5a/5x5_reduce
I0817 17:43:42.064515 24758 net.cpp:120] Setting up inception_5a/5x5_reduce
I0817 17:43:42.064796 24758 net.cpp:127] Top shape: 32 32 7 7 (50176)
I0817 17:43:42.064815 24758 layer_factory.hpp:74] Creating layer inception_5a/relu_5x5_reduce
I0817 17:43:42.064826 24758 net.cpp:90] Creating Layer inception_5a/relu_5x5_reduce
I0817 17:43:42.064836 24758 net.cpp:410] inception_5a/relu_5x5_reduce <- inception_5a/5x5_reduce
I0817 17:43:42.064847 24758 net.cpp:357] inception_5a/relu_5x5_reduce -> inception_5a/5x5_reduce (in-place)
I0817 17:43:42.064862 24758 net.cpp:120] Setting up inception_5a/relu_5x5_reduce
I0817 17:43:42.064877 24758 net.cpp:127] Top shape: 32 32 7 7 (50176)
I0817 17:43:42.064885 24758 layer_factory.hpp:74] Creating layer inception_5a/5x5
I0817 17:43:42.064903 24758 net.cpp:90] Creating Layer inception_5a/5x5
I0817 17:43:42.064916 24758 net.cpp:410] inception_5a/5x5 <- inception_5a/5x5_reduce
I0817 17:43:42.064929 24758 net.cpp:368] inception_5a/5x5 -> inception_5a/5x5
I0817 17:43:42.064944 24758 net.cpp:120] Setting up inception_5a/5x5
I0817 17:43:42.065965 24758 net.cpp:127] Top shape: 32 128 7 7 (200704)
I0817 17:43:42.065984 24758 layer_factory.hpp:74] Creating layer inception_5a/relu_5x5
I0817 17:43:42.065995 24758 net.cpp:90] Creating Layer inception_5a/relu_5x5
I0817 17:43:42.066015 24758 net.cpp:410] inception_5a/relu_5x5 <- inception_5a/5x5
I0817 17:43:42.066026 24758 net.cpp:357] inception_5a/relu_5x5 -> inception_5a/5x5 (in-place)
I0817 17:43:42.066040 24758 net.cpp:120] Setting up inception_5a/relu_5x5
I0817 17:43:42.066051 24758 net.cpp:127] Top shape: 32 128 7 7 (200704)
I0817 17:43:42.066061 24758 layer_factory.hpp:74] Creating layer inception_5a/pool
I0817 17:43:42.066071 24758 net.cpp:90] Creating Layer inception_5a/pool
I0817 17:43:42.066082 24758 net.cpp:410] inception_5a/pool <- pool4/3x3_s2_pool4/3x3_s2_0_split_3
I0817 17:43:42.066095 24758 net.cpp:368] inception_5a/pool -> inception_5a/pool
I0817 17:43:42.066110 24758 net.cpp:120] Setting up inception_5a/pool
I0817 17:43:42.066129 24758 net.cpp:127] Top shape: 32 832 7 7 (1304576)
I0817 17:43:42.066139 24758 layer_factory.hpp:74] Creating layer inception_5a/pool_proj
I0817 17:43:42.066154 24758 net.cpp:90] Creating Layer inception_5a/pool_proj
I0817 17:43:42.066162 24758 net.cpp:410] inception_5a/pool_proj <- inception_5a/pool
I0817 17:43:42.066179 24758 net.cpp:368] inception_5a/pool_proj -> inception_5a/pool_proj
I0817 17:43:42.066195 24758 net.cpp:120] Setting up inception_5a/pool_proj
I0817 17:43:42.067255 24758 net.cpp:127] Top shape: 32 128 7 7 (200704)
I0817 17:43:42.067273 24758 layer_factory.hpp:74] Creating layer inception_5a/relu_pool_proj
I0817 17:43:42.067286 24758 net.cpp:90] Creating Layer inception_5a/relu_pool_proj
I0817 17:43:42.067296 24758 net.cpp:410] inception_5a/relu_pool_proj <- inception_5a/pool_proj
I0817 17:43:42.067307 24758 net.cpp:357] inception_5a/relu_pool_proj -> inception_5a/pool_proj (in-place)
I0817 17:43:42.067319 24758 net.cpp:120] Setting up inception_5a/relu_pool_proj
I0817 17:43:42.067332 24758 net.cpp:127] Top shape: 32 128 7 7 (200704)
I0817 17:43:42.067340 24758 layer_factory.hpp:74] Creating layer inception_5a/output
I0817 17:43:42.067354 24758 net.cpp:90] Creating Layer inception_5a/output
I0817 17:43:42.067364 24758 net.cpp:410] inception_5a/output <- inception_5a/1x1
I0817 17:43:42.067374 24758 net.cpp:410] inception_5a/output <- inception_5a/3x3
I0817 17:43:42.067384 24758 net.cpp:410] inception_5a/output <- inception_5a/5x5
I0817 17:43:42.067394 24758 net.cpp:410] inception_5a/output <- inception_5a/pool_proj
I0817 17:43:42.067405 24758 net.cpp:368] inception_5a/output -> inception_5a/output
I0817 17:43:42.067417 24758 net.cpp:120] Setting up inception_5a/output
I0817 17:43:42.067431 24758 net.cpp:127] Top shape: 32 832 7 7 (1304576)
I0817 17:43:42.067440 24758 layer_factory.hpp:74] Creating layer inception_5a/output_inception_5a/output_0_split
I0817 17:43:42.067452 24758 net.cpp:90] Creating Layer inception_5a/output_inception_5a/output_0_split
I0817 17:43:42.067461 24758 net.cpp:410] inception_5a/output_inception_5a/output_0_split <- inception_5a/output
I0817 17:43:42.067474 24758 net.cpp:368] inception_5a/output_inception_5a/output_0_split -> inception_5a/output_inception_5a/output_0_split_0
I0817 17:43:42.067489 24758 net.cpp:368] inception_5a/output_inception_5a/output_0_split -> inception_5a/output_inception_5a/output_0_split_1
I0817 17:43:42.067504 24758 net.cpp:368] inception_5a/output_inception_5a/output_0_split -> inception_5a/output_inception_5a/output_0_split_2
I0817 17:43:42.067520 24758 net.cpp:368] inception_5a/output_inception_5a/output_0_split -> inception_5a/output_inception_5a/output_0_split_3
I0817 17:43:42.067533 24758 net.cpp:120] Setting up inception_5a/output_inception_5a/output_0_split
I0817 17:43:42.067549 24758 net.cpp:127] Top shape: 32 832 7 7 (1304576)
I0817 17:43:42.067562 24758 net.cpp:127] Top shape: 32 832 7 7 (1304576)
I0817 17:43:42.067574 24758 net.cpp:127] Top shape: 32 832 7 7 (1304576)
I0817 17:43:42.067584 24758 net.cpp:127] Top shape: 32 832 7 7 (1304576)
I0817 17:43:42.067592 24758 layer_factory.hpp:74] Creating layer inception_5b/1x1
I0817 17:43:42.067607 24758 net.cpp:90] Creating Layer inception_5b/1x1
I0817 17:43:42.067617 24758 net.cpp:410] inception_5b/1x1 <- inception_5a/output_inception_5a/output_0_split_0
I0817 17:43:42.067641 24758 net.cpp:368] inception_5b/1x1 -> inception_5b/1x1
I0817 17:43:42.067658 24758 net.cpp:120] Setting up inception_5b/1x1
I0817 17:43:42.070785 24758 net.cpp:127] Top shape: 32 384 7 7 (602112)
I0817 17:43:42.070803 24758 layer_factory.hpp:74] Creating layer inception_5b/relu_1x1
I0817 17:43:42.070816 24758 net.cpp:90] Creating Layer inception_5b/relu_1x1
I0817 17:43:42.070826 24758 net.cpp:410] inception_5b/relu_1x1 <- inception_5b/1x1
I0817 17:43:42.070837 24758 net.cpp:357] inception_5b/relu_1x1 -> inception_5b/1x1 (in-place)
I0817 17:43:42.070848 24758 net.cpp:120] Setting up inception_5b/relu_1x1
I0817 17:43:42.070861 24758 net.cpp:127] Top shape: 32 384 7 7 (602112)
I0817 17:43:42.070869 24758 layer_factory.hpp:74] Creating layer inception_5b/3x3_reduce
I0817 17:43:42.070885 24758 net.cpp:90] Creating Layer inception_5b/3x3_reduce
I0817 17:43:42.070899 24758 net.cpp:410] inception_5b/3x3_reduce <- inception_5a/output_inception_5a/output_0_split_1
I0817 17:43:42.070919 24758 net.cpp:368] inception_5b/3x3_reduce -> inception_5b/3x3_reduce
I0817 17:43:42.070935 24758 net.cpp:120] Setting up inception_5b/3x3_reduce
I0817 17:43:42.072623 24758 net.cpp:127] Top shape: 32 192 7 7 (301056)
I0817 17:43:42.072640 24758 layer_factory.hpp:74] Creating layer inception_5b/relu_3x3_reduce
I0817 17:43:42.072654 24758 net.cpp:90] Creating Layer inception_5b/relu_3x3_reduce
I0817 17:43:42.072662 24758 net.cpp:410] inception_5b/relu_3x3_reduce <- inception_5b/3x3_reduce
I0817 17:43:42.072677 24758 net.cpp:357] inception_5b/relu_3x3_reduce -> inception_5b/3x3_reduce (in-place)
I0817 17:43:42.072690 24758 net.cpp:120] Setting up inception_5b/relu_3x3_reduce
I0817 17:43:42.072703 24758 net.cpp:127] Top shape: 32 192 7 7 (301056)
I0817 17:43:42.072712 24758 layer_factory.hpp:74] Creating layer inception_5b/3x3
I0817 17:43:42.072728 24758 net.cpp:90] Creating Layer inception_5b/3x3
I0817 17:43:42.072737 24758 net.cpp:410] inception_5b/3x3 <- inception_5b/3x3_reduce
I0817 17:43:42.072751 24758 net.cpp:368] inception_5b/3x3 -> inception_5b/3x3
I0817 17:43:42.072782 24758 net.cpp:120] Setting up inception_5b/3x3
I0817 17:43:42.079336 24758 net.cpp:127] Top shape: 32 384 7 7 (602112)
I0817 17:43:42.079355 24758 layer_factory.hpp:74] Creating layer inception_5b/relu_3x3
I0817 17:43:42.079366 24758 net.cpp:90] Creating Layer inception_5b/relu_3x3
I0817 17:43:42.079376 24758 net.cpp:410] inception_5b/relu_3x3 <- inception_5b/3x3
I0817 17:43:42.079388 24758 net.cpp:357] inception_5b/relu_3x3 -> inception_5b/3x3 (in-place)
I0817 17:43:42.079401 24758 net.cpp:120] Setting up inception_5b/relu_3x3
I0817 17:43:42.079413 24758 net.cpp:127] Top shape: 32 384 7 7 (602112)
I0817 17:43:42.079422 24758 layer_factory.hpp:74] Creating layer inception_5b/5x5_reduce
I0817 17:43:42.079435 24758 net.cpp:90] Creating Layer inception_5b/5x5_reduce
I0817 17:43:42.079444 24758 net.cpp:410] inception_5b/5x5_reduce <- inception_5a/output_inception_5a/output_0_split_2
I0817 17:43:42.079460 24758 net.cpp:368] inception_5b/5x5_reduce -> inception_5b/5x5_reduce
I0817 17:43:42.079476 24758 net.cpp:120] Setting up inception_5b/5x5_reduce
I0817 17:43:42.079887 24758 net.cpp:127] Top shape: 32 48 7 7 (75264)
I0817 17:43:42.079913 24758 layer_factory.hpp:74] Creating layer inception_5b/relu_5x5_reduce
I0817 17:43:42.079926 24758 net.cpp:90] Creating Layer inception_5b/relu_5x5_reduce
I0817 17:43:42.079936 24758 net.cpp:410] inception_5b/relu_5x5_reduce <- inception_5b/5x5_reduce
I0817 17:43:42.079947 24758 net.cpp:357] inception_5b/relu_5x5_reduce -> inception_5b/5x5_reduce (in-place)
I0817 17:43:42.079960 24758 net.cpp:120] Setting up inception_5b/relu_5x5_reduce
I0817 17:43:42.079972 24758 net.cpp:127] Top shape: 32 48 7 7 (75264)
I0817 17:43:42.079982 24758 layer_factory.hpp:74] Creating layer inception_5b/5x5
I0817 17:43:42.079993 24758 net.cpp:90] Creating Layer inception_5b/5x5
I0817 17:43:42.080003 24758 net.cpp:410] inception_5b/5x5 <- inception_5b/5x5_reduce
I0817 17:43:42.080018 24758 net.cpp:368] inception_5b/5x5 -> inception_5b/5x5
I0817 17:43:42.080044 24758 net.cpp:120] Setting up inception_5b/5x5
I0817 17:43:42.081557 24758 net.cpp:127] Top shape: 32 128 7 7 (200704)
I0817 17:43:42.081573 24758 layer_factory.hpp:74] Creating layer inception_5b/relu_5x5
I0817 17:43:42.081585 24758 net.cpp:90] Creating Layer inception_5b/relu_5x5
I0817 17:43:42.081599 24758 net.cpp:410] inception_5b/relu_5x5 <- inception_5b/5x5
I0817 17:43:42.081611 24758 net.cpp:357] inception_5b/relu_5x5 -> inception_5b/5x5 (in-place)
I0817 17:43:42.081624 24758 net.cpp:120] Setting up inception_5b/relu_5x5
I0817 17:43:42.081635 24758 net.cpp:127] Top shape: 32 128 7 7 (200704)
I0817 17:43:42.081645 24758 layer_factory.hpp:74] Creating layer inception_5b/pool
I0817 17:43:42.081660 24758 net.cpp:90] Creating Layer inception_5b/pool
I0817 17:43:42.081670 24758 net.cpp:410] inception_5b/pool <- inception_5a/output_inception_5a/output_0_split_3
I0817 17:43:42.081682 24758 net.cpp:368] inception_5b/pool -> inception_5b/pool
I0817 17:43:42.081696 24758 net.cpp:120] Setting up inception_5b/pool
I0817 17:43:42.081714 24758 net.cpp:127] Top shape: 32 832 7 7 (1304576)
I0817 17:43:42.081727 24758 layer_factory.hpp:74] Creating layer inception_5b/pool_proj
I0817 17:43:42.081739 24758 net.cpp:90] Creating Layer inception_5b/pool_proj
I0817 17:43:42.081748 24758 net.cpp:410] inception_5b/pool_proj <- inception_5b/pool
I0817 17:43:42.081766 24758 net.cpp:368] inception_5b/pool_proj -> inception_5b/pool_proj
I0817 17:43:42.081782 24758 net.cpp:120] Setting up inception_5b/pool_proj
I0817 17:43:42.082839 24758 net.cpp:127] Top shape: 32 128 7 7 (200704)
I0817 17:43:42.082855 24758 layer_factory.hpp:74] Creating layer inception_5b/relu_pool_proj
I0817 17:43:42.082867 24758 net.cpp:90] Creating Layer inception_5b/relu_pool_proj
I0817 17:43:42.082877 24758 net.cpp:410] inception_5b/relu_pool_proj <- inception_5b/pool_proj
I0817 17:43:42.082888 24758 net.cpp:357] inception_5b/relu_pool_proj -> inception_5b/pool_proj (in-place)
I0817 17:43:42.082906 24758 net.cpp:120] Setting up inception_5b/relu_pool_proj
I0817 17:43:42.082917 24758 net.cpp:127] Top shape: 32 128 7 7 (200704)
I0817 17:43:42.082926 24758 layer_factory.hpp:74] Creating layer inception_5b/output
I0817 17:43:42.082937 24758 net.cpp:90] Creating Layer inception_5b/output
I0817 17:43:42.082947 24758 net.cpp:410] inception_5b/output <- inception_5b/1x1
I0817 17:43:42.082957 24758 net.cpp:410] inception_5b/output <- inception_5b/3x3
I0817 17:43:42.082967 24758 net.cpp:410] inception_5b/output <- inception_5b/5x5
I0817 17:43:42.082976 24758 net.cpp:410] inception_5b/output <- inception_5b/pool_proj
I0817 17:43:42.082988 24758 net.cpp:368] inception_5b/output -> inception_5b/output
I0817 17:43:42.082999 24758 net.cpp:120] Setting up inception_5b/output
I0817 17:43:42.083014 24758 net.cpp:127] Top shape: 32 1024 7 7 (1605632)
I0817 17:43:42.083024 24758 layer_factory.hpp:74] Creating layer pool5/7x7_s1
I0817 17:43:42.083040 24758 net.cpp:90] Creating Layer pool5/7x7_s1
I0817 17:43:42.083051 24758 net.cpp:410] pool5/7x7_s1 <- inception_5b/output
I0817 17:43:42.083065 24758 net.cpp:368] pool5/7x7_s1 -> pool5/7x7_s1
I0817 17:43:42.083077 24758 net.cpp:120] Setting up pool5/7x7_s1
I0817 17:43:42.083102 24758 net.cpp:127] Top shape: 32 1024 1 1 (32768)
I0817 17:43:42.083114 24758 layer_factory.hpp:74] Creating layer pool5/drop_7x7_s1
I0817 17:43:42.083127 24758 net.cpp:90] Creating Layer pool5/drop_7x7_s1
I0817 17:43:42.083135 24758 net.cpp:410] pool5/drop_7x7_s1 <- pool5/7x7_s1
I0817 17:43:42.083147 24758 net.cpp:357] pool5/drop_7x7_s1 -> pool5/7x7_s1 (in-place)
I0817 17:43:42.083159 24758 net.cpp:120] Setting up pool5/drop_7x7_s1
I0817 17:43:42.083173 24758 net.cpp:127] Top shape: 32 1024 1 1 (32768)
I0817 17:43:42.083184 24758 layer_factory.hpp:74] Creating layer ft_loss3/classifier
I0817 17:43:42.083199 24758 net.cpp:90] Creating Layer ft_loss3/classifier
I0817 17:43:42.083207 24758 net.cpp:410] ft_loss3/classifier <- pool5/7x7_s1
I0817 17:43:42.083222 24758 net.cpp:368] ft_loss3/classifier -> ft_loss3/classifier
I0817 17:43:42.083246 24758 net.cpp:120] Setting up ft_loss3/classifier
I0817 17:43:42.083295 24758 net.cpp:127] Top shape: 32 2 (64)
I0817 17:43:42.083310 24758 layer_factory.hpp:74] Creating layer loss3/loss3
I0817 17:43:42.083323 24758 net.cpp:90] Creating Layer loss3/loss3
I0817 17:43:42.083331 24758 net.cpp:410] loss3/loss3 <- ft_loss3/classifier
I0817 17:43:42.083343 24758 net.cpp:410] loss3/loss3 <- label_data_1_split_2
I0817 17:43:42.083354 24758 net.cpp:368] loss3/loss3 -> loss3/loss3
I0817 17:43:42.083366 24758 net.cpp:120] Setting up loss3/loss3
…
I0817 17:43:42.089864 24758 solver.cpp:154] Creating test net (#0) specified by net file: /home/kruchinin_d/Projects/scaling-archer/nn/bvlc_googlenet1/train_val.prototxt
I0817 17:43:42.090049 24758 net.cpp:287] The NetState phase (1) differed from the phase (0) specified by a rule in layer data
I0817 17:43:42.091037 24758 net.cpp:42] Initializing net from parameters: 
name: "FullTrain_GoogleNet"
state {
  phase: TEST
}
layer {
  name: "data"
  type: "ImageData"
  top: "data"
  top: "label"
  include {
    phase: TEST
  }
  image_data_param {
    source: "/home/kruchinin_d/Projects/data/KITTI/prepared_data/test.txt"
    batch_size: 50
  }
}
layer {
  name: "conv1/7x7_s2"
  type: "Convolution"
  bottom: "data"
  top: "conv1/7x7_s2"
  param {
    lr_mult: 1
    decay_mult: 1
  }
  param {
    lr_mult: 2
    decay_mult: 0
  }
  convolution_param {
    num_output: 64
    pad: 3
    kernel_size: 7
    stride: 2
    weight_filler {
      type: "xavier"
    }
    bias_filler {
      type: "constant"
      value: 0.2
    }
  }
}
layer {
  name: "conv1/relu_7x7"
  type: "ReLU"
  bottom: "conv1/7x7_s2"
  top: "conv1/7x7_s2"
}
layer {
  name: "pool1/3x3_s2"
  type: "Pooling"
  bottom: "conv1/7x7_s2"
  top: "pool1/3x3_s2"
  pooling_param {
    pool: MAX
    kernel_size: 3
    stride: 2
  }
}
layer {
  name: "pool1/norm1"
  type: "LRN"
  bottom: "pool1/3x3_s2"
  top: "pool1/norm1"
  lrn_param {
    local_size: 5
    alpha: 0.0001
    beta: 0.75
  }
}
layer {
  name: "conv2/3x3_reduce"
  type: "Convolution"
  bottom: "pool1/norm1"
  top: "conv2/3x3_reduce"
  param {
    lr_mult: 1
    decay_mult: 1
  }
  param {
    lr_mult: 2
    decay_mult: 0
  }
  convolution_param {
    num_output: 64
    kernel_size: 1
    weight_filler {
      type: "xavier"
    }
    bias_filler {
      type: "constant"
      value: 0.2
    }
  }
}
layer {
  name: "conv2/relu_3x3_reduce"
  type: "ReLU"
  bottom: "conv2/3x3_reduce"
  top: "conv2/3x3_reduce"
}
layer {
  name: "conv2/3x3"
  type: "Convolution"
  bottom: "conv2/3x3_reduce"
  top: "conv2/3x3"
  param {
    lr_mult: 1
    decay_mult: 1
  }
  param {
    lr_mult: 2
    decay_mult: 0
  }
  convolution_param {
    num_output: 192
    pad: 1
    kernel_size: 3
    weight_filler {
      type: "xavier"
    }
    bias_filler {
      type: "constant"
      value: 0.2
    }
  }
}
layer {
  name: "conv2/relu_3x3"
  type: "ReLU"
  bottom: "conv2/3x3"
  top: "conv2/3x3"
}
layer {
  name: "conv2/norm2"
  type: "LRN"
  bottom: "conv2/3x3"
  top: "conv2/norm2"
  lrn_param {
    local_size: 5
    alpha: 0.0001
    beta: 0.75
  }
}
layer {
  name: "pool2/3x3_s2"
  type: "Pooling"
  bottom: "conv2/norm2"
  top: "pool2/3x3_s2"
  pooling_param {
    pool: MAX
    kernel_size: 3
    stride: 2
  }
}
layer {
  name: "inception_3a/1x1"
  type: "Convolution"
  bottom: "pool2/3x3_s2"
  top: "inception_3a/1x1"
  param {
    lr_mult: 1
    decay_mult: 1
  }
  param {
    lr_mult: 2
    decay_mult: 0
  }
  convolution_param {
    num_output: 64
    kernel_size: 1
    weight_filler {
      type: "xavier"
    }
    bias_filler {
      type: "constant"
      value: 0.2
    }
  }
}
layer {
  name: "inception_3a/relu_1x1"
  type: "ReLU"
  bottom: "inception_3a/1x1"
  top: "inception_3a/1x1"
}
layer {
  name: "inception_3a/3x3_reduce"
  type: "Convolution"
  bottom: "pool2/3x3_s2"
  top: "inception_3a/3x3_reduce"
  param {
    lr_mult: 1
    decay_mult: 1
  }
  param {
    lr_mult: 2
    decay_mult: 0
  }
  convolution_param {
    num_output: 96
    kernel_size: 1
    weight_filler {
      type: "xavier"
    }
    bias_filler {
      type: "constant"
      value: 0.2
    }
  }
}
layer {
  name: "inception_3a/relu_3x3_reduce"
  type: "ReLU"
  bottom: "inception_3a/3x3_reduce"
  top: "inception_3a/3x3_reduce"
}
layer {
  name: "inception_3a/3x3"
  type: "Convolution"
  bottom: "inception_3a/3x3_reduce"
  top: "inception_3a/3x3"
  param {
    lr_mult: 1
    decay_mult: 1
  }
  param {
    lr_mult: 2
    decay_mult: 0
  }
  convolution_param {
    num_output: 128
    pad: 1
    kernel_size: 3
    weight_filler {
      type: "xavier"
    }
    bias_filler {
      type: "constant"
      value: 0.2
    }
  }
}
layer {
  name: "inception_3a/relu_3x3"
  type: "ReLU"
  bottom: "inception_3a/3x3"
  top: "inception_3a/3x3"
}
layer {
  name: "inception_3a/5x5_reduce"
  type: "Convolution"
  bottom: "pool2/3x3_s2"
  top: "inception_3a/5x5_reduce"
  param {
    lr_mult: 1
    decay_mult: 1
  }
  param {
    lr_mult: 2
    decay_mult: 0
  }
  convolution_param {
    num_output: 16
    kernel_size: 1
    weight_filler {
      type: "xavier"
    }
    bias_filler {
      type: "constant"
      value: 0.2
    }
  }
}
layer {
  name: "inception_3a/relu_5x5_reduce"
  type: "ReLU"
  bottom: "inception_3a/5x5_reduce"
  top: "inception_3a/5x5_reduce"
}
layer {
  name: "inception_3a/5x5"
  type: "Convolution"
  bottom: "inception_3a/5x5_reduce"
  top: "inception_3a/5x5"
  param {
    lr_mult: 1
    decay_mult: 1
  }
  param {
    lr_mult: 2
    decay_mult: 0
  }
  convolution_param {
    num_output: 32
    pad: 2
    kernel_size: 5
    weight_filler {
      type: "xavier"
    }
    bias_filler {
      type: "constant"
      value: 0.2
    }
  }
}
layer {
  name: "inception_3a/relu_5x5"
  type: "ReLU"
  bottom: "inception_3a/5x5"
  top: "inception_3a/5x5"
}
layer {
  name: "inception_3a/pool"
  type: "Pooling"
  bottom: "pool2/3x3_s2"
  top: "inception_3a/pool"
  pooling_param {
    pool: MAX
    kernel_size: 3
    stride: 1
    pad: 1
  }
}
layer {
  name: "inception_3a/pool_proj"
  type: "Convolution"
  bottom: "inception_3a/pool"
  top: "inception_3a/pool_proj"
  param {
    lr_mult: 1
    decay_mult: 1
  }
  param {
    lr_mult: 2
    decay_mult: 0
  }
  convolution_param {
    num_output: 32
    kernel_size: 1
    weight_filler {
      type: "xavier"
    }
    bias_filler {
      type: "constant"
      value: 0.2
    }
  }
}
layer {
  name: "inception_3a/relu_pool_proj"
  type: "ReLU"
  bottom: "inception_3a/pool_proj"
  top: "inception_3a/pool_proj"
}
layer {
  name: "inception_3a/output"
  type: "Concat"
  bottom: "inception_3a/1x1"
  bottom: "inception_3a/3x3"
  bottom: "inception_3a/5x5"
  bottom: "inception_3a/pool_proj"
  top: "inception_3a/output"
}
layer {
  name: "inception_3b/1x1"
  type: "Convolution"
  bottom: "inception_3a/output"
  top: "inception_3b/1x1"
  param {
    lr_mult: 1
    decay_mult: 1
  }
  param {
    lr_mult: 2
    decay_mult: 0
  }
  convolution_param {
    num_output: 128
    kernel_size: 1
    weight_filler {
      type: "xavier"
    }
    bias_filler {
      type: "constant"
      value: 0.2
    }
  }
}
layer {
  name: "inception_3b/relu_1x1"
  type: "ReLU"
  bottom: "inception_3b/1x1"
  top: "inception_3b/1x1"
}
layer {
  name: "inception_3b/3x3_reduce"
  type: "Convolution"
  bottom: "inception_3a/output"
  top: "inception_3b/3x3_reduce"
  param {
    lr_mult: 1
    decay_mult: 1
  }
  param {
    lr_mult: 2
    decay_mult: 0
  }
  convolution_param {
    num_output: 128
    kernel_size: 1
    weight_filler {
      type: "xavier"
    }
    bias_filler {
      type: "constant"
      value: 0.2
    }
  }
}
layer {
  name: "inception_3b/relu_3x3_reduce"
  type: "ReLU"
  bottom: "inception_3b/3x3_reduce"
  top: "inception_3b/3x3_reduce"
}
layer {
  name: "inception_3b/3x3"
  type: "Convolution"
  bottom: "inception_3b/3x3_reduce"
  top: "inception_3b/3x3"
  param {
    lr_mult: 1
    decay_mult: 1
  }
  param {
    lr_mult: 2
    decay_mult: 0
  }
  convolution_param {
    num_output: 192
    pad: 1
    kernel_size: 3
    weight_filler {
      type: "xavier"
    }
    bias_filler {
      type: "constant"
      value: 0.2
    }
  }
}
layer {
  name: "inception_3b/relu_3x3"
  type: "ReLU"
  bottom: "inception_3b/3x3"
  top: "inception_3b/3x3"
}
layer {
  name: "inception_3b/5x5_reduce"
  type: "Convolution"
  bottom: "inception_3a/output"
  top: "inception_3b/5x5_reduce"
  param {
    lr_mult: 1
    decay_mult: 1
  }
  param {
    lr_mult: 2
    decay_mult: 0
  }
  convolution_param {
    num_output: 32
    kernel_size: 1
    weight_filler {
      type: "xavier"
    }
    bias_filler {
      type: "constant"
      value: 0.2
    }
  }
}
layer {
  name: "inception_3b/relu_5x5_reduce"
  type: "ReLU"
  bottom: "inception_3b/5x5_reduce"
  top: "inception_3b/5x5_reduce"
}
layer {
  name: "inception_3b/5x5"
  type: "Convolution"
  bottom: "inception_3b/5x5_reduce"
  top: "inception_3b/5x5"
  param {
    lr_mult: 1
    decay_mult: 1
  }
  param {
    lr_mult: 2
    decay_mult: 0
  }
  convolution_param {
    num_output: 96
    pad: 2
    kernel_size: 5
    weight_filler {
      type: "xavier"
    }
    bias_filler {
      type: "constant"
      value: 0.2
    }
  }
}
layer {
  name: "inception_3b/relu_5x5"
  type: "ReLU"
  bottom: "inception_3b/5x5"
  top: "inception_3b/5x5"
}
layer {
  name: "inception_3b/pool"
  type: "Pooling"
  bottom: "inception_3a/output"
  top: "inception_3b/pool"
  pooling_param {
    pool: MAX
    kernel_size: 3
    stride: 1
    pad: 1
  }
}
layer {
  name: "inception_3b/pool_proj"
  type: "Convolution"
  bottom: "inception_3b/pool"
  top: "inception_3b/pool_proj"
  param {
    lr_mult: 1
    decay_mult: 1
  }
  param {
    lr_mult: 2
    decay_mult: 0
  }
  convolution_param {
    num_output: 64
    kernel_size: 1
    weight_filler {
      type: "xavier"
    }
    bias_filler {
      type: "constant"
      value: 0.2
    }
  }
}
layer {
  name: "inception_3b/relu_pool_proj"
  type: "ReLU"
  bottom: "inception_3b/pool_proj"
  top: "inception_3b/pool_proj"
}
layer {
  name: "inception_3b/output"
  type: "Concat"
  bottom: "inception_3b/1x1"
  bottom: "inception_3b/3x3"
  bottom: "inception_3b/5x5"
  bottom: "inception_3b/pool_proj"
  top: "inception_3b/output"
}
layer {
  name: "pool3/3x3_s2"
  type: "Pooling"
  bottom: "inception_3b/output"
  top: "pool3/3x3_s2"
  pooling_param {
    pool: MAX
    kernel_size: 3
    stride: 2
  }
}
layer {
  name: "inception_4a/1x1"
  type: "Convolution"
  bottom: "pool3/3x3_s2"
  top: "inception_4a/1x1"
  param {
    lr_mult: 1
    decay_mult: 1
  }
  param {
    lr_mult: 2
    decay_mult: 0
  }
  convolution_param {
    num_output: 192
    kernel_size: 1
    weight_filler {
      type: "xavier"
    }
    bias_filler {
      type: "constant"
      value: 0.2
    }
  }
}
layer {
  name: "inception_4a/relu_1x1"
  type: "ReLU"
  bottom: "inception_4a/1x1"
  top: "inception_4a/1x1"
}
layer {
  name: "inception_4a/3x3_reduce"
  type: "Convolution"
  bottom: "pool3/3x3_s2"
  top: "inception_4a/3x3_reduce"
  param {
    lr_mult: 1
    decay_mult: 1
  }
  param {
    lr_mult: 2
    decay_mult: 0
  }
  convolution_param {
    num_output: 96
    kernel_size: 1
    weight_filler {
      type: "xavier"
    }
    bias_filler {
      type: "constant"
      value: 0.2
    }
  }
}
layer {
  name: "inception_4a/relu_3x3_reduce"
  type: "ReLU"
  bottom: "inception_4a/3x3_reduce"
  top: "inception_4a/3x3_reduce"
}
layer {
  name: "inception_4a/3x3"
  type: "Convolution"
  bottom: "inception_4a/3x3_reduce"
  top: "inception_4a/3x3"
  param {
    lr_mult: 1
    decay_mult: 1
  }
  param {
    lr_mult: 2
    decay_mult: 0
  }
  convolution_param {
    num_output: 208
    pad: 1
    kernel_size: 3
    weight_filler {
      type: "xavier"
    }
    bias_filler {
      type: "constant"
      value: 0.2
    }
  }
}
layer {
  name: "inception_4a/relu_3x3"
  type: "ReLU"
  bottom: "inception_4a/3x3"
  top: "inception_4a/3x3"
}
layer {
  name: "inception_4a/5x5_reduce"
  type: "Convolution"
  bottom: "pool3/3x3_s2"
  top: "inception_4a/5x5_reduce"
  param {
    lr_mult: 1
    decay_mult: 1
  }
  param {
    lr_mult: 2
    decay_mult: 0
  }
  convolution_param {
    num_output: 16
    kernel_size: 1
    weight_filler {
      type: "xavier"
    }
    bias_filler {
      type: "constant"
      value: 0.2
    }
  }
}
layer {
  name: "inception_4a/relu_5x5_reduce"
  type: "ReLU"
  bottom: "inception_4a/5x5_reduce"
  top: "inception_4a/5x5_reduce"
}
layer {
  name: "inception_4a/5x5"
  type: "Convolution"
  bottom: "inception_4a/5x5_reduce"
  top: "inception_4a/5x5"
  param {
    lr_mult: 1
    decay_mult: 1
  }
  param {
    lr_mult: 2
    decay_mult: 0
  }
  convolution_param {
    num_output: 48
    pad: 2
    kernel_size: 5
    weight_filler {
      type: "xavier"
    }
    bias_filler {
      type: "constant"
      value: 0.2
    }
  }
}
layer {
  name: "inception_4a/relu_5x5"
  type: "ReLU"
  bottom: "inception_4a/5x5"
  top: "inception_4a/5x5"
}
layer {
  name: "inception_4a/pool"
  type: "Pooling"
  bottom: "pool3/3x3_s2"
  top: "inception_4a/pool"
  pooling_param {
    pool: MAX
    kernel_size: 3
    stride: 1
    pad: 1
  }
}
layer {
  name: "inception_4a/pool_proj"
  type: "Convolution"
  bottom: "inception_4a/pool"
  top: "inception_4a/pool_proj"
  param {
    lr_mult: 1
    decay_mult: 1
  }
  param {
    lr_mult: 2
    decay_mult: 0
  }
  convolution_param {
    num_output: 64
    kernel_size: 1
    weight_filler {
      type: "xavier"
    }
    bias_filler {
      type: "constant"
      value: 0.2
    }
  }
}
layer {
  name: "inception_4a/relu_pool_proj"
  type: "ReLU"
  bottom: "inception_4a/pool_proj"
  top: "inception_4a/pool_proj"
}
layer {
  name: "inception_4a/output"
  type: "Concat"
  bottom: "inception_4a/1x1"
  bottom: "inception_4a/3x3"
  bottom: "inception_4a/5x5"
  bottom: "inception_4a/pool_proj"
  top: "inception_4a/output"
}
layer {
  name: "loss1/ave_pool"
  type: "Pooling"
  bottom: "inception_4a/output"
  top: "loss1/ave_pool"
  pooling_param {
    pool: AVE
    kernel_size: 5
    stride: 3
  }
}
layer {
  name: "loss1/conv"
  type: "Convolution"
  bottom: "loss1/ave_pool"
  top: "loss1/conv"
  param {
    lr_mult: 1
    decay_mult: 1
  }
  param {
    lr_mult: 2
    decay_mult: 0
  }
  convolution_param {
    num_output: 128
    kernel_size: 1
    weight_filler {
      type: "xavier"
    }
    bias_filler {
      type: "constant"
      value: 0.2
    }
  }
}
layer {
  name: "loss1/relu_conv"
  type: "ReLU"
  bottom: "loss1/conv"
  top: "loss1/conv"
}
layer {
  name: "loss1/fc"
  type: "InnerProduct"
  bottom: "loss1/conv"
  top: "loss1/fc"
  param {
    lr_mult: 1
    decay_mult: 1
  }
  param {
    lr_mult: 2
    decay_mult: 0
  }
  inner_product_param {
    num_output: 1024
    weight_filler {
      type: "xavier"
    }
    bias_filler {
      type: "constant"
      value: 0.2
    }
  }
}
layer {
  name: "loss1/relu_fc"
  type: "ReLU"
  bottom: "loss1/fc"
  top: "loss1/fc"
}
layer {
  name: "loss1/drop_fc"
  type: "Dropout"
  bottom: "loss1/fc"
  top: "loss1/fc"
  dropout_param {
    dropout_ratio: 0.7
  }
}
layer {
  name: "ft_loss1/classifier"
  type: "InnerProduct"
  bottom: "loss1/fc"
  top: "ft_loss1/classifier"
  param {
    lr_mult: 1
    decay_mult: 1
  }
  param {
    lr_mult: 2
    decay_mult: 0
  }
  inner_product_param {
    num_output: 2
    weight_filler {
      type: "xavier"
    }
    bias_filler {
      type: "constant"
      value: 0
    }
  }
}
layer {
  name: "loss1/loss"
  type: "SoftmaxWithLoss"
  bottom: "ft_loss1/classifier"
  bottom: "label"
  top: "loss1/loss1"
  loss_weight: 0.3
}
layer {
  name: "loss1/top-1"
  type: "Accuracy"
  bottom: "ft_loss1/classifier"
  bottom: "label"
  top: "loss1/top-1"
  include {
    phase: TEST
  }
}
layer {
  name: "inception_4b/1x1"
  type: "Convolution"
  bottom: "inception_4a/output"
  top: "inception_4b/1x1"
  param {
    lr_mult: 1
    decay_mult: 1
  }
  param {
    lr_mult: 2
    decay_mult: 0
  }
  convolution_param {
    num_output: 160
    kernel_size: 1
    weight_filler {
      type: "xavier"
    }
    bias_filler {
      type: "constant"
      value: 0.2
    }
  }
}
layer {
  name: "inception_4b/relu_1x1"
  type: "ReLU"
  bottom: "inception_4b/1x1"
  top: "inception_4b/1x1"
}
layer {
  name: "inception_4b/3x3_reduce"
  type: "Convolution"
  bottom: "inception_4a/output"
  top: "inception_4b/3x3_reduce"
  param {
    lr_mult: 1
    decay_mult: 1
  }
  param {
    lr_mult: 2
    decay_mult: 0
  }
  convolution_param {
    num_output: 112
    kernel_size: 1
    weight_filler {
      type: "xavier"
    }
    bias_filler {
      type: "constant"
      value: 0.2
    }
  }
}
layer {
  name: "inception_4b/relu_3x3_reduce"
  type: "ReLU"
  bottom: "inception_4b/3x3_reduce"
  top: "inception_4b/3x3_reduce"
}
layer {
  name: "inception_4b/3x3"
  type: "Convolution"
  bottom: "inception_4b/3x3_reduce"
  top: "inception_4b/3x3"
  param {
    lr_mult: 1
    decay_mult: 1
  }
  param {
    lr_mult: 2
    decay_mult: 0
  }
  convolution_param {
    num_output: 224
    pad: 1
    kernel_size: 3
    weight_filler {
      type: "xavier"
    }
    bias_filler {
      type: "constant"
      value: 0.2
    }
  }
}
layer {
  name: "inception_4b/relu_3x3"
  type: "ReLU"
  bottom: "inception_4b/3x3"
  top: "inception_4b/3x3"
}
layer {
  name: "inception_4b/5x5_reduce"
  type: "Convolution"
  bottom: "inception_4a/output"
  top: "inception_4b/5x5_reduce"
  param {
    lr_mult: 1
    decay_mult: 1
  }
  param {
    lr_mult: 2
    decay_mult: 0
  }
  convolution_param {
    num_output: 24
    kernel_size: 1
    weight_filler {
      type: "xavier"
    }
    bias_filler {
      type: "constant"
      value: 0.2
    }
  }
}
layer {
  name: "inception_4b/relu_5x5_reduce"
  type: "ReLU"
  bottom: "inception_4b/5x5_reduce"
  top: "inception_4b/5x5_reduce"
}
layer {
  name: "inception_4b/5x5"
  type: "Convolution"
  bottom: "inception_4b/5x5_reduce"
  top: "inception_4b/5x5"
  param {
    lr_mult: 1
    decay_mult: 1
  }
  param {
    lr_mult: 2
    decay_mult: 0
  }
  convolution_param {
    num_output: 64
    pad: 2
    kernel_size: 5
    weight_filler {
      type: "xavier"
    }
    bias_filler {
      type: "constant"
      value: 0.2
    }
  }
}
layer {
  name: "inception_4b/relu_5x5"
  type: "ReLU"
  bottom: "inception_4b/5x5"
  top: "inception_4b/5x5"
}
layer {
  name: "inception_4b/pool"
  type: "Pooling"
  bottom: "inception_4a/output"
  top: "inception_4b/pool"
  pooling_param {
    pool: MAX
    kernel_size: 3
    stride: 1
    pad: 1
  }
}
layer {
  name: "inception_4b/pool_proj"
  type: "Convolution"
  bottom: "inception_4b/pool"
  top: "inception_4b/pool_proj"
  param {
    lr_mult: 1
    decay_mult: 1
  }
  param {
    lr_mult: 2
    decay_mult: 0
  }
  convolution_param {
    num_output: 64
    kernel_size: 1
    weight_filler {
      type: "xavier"
    }
    bias_filler {
      type: "constant"
      value: 0.2
    }
  }
}
layer {
  name: "inception_4b/relu_pool_proj"
  type: "ReLU"
  bottom: "inception_4b/pool_proj"
  top: "inception_4b/pool_proj"
}
layer {
  name: "inception_4b/output"
  type: "Concat"
  bottom: "inception_4b/1x1"
  bottom: "inception_4b/3x3"
  bottom: "inception_4b/5x5"
  bottom: "inception_4b/pool_proj"
  top: "inception_4b/output"
}
layer {
  name: "inception_4c/1x1"
  type: "Convolution"
  bottom: "inception_4b/output"
  top: "inception_4c/1x1"
  param {
    lr_mult: 1
    decay_mult: 1
  }
  param {
    lr_mult: 2
    decay_mult: 0
  }
  convolution_param {
    num_output: 128
    kernel_size: 1
    weight_filler {
      type: "xavier"
    }
    bias_filler {
      type: "constant"
      value: 0.2
    }
  }
}
layer {
  name: "inception_4c/relu_1x1"
  type: "ReLU"
  bottom: "inception_4c/1x1"
  top: "inception_4c/1x1"
}
layer {
  name: "inception_4c/3x3_reduce"
  type: "Convolution"
  bottom: "inception_4b/output"
  top: "inception_4c/3x3_reduce"
  param {
    lr_mult: 1
    decay_mult: 1
  }
  param {
    lr_mult: 2
    decay_mult: 0
  }
  convolution_param {
    num_output: 128
    kernel_size: 1
    weight_filler {
      type: "xavier"
    }
    bias_filler {
      type: "constant"
      value: 0.2
    }
  }
}
layer {
  name: "inception_4c/relu_3x3_reduce"
  type: "ReLU"
  bottom: "inception_4c/3x3_reduce"
  top: "inception_4c/3x3_reduce"
}
layer {
  name: "inception_4c/3x3"
  type: "Convolution"
  bottom: "inception_4c/3x3_reduce"
  top: "inception_4c/3x3"
  param {
    lr_mult: 1
    decay_mult: 1
  }
  param {
    lr_mult: 2
    decay_mult: 0
  }
  convolution_param {
    num_output: 256
    pad: 1
    kernel_size: 3
    weight_filler {
      type: "xavier"
    }
    bias_filler {
      type: "constant"
      value: 0.2
    }
  }
}
layer {
  name: "inception_4c/relu_3x3"
  type: "ReLU"
  bottom: "inception_4c/3x3"
  top: "inception_4c/3x3"
}
layer {
  name: "inception_4c/5x5_reduce"
  type: "Convolution"
  bottom: "inception_4b/output"
  top: "inception_4c/5x5_reduce"
  param {
    lr_mult: 1
    decay_mult: 1
  }
  param {
    lr_mult: 2
    decay_mult: 0
  }
  convolution_param {
    num_output: 24
    kernel_size: 1
    weight_filler {
      type: "xavier"
    }
    bias_filler {
      type: "constant"
      value: 0.2
    }
  }
}
layer {
  name: "inception_4c/relu_5x5_reduce"
  type: "ReLU"
  bottom: "inception_4c/5x5_reduce"
  top: "inception_4c/5x5_reduce"
}
layer {
  name: "inception_4c/5x5"
  type: "Convolution"
  bottom: "inception_4c/5x5_reduce"
  top: "inception_4c/5x5"
  param {
    lr_mult: 1
    decay_mult: 1
  }
  param {
    lr_mult: 2
    decay_mult: 0
  }
  convolution_param {
    num_output: 64
    pad: 2
    kernel_size: 5
    weight_filler {
      type: "xavier"
    }
    bias_filler {
      type: "constant"
      value: 0.2
    }
  }
}
layer {
  name: "inception_4c/relu_5x5"
  type: "ReLU"
  bottom: "inception_4c/5x5"
  top: "inception_4c/5x5"
}
layer {
  name: "inception_4c/pool"
  type: "Pooling"
  bottom: "inception_4b/output"
  top: "inception_4c/pool"
  pooling_param {
    pool: MAX
    kernel_size: 3
    stride: 1
    pad: 1
  }
}
layer {
  name: "inception_4c/pool_proj"
  type: "Convolution"
  bottom: "inception_4c/pool"
  top: "inception_4c/pool_proj"
  param {
    lr_mult: 1
    decay_mult: 1
  }
  param {
    lr_mult: 2
    decay_mult: 0
  }
  convolution_param {
    num_output: 64
    kernel_size: 1
    weight_filler {
      type: "xavier"
    }
    bias_filler {
      type: "constant"
      value: 0.2
    }
  }
}
layer {
  name: "inception_4c/relu_pool_proj"
  type: "ReLU"
  bottom: "inception_4c/pool_proj"
  top: "inception_4c/pool_proj"
}
layer {
  name: "inception_4c/output"
  type: "Concat"
  bottom: "inception_4c/1x1"
  bottom: "inception_4c/3x3"
  bottom: "inception_4c/5x5"
  bottom: "inception_4c/pool_proj"
  top: "inception_4c/output"
}
layer {
  name: "inception_4d/1x1"
  type: "Convolution"
  bottom: "inception_4c/output"
  top: "inception_4d/1x1"
  param {
    lr_mult: 1
    decay_mult: 1
  }
  param {
    lr_mult: 2
    decay_mult: 0
  }
  convolution_param {
    num_output: 112
    kernel_size: 1
    weight_filler {
      type: "xavier"
    }
    bias_filler {
      type: "constant"
      value: 0.2
    }
  }
}
layer {
  name: "inception_4d/relu_1x1"
  type: "ReLU"
  bottom: "inception_4d/1x1"
  top: "inception_4d/1x1"
}
layer {
  name: "inception_4d/3x3_reduce"
  type: "Convolution"
  bottom: "inception_4c/output"
  top: "inception_4d/3x3_reduce"
  param {
    lr_mult: 1
    decay_mult: 1
  }
  param {
    lr_mult: 2
    decay_mult: 0
  }
  convolution_param {
    num_output: 144
    kernel_size: 1
    weight_filler {
      type: "xavier"
    }
    bias_filler {
      type: "constant"
      value: 0.2
    }
  }
}
layer {
  name: "inception_4d/relu_3x3_reduce"
  type: "ReLU"
  bottom: "inception_4d/3x3_reduce"
  top: "inception_4d/3x3_reduce"
}
layer {
  name: "inception_4d/3x3"
  type: "Convolution"
  bottom: "inception_4d/3x3_reduce"
  top: "inception_4d/3x3"
  param {
    lr_mult: 1
    decay_mult: 1
  }
  param {
    lr_mult: 2
    decay_mult: 0
  }
  convolution_param {
    num_output: 288
    pad: 1
    kernel_size: 3
    weight_filler {
      type: "xavier"
    }
    bias_filler {
      type: "constant"
      value: 0.2
    }
  }
}
layer {
  name: "inception_4d/relu_3x3"
  type: "ReLU"
  bottom: "inception_4d/3x3"
  top: "inception_4d/3x3"
}
layer {
  name: "inception_4d/5x5_reduce"
  type: "Convolution"
  bottom: "inception_4c/output"
  top: "inception_4d/5x5_reduce"
  param {
    lr_mult: 1
    decay_mult: 1
  }
  param {
    lr_mult: 2
    decay_mult: 0
  }
  convolution_param {
    num_output: 32
    kernel_size: 1
    weight_filler {
      type: "xavier"
    }
    bias_filler {
      type: "constant"
      value: 0.2
    }
  }
}
layer {
  name: "inception_4d/relu_5x5_reduce"
  type: "ReLU"
  bottom: "inception_4d/5x5_reduce"
  top: "inception_4d/5x5_reduce"
}
layer {
  name: "inception_4d/5x5"
  type: "Convolution"
  bottom: "inception_4d/5x5_reduce"
  top: "inception_4d/5x5"
  param {
    lr_mult: 1
    decay_mult: 1
  }
  param {
    lr_mult: 2
    decay_mult: 0
  }
  convolution_param {
    num_output: 64
    pad: 2
    kernel_size: 5
    weight_filler {
      type: "xavier"
    }
    bias_filler {
      type: "constant"
      value: 0.2
    }
  }
}
layer {
  name: "inception_4d/relu_5x5"
  type: "ReLU"
  bottom: "inception_4d/5x5"
  top: "inception_4d/5x5"
}
layer {
  name: "inception_4d/pool"
  type: "Pooling"
  bottom: "inception_4c/output"
  top: "inception_4d/pool"
  pooling_param {
    pool: MAX
    kernel_size: 3
    stride: 1
    pad: 1
  }
}
layer {
  name: "inception_4d/pool_proj"
  type: "Convolution"
  bottom: "inception_4d/pool"
  top: "inception_4d/pool_proj"
  param {
    lr_mult: 1
    decay_mult: 1
  }
  param {
    lr_mult: 2
    decay_mult: 0
  }
  convolution_param {
    num_output: 64
    kernel_size: 1
    weight_filler {
      type: "xavier"
    }
    bias_filler {
      type: "constant"
      value: 0.2
    }
  }
}
layer {
  name: "inception_4d/relu_pool_proj"
  type: "ReLU"
  bottom: "inception_4d/pool_proj"
  top: "inception_4d/pool_proj"
}
layer {
  name: "inception_4d/output"
  type: "Concat"
  bottom: "inception_4d/1x1"
  bottom: "inception_4d/3x3"
  bottom: "inception_4d/5x5"
  bottom: "inception_4d/pool_proj"
  top: "inception_4d/output"
}
layer {
  name: "loss2/ave_pool"
  type: "Pooling"
  bottom: "inception_4d/output"
  top: "loss2/ave_pool"
  pooling_param {
    pool: AVE
    kernel_size: 5
    stride: 3
  }
}
layer {
  name: "loss2/conv"
  type: "Convolution"
  bottom: "loss2/ave_pool"
  top: "loss2/conv"
  param {
    lr_mult: 1
    decay_mult: 1
  }
  param {
    lr_mult: 2
    decay_mult: 0
  }
  convolution_param {
    num_output: 128
    kernel_size: 1
    weight_filler {
      type: "xavier"
    }
    bias_filler {
      type: "constant"
      value: 0.2
    }
  }
}
layer {
  name: "loss2/relu_conv"
  type: "ReLU"
  bottom: "loss2/conv"
  top: "loss2/conv"
}
layer {
  name: "loss2/fc"
  type: "InnerProduct"
  bottom: "loss2/conv"
  top: "loss2/fc"
  param {
    lr_mult: 1
    decay_mult: 1
  }
  param {
    lr_mult: 2
    decay_mult: 0
  }
  inner_product_param {
    num_output: 1024
    weight_filler {
      type: "xavier"
    }
    bias_filler {
      type: "constant"
      value: 0.2
    }
  }
}
layer {
  name: "loss2/relu_fc"
  type: "ReLU"
  bottom: "loss2/fc"
  top: "loss2/fc"
}
layer {
  name: "loss2/drop_fc"
  type: "Dropout"
  bottom: "loss2/fc"
  top: "loss2/fc"
  dropout_param {
    dropout_ratio: 0.7
  }
}
layer {
  name: "ft_loss2/classifier"
  type: "InnerProduct"
  bottom: "loss2/fc"
  top: "ft_loss2/classifier"
  param {
    lr_mult: 1
    decay_mult: 1
  }
  param {
    lr_mult: 2
    decay_mult: 0
  }
  inner_product_param {
    num_output: 2
    weight_filler {
      type: "xavier"
    }
    bias_filler {
      type: "constant"
      value: 0
    }
  }
}
layer {
  name: "loss2/loss"
  type: "SoftmaxWithLoss"
…
I0817 17:43:42.221047 24758 net.cpp:90] Creating Layer inception_4b/output_inception_4b/output_0_split
I0817 17:43:42.221056 24758 net.cpp:410] inception_4b/output_inception_4b/output_0_split <- inception_4b/output
I0817 17:43:42.221071 24758 net.cpp:368] inception_4b/output_inception_4b/output_0_split -> inception_4b/output_inception_4b/output_0_split_0
I0817 17:43:42.221088 24758 net.cpp:368] inception_4b/output_inception_4b/output_0_split -> inception_4b/output_inception_4b/output_0_split_1
I0817 17:43:42.221103 24758 net.cpp:368] inception_4b/output_inception_4b/output_0_split -> inception_4b/output_inception_4b/output_0_split_2
I0817 17:43:42.221119 24758 net.cpp:368] inception_4b/output_inception_4b/output_0_split -> inception_4b/output_inception_4b/output_0_split_3
I0817 17:43:42.221137 24758 net.cpp:120] Setting up inception_4b/output_inception_4b/output_0_split
I0817 17:43:42.221151 24758 net.cpp:127] Top shape: 50 512 14 14 (5017600)
I0817 17:43:42.221163 24758 net.cpp:127] Top shape: 50 512 14 14 (5017600)
I0817 17:43:42.221174 24758 net.cpp:127] Top shape: 50 512 14 14 (5017600)
I0817 17:43:42.221184 24758 net.cpp:127] Top shape: 50 512 14 14 (5017600)
I0817 17:43:42.221192 24758 layer_factory.hpp:74] Creating layer inception_4c/1x1
I0817 17:43:42.221205 24758 net.cpp:90] Creating Layer inception_4c/1x1
I0817 17:43:42.221213 24758 net.cpp:410] inception_4c/1x1 <- inception_4b/output_inception_4b/output_0_split_0
I0817 17:43:42.221230 24758 net.cpp:368] inception_4c/1x1 -> inception_4c/1x1
I0817 17:43:42.221245 24758 net.cpp:120] Setting up inception_4c/1x1
I0817 17:43:42.221915 24758 net.cpp:127] Top shape: 50 128 14 14 (1254400)
I0817 17:43:42.221932 24758 layer_factory.hpp:74] Creating layer inception_4c/relu_1x1
I0817 17:43:42.221945 24758 net.cpp:90] Creating Layer inception_4c/relu_1x1
I0817 17:43:42.221953 24758 net.cpp:410] inception_4c/relu_1x1 <- inception_4c/1x1
I0817 17:43:42.221964 24758 net.cpp:357] inception_4c/relu_1x1 -> inception_4c/1x1 (in-place)
I0817 17:43:42.221976 24758 net.cpp:120] Setting up inception_4c/relu_1x1
I0817 17:43:42.221988 24758 net.cpp:127] Top shape: 50 128 14 14 (1254400)
I0817 17:43:42.221997 24758 layer_factory.hpp:74] Creating layer inception_4c/3x3_reduce
I0817 17:43:42.222012 24758 net.cpp:90] Creating Layer inception_4c/3x3_reduce
I0817 17:43:42.222023 24758 net.cpp:410] inception_4c/3x3_reduce <- inception_4b/output_inception_4b/output_0_split_1
I0817 17:43:42.222038 24758 net.cpp:368] inception_4c/3x3_reduce -> inception_4c/3x3_reduce
I0817 17:43:42.222053 24758 net.cpp:120] Setting up inception_4c/3x3_reduce
I0817 17:43:42.222710 24758 net.cpp:127] Top shape: 50 128 14 14 (1254400)
I0817 17:43:42.222730 24758 layer_factory.hpp:74] Creating layer inception_4c/relu_3x3_reduce
I0817 17:43:42.222741 24758 net.cpp:90] Creating Layer inception_4c/relu_3x3_reduce
I0817 17:43:42.222751 24758 net.cpp:410] inception_4c/relu_3x3_reduce <- inception_4c/3x3_reduce
I0817 17:43:42.222761 24758 net.cpp:357] inception_4c/relu_3x3_reduce -> inception_4c/3x3_reduce (in-place)
I0817 17:43:42.222774 24758 net.cpp:120] Setting up inception_4c/relu_3x3_reduce
I0817 17:43:42.222786 24758 net.cpp:127] Top shape: 50 128 14 14 (1254400)
I0817 17:43:42.222795 24758 layer_factory.hpp:74] Creating layer inception_4c/3x3
I0817 17:43:42.222808 24758 net.cpp:90] Creating Layer inception_4c/3x3
I0817 17:43:42.222818 24758 net.cpp:410] inception_4c/3x3 <- inception_4c/3x3_reduce
I0817 17:43:42.222831 24758 net.cpp:368] inception_4c/3x3 -> inception_4c/3x3
I0817 17:43:42.222843 24758 net.cpp:120] Setting up inception_4c/3x3
I0817 17:43:42.225848 24758 net.cpp:127] Top shape: 50 256 14 14 (2508800)
I0817 17:43:42.225879 24758 layer_factory.hpp:74] Creating layer inception_4c/relu_3x3
I0817 17:43:42.225903 24758 net.cpp:90] Creating Layer inception_4c/relu_3x3
I0817 17:43:42.225915 24758 net.cpp:410] inception_4c/relu_3x3 <- inception_4c/3x3
I0817 17:43:42.225927 24758 net.cpp:357] inception_4c/relu_3x3 -> inception_4c/3x3 (in-place)
I0817 17:43:42.225940 24758 net.cpp:120] Setting up inception_4c/relu_3x3
I0817 17:43:42.225953 24758 net.cpp:127] Top shape: 50 256 14 14 (2508800)
I0817 17:43:42.225961 24758 layer_factory.hpp:74] Creating layer inception_4c/5x5_reduce
I0817 17:43:42.225975 24758 net.cpp:90] Creating Layer inception_4c/5x5_reduce
I0817 17:43:42.225983 24758 net.cpp:410] inception_4c/5x5_reduce <- inception_4b/output_inception_4b/output_0_split_2
I0817 17:43:42.226001 24758 net.cpp:368] inception_4c/5x5_reduce -> inception_4c/5x5_reduce
I0817 17:43:42.226016 24758 net.cpp:120] Setting up inception_4c/5x5_reduce
I0817 17:43:42.226156 24758 net.cpp:127] Top shape: 50 24 14 14 (235200)
I0817 17:43:42.226171 24758 layer_factory.hpp:74] Creating layer inception_4c/relu_5x5_reduce
I0817 17:43:42.226183 24758 net.cpp:90] Creating Layer inception_4c/relu_5x5_reduce
I0817 17:43:42.226192 24758 net.cpp:410] inception_4c/relu_5x5_reduce <- inception_4c/5x5_reduce
I0817 17:43:42.226202 24758 net.cpp:357] inception_4c/relu_5x5_reduce -> inception_4c/5x5_reduce (in-place)
I0817 17:43:42.226215 24758 net.cpp:120] Setting up inception_4c/relu_5x5_reduce
I0817 17:43:42.226227 24758 net.cpp:127] Top shape: 50 24 14 14 (235200)
I0817 17:43:42.226234 24758 layer_factory.hpp:74] Creating layer inception_4c/5x5
I0817 17:43:42.226248 24758 net.cpp:90] Creating Layer inception_4c/5x5
I0817 17:43:42.226256 24758 net.cpp:410] inception_4c/5x5 <- inception_4c/5x5_reduce
I0817 17:43:42.226272 24758 net.cpp:368] inception_4c/5x5 -> inception_4c/5x5
I0817 17:43:42.226289 24758 net.cpp:120] Setting up inception_4c/5x5
I0817 17:43:42.226686 24758 net.cpp:127] Top shape: 50 64 14 14 (627200)
I0817 17:43:42.226708 24758 layer_factory.hpp:74] Creating layer inception_4c/relu_5x5
I0817 17:43:42.226722 24758 net.cpp:90] Creating Layer inception_4c/relu_5x5
I0817 17:43:42.226730 24758 net.cpp:410] inception_4c/relu_5x5 <- inception_4c/5x5
I0817 17:43:42.226743 24758 net.cpp:357] inception_4c/relu_5x5 -> inception_4c/5x5 (in-place)
I0817 17:43:42.226757 24758 net.cpp:120] Setting up inception_4c/relu_5x5
I0817 17:43:42.226768 24758 net.cpp:127] Top shape: 50 64 14 14 (627200)
I0817 17:43:42.226780 24758 layer_factory.hpp:74] Creating layer inception_4c/pool
I0817 17:43:42.226793 24758 net.cpp:90] Creating Layer inception_4c/pool
I0817 17:43:42.226801 24758 net.cpp:410] inception_4c/pool <- inception_4b/output_inception_4b/output_0_split_3
I0817 17:43:42.226814 24758 net.cpp:368] inception_4c/pool -> inception_4c/pool
I0817 17:43:42.226825 24758 net.cpp:120] Setting up inception_4c/pool
I0817 17:43:42.226841 24758 net.cpp:127] Top shape: 50 512 14 14 (5017600)
I0817 17:43:42.226853 24758 layer_factory.hpp:74] Creating layer inception_4c/pool_proj
I0817 17:43:42.226869 24758 net.cpp:90] Creating Layer inception_4c/pool_proj
I0817 17:43:42.226881 24758 net.cpp:410] inception_4c/pool_proj <- inception_4c/pool
I0817 17:43:42.226902 24758 net.cpp:368] inception_4c/pool_proj -> inception_4c/pool_proj
I0817 17:43:42.226919 24758 net.cpp:120] Setting up inception_4c/pool_proj
I0817 17:43:42.227265 24758 net.cpp:127] Top shape: 50 64 14 14 (627200)
I0817 17:43:42.227285 24758 layer_factory.hpp:74] Creating layer inception_4c/relu_pool_proj
I0817 17:43:42.227298 24758 net.cpp:90] Creating Layer inception_4c/relu_pool_proj
I0817 17:43:42.227308 24758 net.cpp:410] inception_4c/relu_pool_proj <- inception_4c/pool_proj
I0817 17:43:42.227319 24758 net.cpp:357] inception_4c/relu_pool_proj -> inception_4c/pool_proj (in-place)
I0817 17:43:42.227330 24758 net.cpp:120] Setting up inception_4c/relu_pool_proj
I0817 17:43:42.227341 24758 net.cpp:127] Top shape: 50 64 14 14 (627200)
I0817 17:43:42.227350 24758 layer_factory.hpp:74] Creating layer inception_4c/output
I0817 17:43:42.227365 24758 net.cpp:90] Creating Layer inception_4c/output
I0817 17:43:42.227373 24758 net.cpp:410] inception_4c/output <- inception_4c/1x1
I0817 17:43:42.227383 24758 net.cpp:410] inception_4c/output <- inception_4c/3x3
I0817 17:43:42.227392 24758 net.cpp:410] inception_4c/output <- inception_4c/5x5
I0817 17:43:42.227402 24758 net.cpp:410] inception_4c/output <- inception_4c/pool_proj
I0817 17:43:42.227413 24758 net.cpp:368] inception_4c/output -> inception_4c/output
I0817 17:43:42.227426 24758 net.cpp:120] Setting up inception_4c/output
I0817 17:43:42.227438 24758 net.cpp:127] Top shape: 50 512 14 14 (5017600)
I0817 17:43:42.227450 24758 layer_factory.hpp:74] Creating layer inception_4c/output_inception_4c/output_0_split
I0817 17:43:42.227463 24758 net.cpp:90] Creating Layer inception_4c/output_inception_4c/output_0_split
I0817 17:43:42.227471 24758 net.cpp:410] inception_4c/output_inception_4c/output_0_split <- inception_4c/output
I0817 17:43:42.227485 24758 net.cpp:368] inception_4c/output_inception_4c/output_0_split -> inception_4c/output_inception_4c/output_0_split_0
I0817 17:43:42.227500 24758 net.cpp:368] inception_4c/output_inception_4c/output_0_split -> inception_4c/output_inception_4c/output_0_split_1
I0817 17:43:42.227514 24758 net.cpp:368] inception_4c/output_inception_4c/output_0_split -> inception_4c/output_inception_4c/output_0_split_2
I0817 17:43:42.227531 24758 net.cpp:368] inception_4c/output_inception_4c/output_0_split -> inception_4c/output_inception_4c/output_0_split_3
I0817 17:43:42.227546 24758 net.cpp:120] Setting up inception_4c/output_inception_4c/output_0_split
I0817 17:43:42.227560 24758 net.cpp:127] Top shape: 50 512 14 14 (5017600)
I0817 17:43:42.227571 24758 net.cpp:127] Top shape: 50 512 14 14 (5017600)
I0817 17:43:42.227582 24758 net.cpp:127] Top shape: 50 512 14 14 (5017600)
I0817 17:43:42.227592 24758 net.cpp:127] Top shape: 50 512 14 14 (5017600)
I0817 17:43:42.227602 24758 layer_factory.hpp:74] Creating layer inception_4d/1x1
I0817 17:43:42.227629 24758 net.cpp:90] Creating Layer inception_4d/1x1
I0817 17:43:42.227641 24758 net.cpp:410] inception_4d/1x1 <- inception_4c/output_inception_4c/output_0_split_0
I0817 17:43:42.227656 24758 net.cpp:368] inception_4d/1x1 -> inception_4d/1x1
I0817 17:43:42.227670 24758 net.cpp:120] Setting up inception_4d/1x1
I0817 17:43:42.228253 24758 net.cpp:127] Top shape: 50 112 14 14 (1097600)
I0817 17:43:42.228270 24758 layer_factory.hpp:74] Creating layer inception_4d/relu_1x1
I0817 17:43:42.228281 24758 net.cpp:90] Creating Layer inception_4d/relu_1x1
I0817 17:43:42.228291 24758 net.cpp:410] inception_4d/relu_1x1 <- inception_4d/1x1
I0817 17:43:42.228302 24758 net.cpp:357] inception_4d/relu_1x1 -> inception_4d/1x1 (in-place)
I0817 17:43:42.228313 24758 net.cpp:120] Setting up inception_4d/relu_1x1
I0817 17:43:42.228325 24758 net.cpp:127] Top shape: 50 112 14 14 (1097600)
I0817 17:43:42.228334 24758 layer_factory.hpp:74] Creating layer inception_4d/3x3_reduce
I0817 17:43:42.228350 24758 net.cpp:90] Creating Layer inception_4d/3x3_reduce
I0817 17:43:42.228359 24758 net.cpp:410] inception_4d/3x3_reduce <- inception_4c/output_inception_4c/output_0_split_1
I0817 17:43:42.228373 24758 net.cpp:368] inception_4d/3x3_reduce -> inception_4d/3x3_reduce
I0817 17:43:42.228386 24758 net.cpp:120] Setting up inception_4d/3x3_reduce
I0817 17:43:42.229226 24758 net.cpp:127] Top shape: 50 144 14 14 (1411200)
I0817 17:43:42.229243 24758 layer_factory.hpp:74] Creating layer inception_4d/relu_3x3_reduce
I0817 17:43:42.229255 24758 net.cpp:90] Creating Layer inception_4d/relu_3x3_reduce
I0817 17:43:42.229264 24758 net.cpp:410] inception_4d/relu_3x3_reduce <- inception_4d/3x3_reduce
I0817 17:43:42.229279 24758 net.cpp:357] inception_4d/relu_3x3_reduce -> inception_4d/3x3_reduce (in-place)
I0817 17:43:42.229295 24758 net.cpp:120] Setting up inception_4d/relu_3x3_reduce
I0817 17:43:42.229306 24758 net.cpp:127] Top shape: 50 144 14 14 (1411200)
I0817 17:43:42.229315 24758 layer_factory.hpp:74] Creating layer inception_4d/3x3
I0817 17:43:42.229342 24758 net.cpp:90] Creating Layer inception_4d/3x3
I0817 17:43:42.229353 24758 net.cpp:410] inception_4d/3x3 <- inception_4d/3x3_reduce
I0817 17:43:42.229367 24758 net.cpp:368] inception_4d/3x3 -> inception_4d/3x3
I0817 17:43:42.229393 24758 net.cpp:120] Setting up inception_4d/3x3
I0817 17:43:42.233417 24758 net.cpp:127] Top shape: 50 288 14 14 (2822400)
I0817 17:43:42.233434 24758 layer_factory.hpp:74] Creating layer inception_4d/relu_3x3
I0817 17:43:42.233446 24758 net.cpp:90] Creating Layer inception_4d/relu_3x3
I0817 17:43:42.233456 24758 net.cpp:410] inception_4d/relu_3x3 <- inception_4d/3x3
I0817 17:43:42.233467 24758 net.cpp:357] inception_4d/relu_3x3 -> inception_4d/3x3 (in-place)
I0817 17:43:42.233479 24758 net.cpp:120] Setting up inception_4d/relu_3x3
I0817 17:43:42.233491 24758 net.cpp:127] Top shape: 50 288 14 14 (2822400)
I0817 17:43:42.233500 24758 layer_factory.hpp:74] Creating layer inception_4d/5x5_reduce
I0817 17:43:42.233512 24758 net.cpp:90] Creating Layer inception_4d/5x5_reduce
I0817 17:43:42.233522 24758 net.cpp:410] inception_4d/5x5_reduce <- inception_4c/output_inception_4c/output_0_split_2
I0817 17:43:42.233538 24758 net.cpp:368] inception_4d/5x5_reduce -> inception_4d/5x5_reduce
I0817 17:43:42.233554 24758 net.cpp:120] Setting up inception_4d/5x5_reduce
I0817 17:43:42.233736 24758 net.cpp:127] Top shape: 50 32 14 14 (313600)
I0817 17:43:42.233750 24758 layer_factory.hpp:74] Creating layer inception_4d/relu_5x5_reduce
I0817 17:43:42.233762 24758 net.cpp:90] Creating Layer inception_4d/relu_5x5_reduce
I0817 17:43:42.233772 24758 net.cpp:410] inception_4d/relu_5x5_reduce <- inception_4d/5x5_reduce
I0817 17:43:42.233784 24758 net.cpp:357] inception_4d/relu_5x5_reduce -> inception_4d/5x5_reduce (in-place)
I0817 17:43:42.233798 24758 net.cpp:120] Setting up inception_4d/relu_5x5_reduce
I0817 17:43:42.233809 24758 net.cpp:127] Top shape: 50 32 14 14 (313600)
I0817 17:43:42.233817 24758 layer_factory.hpp:74] Creating layer inception_4d/5x5
I0817 17:43:42.233830 24758 net.cpp:90] Creating Layer inception_4d/5x5
I0817 17:43:42.233850 24758 net.cpp:410] inception_4d/5x5 <- inception_4d/5x5_reduce
I0817 17:43:42.233870 24758 net.cpp:368] inception_4d/5x5 -> inception_4d/5x5
I0817 17:43:42.233886 24758 net.cpp:120] Setting up inception_4d/5x5
I0817 17:43:42.234436 24758 net.cpp:127] Top shape: 50 64 14 14 (627200)
I0817 17:43:42.234455 24758 layer_factory.hpp:74] Creating layer inception_4d/relu_5x5
I0817 17:43:42.234467 24758 net.cpp:90] Creating Layer inception_4d/relu_5x5
I0817 17:43:42.234477 24758 net.cpp:410] inception_4d/relu_5x5 <- inception_4d/5x5
I0817 17:43:42.234488 24758 net.cpp:357] inception_4d/relu_5x5 -> inception_4d/5x5 (in-place)
I0817 17:43:42.234499 24758 net.cpp:120] Setting up inception_4d/relu_5x5
I0817 17:43:42.234511 24758 net.cpp:127] Top shape: 50 64 14 14 (627200)
I0817 17:43:42.234520 24758 layer_factory.hpp:74] Creating layer inception_4d/pool
I0817 17:43:42.234534 24758 net.cpp:90] Creating Layer inception_4d/pool
I0817 17:43:42.234544 24758 net.cpp:410] inception_4d/pool <- inception_4c/output_inception_4c/output_0_split_3
I0817 17:43:42.234556 24758 net.cpp:368] inception_4d/pool -> inception_4d/pool
I0817 17:43:42.234568 24758 net.cpp:120] Setting up inception_4d/pool
I0817 17:43:42.234583 24758 net.cpp:127] Top shape: 50 512 14 14 (5017600)
I0817 17:43:42.234596 24758 layer_factory.hpp:74] Creating layer inception_4d/pool_proj
I0817 17:43:42.234611 24758 net.cpp:90] Creating Layer inception_4d/pool_proj
I0817 17:43:42.234622 24758 net.cpp:410] inception_4d/pool_proj <- inception_4d/pool
I0817 17:43:42.234635 24758 net.cpp:368] inception_4d/pool_proj -> inception_4d/pool_proj
I0817 17:43:42.234648 24758 net.cpp:120] Setting up inception_4d/pool_proj
I0817 17:43:42.235021 24758 net.cpp:127] Top shape: 50 64 14 14 (627200)
I0817 17:43:42.235038 24758 layer_factory.hpp:74] Creating layer inception_4d/relu_pool_proj
I0817 17:43:42.235049 24758 net.cpp:90] Creating Layer inception_4d/relu_pool_proj
I0817 17:43:42.235059 24758 net.cpp:410] inception_4d/relu_pool_proj <- inception_4d/pool_proj
I0817 17:43:42.235074 24758 net.cpp:357] inception_4d/relu_pool_proj -> inception_4d/pool_proj (in-place)
I0817 17:43:42.235085 24758 net.cpp:120] Setting up inception_4d/relu_pool_proj
I0817 17:43:42.235097 24758 net.cpp:127] Top shape: 50 64 14 14 (627200)
I0817 17:43:42.235107 24758 layer_factory.hpp:74] Creating layer inception_4d/output
I0817 17:43:42.235118 24758 net.cpp:90] Creating Layer inception_4d/output
I0817 17:43:42.235127 24758 net.cpp:410] inception_4d/output <- inception_4d/1x1
I0817 17:43:42.235137 24758 net.cpp:410] inception_4d/output <- inception_4d/3x3
I0817 17:43:42.235147 24758 net.cpp:410] inception_4d/output <- inception_4d/5x5
I0817 17:43:42.235157 24758 net.cpp:410] inception_4d/output <- inception_4d/pool_proj
I0817 17:43:42.235172 24758 net.cpp:368] inception_4d/output -> inception_4d/output
I0817 17:43:42.235185 24758 net.cpp:120] Setting up inception_4d/output
I0817 17:43:42.235201 24758 net.cpp:127] Top shape: 50 528 14 14 (5174400)
I0817 17:43:42.235213 24758 layer_factory.hpp:74] Creating layer inception_4d/output_inception_4d/output_0_split
I0817 17:43:42.235224 24758 net.cpp:90] Creating Layer inception_4d/output_inception_4d/output_0_split
I0817 17:43:42.235234 24758 net.cpp:410] inception_4d/output_inception_4d/output_0_split <- inception_4d/output
I0817 17:43:42.235245 24758 net.cpp:368] inception_4d/output_inception_4d/output_0_split -> inception_4d/output_inception_4d/output_0_split_0
I0817 17:43:42.235260 24758 net.cpp:368] inception_4d/output_inception_4d/output_0_split -> inception_4d/output_inception_4d/output_0_split_1
I0817 17:43:42.235275 24758 net.cpp:368] inception_4d/output_inception_4d/output_0_split -> inception_4d/output_inception_4d/output_0_split_2
I0817 17:43:42.235292 24758 net.cpp:368] inception_4d/output_inception_4d/output_0_split -> inception_4d/output_inception_4d/output_0_split_3
I0817 17:43:42.235308 24758 net.cpp:368] inception_4d/output_inception_4d/output_0_split -> inception_4d/output_inception_4d/output_0_split_4
I0817 17:43:42.235333 24758 net.cpp:120] Setting up inception_4d/output_inception_4d/output_0_split
I0817 17:43:42.235349 24758 net.cpp:127] Top shape: 50 528 14 14 (5174400)
I0817 17:43:42.235363 24758 net.cpp:127] Top shape: 50 528 14 14 (5174400)
I0817 17:43:42.235374 24758 net.cpp:127] Top shape: 50 528 14 14 (5174400)
I0817 17:43:42.235385 24758 net.cpp:127] Top shape: 50 528 14 14 (5174400)
I0817 17:43:42.235396 24758 net.cpp:127] Top shape: 50 528 14 14 (5174400)
I0817 17:43:42.235404 24758 layer_factory.hpp:74] Creating layer loss2/ave_pool
I0817 17:43:42.235419 24758 net.cpp:90] Creating Layer loss2/ave_pool
I0817 17:43:42.235430 24758 net.cpp:410] loss2/ave_pool <- inception_4d/output_inception_4d/output_0_split_0
I0817 17:43:42.235443 24758 net.cpp:368] loss2/ave_pool -> loss2/ave_pool
I0817 17:43:42.235456 24758 net.cpp:120] Setting up loss2/ave_pool
I0817 17:43:42.235471 24758 net.cpp:127] Top shape: 50 528 4 4 (422400)
I0817 17:43:42.235481 24758 layer_factory.hpp:74] Creating layer loss2/conv
I0817 17:43:42.235494 24758 net.cpp:90] Creating Layer loss2/conv
I0817 17:43:42.235503 24758 net.cpp:410] loss2/conv <- loss2/ave_pool
I0817 17:43:42.235519 24758 net.cpp:368] loss2/conv -> loss2/conv
I0817 17:43:42.235534 24758 net.cpp:120] Setting up loss2/conv
I0817 17:43:42.236220 24758 net.cpp:127] Top shape: 50 128 4 4 (102400)
I0817 17:43:42.236237 24758 layer_factory.hpp:74] Creating layer loss2/relu_conv
I0817 17:43:42.236248 24758 net.cpp:90] Creating Layer loss2/relu_conv
I0817 17:43:42.236258 24758 net.cpp:410] loss2/relu_conv <- loss2/conv
I0817 17:43:42.236268 24758 net.cpp:357] loss2/relu_conv -> loss2/conv (in-place)
I0817 17:43:42.236280 24758 net.cpp:120] Setting up loss2/relu_conv
I0817 17:43:42.236294 24758 net.cpp:127] Top shape: 50 128 4 4 (102400)
I0817 17:43:42.236301 24758 layer_factory.hpp:74] Creating layer loss2/fc
I0817 17:43:42.236317 24758 net.cpp:90] Creating Layer loss2/fc
I0817 17:43:42.236327 24758 net.cpp:410] loss2/fc <- loss2/conv
I0817 17:43:42.236343 24758 net.cpp:368] loss2/fc -> loss2/fc
I0817 17:43:42.236361 24758 net.cpp:120] Setting up loss2/fc
I0817 17:43:42.256867 24758 net.cpp:127] Top shape: 50 1024 (51200)
I0817 17:43:42.256886 24758 layer_factory.hpp:74] Creating layer loss2/relu_fc
I0817 17:43:42.256903 24758 net.cpp:90] Creating Layer loss2/relu_fc
I0817 17:43:42.256914 24758 net.cpp:410] loss2/relu_fc <- loss2/fc
I0817 17:43:42.256925 24758 net.cpp:357] loss2/relu_fc -> loss2/fc (in-place)
I0817 17:43:42.256938 24758 net.cpp:120] Setting up loss2/relu_fc
I0817 17:43:42.256950 24758 net.cpp:127] Top shape: 50 1024 (51200)
I0817 17:43:42.256959 24758 layer_factory.hpp:74] Creating layer loss2/drop_fc
I0817 17:43:42.256975 24758 net.cpp:90] Creating Layer loss2/drop_fc
I0817 17:43:42.256988 24758 net.cpp:410] loss2/drop_fc <- loss2/fc
I0817 17:43:42.257000 24758 net.cpp:357] loss2/drop_fc -> loss2/fc (in-place)
I0817 17:43:42.257012 24758 net.cpp:120] Setting up loss2/drop_fc
I0817 17:43:42.257026 24758 net.cpp:127] Top shape: 50 1024 (51200)
I0817 17:43:42.257035 24758 layer_factory.hpp:74] Creating layer ft_loss2/classifier
I0817 17:43:42.257051 24758 net.cpp:90] Creating Layer ft_loss2/classifier
I0817 17:43:42.257062 24758 net.cpp:410] ft_loss2/classifier <- loss2/fc
I0817 17:43:42.257076 24758 net.cpp:368] ft_loss2/classifier -> ft_loss2/classifier
I0817 17:43:42.257089 24758 net.cpp:120] Setting up ft_loss2/classifier
I0817 17:43:42.257138 24758 net.cpp:127] Top shape: 50 2 (100)
I0817 17:43:42.257153 24758 layer_factory.hpp:74] Creating layer ft_loss2/classifier_ft_loss2/classifier_0_split
I0817 17:43:42.257166 24758 net.cpp:90] Creating Layer ft_loss2/classifier_ft_loss2/classifier_0_split
I0817 17:43:42.257176 24758 net.cpp:410] ft_loss2/classifier_ft_loss2/classifier_0_split <- ft_loss2/classifier
I0817 17:43:42.257187 24758 net.cpp:368] ft_loss2/classifier_ft_loss2/classifier_0_split -> ft_loss2/classifier_ft_loss2/classifier_0_split_0
I0817 17:43:42.257201 24758 net.cpp:368] ft_loss2/classifier_ft_loss2/classifier_0_split -> ft_loss2/classifier_ft_loss2/classifier_0_split_1
I0817 17:43:42.257231 24758 net.cpp:120] Setting up ft_loss2/classifier_ft_loss2/classifier_0_split
I0817 17:43:42.257246 24758 net.cpp:127] Top shape: 50 2 (100)
I0817 17:43:42.257257 24758 net.cpp:127] Top shape: 50 2 (100)
I0817 17:43:42.257266 24758 layer_factory.hpp:74] Creating layer loss2/loss
I0817 17:43:42.257277 24758 net.cpp:90] Creating Layer loss2/loss
I0817 17:43:42.257287 24758 net.cpp:410] loss2/loss <- ft_loss2/classifier_ft_loss2/classifier_0_split_0
I0817 17:43:42.257297 24758 net.cpp:410] loss2/loss <- label_data_1_split_2
I0817 17:43:42.257308 24758 net.cpp:368] loss2/loss -> loss2/loss1
I0817 17:43:42.257321 24758 net.cpp:120] Setting up loss2/loss
…
I0817 17:43:42.257422 24758 net.cpp:368] loss2/top-1 -> loss2/top-1
I0817 17:43:42.257434 24758 net.cpp:120] Setting up loss2/top-1
I0817 17:43:42.257447 24758 net.cpp:127] Top shape: (1)
I0817 17:43:42.257457 24758 layer_factory.hpp:74] Creating layer inception_4e/1x1
I0817 17:43:42.257473 24758 net.cpp:90] Creating Layer inception_4e/1x1
I0817 17:43:42.257485 24758 net.cpp:410] inception_4e/1x1 <- inception_4d/output_inception_4d/output_0_split_1
I0817 17:43:42.257499 24758 net.cpp:368] inception_4e/1x1 -> inception_4e/1x1
I0817 17:43:42.257513 24758 net.cpp:120] Setting up inception_4e/1x1
I0817 17:43:42.258842 24758 net.cpp:127] Top shape: 50 256 14 14 (2508800)
I0817 17:43:42.258862 24758 layer_factory.hpp:74] Creating layer inception_4e/relu_1x1
I0817 17:43:42.258875 24758 net.cpp:90] Creating Layer inception_4e/relu_1x1
I0817 17:43:42.258884 24758 net.cpp:410] inception_4e/relu_1x1 <- inception_4e/1x1
I0817 17:43:42.258900 24758 net.cpp:357] inception_4e/relu_1x1 -> inception_4e/1x1 (in-place)
I0817 17:43:42.258915 24758 net.cpp:120] Setting up inception_4e/relu_1x1
I0817 17:43:42.258927 24758 net.cpp:127] Top shape: 50 256 14 14 (2508800)
I0817 17:43:42.258936 24758 layer_factory.hpp:74] Creating layer inception_4e/3x3_reduce
I0817 17:43:42.258951 24758 net.cpp:90] Creating Layer inception_4e/3x3_reduce
I0817 17:43:42.258963 24758 net.cpp:410] inception_4e/3x3_reduce <- inception_4d/output_inception_4d/output_0_split_2
I0817 17:43:42.258977 24758 net.cpp:368] inception_4e/3x3_reduce -> inception_4e/3x3_reduce
I0817 17:43:42.258991 24758 net.cpp:120] Setting up inception_4e/3x3_reduce
I0817 17:43:42.259836 24758 net.cpp:127] Top shape: 50 160 14 14 (1568000)
I0817 17:43:42.259852 24758 layer_factory.hpp:74] Creating layer inception_4e/relu_3x3_reduce
I0817 17:43:42.259867 24758 net.cpp:90] Creating Layer inception_4e/relu_3x3_reduce
I0817 17:43:42.259878 24758 net.cpp:410] inception_4e/relu_3x3_reduce <- inception_4e/3x3_reduce
I0817 17:43:42.259889 24758 net.cpp:357] inception_4e/relu_3x3_reduce -> inception_4e/3x3_reduce (in-place)
I0817 17:43:42.259917 24758 net.cpp:120] Setting up inception_4e/relu_3x3_reduce
I0817 17:43:42.259929 24758 net.cpp:127] Top shape: 50 160 14 14 (1568000)
I0817 17:43:42.259938 24758 layer_factory.hpp:74] Creating layer inception_4e/3x3
I0817 17:43:42.259969 24758 net.cpp:90] Creating Layer inception_4e/3x3
I0817 17:43:42.259979 24758 net.cpp:410] inception_4e/3x3 <- inception_4e/3x3_reduce
I0817 17:43:42.260005 24758 net.cpp:368] inception_4e/3x3 -> inception_4e/3x3
I0817 17:43:42.260020 24758 net.cpp:120] Setting up inception_4e/3x3
I0817 17:43:42.264889 24758 net.cpp:127] Top shape: 50 320 14 14 (3136000)
I0817 17:43:42.264910 24758 layer_factory.hpp:74] Creating layer inception_4e/relu_3x3
I0817 17:43:42.264926 24758 net.cpp:90] Creating Layer inception_4e/relu_3x3
I0817 17:43:42.264946 24758 net.cpp:410] inception_4e/relu_3x3 <- inception_4e/3x3
I0817 17:43:42.264958 24758 net.cpp:357] inception_4e/relu_3x3 -> inception_4e/3x3 (in-place)
I0817 17:43:42.264971 24758 net.cpp:120] Setting up inception_4e/relu_3x3
I0817 17:43:42.264983 24758 net.cpp:127] Top shape: 50 320 14 14 (3136000)
I0817 17:43:42.264992 24758 layer_factory.hpp:74] Creating layer inception_4e/5x5_reduce
I0817 17:43:42.265004 24758 net.cpp:90] Creating Layer inception_4e/5x5_reduce
I0817 17:43:42.265013 24758 net.cpp:410] inception_4e/5x5_reduce <- inception_4d/output_inception_4d/output_0_split_3
I0817 17:43:42.265029 24758 net.cpp:368] inception_4e/5x5_reduce -> inception_4e/5x5_reduce
I0817 17:43:42.265045 24758 net.cpp:120] Setting up inception_4e/5x5_reduce
I0817 17:43:42.265231 24758 net.cpp:127] Top shape: 50 32 14 14 (313600)
I0817 17:43:42.265249 24758 layer_factory.hpp:74] Creating layer inception_4e/relu_5x5_reduce
I0817 17:43:42.265261 24758 net.cpp:90] Creating Layer inception_4e/relu_5x5_reduce
I0817 17:43:42.265270 24758 net.cpp:410] inception_4e/relu_5x5_reduce <- inception_4e/5x5_reduce
I0817 17:43:42.265285 24758 net.cpp:357] inception_4e/relu_5x5_reduce -> inception_4e/5x5_reduce (in-place)
I0817 17:43:42.265296 24758 net.cpp:120] Setting up inception_4e/relu_5x5_reduce
I0817 17:43:42.265308 24758 net.cpp:127] Top shape: 50 32 14 14 (313600)
I0817 17:43:42.265318 24758 layer_factory.hpp:74] Creating layer inception_4e/5x5
I0817 17:43:42.265331 24758 net.cpp:90] Creating Layer inception_4e/5x5
I0817 17:43:42.265339 24758 net.cpp:410] inception_4e/5x5 <- inception_4e/5x5_reduce
I0817 17:43:42.265352 24758 net.cpp:368] inception_4e/5x5 -> inception_4e/5x5
I0817 17:43:42.265365 24758 net.cpp:120] Setting up inception_4e/5x5
I0817 17:43:42.266386 24758 net.cpp:127] Top shape: 50 128 14 14 (1254400)
I0817 17:43:42.266402 24758 layer_factory.hpp:74] Creating layer inception_4e/relu_5x5
I0817 17:43:42.266414 24758 net.cpp:90] Creating Layer inception_4e/relu_5x5
I0817 17:43:42.266424 24758 net.cpp:410] inception_4e/relu_5x5 <- inception_4e/5x5
I0817 17:43:42.266435 24758 net.cpp:357] inception_4e/relu_5x5 -> inception_4e/5x5 (in-place)
I0817 17:43:42.266448 24758 net.cpp:120] Setting up inception_4e/relu_5x5
I0817 17:43:42.266459 24758 net.cpp:127] Top shape: 50 128 14 14 (1254400)
I0817 17:43:42.266469 24758 layer_factory.hpp:74] Creating layer inception_4e/pool
I0817 17:43:42.266482 24758 net.cpp:90] Creating Layer inception_4e/pool
I0817 17:43:42.266492 24758 net.cpp:410] inception_4e/pool <- inception_4d/output_inception_4d/output_0_split_4
I0817 17:43:42.266505 24758 net.cpp:368] inception_4e/pool -> inception_4e/pool
I0817 17:43:42.266516 24758 net.cpp:120] Setting up inception_4e/pool
I0817 17:43:42.266532 24758 net.cpp:127] Top shape: 50 528 14 14 (5174400)
I0817 17:43:42.266543 24758 layer_factory.hpp:74] Creating layer inception_4e/pool_proj
I0817 17:43:42.266561 24758 net.cpp:90] Creating Layer inception_4e/pool_proj
I0817 17:43:42.266571 24758 net.cpp:410] inception_4e/pool_proj <- inception_4e/pool
I0817 17:43:42.266585 24758 net.cpp:368] inception_4e/pool_proj -> inception_4e/pool_proj
I0817 17:43:42.266599 24758 net.cpp:120] Setting up inception_4e/pool_proj
I0817 17:43:42.267287 24758 net.cpp:127] Top shape: 50 128 14 14 (1254400)
I0817 17:43:42.267303 24758 layer_factory.hpp:74] Creating layer inception_4e/relu_pool_proj
I0817 17:43:42.267315 24758 net.cpp:90] Creating Layer inception_4e/relu_pool_proj
I0817 17:43:42.267325 24758 net.cpp:410] inception_4e/relu_pool_proj <- inception_4e/pool_proj
I0817 17:43:42.267336 24758 net.cpp:357] inception_4e/relu_pool_proj -> inception_4e/pool_proj (in-place)
I0817 17:43:42.267349 24758 net.cpp:120] Setting up inception_4e/relu_pool_proj
I0817 17:43:42.267360 24758 net.cpp:127] Top shape: 50 128 14 14 (1254400)
I0817 17:43:42.267369 24758 layer_factory.hpp:74] Creating layer inception_4e/output
I0817 17:43:42.267380 24758 net.cpp:90] Creating Layer inception_4e/output
I0817 17:43:42.267390 24758 net.cpp:410] inception_4e/output <- inception_4e/1x1
I0817 17:43:42.267410 24758 net.cpp:410] inception_4e/output <- inception_4e/3x3
I0817 17:43:42.267421 24758 net.cpp:410] inception_4e/output <- inception_4e/5x5
I0817 17:43:42.267431 24758 net.cpp:410] inception_4e/output <- inception_4e/pool_proj
I0817 17:43:42.267441 24758 net.cpp:368] inception_4e/output -> inception_4e/output
I0817 17:43:42.267453 24758 net.cpp:120] Setting up inception_4e/output
I0817 17:43:42.267468 24758 net.cpp:127] Top shape: 50 832 14 14 (8153600)
I0817 17:43:42.267480 24758 layer_factory.hpp:74] Creating layer pool4/3x3_s2
I0817 17:43:42.267495 24758 net.cpp:90] Creating Layer pool4/3x3_s2
I0817 17:43:42.267508 24758 net.cpp:410] pool4/3x3_s2 <- inception_4e/output
I0817 17:43:42.267520 24758 net.cpp:368] pool4/3x3_s2 -> pool4/3x3_s2
I0817 17:43:42.267534 24758 net.cpp:120] Setting up pool4/3x3_s2
I0817 17:43:42.267552 24758 net.cpp:127] Top shape: 50 832 7 7 (2038400)
I0817 17:43:42.267565 24758 layer_factory.hpp:74] Creating layer pool4/3x3_s2_pool4/3x3_s2_0_split
I0817 17:43:42.267575 24758 net.cpp:90] Creating Layer pool4/3x3_s2_pool4/3x3_s2_0_split
I0817 17:43:42.267585 24758 net.cpp:410] pool4/3x3_s2_pool4/3x3_s2_0_split <- pool4/3x3_s2
I0817 17:43:42.267596 24758 net.cpp:368] pool4/3x3_s2_pool4/3x3_s2_0_split -> pool4/3x3_s2_pool4/3x3_s2_0_split_0
I0817 17:43:42.267611 24758 net.cpp:368] pool4/3x3_s2_pool4/3x3_s2_0_split -> pool4/3x3_s2_pool4/3x3_s2_0_split_1
I0817 17:43:42.267624 24758 net.cpp:368] pool4/3x3_s2_pool4/3x3_s2_0_split -> pool4/3x3_s2_pool4/3x3_s2_0_split_2
I0817 17:43:42.267642 24758 net.cpp:368] pool4/3x3_s2_pool4/3x3_s2_0_split -> pool4/3x3_s2_pool4/3x3_s2_0_split_3
I0817 17:43:42.267654 24758 net.cpp:120] Setting up pool4/3x3_s2_pool4/3x3_s2_0_split
I0817 17:43:42.267673 24758 net.cpp:127] Top shape: 50 832 7 7 (2038400)
I0817 17:43:42.267684 24758 net.cpp:127] Top shape: 50 832 7 7 (2038400)
I0817 17:43:42.267694 24758 net.cpp:127] Top shape: 50 832 7 7 (2038400)
I0817 17:43:42.267705 24758 net.cpp:127] Top shape: 50 832 7 7 (2038400)
I0817 17:43:42.267714 24758 layer_factory.hpp:74] Creating layer inception_5a/1x1
I0817 17:43:42.267726 24758 net.cpp:90] Creating Layer inception_5a/1x1
I0817 17:43:42.267735 24758 net.cpp:410] inception_5a/1x1 <- pool4/3x3_s2_pool4/3x3_s2_0_split_0
I0817 17:43:42.267751 24758 net.cpp:368] inception_5a/1x1 -> inception_5a/1x1
I0817 17:43:42.267767 24758 net.cpp:120] Setting up inception_5a/1x1
I0817 17:43:42.269848 24758 net.cpp:127] Top shape: 50 256 7 7 (627200)
I0817 17:43:42.269865 24758 layer_factory.hpp:74] Creating layer inception_5a/relu_1x1
I0817 17:43:42.269876 24758 net.cpp:90] Creating Layer inception_5a/relu_1x1
I0817 17:43:42.269887 24758 net.cpp:410] inception_5a/relu_1x1 <- inception_5a/1x1
I0817 17:43:42.269915 24758 net.cpp:357] inception_5a/relu_1x1 -> inception_5a/1x1 (in-place)
I0817 17:43:42.269932 24758 net.cpp:120] Setting up inception_5a/relu_1x1
I0817 17:43:42.269945 24758 net.cpp:127] Top shape: 50 256 7 7 (627200)
I0817 17:43:42.269953 24758 layer_factory.hpp:74] Creating layer inception_5a/3x3_reduce
I0817 17:43:42.269966 24758 net.cpp:90] Creating Layer inception_5a/3x3_reduce
I0817 17:43:42.269975 24758 net.cpp:410] inception_5a/3x3_reduce <- pool4/3x3_s2_pool4/3x3_s2_0_split_1
I0817 17:43:42.269991 24758 net.cpp:368] inception_5a/3x3_reduce -> inception_5a/3x3_reduce
I0817 17:43:42.270009 24758 net.cpp:120] Setting up inception_5a/3x3_reduce
I0817 17:43:42.271325 24758 net.cpp:127] Top shape: 50 160 7 7 (392000)
I0817 17:43:42.271342 24758 layer_factory.hpp:74] Creating layer inception_5a/relu_3x3_reduce
I0817 17:43:42.271353 24758 net.cpp:90] Creating Layer inception_5a/relu_3x3_reduce
I0817 17:43:42.271363 24758 net.cpp:410] inception_5a/relu_3x3_reduce <- inception_5a/3x3_reduce
I0817 17:43:42.271373 24758 net.cpp:357] inception_5a/relu_3x3_reduce -> inception_5a/3x3_reduce (in-place)
I0817 17:43:42.271386 24758 net.cpp:120] Setting up inception_5a/relu_3x3_reduce
I0817 17:43:42.271397 24758 net.cpp:127] Top shape: 50 160 7 7 (392000)
I0817 17:43:42.271406 24758 layer_factory.hpp:74] Creating layer inception_5a/3x3
I0817 17:43:42.271431 24758 net.cpp:90] Creating Layer inception_5a/3x3
I0817 17:43:42.271443 24758 net.cpp:410] inception_5a/3x3 <- inception_5a/3x3_reduce
I0817 17:43:42.271457 24758 net.cpp:368] inception_5a/3x3 -> inception_5a/3x3
I0817 17:43:42.271471 24758 net.cpp:120] Setting up inception_5a/3x3
I0817 17:43:42.276249 24758 net.cpp:127] Top shape: 50 320 7 7 (784000)
I0817 17:43:42.276267 24758 layer_factory.hpp:74] Creating layer inception_5a/relu_3x3
I0817 17:43:42.276280 24758 net.cpp:90] Creating Layer inception_5a/relu_3x3
I0817 17:43:42.276291 24758 net.cpp:410] inception_5a/relu_3x3 <- inception_5a/3x3
I0817 17:43:42.276304 24758 net.cpp:357] inception_5a/relu_3x3 -> inception_5a/3x3 (in-place)
I0817 17:43:42.276315 24758 net.cpp:120] Setting up inception_5a/relu_3x3
I0817 17:43:42.276326 24758 net.cpp:127] Top shape: 50 320 7 7 (784000)
I0817 17:43:42.276335 24758 layer_factory.hpp:74] Creating layer inception_5a/5x5_reduce
I0817 17:43:42.276350 24758 net.cpp:90] Creating Layer inception_5a/5x5_reduce
I0817 17:43:42.276360 24758 net.cpp:410] inception_5a/5x5_reduce <- pool4/3x3_s2_pool4/3x3_s2_0_split_2
I0817 17:43:42.276372 24758 net.cpp:368] inception_5a/5x5_reduce -> inception_5a/5x5_reduce
I0817 17:43:42.276386 24758 net.cpp:120] Setting up inception_5a/5x5_reduce
I0817 17:43:42.276670 24758 net.cpp:127] Top shape: 50 32 7 7 (78400)
I0817 17:43:42.276689 24758 layer_factory.hpp:74] Creating layer inception_5a/relu_5x5_reduce
I0817 17:43:42.276700 24758 net.cpp:90] Creating Layer inception_5a/relu_5x5_reduce
I0817 17:43:42.276710 24758 net.cpp:410] inception_5a/relu_5x5_reduce <- inception_5a/5x5_reduce
I0817 17:43:42.276721 24758 net.cpp:357] inception_5a/relu_5x5_reduce -> inception_5a/5x5_reduce (in-place)
I0817 17:43:42.276736 24758 net.cpp:120] Setting up inception_5a/relu_5x5_reduce
I0817 17:43:42.276747 24758 net.cpp:127] Top shape: 50 32 7 7 (78400)
I0817 17:43:42.276758 24758 layer_factory.hpp:74] Creating layer inception_5a/5x5
I0817 17:43:42.276772 24758 net.cpp:90] Creating Layer inception_5a/5x5
I0817 17:43:42.276780 24758 net.cpp:410] inception_5a/5x5 <- inception_5a/5x5_reduce
I0817 17:43:42.276793 24758 net.cpp:368] inception_5a/5x5 -> inception_5a/5x5
I0817 17:43:42.276805 24758 net.cpp:120] Setting up inception_5a/5x5
I0817 17:43:42.277825 24758 net.cpp:127] Top shape: 50 128 7 7 (313600)
I0817 17:43:42.277842 24758 layer_factory.hpp:74] Creating layer inception_5a/relu_5x5
I0817 17:43:42.277855 24758 net.cpp:90] Creating Layer inception_5a/relu_5x5
I0817 17:43:42.277865 24758 net.cpp:410] inception_5a/relu_5x5 <- inception_5a/5x5
I0817 17:43:42.277876 24758 net.cpp:357] inception_5a/relu_5x5 -> inception_5a/5x5 (in-place)
I0817 17:43:42.277889 24758 net.cpp:120] Setting up inception_5a/relu_5x5
I0817 17:43:42.277909 24758 net.cpp:127] Top shape: 50 128 7 7 (313600)
I0817 17:43:42.277917 24758 layer_factory.hpp:74] Creating layer inception_5a/pool
I0817 17:43:42.277930 24758 net.cpp:90] Creating Layer inception_5a/pool
I0817 17:43:42.277940 24758 net.cpp:410] inception_5a/pool <- pool4/3x3_s2_pool4/3x3_s2_0_split_3
I0817 17:43:42.277954 24758 net.cpp:368] inception_5a/pool -> inception_5a/pool
I0817 17:43:42.277987 24758 net.cpp:120] Setting up inception_5a/pool
I0817 17:43:42.278008 24758 net.cpp:127] Top shape: 50 832 7 7 (2038400)
I0817 17:43:42.278020 24758 layer_factory.hpp:74] Creating layer inception_5a/pool_proj
I0817 17:43:42.278040 24758 net.cpp:90] Creating Layer inception_5a/pool_proj
I0817 17:43:42.278051 24758 net.cpp:410] inception_5a/pool_proj <- inception_5a/pool
I0817 17:43:42.278077 24758 net.cpp:368] inception_5a/pool_proj -> inception_5a/pool_proj
I0817 17:43:42.278092 24758 net.cpp:120] Setting up inception_5a/pool_proj
I0817 17:43:42.279235 24758 net.cpp:127] Top shape: 50 128 7 7 (313600)
I0817 17:43:42.279253 24758 layer_factory.hpp:74] Creating layer inception_5a/relu_pool_proj
I0817 17:43:42.279269 24758 net.cpp:90] Creating Layer inception_5a/relu_pool_proj
I0817 17:43:42.279280 24758 net.cpp:410] inception_5a/relu_pool_proj <- inception_5a/pool_proj
I0817 17:43:42.279301 24758 net.cpp:357] inception_5a/relu_pool_proj -> inception_5a/pool_proj (in-place)
I0817 17:43:42.279315 24758 net.cpp:120] Setting up inception_5a/relu_pool_proj
I0817 17:43:42.279327 24758 net.cpp:127] Top shape: 50 128 7 7 (313600)
I0817 17:43:42.279336 24758 layer_factory.hpp:74] Creating layer inception_5a/output
I0817 17:43:42.279348 24758 net.cpp:90] Creating Layer inception_5a/output
I0817 17:43:42.279357 24758 net.cpp:410] inception_5a/output <- inception_5a/1x1
I0817 17:43:42.279367 24758 net.cpp:410] inception_5a/output <- inception_5a/3x3
I0817 17:43:42.279377 24758 net.cpp:410] inception_5a/output <- inception_5a/5x5
I0817 17:43:42.279387 24758 net.cpp:410] inception_5a/output <- inception_5a/pool_proj
I0817 17:43:42.279400 24758 net.cpp:368] inception_5a/output -> inception_5a/output
I0817 17:43:42.279414 24758 net.cpp:120] Setting up inception_5a/output
I0817 17:43:42.279428 24758 net.cpp:127] Top shape: 50 832 7 7 (2038400)
I0817 17:43:42.279439 24758 layer_factory.hpp:74] Creating layer inception_5a/output_inception_5a/output_0_split
I0817 17:43:42.279453 24758 net.cpp:90] Creating Layer inception_5a/output_inception_5a/output_0_split
I0817 17:43:42.279461 24758 net.cpp:410] inception_5a/output_inception_5a/output_0_split <- inception_5a/output
I0817 17:43:42.279472 24758 net.cpp:368] inception_5a/output_inception_5a/output_0_split -> inception_5a/output_inception_5a/output_0_split_0
I0817 17:43:42.279486 24758 net.cpp:368] inception_5a/output_inception_5a/output_0_split -> inception_5a/output_inception_5a/output_0_split_1
I0817 17:43:42.279505 24758 net.cpp:368] inception_5a/output_inception_5a/output_0_split -> inception_5a/output_inception_5a/output_0_split_2
I0817 17:43:42.279522 24758 net.cpp:368] inception_5a/output_inception_5a/output_0_split -> inception_5a/output_inception_5a/output_0_split_3
I0817 17:43:42.279537 24758 net.cpp:120] Setting up inception_5a/output_inception_5a/output_0_split
I0817 17:43:42.279552 24758 net.cpp:127] Top shape: 50 832 7 7 (2038400)
I0817 17:43:42.279566 24758 net.cpp:127] Top shape: 50 832 7 7 (2038400)
I0817 17:43:42.279577 24758 net.cpp:127] Top shape: 50 832 7 7 (2038400)
I0817 17:43:42.279587 24758 net.cpp:127] Top shape: 50 832 7 7 (2038400)
I0817 17:43:42.279597 24758 layer_factory.hpp:74] Creating layer inception_5b/1x1
I0817 17:43:42.279611 24758 net.cpp:90] Creating Layer inception_5b/1x1
I0817 17:43:42.279623 24758 net.cpp:410] inception_5b/1x1 <- inception_5a/output_inception_5a/output_0_split_0
I0817 17:43:42.279636 24758 net.cpp:368] inception_5b/1x1 -> inception_5b/1x1
I0817 17:43:42.279651 24758 net.cpp:120] Setting up inception_5b/1x1
I0817 17:43:42.282771 24758 net.cpp:127] Top shape: 50 384 7 7 (940800)
I0817 17:43:42.282788 24758 layer_factory.hpp:74] Creating layer inception_5b/relu_1x1
I0817 17:43:42.282800 24758 net.cpp:90] Creating Layer inception_5b/relu_1x1
I0817 17:43:42.282810 24758 net.cpp:410] inception_5b/relu_1x1 <- inception_5b/1x1
I0817 17:43:42.282821 24758 net.cpp:357] inception_5b/relu_1x1 -> inception_5b/1x1 (in-place)
I0817 17:43:42.282835 24758 net.cpp:120] Setting up inception_5b/relu_1x1
I0817 17:43:42.282846 24758 net.cpp:127] Top shape: 50 384 7 7 (940800)
I0817 17:43:42.282855 24758 layer_factory.hpp:74] Creating layer inception_5b/3x3_reduce
I0817 17:43:42.282867 24758 net.cpp:90] Creating Layer inception_5b/3x3_reduce
I0817 17:43:42.282876 24758 net.cpp:410] inception_5b/3x3_reduce <- inception_5a/output_inception_5a/output_0_split_1
I0817 17:43:42.282897 24758 net.cpp:368] inception_5b/3x3_reduce -> inception_5b/3x3_reduce
I0817 17:43:42.282914 24758 net.cpp:120] Setting up inception_5b/3x3_reduce
I0817 17:43:42.284481 24758 net.cpp:127] Top shape: 50 192 7 7 (470400)
I0817 17:43:42.284497 24758 layer_factory.hpp:74] Creating layer inception_5b/relu_3x3_reduce
I0817 17:43:42.284509 24758 net.cpp:90] Creating Layer inception_5b/relu_3x3_reduce
I0817 17:43:42.284519 24758 net.cpp:410] inception_5b/relu_3x3_reduce <- inception_5b/3x3_reduce
I0817 17:43:42.284533 24758 net.cpp:357] inception_5b/relu_3x3_reduce -> inception_5b/3x3_reduce (in-place)
I0817 17:43:42.284556 24758 net.cpp:120] Setting up inception_5b/relu_3x3_reduce
I0817 17:43:42.284570 24758 net.cpp:127] Top shape: 50 192 7 7 (470400)
I0817 17:43:42.284579 24758 layer_factory.hpp:74] Creating layer inception_5b/3x3
I0817 17:43:42.284592 24758 net.cpp:90] Creating Layer inception_5b/3x3
I0817 17:43:42.284601 24758 net.cpp:410] inception_5b/3x3 <- inception_5b/3x3_reduce
I0817 17:43:42.284617 24758 net.cpp:368] inception_5b/3x3 -> inception_5b/3x3
I0817 17:43:42.284633 24758 net.cpp:120] Setting up inception_5b/3x3
I0817 17:43:42.291528 24758 net.cpp:127] Top shape: 50 384 7 7 (940800)
I0817 17:43:42.291545 24758 layer_factory.hpp:74] Creating layer inception_5b/relu_3x3
I0817 17:43:42.291558 24758 net.cpp:90] Creating Layer inception_5b/relu_3x3
I0817 17:43:42.291568 24758 net.cpp:410] inception_5b/relu_3x3 <- inception_5b/3x3
I0817 17:43:42.291582 24758 net.cpp:357] inception_5b/relu_3x3 -> inception_5b/3x3 (in-place)
I0817 17:43:42.291595 24758 net.cpp:120] Setting up inception_5b/relu_3x3
I0817 17:43:42.291609 24758 net.cpp:127] Top shape: 50 384 7 7 (940800)
I0817 17:43:42.291618 24758 layer_factory.hpp:74] Creating layer inception_5b/5x5_reduce
I0817 17:43:42.291632 24758 net.cpp:90] Creating Layer inception_5b/5x5_reduce
I0817 17:43:42.291641 24758 net.cpp:410] inception_5b/5x5_reduce <- inception_5a/output_inception_5a/output_0_split_2
I0817 17:43:42.291658 24758 net.cpp:368] inception_5b/5x5_reduce -> inception_5b/5x5_reduce
I0817 17:43:42.291673 24758 net.cpp:120] Setting up inception_5b/5x5_reduce
I0817 17:43:42.292088 24758 net.cpp:127] Top shape: 50 48 7 7 (117600)
I0817 17:43:42.292104 24758 layer_factory.hpp:74] Creating layer inception_5b/relu_5x5_reduce
I0817 17:43:42.292116 24758 net.cpp:90] Creating Layer inception_5b/relu_5x5_reduce
I0817 17:43:42.292125 24758 net.cpp:410] inception_5b/relu_5x5_reduce <- inception_5b/5x5_reduce
I0817 17:43:42.292136 24758 net.cpp:357] inception_5b/relu_5x5_reduce -> inception_5b/5x5_reduce (in-place)
I0817 17:43:42.292150 24758 net.cpp:120] Setting up inception_5b/relu_5x5_reduce
I0817 17:43:42.292161 24758 net.cpp:127] Top shape: 50 48 7 7 (117600)
I0817 17:43:42.292171 24758 layer_factory.hpp:74] Creating layer inception_5b/5x5
I0817 17:43:42.292182 24758 net.cpp:90] Creating Layer inception_5b/5x5
I0817 17:43:42.292191 24758 net.cpp:410] inception_5b/5x5 <- inception_5b/5x5_reduce
I0817 17:43:42.292207 24758 net.cpp:368] inception_5b/5x5 -> inception_5b/5x5
I0817 17:43:42.292220 24758 net.cpp:120] Setting up inception_5b/5x5
I0817 17:43:42.293732 24758 net.cpp:127] Top shape: 50 128 7 7 (313600)
I0817 17:43:42.293750 24758 layer_factory.hpp:74] Creating layer inception_5b/relu_5x5
I0817 17:43:42.293761 24758 net.cpp:90] Creating Layer inception_5b/relu_5x5
I0817 17:43:42.293771 24758 net.cpp:410] inception_5b/relu_5x5 <- inception_5b/5x5
I0817 17:43:42.293782 24758 net.cpp:357] inception_5b/relu_5x5 -> inception_5b/5x5 (in-place)
I0817 17:43:42.293794 24758 net.cpp:120] Setting up inception_5b/relu_5x5
I0817 17:43:42.293807 24758 net.cpp:127] Top shape: 50 128 7 7 (313600)
I0817 17:43:42.293815 24758 layer_factory.hpp:74] Creating layer inception_5b/pool
I0817 17:43:42.293829 24758 net.cpp:90] Creating Layer inception_5b/pool
I0817 17:43:42.293839 24758 net.cpp:410] inception_5b/pool <- inception_5a/output_inception_5a/output_0_split_3
I0817 17:43:42.293853 24758 net.cpp:368] inception_5b/pool -> inception_5b/pool
I0817 17:43:42.293864 24758 net.cpp:120] Setting up inception_5b/pool
I0817 17:43:42.293885 24758 net.cpp:127] Top shape: 50 832 7 7 (2038400)
I0817 17:43:42.293900 24758 layer_factory.hpp:74] Creating layer inception_5b/pool_proj
I0817 17:43:42.293913 24758 net.cpp:90] Creating Layer inception_5b/pool_proj
I0817 17:43:42.293922 24758 net.cpp:410] inception_5b/pool_proj <- inception_5b/pool
I0817 17:43:42.293938 24758 net.cpp:368] inception_5b/pool_proj -> inception_5b/pool_proj
I0817 17:43:42.293954 24758 net.cpp:120] Setting up inception_5b/pool_proj
I0817 17:43:42.295014 24758 net.cpp:127] Top shape: 50 128 7 7 (313600)
I0817 17:43:42.295038 24758 layer_factory.hpp:74] Creating layer inception_5b/relu_pool_proj
I0817 17:43:42.295050 24758 net.cpp:90] Creating Layer inception_5b/relu_pool_proj
I0817 17:43:42.295060 24758 net.cpp:410] inception_5b/relu_pool_proj <- inception_5b/pool_proj
I0817 17:43:42.295071 24758 net.cpp:357] inception_5b/relu_pool_proj -> inception_5b/pool_proj (in-place)
I0817 17:43:42.295084 24758 net.cpp:120] Setting up inception_5b/relu_pool_proj
I0817 17:43:42.295096 24758 net.cpp:127] Top shape: 50 128 7 7 (313600)
I0817 17:43:42.295105 24758 layer_factory.hpp:74] Creating layer inception_5b/output
I0817 17:43:42.295116 24758 net.cpp:90] Creating Layer inception_5b/output
I0817 17:43:42.295125 24758 net.cpp:410] inception_5b/output <- inception_5b/1x1
I0817 17:43:42.295135 24758 net.cpp:410] inception_5b/output <- inception_5b/3x3
I0817 17:43:42.295145 24758 net.cpp:410] inception_5b/output <- inception_5b/5x5
I0817 17:43:42.295156 24758 net.cpp:410] inception_5b/output <- inception_5b/pool_proj
I0817 17:43:42.295166 24758 net.cpp:368] inception_5b/output -> inception_5b/output
I0817 17:43:42.295178 24758 net.cpp:120] Setting up inception_5b/output
I0817 17:43:42.295193 24758 net.cpp:127] Top shape: 50 1024 7 7 (2508800)
I0817 17:43:42.295203 24758 layer_factory.hpp:74] Creating layer pool5/7x7_s1
I0817 17:43:42.295218 24758 net.cpp:90] Creating Layer pool5/7x7_s1
I0817 17:43:42.295230 24758 net.cpp:410] pool5/7x7_s1 <- inception_5b/output
I0817 17:43:42.295243 24758 net.cpp:368] pool5/7x7_s1 -> pool5/7x7_s1
I0817 17:43:42.295256 24758 net.cpp:120] Setting up pool5/7x7_s1
I0817 17:43:42.295301 24758 net.cpp:127] Top shape: 50 1024 1 1 (51200)
I0817 17:43:42.295313 24758 layer_factory.hpp:74] Creating layer pool5/drop_7x7_s1
I0817 17:43:42.295325 24758 net.cpp:90] Creating Layer pool5/drop_7x7_s1
I0817 17:43:42.295334 24758 net.cpp:410] pool5/drop_7x7_s1 <- pool5/7x7_s1
I0817 17:43:42.295346 24758 net.cpp:357] pool5/drop_7x7_s1 -> pool5/7x7_s1 (in-place)
I0817 17:43:42.295358 24758 net.cpp:120] Setting up pool5/drop_7x7_s1
I0817 17:43:42.295372 24758 net.cpp:127] Top shape: 50 1024 1 1 (51200)
I0817 17:43:42.295382 24758 layer_factory.hpp:74] Creating layer ft_loss3/classifier
I0817 17:43:42.295397 24758 net.cpp:90] Creating Layer ft_loss3/classifier
I0817 17:43:42.295404 24758 net.cpp:410] ft_loss3/classifier <- pool5/7x7_s1
I0817 17:43:42.295421 24758 net.cpp:368] ft_loss3/classifier -> ft_loss3/classifier
I0817 17:43:42.295438 24758 net.cpp:120] Setting up ft_loss3/classifier
I0817 17:43:42.295485 24758 net.cpp:127] Top shape: 50 2 (100)
I0817 17:43:42.295500 24758 layer_factory.hpp:74] Creating layer ft_loss3/classifier_ft_loss3/classifier_0_split
I0817 17:43:42.295511 24758 net.cpp:90] Creating Layer ft_loss3/classifier_ft_loss3/classifier_0_split
I0817 17:43:42.295519 24758 net.cpp:410] ft_loss3/classifier_ft_loss3/classifier_0_split <- ft_loss3/classifier
I0817 17:43:42.295531 24758 net.cpp:368] ft_loss3/classifier_ft_loss3/classifier_0_split -> ft_loss3/classifier_ft_loss3/classifier_0_split_0
I0817 17:43:42.295545 24758 net.cpp:368] ft_loss3/classifier_ft_loss3/classifier_0_split -> ft_loss3/classifier_ft_loss3/classifier_0_split_1
I0817 17:43:42.295557 24758 net.cpp:120] Setting up ft_loss3/classifier_ft_loss3/classifier_0_split
I0817 17:43:42.295570 24758 net.cpp:127] Top shape: 50 2 (100)
I0817 17:43:42.295583 24758 net.cpp:127] Top shape: 50 2 (100)
I0817 17:43:42.295593 24758 layer_factory.hpp:74] Creating layer loss3/loss3
I0817 17:43:42.295608 24758 net.cpp:90] Creating Layer loss3/loss3
I0817 17:43:42.295619 24758 net.cpp:410] loss3/loss3 <- ft_loss3/classifier_ft_loss3/classifier_0_split_0
I0817 17:43:42.295630 24758 net.cpp:410] loss3/loss3 <- label_data_1_split_4
I0817 17:43:42.295644 24758 net.cpp:368] loss3/loss3 -> loss3/loss3
…
